results/ppo/MoveToGoal/MoveToGoal-116898.onnx (onnx, 76498 bytes, 7 tensors)

network_body._body_endoder.seq_layers.0.weight f4 [128, 12]
-0.24791804 -0.5479705 0.060644668 -0.41793752 0.2618118 0.34477907 -0.13594729 0.08699266
0.1119013 -0.017922234 0.53570026 -0.56084836 0.1389508 -0.11142873 -0.22699799 0.3881615
0.113110475 -0.24803303 0.0006211504 0.33253416 0.20130444 -0.31049022 0.26572484 -0.116516165
0.27548352 0.15980025 -0.28965288 -0.2226156 0.8404664 0.11044439 -0.22299579 -0.25730127
-0.38887423 -0.09787682 0.4504478 -0.34108025 -0.18026136 -0.41660732 -0.11890623 0.13016404
-0.5622462 0.320286 0.07087978 -0.039901074 -0.06822341 -0.19066195 0.015505311 -0.10774012
0.22035812 0.24582812 -0.3692254 -0.053935986 -0.016614761 0.22569276 -0.01921816 -0.48701677
-0.4748916 0.15521774 0.24808778 0.25004625 -0.101696596 -0.3307534 -0.3667886 0.25263387
-0.4089064 -0.13994344 0.079741806 -0.08312388 -0.19051477 0.1968623 0.43593496 -0.18726031
0.14482565 -0.36695528 0.047092702 0.16183892 -0.27667722 -0.38564667 -0.36725664 0.27010515
0.2521759 0.028598059 -0.32657808 -0.23782931 -0.28072318 0.11922708 -0.06603889 0.24830064
-0.057192426 -0.5713542 0.20149072 0.12791292 -0.44579983 -0.2866246 0.46831322 -0.23645736
0.18556698 -0.3306931 0.04439108 -0.24841174 0.17963503 -0.5040261 -0.3775543 0.5385065
0.23261644 0.008270323 -0.51106095 0.13834183 0.13629757 0.06968221 0.40945962 0.012875307
0.048609804 -0.025485031 -0.30293298 -0.0995301 0.12802228 0.24515912 0.027162462 0.5025586
-0.0782235 0.06362437 0.28037342 0.0060721915 0.33360755 -0.20434706 0.13598035 -0.47258344
0.48588982 0.030277558 -0.20808023 0.15720353 -0.10870241 0.5207914 -0.08453353 -0.16873759
-0.084611356 0.47271025 -0.17103173 0.13538934 0.20443523 0.17158394 -0.18184868 -0.042053238
0.24559163 0.27786213 -0.06417015 -0.16020258 -0.0927793 -0.19892232 0.2073134 0.15867713
-0.4617712 0.39686683 -0.3867608 0.17024985 -0.38914835 0.21850444 -0.24569413 -0.20951031
0.07351754 0.45858142 -0.3269183 -0.07202367 -0.216435 0.32041892 0.11918432 0.042510457
0.12969728 -0.08716914 -0.060091645 0.23600116 0.06821008 0.32091513 0.14919269 -0.35290855
-0.35107324 -0.17871378 0.335718 -0.4090925 -0.115380116 -0.005082401 -0.33440876 -0.69987065
-0.15034133 -0.02187993 0.08902993 0.20613308 -0.38995382 0.14240718 -0.051359385 0.019312387
0.346917 0.44129944 -0.1898822 -0.40979958 -0.80292493 -0.15977374 -0.03332667 0.3352058
0.30815098 0.05099901 0.075108446 0.19911769 0.2670758 -0.28268695 -0.13241652 0.4731153
-0.20562743 0.010930667 0.5107933 -0.2870059 0.20249888 0.013015076 -0.33423123 0.617648
-0.01016199 -0.037236523 0.24431713 -0.38676444 -0.24200061 -0.229019 -0.25788933 0.24798545
-0.20927967 -0.2124131 0.43187013 0.6195939 -0.08653099 -0.07915938 0.08825925 -0.04198845
-0.10122578 0.26906225 0.4387849 -0.4273367 0.07020974 -0.28184205 0.4124327 -0.11516662
-0.037800584 0.29129797 0.19182675 -0.14939506 0.23775895 0.2772857 0.23385356 0.21436137
0.119081 0.11949978 -0.13778952 0.3667324 0.3148545 -0.30166844 0.064074956 -0.15248969
00000000: 3ade 7dbe cb47 0cbf 8b66 783d e8fb d5be
00000010: 320c 863e e286 b03e c435 0bbe 3529 b23d
00000020: 822c e53d a6d1 92bc a723 093f c293 0fbf
00000030: 1e49 0e3e bf34 e4bd 2972 68be 1bbd c63e
00000040: 77a6 e73d 5ffc 7dbe b3d4 223a eb41 aa3e
00000050: c022 4e3e 93f8 9ebe 160d 883e 07a0 eebd
00000060: 2d0c 8d3e ada2 233e 624d 94be 58f5 63be
00000070: ce28 573f ab30 e23d 0259 64be febc 83be
00000080: 861a c7be a473 c8bd 18a1 e63e 12a2 aebe
00000090: 6f96 38be 8e4d d5be 1c85 f3bd b949 053e
000000a0: 5eef 0fbf 87fc a33e 6b29 913d 4f6f 23bd
000000b0: b7b8 8bbd e33c 43be fd09 7e3c daa6 dcbd
000000c0: 8fa5 613e 5eba 7b3e 1d0b bdbe fbeb 5cbd
000000d0: ae1b 88bc 011c 673e 676f 9dbc 435a f9be
000000e0: fe24 f3be 66f1 1e3e b90a 7e3e 1006 803e
000000f0: 4e46 d0bd 8258 a9be b7cb bbbe 3a59 813e
00000100: 2e5c d1be 554d 0fbe ac4f a33d da3c aabd
00000110: 4e16 43be 4596 493e de32 df3e 2bc1 3fbe
00000120: 2d4d 143e 90e1 bbbe 47e4 403d 1ab9 253e
00000130: a3a8 8dbe 7b73 c5be 1009 bcbe 394b 8a3e
00000140: 331d 813e 7a46 ea3c 3e35 a7be 8789 73be
00000150: f3ba 8fbe 542d f43d 663f 87bd 8642 7e3e
00000160: 9b42 6abd 4544 12bf 9553 4e3e 9bfb 023e
00000170: e03f e4be 76c0 92be c0c6 ef3e e121 72be
00000180: 4505 3e3e 9b50 a9be 6cd3 353d a65f 7ebe
00000190: 3ff2 373e db07 01bf cc4e c1be 90db 093f
000001a0: 0133 6e3e 4080 073c e4d4 02bf 7ba9 0d3e
000001b0: 9791 0b3e 8cb5 8e3d b1a4 d13e f4f2 523c
000001c0: 131b 473d fcc5 d0bc 081a 9bbe 70d6 cbbd
000001d0: 4618 033e fe0a 7b3e d083 de3c aea7 003f
000001e0: a433 a0bd 7e4d 823d 1b8d 8f3e 3cf9 c63b
000001f0: 9cce aa3e 5b40 51be 6f3e 0b3e 75f6 f1be
00000200: 8dc6 f83e a408 f83c fc12 55be f6f9 203e
00000210: 5e9f debd 9652 053f ea1f adbd 8cc9 2cbe
00000220: b848 adbd 1407 f23e f122 2fbe 81a3 0a3e
00000230: 7857 513e b3b3 2f3e 8a36 3abe 0440 2cbd
00000240: 5f7c 7b3e f243 8e3e a46b 83bd 250c 24be
00000250: 1303 bebd 4bb2 4bbe f749 543e 427c 223e
00000260: 466d ecbe 2132 cb3e 8305 c6be fa55 2e3e
00000270: 743e c7be a1bf 5f3e 3e97 7bbe df89 56be
00000280: 5d90 963d 2fcb ea3e d661 a7be 2581 93bd
00000290: 23a1 5dbe f30d a43e e916 f43d 721f 2e3d
000002a0: 5dcf 043e bc85 b2bd a822 76bd 4aaa 713e
000002b0: bab1 8b3d fd4e a43e f8c5 183e 6eb0 b4be
000002c0: dfbf b3be bf00 37be 3be3 ab3e 9274 d1be
000002d0: 694c ecbd 458a a6bb a037 abbe b92a 33bf
000002e0: 14f3 19be 8a3d b3bc 5355 b63d 8d14 533e
000002f0: 07a8 c7be 30d3 113e 385e 52bd 0335 9e3c
00000300: 1b9f b13e 00f2 e13e 7b70 42be 40d1 d1be
00000310: 7d8c 4dbf ba9b 23be 8c81 08bd 18a0 ab3e
00000320: f7c5 9d3e 57e4 503d 75d2 993d 82e5 4b3e
00000330: 29be 883e 58bc 90be 3298 07be 2b3c f23e
00000340: ff8f 52be 8a16 333c 5ac3 023f 70f2 92be
00000350: de5b 4f3e 2f3d 553c 5b20 abbe 2e1e 1e3f
00000360: 7a7e 26bc 5385 18bd 452e 7a3e fd05 c6be
00000370: 02cf 77be f583 6abe 120a 84be e6ef 7d3e
00000380: 694d 56be d282 59be 151e dd3e b59d 1e3f
00000390: 2937 b1bd 501e a2bd 44c1 b43d 15fc 2bbd
000003a0: 764f cfbd 87c2 893e 6aa8 e03e e0cb dabe
000003b0: 20ca 8f3d 9a4d 90be 612a d33e 7adc ebbd
000003c0: c9d4 1abd 0225 953e 3b6e 443e 05fb 18be
000003d0: 1577 733e 64f8 8d3e 4f77 6f3e 8c81 5b3e
000003e0: bde0 f33d 4dbc f43d b218 0dbe 59c4 bb3e
000003f0: 9c34 a13e 4974 9abe bb39 833d 4226 1cbe

network_body._body_endoder.seq_layers.0.bias f4 [128]
0.0144473575 0.006663264 -0.027855778 -0.0091693625 0.009459613 -0.0030895718 -0.0045436993 0.0029125924
0.008440713 0.008656212 0.0013392478 0.011409724 -0.01778813 0.008372491 -0.018710725 -0.004280796
-0.007185768 0.0044709216 0.0038577695 -0.011896436 0.012362963 -0.007670239 0.0050907293 -0.009170838
-0.010762609 -0.0028495349 0.02543871 0.01396544 -0.01212837 0.016966127 0.014603573 -0.005494603
0.007695478 0.0038875102 -0.0016690103 0.004252244 0.0057511064 0.013735184 -0.01337173 0.011219693
-0.011566809 0.019159624 0.013012228 -0.0028374547 0.009121924 -0.018203929 0.015444565 -0.017858779
0.010761377 0.0042527947 0.0036553815 -0.0042486605 -0.004769606 0.00019317755 -0.005632153 0.009872761
-0.010343515 0.012007417 -0.011254119 0.026894018 0.0012077978 0.013110241 0.0050391187 0.008561992
-0.009518367 0.02208572 0.010518226 0.019908108 -0.0026929285 0.013803322 -0.0010856638 0.0023854806
0.007196553 0.0009715457 0.006713102 -0.0188705 0.007456304 0.007659565 0.01076425 0.0060695386
0.0012534886 0.004697942 0.01456214 -0.007010518 0.021375313 -0.002124461 -0.003246459 -0.0014919525
0.0024221716 0.0030528924 -0.009548068 0.011043817 -0.0125542255 0.008183199 0.011792463 -0.0008103768
0.011967332 -0.0053112376 -0.013747809 0.015071656 -0.005086991 0.017798003 -0.013593039 0.020217923
-0.015851973 0.0074780504 -0.008899536 -0.010698408 0.00627996 0.0013439076 0.0051398743 -0.0049008215
0.020138936 0.015622198 0.0114189815 -0.00092701736 0.0053375233 -0.0022805529 0.0029966217 0.020583618
-0.016240565 0.012425497 0.015833493 0.008616599 0.0060404856 0.0114924405 -0.0002604341 -0.017342871
00000000: 9cb4 6c3c 8257 da3b cd31 e4bc 183b 16bc
00000010: 7efc 1a3c 6a7a 4abb 50e3 94bb 31e1 3e3b
00000020: eb4a 0a3c c9d2 0d3c b389 af3a daef 3a3c
00000030: 6ab8 91bc c62c 093c 3c47 99bc eb45 8cbb
00000040: 9776 ebbb cf80 923b a2d2 7c3b 45e9 42bc
00000050: 068e 4a3c a156 fbbb 22d0 a63b 4841 16bc
00000060: a755 30bc 43bf 3abb d764 d03c 4dcf 643c
00000070: 12b6 46bc 8cfc 8a3c d343 6f3c 120c b4bb
00000080: 592a fc3b 99c5 7e3b b1c2 daba 6856 8b3b
00000090: c773 bc3b 8a09 613c 1a15 5bbc ced2 373c
000000a0: b782 3dbc a5f4 9c3c 3d31 553c 97f4 39bb
000000b0: 1f74 153c 6820 95bc 330b 7d3c 934c 92bc
000000c0: 7d50 303c 075b 8b3b 208f 6f3b 5938 8bbb
000000d0: 5b4a 9cbb b48f 4a39 ec8d b8bb 5cc1 213c
000000e0: d977 29bc c2ba 443c 3263 38bc d850 dc3c
000000f0: f84e 9e3a 56cc 563c 311f a53b 9947 0c3c
00000100: edf2 1bbc 1ded b43c a354 2c3c 5416 a33c
00000110: d87b 30bb 5427 623c d54c 8eba b955 1c3b
00000120: 10d1 eb3b 54af 7e3a 95f9 db3b 4f96 9abc
00000130: 0354 f43b 17fd fa3b 895c 303c fbe2 c63b
00000140: 194c a43a 32f1 993b 0b96 6e3c 7db8 e5bb
00000150: 481b af3c 8b3a 0bbb 8bc2 54bb 9e8d c3ba
00000160: 4cbd 1e3b 0913 483b 806f 1cbc 20f1 343c
00000170: 3db0 4dbc d312 063c 2d35 413c 776f 54ba
00000180: a112 443c e409 aebb 7e3e 61bc 1bef 763c
00000190: c6b0 a6bb 1ecd 913c 56b5 5ebc 0fa0 a53c
000001a0: ffdb 81bc 6f0a f53b 5ccf 11bc 6048 2fbc
000001b0: 1fc8 cd3b 0e26 b03a 646c a83b 1297 a0bb
000001c0: 69fa a43c 3ff4 7f3c ae16 3b3c 1503 73ba
000001d0: 64e6 ae3b 5475 15bb f862 443b fa9e a83c
000001e0: ef0a 85bc 5094 4b3c 3eb5 813c a32c 0d3c
000001f0: 44ef c53b ca4a 3c3c e08a 88b9 a312 8ebc

network_body._body_endoder.seq_layers.2.weight f4 [128, 128]
0.055874802 0.040851742 0.011008254 -0.017144026 -0.033125535 0.029191026 -0.036728863 -0.033848904
-0.02022292 -0.04288794 0.07517942 0.11620221 -0.07588728 -0.12676977 0.11998134 0.013386504
0.0068671657 -0.071067475 -0.21891898 0.041635484 -0.0068019186 -0.08760475 0.0021017918 -0.06194958
0.008524674 0.14678136 0.08202205 0.12828624 -0.007917289 0.17630276 0.08705036 0.09497732
-0.012044508 -0.05007473 -0.026913853 -0.01453404 -0.08186394 -0.11319209 0.030679857 0.09667897
-0.051650316 -0.14259878 0.14968644 0.08325727 -0.24057953 -0.004274708 -0.029441932 0.0340775
-0.046143502 0.0019696073 0.02151154 0.13715534 0.05192461 0.1373952 0.17890348 -0.10208482
-0.077738054 0.014120842 0.039490577 -0.074868746 0.19431293 -0.0014022114 -0.13769041 -0.07414475
-0.013724081 0.018143136 -0.04397794 0.04858125 -0.028513735 0.11145434 0.04042218 -0.019581068
-0.05341631 0.015865812 0.086254746 0.08003956 0.01989275 0.13106452 0.073692605 -0.023737112
0.027583774 0.14154004 0.033822894 0.044246938 0.07897999 -0.03221679 -0.12131711 -0.118909895
0.060223345 0.078678384 -0.15848015 -0.059840556 -0.13704544 -0.0034285984 0.1908528 0.067007065
-0.052631594 -0.15260182 -0.0040899143 0.106979415 -0.029372662 -0.06772396 0.0075075906 -0.07301091
-0.002444028 -0.03573016 0.10270986 -0.052340105 0.049675524 0.07088797 -0.09773245 -0.03065954
-0.083429694 0.09322988 0.08386986 -0.062898025 0.08655998 -0.014708714 0.018815951 -0.22181453
0.014639609 0.12313776 0.04534102 0.028208809 0.033903044 -0.04416651 -0.081925415 -0.008738915
0.024537314 -0.050107077 -0.09070755 -0.037747175 0.11126737 0.18478867 0.016875204 0.004570919
0.05382917 -0.007553682 0.03448263 -0.10731551 -0.1226417 0.022324106 0.01798941 0.0416619
0.12810831 0.11360739 -0.07472532 -0.054473512 0.072446324 0.018912649 -0.0978946 -0.10395314
0.07489602 0.03911225 0.120446764 0.07881145 0.08531928 0.25595924 -0.009325122 -0.13650715
0.026809141 -0.06558206 0.046563987 -0.13547684 0.046456378 0.0060449704 -0.032401778 -0.0753635
-0.029444745 0.014750625 0.06404637 -0.010063879 -0.13958256 -0.048311207 0.052814636 -0.048256177
0.080283105 -0.02041594 0.10563915 0.047017373 0.08970103 0.064261064 0.08661026 -0.095277555
-0.12749635 0.13934432 -0.09101646 -0.10283086 0.017676925 -0.006603609 0.09237839 0.035281125
-0.053602323 0.038659617 -0.04557376 0.039215438 -0.018734856 0.17638326 0.08012472 -0.005791695
-0.043846082 -0.007395861 0.13574237 -0.15280277 0.01990898 0.085603036 -0.061426513 0.01721288
0.18093634 0.07837316 -0.01204456 -0.033244323 0.10490221 0.035071243 -0.063408844 -0.071379796
0.054782588 0.041221023 -0.0034265209 0.058407363 0.07336456 0.1558079 0.06584021 -0.02112487
0.08519098 -0.0073223375 0.21387984 -0.031359635 0.1424164 0.062213816 -0.08280123 0.010124194
-0.03577552 0.076171026 -0.09640418 0.015172948 -0.02893409 -0.011559662 -0.057290345 0.039860528
-0.043333713 0.12151431 -0.034069553 -0.009229966 -0.09251939 -0.11939847 0.10050548 0.0016335838
-0.033104233 -0.021813419 -0.013650574 0.06602573 0.008410464 0.15695493 -0.075485624 0.21586837
00000000: fadc 643d 2854 273d f75b 343c a171 8cbc
00000010: a4ae 07bd 0522 ef3c 0171 16bd 26a5 0abd
00000020: 8aaa a5bc 44ab 2fbd abf7 993d 6dfb ed3d
00000030: ca6a 9bbd efcf 01be c7b8 f53d 1153 5b3c
00000040: f605 e13b d38b 91bd 4c2c 60be f889 2a3d
00000050: a1e2 debb 1f6a b3bd 37be 093b d8be 7dbd
00000060: 13ab 0b3c da4d 163e 2dfb a73d 785d 033e
00000070: 84b7 01bc b688 343e 7647 b23d 7883 c23d
00000080: 5456 45bc 291b 4dbd 717a dcbc 2f20 6ebc
00000090: 48a8 a7bd 41d1 e7bd 5354 fb3c a0ff c53d
000000a0: 488f 53bd 6a05 12be 6747 193e ca82 aa3d
000000b0: 7b5a 76be da12 8cbb 3530 f1bc d994 0b3d
000000c0: f800 3dbd 8714 013b f838 b03c 7372 0c3e
000000d0: e6ae 543d 54b1 0c3e 7932 373e d911 d1bd
000000e0: 2135 9fbd 1b5b 673c dfc0 213d c954 99bd
000000f0: f8f9 463e 68ca b7ba b7fe 0cbe 34d9 97bd
00000100: f8da 60bc eaa0 943c 3622 34bd 22fd 463d
00000110: a395 e9bc 2c42 e43d ba91 253d 7a68 a0bc
00000120: 10cb 5abd 05f9 813c 54a6 b03d c8eb a33d
00000130: 1ff6 a23c c735 063e 26ec 963d 5574 c2bc
00000140: 5ef7 e13c dfef 103e e089 0a3d 473c 353d
00000150: 43c0 a13d c1f5 03bd 1b75 f8bd 0887 f3bd
00000160: c1ac 763d 2222 a13d 9f48 22be 5f1b 75bd
00000170: a455 0cbe 56b2 60bb eb6e 433e 003b 893d
00000180: 3a94 57bd a743 1cbe b004 86bb 0618 db3d
00000190: f09e f0bc dcb2 8abd 3c02 f63b be86 95bd
000001a0: fc2b 20bb ca59 12bd 8c59 d23d 9462 56bd
000001b0: 9078 4b3d b62d 913d f327 c8bd b729 fbbc
000001c0: 30dd aabd 4fef be3d f6c3 ab3d aed0 80bd
000001d0: 5c46 b13d d1fc 70bc e923 9a3c 5923 63be
000001e0: f8da 6f3c a62f fc3d 81b7 393d 2916 e73c
000001f0: ebdd 0a3d f1e7 34bd 83c8 a7bd ab2d 0fbc
00000200: 7a02 c93c 143d 4dbd e1c4 b9bd c89c 1abd
00000210: 26e0 e33d 3e39 3d3e de3d 8a3c a6c7 953b
00000220: fa7b 5c3d e184 f7bb a93d 0d3d 3cc8 dbbd
00000230: 922b fbbd 0be1 b63c 875e 933c aba5 2a3d
00000240: d32e 033e feaa e83d 9709 99bd 9e1f 5fbd
00000250: bd5e 943d b3ee 9a3c f77c c8bd 62e5 d4bd
00000260: 1663 993d 2b34 203d cbac f63d e667 a13d
00000270: e0bb ae3d 170d 833e 66c8 18bc 88c8 0bbe
00000280: d89e db3c e34f 86bd e1b9 3e3d 71ba 0abe
00000290: 0b49 3e3d e314 c63b bab7 04bd 2e58 9abd
000002a0: 1b36 f1bc 9bac 713c be2a 833d f8e2 24bc
000002b0: bbee 0ebe f9e1 45bd 2954 583d 45a8 45bd
000002c0: 786b a43d 543f a7bc 5759 d83d 4a95 403d
000002d0: 2cb5 b73d 4e9b 833d b860 b13d e120 c3bd
000002e0: 678e 02be 47b0 0e3e d666 babd fc98 d2bd
000002f0: 33cf 903c 1663 d8bb e230 bd3d f182 103d
00000300: 1c8e 5bbd 8c59 1e3d 8dab 3abd 5ea0 203d
00000310: d779 99bc d09d 343e 6e18 a43d 42c8 bdbb
00000320: f397 33bd fb58 f2bb 0c00 0b3e 5478 1cbe
00000330: 2818 a33c a550 af3d 5e9a 7bbd 0702 8d3c
00000340: 6047 393e 1b82 a03d 8c56 45bc 332b 08bd
00000350: f8d6 d63d dda6 0f3d 7fdc 81bd 922f 92bd
00000360: b563 603d 60d7 283d 7b8f 60bb 8f3c 6f3d
00000370: 2940 963d 1b8c 1f3e 3bd7 863d 100e adbc
00000380: 9c78 ae3d 38f0 efbb 5103 5b3e f672 00bd
00000390: 9bd5 113e ead3 7e3d b193 a9bd f3df 253c
000003a0: 5a89 12bd 8eff 9b3d 8e6f c5bd f597 783c
000003b0: 2f07 edbc bd64 3dbc 48a9 6abd cb44 233d
000003c0: b17e 31bd 7fdc f83d 848c 0bbd 4939 17bc
000003d0: ce7a bdbd 2f87 f4bd d1d5 cd3d fa1d d63a
000003e0: 4e98 07bd 0eb2 b2bc a8a6 5fbc 7f38 873d
000003f0: 0bcc 093c cbb8 203e 3598 9abd 990c 5d3e

network_body._body_endoder.seq_layers.2.bias f4 [128]
0.015986374 0.013432826 -0.020309214 0.010548936 -0.015143568 0.0016857599 0.0047198874 -0.0034211688
-0.011824912 0.0048255953 -0.0034091577 0.00021676866 0.017097918 -0.0048326477 -0.009190714 -0.010943451
0.010838195 -0.012154264 -0.01184384 -0.004537612 0.012589398 0.012461366 0.01501432 0.00022749945
-0.00940157 0.009672084 -0.013678636 -0.010982217 0.017401693 -0.00046804754 0.00863257 0.008935239
0.009141182 0.0088070575 -0.01243044 0.009616615 0.014269548 -0.010562274 -0.002884601 -0.018981911
-0.0148197785 -0.0086853085 0.012736561 0.003474515 0.007932691 -0.0030716588 -0.015542252 -0.011966159
0.0043342765 0.013450236 0.011512181 0.0010655562 0.0012867203 -0.017487597 0.01065428 -0.011448921
-0.017022192 0.011653166 -0.014084845 0.003748634 0.0034347565 -0.012636165 0.012389523 0.0034776055
-0.01185359 0.005155835 0.0049432595 -0.0018698567 0.0066610905 -0.004665413 -0.010657777 -0.0094051
-0.0048517236 0.015805336 -0.0011326283 -0.01368197 0.011158194 0.008067063 0.0066658207 0.01345216
-0.008287761 0.0138309 0.00681176 -0.014904325 0.0049359296 0.0073284605 0.015324179 0.0007875051
0.008786895 -0.010880982 0.0054476745 0.0023355305 0.006263637 0.012859362 -0.014938316 -0.0039932765
-0.0052775173 0.010441223 0.0015164295 0.0055097686 0.01044979 -0.013663503 0.001958122 -0.008331229
0.014687592 -0.005963011 -0.0057762773 0.0020685159 0.0021383904 -0.020975815 0.005040737 -0.017944755
0.0067276736 -0.0012344741 -0.016604539 -0.01631504 -0.011275991 0.007922556 -0.012486328 0.007746333
0.012283492 0.012462336 0.009672788 0.002714935 -0.0100446185 -0.009596061 0.00041376383 0.005040214
00000000: dbf5 823c 5b15 5c3c 825f a6bc 72d5 2c3c
00000010: ba1c 78bc b7f4 dc3a 49a9 9a3b b035 60bb
00000020: 47bd 41bc 0720 9e3b 2d6c 5fbb 654c 6339
00000030: ef10 8c3c 305b 9ebb a694 16bc 294c 33bc
00000040: af92 313c ae22 47bc aa0c 42bc 40b0 94bb
00000050: c343 4e3c c22a 4c3c 9ffe 753c eb8c 6e39
00000060: 0b09 1abc a977 1e3c 5c1c 60bc c2ee 33bc
00000070: ff8d 8e3c 4764 f5b9 9f6f 0d3c 1c65 123c
00000080: e5c4 153c 7a4b 103c 0ba9 4bbc 028f 1d3c
00000090: d2ca 693c 630d 2dbc 930b 3dbb f47f 9bbc
000000a0: a8ce 72bc d34c 0ebc 02ad 503c b0b4 633b
000000b0: 1ef8 013c e24d 49bb eea4 7ebc b50d 44bc
000000c0: 8c06 8e3b 615e 5c3c 969d 3c3c 22aa 8b3a
000000d0: 2ba7 a83a 2642 8fbc 4a8f 2e3c 4194 3bbc
000000e0: 2072 8bbc ecec 3e3c 1fc4 66bc a4ab 753b
000000f0: a719 613b eb07 4fbc 6dfd 4a3c 8ae8 633b
00000100: 8f35 42bc 47f2 a83b 11fb a13b fb15 f5ba
00000110: 4745 da3b 52e0 98bb f59d 2ebc d917 1abc
00000120: 35fb 9ebb 317a 813c b374 94ba 572a 60bc
00000130: dcd0 363c b72b 043c f56c da3b 7366 5c3c
00000140: 64c9 07bc 009b 623c 2f35 df3b 4531 74bc
00000150: 94bd a13b 9523 f03b 4412 7b3c 9370 4e3a
00000160: e9f6 0f3c 2546 32bc 6882 b23b b30f 193b
00000170: 323f cd3b 13b0 523c d7bf 74bc 08da 82bb
00000180: 06ef acbb aa11 2b3c eec2 c63a 4a8b b43b
00000190: 9935 2b3c e3dc 5fbc d653 003b b57f 08bc
000001a0: 3aa4 703c 5d65 c3bb ed46 bdbb f08f 073b
000001b0: 3d24 0c3b 79d5 abbc c42c a53b e100 93bc
000001c0: d173 dc3b 14ce a1ba 3e06 88bc 1ea7 85bc
000001d0: efbe 38bc 9ccd 013c 7593 4cbc f3d4 fd3b
000001e0: b340 493c d32e 4c3c 9d7a 1e3c 0ded 313b
000001f0: 2f92 24bc cc38 1dbc 71ee d839 6128 a53b

action_model._continuous_distribution.log_sigma f4 [1, 2]
-0.0054638186 -0.026919086
00000000: d509 b3bb 6a85 dcbc

action_model._continuous_distribution.mu.weight f4 [2, 128]
0.044962768 0.030898929 -0.022216007 0.012221744 -0.017569086 0.0036284043 0.012370543 -0.00037073495
-0.009665812 0.012884726 0.0051457244 0.0046674954 0.028850272 -0.02035559 -0.03612894 -0.038678557
-0.009183644 -0.0114240665 -0.050916582 -0.00042097786 0.02975036 0.030449135 0.041546136 0.009465362
-2.3195731e-05 0.030859277 -0.03796011 -0.009867149 0.00791205 -0.0069801616 0.012318295 0.027291505
0.039429113 0.0382622 -0.038906775 0.018042406 0.033565234 -0.012204823 -0.0012893763 -0.04191664
-0.034996048 -0.017497236 0.015538364 -0.012817285 0.027204916 -0.015259333 -0.0014834879 -0.024539227
0.0025467668 0.037583314 0.03206329 0.0074774884 0.008198595 -0.044015706 0.012477928 -0.029090056
-0.027972294 0.020649983 1.6533086e-06 0.015155237 0.010820754 -0.01191825 0.010706429 0.009171792
-0.0022655602 0.012556811 -0.0023451252 0.008786858 0.0002590387 -0.008658036 -0.029052855 -0.0070335707
-0.021687377 0.033620227 0.0023596587 -0.04237737 0.0029864742 -0.009730018 0.0029980163 0.03851549
-0.046360094 0.018985713 0.002815879 -0.025026072 0.013666516 -0.0114428215 0.020983277 0.0038376842
0.007578515 -0.05369219 0.00990991 0.010374498 -0.0023238426 0.03761626 -0.025560388 -0.0022859967
-0.02952724 0.023647588 0.0039634723 0.011955013 0.023957534 -0.018957512 -0.01603197 -0.0077176862
0.01768763 -0.00030743954 -0.06683605 0.007289463 0.0156170735 0.0028867244 0.0063017136 -0.040347207
0.020243563 0.0057630423 -0.038025014 -0.013125956 -0.01040341 0.017872749 -0.008706733 0.026404945
0.038046967 0.032337535 0.027808981 0.009781194 -0.03181162 -0.012195928 0.0053890203 0.020327725
0.013169525 0.0032827533 0.0038848983 -0.055604827 -0.007590303 -0.03190383 0.020581955 0.009633979
0.0016519126 0.022884747 0.016031494 -0.032404073 0.023536999 -0.021648241 -0.015630618 -0.0064495397
-0.0217485 -0.0033547222 0.024545994 -0.013884242 -0.016631372 -0.006140439 0.009077888 -0.020939635
-0.0014597742 0.019014586 -0.015219466 0.008447121 -0.022451237 0.026174761 -0.0056494074 -0.012832843
-0.026177093 -0.0109616835 0.0064416337 0.01697278 0.027469689 -0.023657724 0.029848088 -0.04924313
-0.012158451 -0.011113016 0.034622345 -0.013735937 0.03554013 -0.011570117 0.0035334146 -0.0024222804
0.040628117 0.015958754 -0.017270474 -0.021361131 -0.0029342456 0.0037719028 -0.022438645 -0.014146499
0.007801235 -0.0035038358 0.002264548 -0.022204725 -0.04519139 -0.0046537 -0.030947668 -0.01353568
0.0038353233 0.030447625 -0.0721216 0.032677665 -0.042165495 0.0062415353 -0.0111726 0.012618602
-0.011935566 0.021126159 -0.027999267 0.018385235 -0.04146213 -0.04951614 -0.022100277 0.009799662
-0.06745622 0.041103177 -0.017557193 -0.017405353 -0.0241656 -0.017373197 0.014466097 -0.01750581
-0.042397805 0.02522205 0.0048168153 0.038443685 -0.026476957 0.0026471964 0.0071111987 0.032577317
-0.011578104 -0.024458144 -0.0034654383 -0.01954846 0.00857979 -0.02443481 -0.051993243 0.013161814
0.006096354 0.008239058 0.024664996 -0.02229729 -0.016110484 -0.016782405 -0.038182218 -0.012987654
-0.021819448 0.020107316 -0.013257223 -0.0023646927 0.010780936 -0.0027539427 0.00463983 -0.0048775664
0.028160427 0.03145793 -0.026675668 0.017367592 0.017263688 -0.017211681 0.0043863943 0.04131553
00000000: e12a 383d c01f fd3c 58fe b5bc b63d 483c
00000010: 0bed 8fbc 86ca 6d3b d1ad 4a3c 345f c2b9
00000020: 5b5d 1ebc 751a 533c 779d a83b caf1 983b
00000030: 6857 ec3c c4c0 a6bc f0fb 13bd 686d 1ebd
00000040: ff76 16bc 022c 3bbc e88d 50bd b1b6 dcb9
00000050: 07b7 f33c 7770 f93c 482c 2a3d 9b14 1b3c
00000060: 7494 c2b7 98cc fc3c 0f7c 1bbd d3a9 21bc
00000070: 8ba1 013c d7b9 e4bb add2 493c 6f92 df3c
00000080: 6c80 213d d3b8 1c3d b65c 1fbd abcd 933c
00000090: b37b 093d bdf6 47bc 4a00 a9ba c8b0 2bbd
000000a0: 0458 0fbd 5d56 8fbc 9f94 7e3c 97ff 51bc
000000b0: d8dc de3c 4802 7abc 9871 c2ba 7d06 c9bc
000000c0: a8e7 263b f6f0 193d cc54 033d b805 f53b
000000d0: 6653 063c d049 34bd 3970 4c3c 454e eebc
000000e0: 2726 e5bc 272a a93c 40e7 dd35 ac4d 783c
000000f0: 8849 313c c344 43bc 056a 2f3c 4945 163c
00000100: cb79 14bb 15bb 4d3c acb0 19bb c1f6 0f3c
00000110: 96cf 8739 6fda 0dbc 4100 eebc de79 e6bb
00000120: baa9 b1bc 5db5 093d 81a4 1a3b e593 2dbd
00000130: b9b8 433b a76a 1fbc 5e7a 443b 6bc2 1d3d
00000140: 15e4 3dbd ed87 9b3c 9c8a 383b 7a03 cdbc
00000150: 86e9 5f3c ac7a 3bbc 1fe5 ab3c a881 7b3b
00000160: 3155 f83b 58ec 5bbd 2d5d 223c ccf9 293c
00000170: 9c4b 18bb 8213 1a3d 0564 d1bc a9d0 15bb
00000180: 1ce3 f1bc 96b8 c13c 04e0 813b f5de 433c
00000190: 9742 c43c c94c 9bbc 7a55 83bc a5e4 fcbb
000001a0: a6e5 903c d62f a1b9 57e1 88bd 73dc ee3b
000001b0: c1de 7f3c 332f 3d3b 9b7e ce3b 1d43 25bd
000001c0: d4d5 a53c e7d7 bc3b 1ec0 1bbd 400e 57bc
000001d0: 1073 2abc df69 923c afa6 0ebc 2f4f d83c
000001e0: 23d7 1b3d 5d74 043d a9cf e33c 4d41 203c
000001f0: e74c 02bd 6ed1 47bc 6196 b03b 5486 a63c
00000200: fec4 573c 7623 573b c799 7e3b e3c1 63bd
00000210: 14b8 f8bb 97ad 02bd 7d9b a83c d6d7 1d3c
00000220: fd84 d83a cb78 bb3c 7b54 833c 22ba 04bd
00000230: aad0 c03c a757 b1bc c80b 80bc a956 d3bb
00000240: e929 b2bc e6da 5bbb ae14 c93c bb7a 63bc
00000250: 843e 88bc bc35 c9bb 6cbb 143c 9989 abbc
00000260: e555 bfba 7ac4 9b3c 115b 79bc cb65 0a3c
00000270: a8eb b7bc 746c d63c aa1e b9bb d840 52bc
00000280: 5871 d6bc a298 33bc 5714 d33b 800a 8b3c
00000290: 1d08 e13c d8cd c1bc fa83 f43c 2ab3 49bd
000002a0: 3d34 47bc 5e13 36bc 29d0 0d3d b20c 61bc
000002b0: 8792 113d 9790 3dbc dc90 673b 1fbf 1ebb
000002c0: ab69 263d efbb 823c cf7a 8dbc 8afd aebc
000002d0: 794c 40bb 0732 773b 40d1 b7bc b8c6 67bc
000002e0: 81a1 ff3b 9ca0 65bb d068 143b afe6 b5bc
000002f0: 9b1a 39bd 117e 98bb f785 fdbc c2c4 5dbc
00000300: 0c5a 7b3b 4c6d f93c 7db4 93bd 04d9 053d
00000310: bab5 2cbd cb85 cc3b 480d 37bc 41be 4e3c
00000320: 648d 43bc c410 ad3c b85e e5bc a29c 963c
00000330: 32d4 29bd 70d1 4abd a40b b5bc c38e 203c
00000340: 7d26 8abd ce5b 283d 1ad4 8fbc ac95 8ebc
00000350: f0f6 c5bc 3c52 8ebc 3503 6d3c 5868 8fbc
00000360: 52a9 2dbd 799e ce3c 60d6 9d3b 2077 1d3d
00000370: 34e6 d8bc 967c 2d3b 0f05 e93b cb6f 053d
00000380: 17b2 3dbc 725c c8bc 681c 63bb 1824 a0bc
00000390: 3f92 0c3c 832b c8bc def6 54bd a6a4 573c
000003a0: edc3 c73b 1dfd 063c 3f0e ca3c cea8 b6bc
000003b0: 22fa 83bc 417b 89bc f564 1cbd 2bca 54bc
000003c0: b3be b2bc 19b8 a43c d334 59bc f6f8 1abb
000003d0: 86a2 303c 7e7b 34bb b709 983b fed3 9fbb
000003e0: b2b0 e63c 08da 003d ee86 dabc 7b46 8e3c
000003f0: 946c 8d3c 83ff 8cbc bebb 8f3b 793a 293d

action_model._continuous_distribution.mu.bias f4 [2]
0.015339482 -0.0008947453
00000000: 7352 7b3c 578d 6aba
