results/Racing_Imitation2/Driver/Driver-31232.pt (torch, 603118 bytes, 48 tensors)

discrete_act_size_vector f4 [1, 2]
00000000: 0000 4040 0000 4040
3.0 3.0

network_body._body_endoder.seq_layers.0.weight f4 [128, 29]
00000000: b32f 413e c407 dc3d 2f1b d8bd 0a82 8ebe
00000010: 8c23 06be 669f adbd a3bd b3bd e308 d03d
00000020: 24d4 febc a36d 97bd 7270 ba3e dc54 aebe
00000030: d226 193e 2d7f 3ebd e9d3 4abe f9c2 9cbe
00000040: de32 813d 9b3e 0a3d 11d9 abbd 1c92 c1be
00000050: 2f5f 58bd c6d8 38bd d5dd 8ebd 60cf cd3c
00000060: 6cd0 63be f69e b73d b7ff e93b ff2c 283d
00000070: 2c45 ec3d 0076 f7b9 22c7 0bbe e1bf 213e
00000080: 4b3a 803e b0d9 5bbe 28a3 20be d1b1 093d
00000090: 37f0 3c3e f316 e23d 09ec c1bd e271 023e
000000a0: 513a 193e eaf5 67bd 91b1 1b3e 55bd 053e
000000b0: 7301 3e3e 083d 7cbe 7837 83bd ab44 ecbd
000000c0: 96d9 2fbd 0615 b4bd 8ddf eabd 7917 053e
000000d0: 44cf afbe cb55 e1bd 6c5a 033d 0baa 29bd
000000e0: 73ec 443e f372 debe ffd9 33be 0909 8ebe
000000f0: f41f a8bc 44b8 b13e 6a39 543e 8c8c de3d
00000100: b08a 2fbe 893b fabd 1513 10bd 7f3f 79bd
00000110: c636 9fbe 24b0 663d 0664 5e3c 8d03 a53d
00000120: 349c 8d3d 5db8 fa3e eb7b a13d efaa dd3e
00000130: feed 733e d045 1f3e d905 c83d 3c45 20be
00000140: fec0 a23d 9d27 be3e dcd6 01be e941 903e
00000150: 1e6d a1bd 7f8b a339 372e b1bd f8f2 a9bd
00000160: 3e09 763e 5c6e 46be 68f0 92bc 6a58 fdbd
00000170: a6e4 a23d 8036 9c3e 99c9 b43c ad99 6fbd
00000180: e7df 003e ff36 043e 18e6 22be 9887 1c3b
00000190: b75b aa3e e0a8 46be 7c90 963e 3009 ba3d
000001a0: e731 9ebd 769c 94be e4bf 723e c801 c6bc
000001b0: 3417 633e d3d3 15be 5bd1 91be 4c39 f7bd
000001c0: e229 2ebe 45b3 edbd 7e56 62bd 85fc 133f
000001d0: c323 bbbc 5e10 6b3e fc7c 0d3e 5bb0 64be
000001e0: 1c09 53be bba3 b33e 4c7f 96bd 6d97 c6bd
000001f0: 1199 95be f708 c1bc e468 8a3d efce 9cbd
00000200: 5a6c f13d f016 e03d 75d8 3cbe d950 2ebe
00000210: 8a10 c9be b38b 263e 8761 60be 33fd 0abf
00000220: f9e2 a0bd e555 5b3e 3dc8 d33d cb5a dd3d
00000230: bb4c 80be aa8e 983d 243e 11be a30c a8be
00000240: 56cc 9b3d 6703 f4bc 8fd8 5cbe 9f22 bbbd
00000250: 66ff adbd 09e9 e5bd 25e5 3d3d f4b3 9a3c
00000260: da34 1abe d16f 053e 8862 293e 3e91 aa39
00000270: 8648 303e 9f74 3b3e 1dd0 5e3e c913 14be
00000280: 5510 b8be e61f 713e 6dfd 793e 5cbb 03ba
00000290: 2996 923e bc09 e1bd 3b24 053e 007e 403e
000002a0: 02fe 6bbe 5cbf ab3c bc22 b33e d3ca 34be
000002b0: b63c 55bd 76bc 83bd e436 76bd 461b ce3d
000002c0: f104 4a3e 3789 04be 6754 253e b99d a93e
000002d0: 7dfb 7b3d c019 353e 9e69 29be c75f 883d
000002e0: ab58 033e 7312 523d 93c2 8dbe 0da2 ea3d
000002f0: f378 54be 0003 793e 9b50 2c3e df50 e9bd
00000300: 25fb 97bd f545 a4be f5ea 973b 0ecb ae3e
00000310: 9720 573d cba4 2abe 9564 4b3e 4cb3 4f3e
00000320: b0fa d8bd 57f4 ff3c 732c 9d3e 49e8 c93d
00000330: 8e9a 83be aa12 c23e 6e54 d33d 9df7 453e
00000340: b80f 013e eaa4 8abd 7485 143e 1d30 f1bb
00000350: cc0f d73d 1ab1 69be bc30 c33d 5b63 80bd
00000360: 9d12 35bd 5b78 6bbe 7118 e83c 060c 12be
00000370: 7c01 1fbe 5906 a93e 3146 d2be 6d7d e23d
00000380: c26e ed3d eef4 6f3d c48b c5bd 2800 27be
00000390: 38bc cfbc abfb cf3d 1a87 d7bd 1a43 a5be
000003a0: dedc 103e 8fc5 f23d 7272 9c3e 2a42 0b3e
000003b0: 145e 7abe cd0d ba3d 0fab 123e f306 a23e
000003c0: c8f7 703e 4826 b1be 14c2 34bd 358a 6e3d
000003d0: bf29 05be 2060 e0bd 3080 febe 40ec 80bd
000003e0: a497 6cba 1989 0f3e bbaf cb3c 8738 ed3d
000003f0: ea29 3a3e dc27 5dbe 0c0b ad3e e199 513d
0.18865852 0.10743669 -0.1055206 -0.27833587 -0.13099498 -0.084776685 -0.08776405 0.10157945
-0.031107016 -0.073939584 0.36413914 -0.34049118 0.14956215 -0.046508003 -0.198074 -0.30617502
0.0630853 0.03375111 -0.083910115 -0.37806785 -0.05282515 -0.045128606 -0.06975905 0.025123298
-0.22247475 0.08965866 0.0071410793 0.041058537 0.11536631 -0.00047199428 -0.13650182 0.15795852
0.25044474 -0.2146976 -0.15687239 0.033616845 0.1845101 0.110395335 -0.09468848 0.12738755
0.14963652 -0.056631006 0.15204455 0.13060506 0.1855524 -0.24632657 -0.06407064 -0.11536535
-0.042932115 -0.087930724 -0.1146842 0.12997235 -0.3433782 -0.11002692 0.032068655 -0.04142193
0.19230823 -0.43447074 -0.17563628 -0.27741268 -0.020523049 0.34710896 0.20725027 0.10866651
-0.17142749 -0.12218387 -0.035174448 -0.06085157 -0.31096476 0.056320325 0.013573652 0.08057318
0.06914559 0.48968783 0.078849636 0.43294474 0.23821256 0.15553975 0.0976674 -0.15651411
0.079469666 0.37139598 -0.12679619 0.28175285 -0.078821406 0.00031193715 -0.08651393 -0.08298296
0.24026963 -0.19378036 -0.0179369 -0.12370379 0.079537675 0.3051033 0.022068786 -0.058496166
0.12585412 0.12911604 -0.15908086 0.002388453 0.33273098 -0.19400358 0.29407108 0.090837836
-0.07724362 -0.2902562 0.23706013 -0.024170771 0.2217682 -0.14631586 -0.28480038 -0.120714754
-0.17008165 -0.116064586 -0.055258267 0.5780719 -0.022844201 0.22955462 0.13817209 -0.223329
-0.20608944 0.35085854 -0.07348499 -0.09696851 -0.29218343 -0.023563845 0.067582875 -0.07656657
0.117882445 0.10941875 -0.18441947 -0.17023028 -0.3927043 0.16264229 -0.21912204 -0.542926
-0.078557916 0.21419485 0.10340927 0.10808333 -0.2505854 0.07449086 -0.14183861 -0.3282214
0.07607333 -0.029786779 -0.21566986 -0.09137463 -0.08495979 -0.112260886 0.046361107 0.018884636
-0.15059224 0.13030936 0.16541493 0.0003253314 0.17215165 0.18306206 0.21759076 -0.14460672
-0.3594996 0.23547325 0.2441308 -0.0005025172 0.28630188 -0.10988185 0.13002102 0.18798065
-0.23046115 0.02096527 0.34987438 -0.17655496 -0.05205985 -0.064324304 -0.06011094 0.10063796
0.19728447 -0.12942968 0.16145478 0.33128145 0.061519135 0.17685604 -0.16544196 0.06658893
0.12826793 0.051287126 -0.2768751 0.1145669 -0.20749263 0.2431755 0.16827624 -0.11392378
-0.07420949 -0.32084623 0.0046361634 0.34139293 0.052521314 -0.16664426 0.19862588 0.2028324
-0.1059469 0.03124444 0.30697975 0.09858758 -0.25703853 0.37904865 0.10318838 0.19332738
0.12603652 -0.06769736 0.14504033 -0.007360472 0.1050106 -0.22821465 0.0953078 -0.062689506
-0.044207204 -0.2299513 0.028331967 -0.14262399 -0.1552791 0.33012655 -0.41069177 0.11059079
0.11593391 0.058583193 -0.09645799 -0.16308653 -0.025358304 0.10155424 -0.105238155 -0.32277757
0.14146754 0.118540876 0.30556065 0.13599458 -0.2444995 0.090846635 0.14323066 0.31645927
0.23532021 -0.3459952 -0.0441304 0.058237273 -0.13004206 -0.109558344 -0.49707174 -0.06295061
-0.0009025282 0.14017142 0.024864068 0.11583047 0.18180051 -0.21597236 0.3379749 0.05117214

network_body._body_endoder.seq_layers.0.bias f4 [128]
00000000: f007 a9bc 332f a1bc b4de c43c e56a 563c
00000010: 75dd a33c 1342 373d 9a94 2f3d 1f6c 6b3b
00000020: 8b07 5a3c 93e9 293d 33e8 3dbc 730d e3bc
00000030: 22b1 c43c 3cfc 5d3d 1cfc 40bd c19a a83d
00000040: a978 db3c 63b3 e53c fea3 813c d323 1c3b
00000050: 07d4 e03c d573 fa3c 1e6f 433d 4258 df3c
00000060: 1b66 18bc a314 263d af06 e03c aac3 7dbc
00000070: 7df6 e9bc 411b 163d 0dcd a53c c4b6 d23c
00000080: 9e7d fb3c d933 533d e9cd dc3c 710b 203b
00000090: 4b6b f43c 2813 f9bc 9904 743d d523 f33c
000000a0: 0bbf a83d c38c 803b 98cb 113d 940c 0e3d
000000b0: 671b b3bc a510 60bb 20dc aa3c 1eae 013d
000000c0: 874a f03c 6f22 3f3d 07c6 173d e5cc 123d
000000d0: 3a80 a63c 7781 353d aa15 343d e941 993c
000000e0: 72a5 0a3c 634c 59bc 972a 9a3d 02ee 423d
000000f0: 5f91 173d 0ee5 ab3c a346 e73a ecfd 3cbd
00000100: 1cb1 053d e50b 403d 5e5c 273d 1aac bfbc
00000110: 15d2 f83c 8cd8 c23c 7134 0d3c 6bba 1f3d
00000120: 404e 293d 16ac 0d3d e1d4 90bc b468 c23d
00000130: d623 12bd 913a 123d ef0e 813d 4c2d 63bc
00000140: 580f febc b5d6 993c 356a 59bc f4ec 0a3d
00000150: a188 debc 9a7e 32bd e998 363d 584f 25bb
00000160: a8da 293d ba01 00bc f48c 4bbd bc32 113d
00000170: 5176 f23c 2885 8b3d 2540 c1bc 93fb ef3c
00000180: 6ed1 1f3d 1ed2 09bc 66a9 4cbc 0a93 3a3d
00000190: c4a5 efbc face 7b39 f982 4a3d 0011 4d3d
000001a0: 5c02 2f3d cec1 cbbc 67c0 243d 98d9 743d
000001b0: d302 07bd 667d 1b3a 8a7b eb3c 697e d93c
000001c0: 0402 3d3d b777 f73c fbff 143d d887 313d
000001d0: acd6 d13d cc9a bb3c e6bc e8bc 75ca 8ebc
000001e0: 4c4f dcbc b3be f4bc 9a64 e73c dc3c b03c
000001f0: 4ecc 1a3d 2b14 f83c 39d0 323d 8dba 573d
-0.020633668 -0.019675827 0.024031974 0.013087009 0.02000306 0.044740748 0.042866327 0.00359226
0.013307462 0.04148252 -0.011591005 -0.027716374 0.024010245 0.054195628 -0.04711543 0.08232642
0.026790934 0.02803964 0.015825268 0.0023825064 0.027444853 0.030572811 0.04771339 0.027263764
-0.009301688 0.040547024 0.027346937 -0.0154885445 -0.028559918 0.036647085 0.020239377 0.025721915
0.030699547 0.051563118 0.026953654 0.0024420882 0.029836318 -0.030404642 0.059574697 0.029680172
0.082395636 0.00392303 0.035594553 0.034679964 -0.021863652 -0.0034189608 0.020856917 0.03166019
0.029332412 0.046663698 0.037054088 0.035839934 0.020324815 0.04431292 0.043965973 0.018708186
0.008462297 -0.013262841 0.075276546 0.047590263 0.03700387 0.020983245 0.0017644953 -0.046140596
0.032639608 0.046886344 0.040859573 -0.023397494 0.030373612 0.023784898 0.00861846 0.03899614
0.04133439 0.034587942 -0.017679634 0.09492627 -0.035678707 0.035700385 0.063016765 -0.01386578
-0.031013176 0.018779138 -0.013269951 0.033917382 -0.02716476 -0.043577768 0.04457942 -0.0025224295
0.041468292 -0.007812912 -0.04969497 0.035448775 0.029597433 0.06812507 -0.023590157 0.029294765
0.039018087 -0.008411912 -0.01249156 0.045550384 -0.029253848 0.0002401433 0.04944131 0.05006504
0.04272686 -0.024872687 0.04022255 0.059777826 -0.032961678 0.00059314666 0.028745431 0.026549535
0.0461445 0.030208452 0.036376934 0.04334244 0.102460235 0.022900961 -0.028410386 -0.017430523
-0.02689328 -0.029876089 0.028246213 0.021513395 0.037792496 0.030283054 0.043655608 0.052668143

network_body._body_endoder.seq_layers.2.weight f4 [128, 128]
00000000: 17ec 9cbc a5bc 3c3e d79a b9bd a96f c4bd
00000010: a746 383d 88cd 6dbd 44ad cb3c a09c 09be
00000020: 376e 143c b529 3b3d 5754 b0bc 21b8 16bb
00000030: 8ae0 d83b 09af 5c3e 5b61 143d ae81 773e
00000040: 619d 023e 5b85 8a3d ac57 a83d 9d67 b7bd
00000050: 8df8 7ebd 8f51 f7ba b6ac 803e 731f eb3d
00000060: 9a8c fabd 35f5 aa3d ecb8 c1bd 375e 7ebd
00000070: 6ced 9bbd 94ff 83bd 56b5 14be 3248 a53c
00000080: f6a7 92bd b0f8 07bd 18c6 51bd 8d84 ef3d
00000090: 36fd 8dbd 70ec 123d abeb ffbc 3e48 edbd
000000a0: 889e 483e 7fcd a53d 0e9c eb3d 1d32 97bb
000000b0: f84a c83c d3de 093e d0fe 5e3d 568b 2a3e
000000c0: 26f0 663d c24e 0cbd 3182 12bd f0c7 e13d
000000d0: 37e9 203d 150b 793c 12fd bbbd 0323 dabd
000000e0: 5ae7 e23c 1e52 143d 30d4 2cbd f254 5dbd
000000f0: 5d15 da3d 5a21 8b3c 06f1 17be b5f3 51bd
00000100: 21e8 053d 5d9d 2bbd c016 9bbd 241a 283e
00000110: be13 fb3d 60db 8b3e f1d2 3cbd ddbf a93a
00000120: 5bea 29bc 4c81 903e 349c 8cbd 125f 143e
00000130: 9628 b43d 5aff b5bd b938 343d 4864 983d
00000140: 479d 18bd dd4f 163d 090f 49bc a3fb e1bd
00000150: 71b7 5a3e f8eb c13c 5747 acbc 183b 03be
00000160: 4bb0 0bbe e1b2 1d3d 382f c33c 5355 363c
00000170: 8a54 d7bd 1fe1 533d e966 213d 4191 37be
00000180: c743 7a3c 4ebc 9abd 48b7 d43d 16a2 2c3e
00000190: 0e2f 5c3d 39c4 503c 328c 0dbe 2ddf a23d
000001a0: 51a1 1cbe e123 33be 1c69 65bd 751d c7bd
000001b0: fc20 d13d ecff 5c3d 0411 31bb 0fbb debd
000001c0: e926 a7bc 602f a2bd 21df a43d 48e7 5fbc
000001d0: 5925 f73d 912d 22be 14dc 6c3c 84ea 133d
000001e0: 4045 1e3d d285 4ebc ec5e b13c 42ba 5abd
000001f0: 61ff e5ba 86d2 d7bb e759 dd3c bf2f e93d
00000200: 62f6 30be 10b6 c63d 4cc7 af3d a7ae debd
00000210: 0069 2ebe 65d4 3d3e 9d14 9f3d ad2d 7fbd
00000220: ab1b 47be adca 14bd 4a25 223e 5b16 83bc
00000230: 733a 36bb ef3b 8b3e 0f1c debc c7b9 bc3e
00000240: b3b4 0c3e 3376 dcbd a1ac bcbd 4988 5cbc
00000250: 5e9d 3fbc c38d f43d f46b 90bd 3c3c 133e
00000260: d74c b4bd 43b1 adbd 341f 0c3e 311d 7bbd
00000270: 5a00 d73d 2624 93bd 5b68 933c d0a1 e73b
00000280: 9262 ca3c 4e5e a53d 082c 1fbe 5430 893e
00000290: c394 2f3d 1cb6 62bc 84ad 0c3e d1e6 33be
000002a0: 777b cc3e bd0a be3d 1fd6 8e3d 11e2 cd3d
000002b0: af34 64bd 7a21 c83d 50ab bb3d 839f a43d
000002c0: 69b0 5c3e a2c6 fd3d 4c7b cabc 720f 633d
000002d0: 43fa 973c 53eb d93c f86a 913d f939 febd
000002e0: 23f9 c1bd 670e 12be 2b31 b8bd 4b88 4abd
000002f0: b694 2e3d 0443 8c3d 0c47 32be a4fe 02bd
00000300: ce5a 163e 9899 0f3c 7473 103e 8e5f 6bbd
00000310: bedd a7bd c45c f0bc 7fcb f33d aec3 323e
00000320: b820 a1bb 778f 323e f4d4 4c3d 1110 923e
00000330: 7a13 09be 0b37 683e 3ca9 173e 21fe 2e3e
00000340: 2919 94bd 8f35 4ebe c083 bd3d 517c e3bd
00000350: 9523 fbbc 539e 2b3d abe5 dfbd 074b 5fbe
00000360: 6f8d 5f3d 9d06 9fbd beaf 08bd 1bd4 b6bd
00000370: a719 10be 5a0e 953e 1ee8 873c d4ca a0bd
00000380: d57b a73c e74e 5cbe 07c0 b43d 3ddd fe3d
00000390: 9870 b6bd e5f0 4dbc c12c 103e 9a1c 443e
000003a0: 9c20 0dbc c8a3 863c bd82 b0bc 6b76 303e
000003b0: 5c5f ebbc bac3 a8bd 114b 5d3d 2504 903d
000003c0: e6a1 093e d6d0 5e3e cf37 d3bd fe95 41bc
000003d0: 84da a73e 9d08 113e 19fd f0bd 1b29 493e
000003e0: 6568 0bbe 8bca a6bd 8217 02bd c554 b9bd
000003f0: a122 52be 65f4 343d d6ad 443e 080f 7ebe
-0.019155545 0.18431337 -0.090627365 -0.0959161 0.044989254 -0.058057338 0.024862893 -0.13438654
0.00905948 0.04569407 -0.021524591 -0.0022997933 0.006618564 0.21551146 0.036225658 0.24170563
0.12755348 0.06763717 0.08219847 -0.089553095 -0.062248755 -0.0018868911 0.25131768 0.11480608
-0.12233849 0.08347551 -0.09459099 -0.06210157 -0.07613644 -0.06445232 -0.14522299 0.020176027
-0.07160942 -0.03319615 -0.051214308 0.11695204 -0.06933062 0.035870016 -0.031240305 -0.11586045
0.19591725 0.08095836 0.115043744 -0.0046141283 0.02444981 0.13463907 0.054442227 0.16654715
0.056381367 -0.034254797 -0.03576869 0.11024463 0.03928491 0.015200396 -0.09179129 -0.10651209
0.027698208 0.036211126 -0.042194545 -0.05403609 0.10648606 0.016983677 -0.14838037 -0.051257808
0.03269208 -0.04189812 -0.075726986 0.16416222 0.12259625 0.27315807 -0.046099607 0.0012950856
-0.010370816 0.28223646 -0.06865731 0.14489391 0.08796804 -0.08886595 0.043999407 0.07441002
-0.037259366 0.036697257 -0.012271651 -0.11034324 0.2135904 0.023672089 -0.021030111 -0.12815511
-0.13641469 0.03850067 0.023826227 0.011128741 -0.105141714 0.051728364 0.039404783 -0.17926504
0.015274948 -0.075554475 0.103865206 0.16858706 0.053755812 0.012742096 -0.13823012 0.07952724
-0.15295912 -0.17494155 -0.056008443 -0.09722415 0.102113694 0.053955004 -0.0027018199 -0.10875522
-0.020404296 -0.07919192 0.08050371 -0.013665982 0.120676704 -0.15837695 0.014456768 0.036112323
0.03864026 -0.012605147 0.021651708 -0.053400286 -0.0017547422 -0.0065863756 0.027020408 0.1138606
-0.17281488 0.097026944 0.08582935 -0.10873156 -0.17032242 0.18538053 0.077676035 -0.06229942
-0.19444148 -0.0363261 0.15834537 -0.01600187 -0.0027805835 0.27194163 -0.027112989 0.36860487
0.13740806 -0.10764732 -0.09212614 -0.013460227 -0.011695234 0.119411014 -0.070518404 0.14378446
-0.088037185 -0.084810756 0.13683778 -0.061307136 0.10498114 -0.07184629 0.017994097 0.00706885
0.024705205 0.08074628 -0.1554414 0.26794684 0.04286648 -0.013837364 0.13738066 -0.17568518
0.39937946 0.09279392 0.06974434 0.10052884 -0.055714305 0.0977201 0.09163535 0.08038237
0.2155167 0.12391402 -0.024716996 0.05543465 0.018551951 0.02660147 0.07100481 -0.12413401
-0.09471347 -0.14263307 -0.08993753 -0.049446385 0.04262229 0.0684872 -0.17409915 -0.031981125
0.14683077 0.008764647 0.14106542 -0.057464175 -0.08196591 -0.02934111 0.11904048 0.17457458
-0.0049172305 0.1743754 0.050007775 0.28527883 -0.13386336 0.22677247 0.14810652 0.1708913
-0.072313614 -0.20137618 0.09253645 -0.11107696 -0.030656615 0.041899037 -0.109324776 -0.21805964
0.05457824 -0.07764933 -0.033370726 -0.08927175 -0.14072286 0.29112512 0.016590174 -0.078511864
0.02044479 -0.21514474 0.08825689 0.124445416 -0.08908194 -0.012569641 0.14079572 0.19151536
-0.008613732 0.016435519 -0.021546716 0.17232673 -0.028731994 -0.08240457 0.054026667 0.070320405
0.13440666 0.21759352 -0.10313379 -0.011815546 0.32783902 0.14163442 -0.117670245 0.19644587
-0.13614042 -0.08144101 -0.0317607 -0.09049372 -0.20521022 0.044178385 0.19206938 -0.24810421

network_body._body_endoder.seq_layers.2.bias f4 [128]
00000000: 0183 83bc 9bb5 433d 2169 ff3c 4d9a d0bc
00000010: 3576 dd3c 9ada e43c 318e ac3c eeb9 cc3c
00000020: a9c9 5f3c 5261 c83c dc7a 94bc d4c6 cc3c
00000030: dec6 163d eaa3 ea3c 3f12 123d 3deb ca3c
00000040: 47bb 143d 8bb5 b03c d6c9 88bc 34f5 853c
00000050: a0f0 f0bc 5bb9 dc3c 619b 97bc e3f4 be3c
00000060: aaf1 f03c 208f d63c a375 263c 3305 99ba
00000070: 5d97 b63c 10c7 38ba 9959 6cbc 0d4c 44bb
00000080: ae49 b83c 2818 c9bc b6d8 b9bc 2311 97bc
00000090: 5568 0c3d 4bc0 013d c007 c73c e698 703c
000000a0: b9e5 bd3c f5b3 8cbc 6ee4 64bc 6471 d13c
000000b0: 12fd 073d 03a9 94bc 5697 e63c 6622 96bc
000000c0: ac1c c53c 82ce d63c f902 9d3a e900 de3c
000000d0: 5457 353c aedc c6bc 6927 d03c 9286 95bc
000000e0: 0ad2 ea3c 5e26 7abc dd02 093d 3d0d b8bc
000000f0: bbee ba3c 9ab5 af3c 9337 db3c c196 e43c
00000100: 4d94 aabc 360c 493c 4e6f 863d bcf5 243d
00000110: 543a df3c 89ff 153d d382 6abc e807 be3c
00000120: a098 c53c 6124 db3c e540 e13c 503d 9bbc
00000130: 9667 f1bb fdd7 ca3c 0b49 95bc f8ab 9d3c
00000140: 1f6a cb3c 758f babc 730c 733c 6183 023d
00000150: babb d2bc 62d7 bd3c 3b22 953c 37a7 abbc
00000160: c35f 8b3c f446 c23c 2c24 e73a ab5e 27bc
00000170: 730b e4bc 3d87 e63c a333 8d3d b6ea c03c
00000180: 912f b9bc 2526 d43c ab24 bebc 4117 c43c
00000190: 8600 d53c e5d9 c8bc cf05 043d 8e81 f33c
000001a0: 8402 ca3c ef01 2e3d e8c0 c73c cf27 fb3c
000001b0: 229c 93bc 7528 c03c 5ffb a3bc 9e4c 9cbc
000001c0: dfd3 bb3c e26d a5bc 9b75 1e3d d4db 053d
000001d0: 01a2 c2bc b888 6fbc 71e9 943c 533a 26bc
000001e0: 024c bb3c de00 91bc 398a 4b3d 90b9 b63b
000001f0: 818a 183d 75cb b53c 5066 b83c 3c7c bb3c
-0.016053678 0.047780614 0.031178059 -0.025464201 0.027033905 0.027936269 0.021063896 0.024991002
0.013658919 0.024460468 -0.01812499 0.024997152 0.03681075 0.028642613 0.035661932 0.024770373
0.036311414 0.021570941 -0.016697805 0.016352274 -0.029411614 0.026943853 -0.018506708 0.02331013
0.02941211 0.026191294 0.010159883 -0.0011674523 0.022288973 -0.00070487056 -0.014425659 -0.0029952556
0.02249607 -0.024547651 -0.022686344 -0.018440789 0.034279186 0.031677525 0.024295688 0.014684891
0.02318083 -0.017175654 -0.0139704775 0.025566764 0.03320033 -0.018146997 0.028148334 -0.01832695
0.024061523 0.026221517 0.0011979035 0.027100043 0.011068184 -0.02427515 0.025409417 -0.018252645
0.028664608 -0.0152679365 0.033449996 -0.02246725 0.022818914 0.021448899 0.026759898 0.027903916
-0.020822668 0.012270978 0.065641984 0.040273413 0.027249493 0.03662065 -0.0143134175 0.02319713
0.024120629 0.026750745 0.027496764 -0.018950135 -0.0073670847 0.024761194 -0.018223306 0.01924704
0.024830876 -0.022773484 0.014834511 0.031863574 -0.02572428 0.023173992 0.018204799 -0.020953758
0.017013436 0.023715474 0.0017634681 -0.010215442 -0.02783749 0.028140659 0.068946145 0.023549419
-0.02260569 0.025897095 -0.023210844 0.02393687 0.026001226 -0.024517963 0.032232102 0.029724862
0.024659403 0.042482313 0.024383977 0.03065863 -0.018018786 0.023456791 -0.020017324 -0.019079503
0.022928176 -0.020193998 0.038686376 0.032680348 -0.02375889 -0.014619999 0.01817772 -0.0101457415
0.022863392 -0.017700609 0.049692366 0.00557632 0.037241463 0.022191742 0.022509724 0.022886388

action_model._discrete_distribution.branches.0.weight f4 [3, 128]
00000000: 0c67 203d 2ae6 04bb f3ed 743c 29dd d93c
00000010: 6136 7e3c dbaf f73c c21f 5e3b e93c d8bc
00000020: b0ea b9bc 29d8 86bc cb17 3a3b 40e2 c0bc
00000030: 7e51 6c3d 62c9 03bc c6e8 eb3c 22ba 9b3c
00000040: 6138 2dbc 207b 9abc d985 003d e797 90bc
00000050: 6b72 c0bc 1961 033d f9da f2bb 928c 083b
00000060: 4811 203c d442 bb3c 2f70 853d 2055 8b3d
00000070: 414f 0ebc 80bb 983d 8f43 ef3c cf9f 1f3d
00000080: 3375 1ebb b290 3abc 9c16 bc39 29fd 0fbc
00000090: d171 73bc 2f40 143c 1ef5 dcbc f595 753c
000000a0: cb84 48bd 3b8e 603b 8ed1 aa3b 6044 b4bb
000000b0: e9ee b3bc 7bef afbc 2744 8fbb 3139 813c
000000c0: 4f8e 953d d0ba bf3a ebdb 9c3c 3f7d 1e3c
000000d0: d3e5 563d 2980 d8bb 7e4c 433c 4640 9abb
000000e0: 4a01 5abb c6ce 103d 06f8 093d 3cf7 0539
000000f0: 01a7 4b3b 0da9 ed3c 9ac8 7abb ebb6 3cbc
00000100: 07b3 8f3b 28a5 b23d 359c 7dbc 65c1 0dbb
00000110: f72f cb3b 18b9 883d d054 54bc 5688 2a3c
00000120: 84e4 08bc 6a4b b83b c7ba 8cbc 1ec3 1c3c
00000130: 90e2 433d 82cf c33b 6a0d 85bc c759 bebc
00000140: 1078 8a3c 8f22 223c b4e3 9a3c 7151 8d3c
00000150: 2ebc 6ebc 099b 193a a214 9b3c 2f19 81bb
00000160: 6316 c4bc 2240 a6bb 1e87 863d d52b 583d
00000170: 34e0 6c3c 3a7c 2a3c f6d6 9ebc 3b91 443c
00000180: 4469 443b ab03 d9bc ac5f 133d c001 3cbc
00000190: f470 cc3b efdd bf3c 8bff 0f3d 5ff7 773d
000001a0: b97e 83bc 04a1 4a3c 445c 053d 07d4 9c3c
000001b0: 3dcc b13b ef54 c7bc f10b 503c b41c 9d3b
000001c0: 400b 78bc 791d 803c 5836 803c 5e49 64bc
000001d0: bea3 a039 df55 5c3c 9027 99bc d32c c83c
000001e0: 4d47 1b3b 93c3 833c 004f 923d f9a9 973d
000001f0: 93d5 0bbc d864 04bd b769 adbc b9d1 893b
00000200: 45c2 1ebd fb78 773c 7843 aa3c 4789 04bd
00000210: c028 a73c d98c 98bc 049f 7b3c 0e42 8f3c
00000220: af85 1a3d fdd1 e63c 0da0 66bc f356 463d
00000230: 6da4 02bc 2060 4b3d 396f 123d 9368 cc3c
00000240: c4f3 453d fc51 2c3d 89b8 05bd 1041 063d
00000250: 7608 afbc de38 833c 430f 5cbb 1eca b13c
00000260: d204 9f3c ff02 cb3c 615a 49bd 0324 93bd
00000270: 03b5 813c 53d3 5fbd 9533 d0bc 56b8 95bc
00000280: 6df4 103d 4b3d e6bc b923 c7bc fee8 11bd
00000290: 08e5 dc3c 348d e13c 37d2 f73c 8dfe 873c
000002a0: d8c4 843d 01a5 9fbc 5e3d a6bc ef5e 333d
000002b0: aef9 4d3d 1b42 8abc 7057 143d d6a8 35bd
000002c0: 5b06 87bc 1f7c b23c 4ff6 52bc a0bf 023d
000002d0: 6367 63bd 704e 15bc 653e be3c 1932 ebbb
000002e0: ae47 9c3c 09f8 10bd 6bcb e13a 9d9b 23bd
000002f0: 00ab f43c 690d 3a3b 1a7c c13c 611e 543d
00000300: 4aca 0abd 4af5 7bbd 0bfa 903d 36e6 533d
00000310: 6bc2 ad3c fa15 86ba 46d9 b6bc 2f4e f73c
00000320: 5837 3f3d a386 103d a4cb e33c d153 d3bc
00000330: 1251 99bd 8de8 be3c 3930 05bd 0b78 a13c
00000340: bcf6 cb3c a359 f7bc 7f7a e6bc 9462 eb3c
00000350: ce84 05bd dd3f be3c b9a7 fe3b c17b 15bd
00000360: f8b6 043d 4c31 a83c fa24 79bd a491 21bd
00000370: d95f 83bc 9c96 053d 34d8 263d 86e4 dc3c
00000380: 5c58 f3bc 00d3 e83c bcfd 08bd 7011 e23c
00000390: 39d3 1b3d f4a1 6ebc 79d7 ad3c 7d53 07bd
000003a0: 83fc 383d f016 f13b ed84 5a3c dcd6 423d
000003b0: dc27 bcbc 4d7f 1d3d de7d cbbc b048 84bc
000003c0: fe17 c43c 4944 cfbc 614d a83c c95b 4d3d
000003d0: b084 a4bc ba12 9dbc b420 8b3c d3bd 3cbd
000003e0: fe02 123d 4019 febc ea5e 41bc 82f7 86bd
000003f0: ba71 3a3d dd02 1c3d ad55 3e3d 831d 8d3c
0.039160773 -0.002027879 0.01494931 0.026594715 0.015515895 0.030235222 0.003389344 -0.026396232
-0.022694916 -0.016460495 0.002839553 -0.023545384 0.057694905 -0.008043619 0.028797518 0.019009653
-0.010572524 -0.018857539 0.031377647 -0.017650558 -0.023492059 0.03207502 -0.0074113575 0.002083574
0.009769745 0.022859015 0.06515538 0.06803346 -0.008685888 0.07457638 0.02920702 0.038970765
-0.0024178743 -0.011387037 0.00035875 -0.008788385 -0.014858679 0.009048506 -0.02697235 0.014989366
-0.048954766 0.0034264463 0.005212969 -0.005501315 -0.021964507 -0.021476498 -0.004372138 0.015774341
0.07302534 0.0014627818 0.019147834 0.009673416 0.05246527 -0.0066070748 0.011920093 -0.004707369
-0.0033264928 0.035353445 0.0336838 0.0001277597 0.0031074884 0.029011274 -0.003826654 -0.01151822
0.0043853554 0.08722907 -0.015479137 -0.0021630165 0.006200786 0.06675929 -0.012959674 0.010408482
-0.008355264 0.0056242244 -0.017178906 0.009568004 0.04782349 0.0059756646 -0.016241748 -0.023236169
0.016902953 0.009895935 0.018907405 0.017250748 -0.014571233 0.0005859589 0.018930737 -0.0039397697
-0.023936456 -0.005073563 0.0656874 0.052776176 0.014457751 0.0104055945 -0.01938961 0.011997516
0.002996997 -0.026491007 0.03597991 -0.011475027 0.006239051 0.023421256 0.035155814 0.060538646
-0.016051637 0.012367491 0.032558694 0.019144071 0.0054259584 -0.024332492 0.01269816 0.0047946814
-0.015139401 0.015639054 0.015650913 -0.013933508 0.00030639576 0.013448208 -0.018695623 0.024435436
0.0023693622 0.016084468 0.07143974 0.074054666 -0.008534807 -0.032322735 -0.021168573 0.004205909
-0.03875949 0.015104528 0.020784125 -0.03235748 0.020405173 -0.018621849 0.0153577365 0.017487552
0.037725147 0.028176302 -0.014076245 0.048422765 -0.0079737725 0.04965222 0.0357506 0.024952209
0.048328176 0.042070374 -0.03264669 0.032776892 -0.02136634 0.016018327 -0.0033578433 0.021702822
0.019411478 0.024781702 -0.049158458 -0.07184603 0.015833383 -0.054644894 -0.025415221 -0.018276375
0.035389353 -0.028105399 -0.024309026 -0.03562259 0.02696468 0.027533151 0.030251605 0.016600871
0.064828575 -0.01948786 -0.020292934 0.043791708 0.05028694 -0.016877225 0.0362162 -0.044350468
-0.016482523 0.021787701 -0.012876107 0.03192103 -0.05551852 -0.009112939 0.023223111 -0.007177603
0.019077148 -0.035392795 0.0017226761 -0.039943326 0.029866695 0.002838934 0.023618747 0.051786784
-0.033884324 -0.061513223 0.07078942 0.051733218 0.02121087 -0.0010229938 -0.0223204 0.030188648
0.04668364 0.03528465 0.027807064 -0.025796803 -0.07486166 0.023304248 -0.03251669 0.019710561
0.024897926 -0.03019411 -0.028134583 0.02873353 -0.032597356 0.023223812 0.007771459 -0.036494974
0.032401055 0.02053132 -0.06082628 -0.039445534 -0.016036915 0.032614335 0.04073353 0.026964437
-0.029705219 0.028420925 -0.033445105 0.027596205 0.038043234 -0.01456498 0.02122091 -0.033038605
0.04516269 0.0073574707 0.013337356 0.047568187 -0.022968225 0.03845148 -0.024840292 -0.016147941
0.023937222 -0.025301116 0.02054471 0.05013636 -0.020082802 -0.019173969 0.016983368 -0.046079468
0.035647385 -0.0310179 -0.011802414 -0.06590177 0.045518614 0.03808867 0.046468426 0.017225986

action_model._discrete_distribution.branches.0.bias f4 [3]
00000000: f304 0abb 3e62 9e3c 66f2 dabc
-0.002106008 0.019333955 -0.026726913

action_model._discrete_distribution.branches.1.weight f4 [3, 128]
00000000: 51b0 2bbc 6c72 00bd bd8a 693c 874b 38bd
00000010: b315 633c d9bb 203d 1338 913c 3e86 afbc
00000020: a152 bb3c b8f6 223d ee44 eabc e184 423c
00000030: f85e 363d 827b 0f3d 4c12 1e3d 43f0 893c
00000040: d847 2a3c b8dc d13c 7462 63bc 6a75 84bb
00000050: 6782 9cbc eb70 223d ef8d 36bc 43e7 c53c
00000060: e5f0 903c 5b0d fd3c 27ea 28bc b9cb d7bb
00000070: 2a2d a63c 69c2 eb3b 26f1 88bc 1af7 0fbd
00000080: a177 003d b7fb c7bc 089d 06bd 2bc9 74bc
00000090: 9bf6 743c dbdc a53c 9558 223c b090 cf39
000000a0: c0a5 9a3b 630e abbc 2fa3 ddbc d015 2e3c
000000b0: 3031 af3b 5c54 a5bc cd59 93ba fbf6 f6bc
000000c0: 649b 833c 8764 b53c 6b16 51bd 7a9b fd3c
000000d0: b78a adbc 6ab8 08bd af7a a33c ccb9 03bc
000000e0: fc41 f63c 2e9c bfbc d296 0cbb ef7a 09bc
000000f0: 3ea5 263d 3775 123d 6715 ff3b 6bf5 e23c
00000100: ca4b 99bc 7b13 7e3b ef70 64bd 2a51 953b
00000110: 7c73 a63b d7fe 213c 1b55 b7bc ace3 ed3b
00000120: bac4 ff3b b63b ba3c 4639 843c 52b9 91bc
00000130: 76f9 57bc 553c a93c e816 a0bc f37c 5a3b
00000140: 6eac d83c 58da b5bc ff92 30bc 8525 e03b
00000150: 440c 6cbc 0394 293c 43e1 023d 8b03 a6bc
00000160: c90e b03c 1871 9b3c 4086 843c 07c8 f7bc
00000170: 7f68 59bc ddbe 293b 4fa0 d9bb 4b4d 613d
00000180: 4edb acbc fd2f df3c 229f 80bb 66cc b33c
00000190: 3606 093d f15f d0bc 98d7 833c 53ae dbbc
000001a0: 7174 8d3c 600d 12bd b175 853c cca2 f63c
000001b0: 760e 89bc d6b4 9d3c ca5c f5bc fc52 34bc
000001c0: e2ce c53c a75c 0dbd fd8d 9f3c bb88 863b
000001d0: 8559 bbbb a702 34bd fc77 113c acd8 10bd
000001e0: 25ee bb3c 8601 84bc 6036 833b 5b2a 8cbc
000001f0: 6768 1b3d 5b73 2d3c 2f41 993c 04ca 8c3c
00000200: b6e7 03bc a557 e8bd 21c8 f3bc d781 dfbb
00000210: 3301 bf3c 9a43 ab3c c0a4 9eba 0ae1 c53d
00000220: 5be9 51bc b6e3 4abd ccc4 643c 1112 223c
00000230: d4eb 27bd 06ad 38bd 5199 aebc b052 1d3d
00000240: 3c74 d8bc a20b 3dbc 93cf 733c 6e9f 023d
00000250: b955 0e3c d973 6fbb 4e16 293d 194f 613b
00000260: 59a2 8dbb 9f04 ca3b 516c d8bd b746 4fbd
00000270: 8324 2c3b 2115 c7bc a62d 2f3c 8aab 94bc
00000280: bcce e63a a1a5 083c f54c 263d 41e0 983c
00000290: 3d83 77bd d85a 5abd 73fb 5e3a 66ac 473d
000002a0: b4c2 d93c 2227 033c c061 ce3c b4d3 103c
000002b0: 7fd9 c1bc 9c8b a83c 84ce 87bb f82f f2ba
000002c0: efa3 9a3d f1d6 d73c 88e3 533d c567 8c3b
000002d0: cef4 03bc 144a e43c f190 87bc f26a 1c3d
000002e0: f8dc b3bd fd70 21bc 9a9a 823d f253 233c
000002f0: 96fd c8bb 1049 a63c a202 423c 2e89 2abc
00000300: eed9 123d 863e a3bc 9cb5 95bd a55c 05bd
00000310: f40d 053c ebe8 b73d 8437 b73c 3782 f13c
00000320: 0588 3c3d 0ef8 85bc 9764 6abd 0c06 023d
00000330: c0ae 493c 2ae0 223b 8b26 b63c 47a4 333d
00000340: 2e74 82bb 9495 473b 586b 423d e563 833d
00000350: 2c24 763c 2ffa 103d c92a b43b a8a3 623c
00000360: 8c8a bcbc 9892 66bc f208 e6bc 1dda 943c
00000370: 9b77 663c aea5 833c a857 3abe 753e c5bc
00000380: b66a 173c 6d23 90bd da4f 5d3b ff28 5fbc
00000390: 0db5 54bd a32c a63c 3642 6e3c 7c5f 0b3e
000003a0: ceef 983b c439 24be 5143 6d3c 7cc5 33bd
000003b0: 0021 833c d629 9ebc 43ae a73c 3343 033d
000003c0: 79ba 0fbc 90cf 133c 5acc f1bb d6aa b23b
000003d0: 4c57 9e3c ce2e 553c 9464 b6bc 7b12 ca39
000003e0: 0b28 e6bb fef9 db3c 6efe cc3d edd5 6ebd
000003f0: 66a9 8dbd dc6d 333d 8422 683b 4736 6c3a
-0.010479049 -0.03135912 0.014254269 -0.044993903 0.013860154 0.039241645 0.017726934 -0.021426316
0.022866549 0.03978607 -0.028597321 0.011872501 0.044524163 0.035029896 0.038591668 0.016838199
0.010393105 0.025617942 -0.0138784535 -0.004042317 -0.01910515 0.03965847 -0.011142238 0.024158126
0.017692992 0.030890157 -0.0103097325 -0.006585565 0.020285208 0.0071948064 -0.016716551 -0.035147764
0.031364087 -0.02441202 -0.0328646 -0.01494054 0.014951373 0.020246914 0.009908815 0.00039589917
0.004719466 -0.020880884 -0.027055351 0.010625318 0.00534644 -0.020181827 -0.0011241973 -0.030147066
0.016065307 0.022142662 -0.05104677 0.030957926 -0.021184308 -0.033378996 0.019955961 -0.008039903
0.03006076 -0.023389902 -0.00214522 -0.008391126 0.04068493 0.035756316 0.007784534 0.027704915
-0.018712897 0.0038768935 -0.055771764 0.0045567947 0.005079685 0.009887419 -0.022379449 0.0072598066
0.007805434 0.02273355 0.016140591 -0.017788563 -0.013182035 0.020658651 -0.019542173 0.0033338636
0.026449408 -0.022198841 -0.010777234 0.00684041 -0.014407221 0.01035023 0.031953108 -0.020265361
0.021491425 0.018974826 0.016177297 -0.030246748 -0.013269543 0.0025901117 -0.0066414247 0.055005353
-0.021100666 0.027244562 -0.00392522 0.02194805 0.03345319 -0.025436373 0.016094014 -0.026816523
0.017267438 -0.035657287 0.016291471 0.030106924 -0.016730528 0.019251268 -0.029951472 -0.011006113
0.024146501 -0.03451219 0.019476885 0.004105655 -0.0057174587 -0.043947842 0.008878704 -0.035362884
0.022940705 -0.016114008 0.0040042847 -0.01711004 0.037941363 0.010586585 0.01870784 0.017186172
-0.00805085 -0.11344842 -0.029758515 -0.006820898 0.023316002 0.020906258 -0.0012103543 0.096620634
-0.012811984 -0.04953357 0.013962936 0.009892003 -0.040996388 -0.045086883 -0.021313341 0.038408935
-0.026422612 -0.011538418 0.0148810325 0.031890325 0.00868743 -0.0036537556 0.041281037 0.0034379421
-0.004322332 0.0061651017 -0.10567535 -0.05060455 0.002626688 -0.024302067 0.010692036 -0.018148202
0.0017609219 0.00834027 0.040600736 0.01866162 -0.060427893 -0.05330929 0.0008506097 0.048748396
0.0265821 0.008004935 0.025193095 0.008839536 -0.02366328 0.020574383 -0.0041444916 -0.001847743
0.07550799 0.02634761 0.051730663 0.004284831 -0.008053971 0.027867354 -0.016548606 0.03818793
-0.08782381 -0.009853599 0.06377144 0.009968745 -0.0061337454 0.02029851 0.011841448 -0.010408683
0.035852365 -0.019927274 -0.0731003 -0.032559056 0.008121002 0.089799725 0.02236534 0.029481037
0.046028156 -0.016353633 -0.057224836 0.031744048 0.01230973 0.002485285 0.022235176 0.04385784
-0.003981135 0.0030454146 0.047465652 0.06415538 0.0150232725 0.035394844 0.0054982645 0.013832964
-0.023015283 -0.014073037 -0.028080437 0.01817041 0.014066602 0.016070213 -0.181975 -0.024077633
0.00924175 -0.07038007 0.003376952 -0.013620614 -0.051930476 0.020284956 0.014542153 0.13610643
0.004667259 -0.16037661 0.0144813815 -0.043889508 0.016006947 -0.019307058 0.020468837 0.032046508
-0.008772486 0.009021655 -0.007379097 0.005452494 0.019328736 0.013011647 -0.022264756 0.0003854221
-0.0070238165 0.026852604 0.10009466 -0.058309484 -0.06917076 0.043805942 0.0035420964 0.00090107735

action_model._discrete_distribution.branches.1.bias f4 [3]
00000000: 4f34 623c b3b7 80bc 5a54 4fbc
0.013806417 -0.015712595 -0.012654388

exp_avg f4 [128, 29]
00000000: ab8d 35b8 1009 6d29 0000 0000 ebe5 42b6
00000010: ab8d 35b8 c6b2 342a 0000 0000 e8a6 57b6
00000020: 0843 ca37 9757 8db8 0000 0000 2640 ed34
00000030: ab8d 35b8 ab72 4ea3 0000 0000 b7bc 84b6
00000040: 1843 ca37 9b57 8db8 0000 0000 ce4f ca35
00000050: 7d14 eeb7 c20d 7ab7 0000 0000 6682 f7b6
00000060: 3271 3338 6e7f b4b8 0000 0000 7e98 7c36
00000070: 0620 2f38 4c79 39b9 2ed3 37ad 0000 0000
00000080: 3c3e 47b7 4c79 39b9 86ab 49ad 0000 0000
00000090: af63 61b7 6ca7 08ba 3192 b439 0000 0000
000000a0: 38ea 04b8 4c79 39b9 d8c8 a5a5 0000 0000
000000b0: 8607 78b7 6fa7 08ba 3592 b439 0000 0000
000000c0: 4473 48b8 0f75 48b8 075c 07b9 0000 0000
000000d0: e1b0 ccb7 884c 58b9 029a f637 0000 0000
000000e0: ed8c cbb8 8435 3539 d6d3 6bb7 9e26 ae2c
000000f0: 0000 0000 7c8a 7db5 d6d3 6bb7 10c7 b82c
00000100: 0000 0000 43b9 94b5 5678 ccb8 ddfd ae38
00000110: 0000 0000 3155 bab6 d1d3 6bb7 03c0 2f26
00000120: 0000 0000 f120 86b5 5f78 ccb8 e7fd ae38
00000130: 0000 0000 82c2 11b7 3de9 2937 84de cab7
00000140: 0000 0000 7f33 a2b5 2c5a 21b8 69ca cc37
00000150: 0000 0000 9ae9 93b7 2427 6737 1dd7 c737
00000160: 4635 262c 0000 0000 8fae d635 1bd7 c737
00000170: 8cc7 402c 0000 0000 f2c3 ed35 dfe7 8b38
00000180: 30e4 33b8 0000 0000 aa34 8836 1fd7 c737
00000190: d5cb 85a4 0000 0000 2722 1436 e3e7 8b38
000001a0: 38e4 33b8 0000 0000 0b6b cb36 f0b2 8437
000001b0: 6048 0637 0000 0000 7574 8b36 8a62 5538
000001c0: f9ed e2b7 0000 0000 e256 5337 1096 c8b7
000001d0: 85a1 95b9 d5e8 d82d 0000 0000 6999 a0b7
000001e0: 85a1 95b9 5779 e62d 0000 0000 992f adb7
000001f0: f361 bf38 ff79 c5b9 0000 0000 4fea 01b5
00000200: 85a1 95b9 2372 ec25 0000 0000 b4bb f2b7
00000210: fa61 bf38 017a c5b9 0000 0000 b845 a636
00000220: f749 b4b9 8c43 7538 0000 0000 9b9d 7cb8
00000230: 1f25 5bb6 38eb 93b9 0000 0000 1d9d 7a37
00000240: c027 9539 8018 7b39 fb04 5c2d 0000 0000
00000250: c2e0 8637 8018 7b39 4c9f 632d 0000 0000
00000260: 2417 9b37 0672 283a cd57 d3b9 0000 0000
00000270: 844b 2638 8218 7b39 d48c 9225 0000 0000
00000280: fe0d 9a37 0672 283a cb57 d3b9 0000 0000
00000290: 3eac 7a38 40fe 61b7 349c 8439 0000 0000
000002a0: d01c dd37 1a68 9638 78e4 2f39 0000 0000
000002b0: 2099 fc38 2c69 6fb9 70e0 bf38 5990 192d
000002c0: 0000 0000 0622 ce36 70e0 bf38 7b02 2a2d
000002d0: 0000 0000 f801 e936 39d2 8339 35b4 27b9
000002e0: 0000 0000 2f3c 8137 72e0 bf38 5fb5 1d24
000002f0: 0000 0000 44f6 0037 3ad2 8339 37b4 27b9
00000300: 0000 0000 9a04 c237 ce6b ca37 7d45 8d38
00000310: 0000 0000 5261 5637 8a84 eb38 4e90 aeb7
00000320: 0000 0000 ae6d 4738 846a bbb8 5abd 5cb8
00000330: 5fae 09ad 0000 0000 5c39 6db6 5abd 5cb8
00000340: 20e3 17ad 0000 0000 67b7 87b6 5c31 9fb9
00000350: ad99 8339 0000 0000 7a59 92b7 5ebd 5cb8
00000360: 8e71 77a4 0000 0000 7e5f 8cb6 6031 9fb9
00000370: b099 8339 0000 0000 387b e3b7 3090 aeb6
00000380: 4eeb 46b8 0000 0000 b678 d5b6 7846 2ab9
00000390: 422e e638 0000 0000 b4c5 69b8 9c48 5b38
000003a0: c025 0938 af4e e5ab 0000 0000 c743 1336
000003b0: c025 0938 05f0 e3ab 0000 0000 aa93 1f36
000003c0: bc85 0638 7d00 2835 0000 0000 0b93 1d36
000003d0: c025 0938 a636 50a5 0000 0000 7891 5b36
000003e0: be85 0638 1100 2835 0000 0000 3d22 5136
000003f0: 6251 0b38 abe8 0ab5 0000 0000 6867 e136
-4.32857e-05 5.2632432e-14 0.0 -2.9042083e-06 -4.32857e-05 1.6049236e-13 0.0 -3.2134649e-06
2.411149e-05 -6.739719e-05 0.0 4.4191364e-07 -4.32857e-05 -1.1191564e-17 0.0 -3.955876e-06
2.411152e-05 -6.739722e-05 0.0 1.5073399e-06 -2.8381352e-05 -1.4904364e-05 0.0 -7.376354e-06
4.2782347e-05 -8.6068045e-05 0.0 3.7639688e-06 4.1753075e-05 -0.00017688161 -1.0449237e-11 0.0
-1.1875814e-05 -0.00017688161 -1.1463613e-11 0.0 -1.34342545e-05 -0.0005212936 0.00034441196 0.0
-3.1689386e-05 -0.00017688161 -2.8759034e-16 0.0 -1.4783704e-05 -0.0005212938 0.00034441208 0.0
-4.7791065e-05 -4.7792735e-05 -0.00012908886 0.0 -2.440106e-05 -0.00020627875 2.93972e-05 0.0
-9.706044e-05 0.00017281441 -1.4056413e-05 4.949665e-12 0.0 -9.4451366e-07 -1.4056413e-05 5.251695e-12
0.0 -1.1080778e-06 -9.749892e-05 8.344252e-05 0.0 -5.5531495e-06 -1.4056409e-05 6.0975546e-16
0.0 -9.993365e-07 -9.749899e-05 8.3442595e-05 0.0 -8.687961e-06 1.012749e-05 -2.4183893e-05
0.0 -1.2084928e-06 -3.846937e-05 2.441295e-05 0.0 -1.7632545e-05 1.3777786e-05 2.3822819e-05
2.3619592e-12 0.0 1.5995046e-06 2.3822815e-05 2.7395612e-12 0.0 1.7714904e-06 6.671226e-05
-4.2889442e-05 0.0 4.0592467e-06 2.3822822e-05 -5.802486e-17 0.0 2.2073598e-06 6.671229e-05
-4.288947e-05 0.0 6.062333e-06 1.581895e-05 8.0038735e-06 0.0 4.15608e-06 5.087493e-05
-2.7052114e-05 0.0 1.2596809e-05 -2.3911736e-05 -0.00028539836 2.4659755e-11 0.0 -1.9144923e-05
-0.00028539836 2.6201858e-11 0.0 -2.0645371e-05 9.125834e-05 -0.00037665662 0.0 -4.839721e-07
-0.00028539836 4.1016816e-16 0.0 -2.8936054e-05 9.125839e-05 -0.00037665668 0.0 4.955302e-06
-0.00034387383 5.847546e-05 0.0 -6.0228263e-05 -3.265515e-06 -0.00028213277 0.0 1.4937742e-05
0.0002844911 0.00023946352 1.2506658e-11 0.0 1.6078706e-05 0.00023946352 1.2938827e-11 0.0
1.8488216e-05 0.0006425682 -0.00040310473 0.0 3.9647814e-05 0.00023946355 2.5422392e-16 0.0
1.8364746e-05 0.0006425682 -0.00040310467 0.0 5.9765058e-05 -1.3470242e-05 0.00025293382 0.0
2.635867e-05 7.171948e-05 0.00016774412 0.0 0.00012044818 -0.00022831996 9.1493945e-05 8.729095e-12
0.0 6.1432393e-06 9.1493945e-05 9.663932e-12 0.0 6.9441703e-06 0.00025142895 -0.00015993493
0.0 1.5406024e-05 9.149396e-05 3.4197576e-17 0.0 7.686733e-06 0.00025142898 -0.00015993496
0.0 2.3128745e-05 2.4130477e-05 6.736347e-05 0.0 1.2778053e-05 0.000112303605 -2.0809613e-05
0.0 4.7547444e-05 -8.936695e-05 -5.2628435e-05 -7.8262665e-12 0.0 -3.534914e-06 -5.2628435e-05
-8.633788e-12 0.0 -4.0446644e-06 -0.0003036362 0.00025100764 0.0 -1.7446222e-05 -5.262845e-05
-5.3655772e-17 0.0 -4.183442e-06 -0.0003036363 0.00025100773 0.0 -2.7117887e-05 -5.2023897e-06
-4.7426023e-05 0.0 -6.3619473e-06 -0.00016238715 0.00010975871 0.0 -5.5735654e-05 5.228129e-05
3.2698503e-05 -1.6293268e-12 0.0 2.1944159e-06 3.2698503e-05 -1.6195939e-12 0.0 2.3778798e-06
3.207264e-05 6.258559e-07 0.0 2.3480413e-06 3.2698503e-05 -1.805964e-16 0.0 3.2718217e-06
3.2072647e-05 6.2584974e-07 0.0 3.1163356e-06 3.3215976e-05 -5.174758e-07 0.0 6.7175606e-06

exp_avg_sq f4 [128, 29]
00000000: ff24 bb31 7f59 5d30 0000 0000 dd5a 3f2e
00000010: 163e c531 6871 e62f 0000 0000 6ee9 442e
00000020: c1ed 7e31 d77b 4231 0000 0000 b2ed 642e
00000030: d082 cd31 bf51 812f 0000 0000 8406 802e
00000040: 8145 5131 7ba2 6431 0000 0000 db0a ef2e
00000050: 12d5 d131 7aee 982f 0000 0000 c950 1a2f
00000060: 65a1 2030 5084 c331 0000 0000 b488 8e2f
00000070: 2f2e 9f31 f71f 9634 749c 7a33 0000 0000
00000080: 4214 e930 94c6 9c34 7f67 4633 0000 0000
00000090: a5bc ee30 da3b 7234 0b2b 0634 0000 0000
000000a0: 5c0d 2e31 249c ba34 70c8 6e30 0000 0000
000000b0: 2f64 2131 25fd 2a34 99eb 3a34 0000 0000
000000c0: 92da e531 3dbc b734 1eb8 ba31 0000 0000
000000d0: c112 be31 689c cd32 0f95 ac34 0000 0000
000000e0: 0edf 8832 9263 9034 e588 af33 fdf4 1333
000000f0: 0000 0000 38c4 9e30 bb68 b833 f69e 9532
00000100: 0000 0000 af52 9a30 cd34 6033 8dd7 7433
00000110: 0000 0000 f9da e030 60e1 c933 92da c131
00000120: 0000 0000 9e61 c130 a264 c232 94e4 b433
00000130: 0000 0000 cf4d 5f31 4071 dd33 be9e 7831
00000140: 0000 0000 2f04 0531 ac4c d331 068f cf33
00000150: 0000 0000 4879 bc31 4a9a 6e33 d876 0d32
00000160: 472e e532 0000 0000 3479 902e 8991 3732
00000170: 7e36 d332 0000 0000 d610 f02e 9125 0032
00000180: e70e f532 0000 0000 36a3 c12e 04b0 1633
00000190: 9fd8 a22e 0000 0000 5d0b 6d2f 8351 d731
000001a0: 0793 fa32 0000 0000 ea1b 7d2f 0239 1633
000001b0: f277 0c2f 0000 0000 8511 c82f dfa6 b230
000001c0: ef2e 1133 0000 0000 2791 1e30 f000 d732
000001d0: 98d9 d633 0471 4734 0000 0000 bde8 5f30
000001e0: d50a 0934 8516 2234 0000 0000 7057 9130
000001f0: 293f 9c32 2a8a 8a34 0000 0000 3288 4330
00000200: c113 9134 c974 7f31 0000 0000 9ea4 0431
00000210: f11f 8731 0671 8f34 0000 0000 572f a430
00000220: f2e1 9334 896c 2731 0000 0000 35a2 8231
00000230: 0c07 ee30 fe2d 9334 0000 0000 200b e830
00000240: c531 4b34 dcf0 b034 3b33 1033 0000 0000
00000250: 6bb8 1131 9987 b334 b3ca 8c32 0000 0000
00000260: fe7f 1531 10ac 7a34 69d5 0234 0000 0000
00000270: 357e 3d31 3bc3 ba34 845e 9731 0000 0000
00000280: 7a61 4d31 71d1 4c34 a397 2d34 0000 0000
00000290: bdfc ca31 fca5 b734 f120 a732 0000 0000
000002a0: ff5d 0c32 aca6 1533 f9a0 a334 0000 0000
000002b0: 0abe 7232 a000 9934 a1dc 8333 68fc a633
000002c0: 0000 0000 bce2 3f30 fa1e a333 4637 8933
000002d0: 0000 0000 9d95 6a30 2034 4833 4955 cd33
000002e0: 0000 0000 b6c4 6f30 644c 1734 684d 7031
000002f0: 0000 0000 78ad b930 cd23 2633 8865 e033
00000300: 0000 0000 bd32 e530 c7e9 1934 3d9c ba31
00000310: 0000 0000 b8a3 1931 cb20 2732 f6ad 1134
00000320: 0000 0000 0739 7d31 b219 d533 b361 2a34
00000330: b4eb 4033 0000 0000 7184 8430 c45d 3334
00000340: 64a1 1a33 0000 0000 1b4b 8730 9c95 f633
00000350: 72b7 d133 0000 0000 eb8d b430 cd19 6034
00000360: 1c44 9a2f 0000 0000 a3e7 b930 2dd6 b333
00000370: d343 ff33 0000 0000 ad77 6931 b2ca 5e34
00000380: 638a a430 0000 0000 4c15 5531 b5b3 6c32
00000390: 00f1 5034 0000 0000 33ae 0f32 1f58 2a34
000003a0: d3e5 1f32 637b f030 0000 0000 2789 602f
000003b0: 23a9 2232 13fd e530 0000 0000 d8b7 7b2f
000003c0: c179 2032 1cc0 f930 0000 0000 8016 b62f
000003d0: a6c3 2932 97b8 9a30 0000 0000 b79a a12f
000003e0: 58eb 8831 01f7 0f32 0000 0000 3c93 2a30
000003f0: 593d 4332 4114 ca2f 0000 0000 fd3f d42f
5.4466223e-09 8.0526513e-10 0.0 4.3509075e-11 5.740513e-09 4.1917336e-10 0.0 4.4772568e-11
3.7097012e-09 2.830111e-09 0.0 5.2052314e-11 5.981157e-09 2.3523047e-10 0.0 5.8219235e-11
3.0453011e-09 3.3270726e-09 0.0 1.087039e-10 6.106924e-09 2.7818087e-10 0.0 1.4034919e-10
5.8437016e-10 5.690289e-09 0.0 2.5926783e-10 4.6327595e-09 2.7962935e-07 5.8349954e-08 0.0
1.6958739e-09 2.920175e-07 4.6194597e-08 0.0 1.7370395e-09 2.255978e-07 1.2495381e-07 0.0
2.5327926e-09 3.4758807e-07 8.6868734e-10 0.0 2.3485531e-09 1.5924577e-07 1.740831e-07 0.0
6.6896257e-09 3.4223368e-07 5.434244e-09 0.0 5.53186e-09 2.3936266e-08 3.214595e-07 0.0
1.5933917e-08 2.6894537e-07 8.1739735e-08 3.444892e-08 0.0 1.1551782e-09 8.587218e-08 1.741817e-08
0.0 1.1228475e-09 5.2202086e-08 5.700672e-08 0.0 1.6360381e-09 9.400787e-08 5.641888e-09
0.0 1.4070343e-09 2.2630335e-08 8.423481e-08 0.0 3.2495e-09 1.03117145e-07 3.6178984e-09
0.0 1.9356425e-09 6.149625e-09 9.6652045e-08 0.0 5.485308e-09 5.555402e-08 8.234302e-09
2.6680153e-08 0.0 6.569892e-11 1.0685093e-08 2.4588413e-08 0.0 1.0916927e-10 7.459122e-09
2.852853e-08 0.0 8.805616e-11 3.5084682e-08 7.405387e-11 0.0 2.1559061e-10 6.2665904e-09
2.917069e-08 0.0 2.3020133e-10 3.4976445e-08 1.2775539e-10 0.0 3.6392236e-10 1.2998632e-09
3.380313e-08 0.0 5.768634e-10 2.502972e-08 1.00047316e-07 1.8574434e-07 0.0 8.145767e-10
1.276306e-07 1.5095618e-07 0.0 1.057499e-09 1.8189512e-08 2.580503e-07 0.0 7.113413e-10
2.7022728e-07 3.7173769e-09 0.0 1.9302102e-09 3.9326484e-09 2.671806e-07 0.0 1.1946025e-09
2.754528e-07 2.4363394e-09 0.0 3.8019388e-09 1.7318782e-09 2.7414347e-07 0.0 1.6883384e-09
1.8923954e-07 3.2957803e-07 3.3574207e-08 0.0 2.1205107e-09 3.3440008e-07 1.6390322e-08 0.0
2.1755109e-09 2.334566e-07 1.2184832e-07 0.0 2.757486e-09 3.478725e-07 4.4054236e-09 0.0
2.9886835e-09 1.9075175e-07 1.6167046e-07 0.0 5.9077068e-09 3.4207176e-07 1.9456339e-08 0.0
8.170445e-09 3.4843353e-08 3.047824e-07 0.0 1.4129464e-08 2.8498926e-07 6.140295e-08 7.77589e-08
0.0 6.9807604e-10 7.5959136e-08 6.389614e-08 0.0 8.534132e-10 4.6613536e-08 9.56157e-08
0.0 8.7227237e-10 1.4090762e-07 3.4968597e-09 0.0 1.3509824e-09 3.8682447e-08 1.0449281e-07
0.0 1.6676364e-09 1.4334283e-07 5.4310747e-09 0.0 2.2357494e-09 9.728136e-09 1.3567464e-07
0.0 3.6848762e-09 9.9232594e-08 1.5868027e-07 4.4917854e-08 0.0 9.641906e-10 1.6704786e-07
3.6002703e-08 0.0 9.843889e-10 1.14824815e-07 9.7656894e-08 0.0 1.3137059e-09 2.0871012e-07
2.8060831e-10 0.0 1.3526357e-09 8.3742954e-08 1.18867e-07 0.0 3.397399e-09 2.0749101e-07
1.1971902e-09 0.0 3.1007685e-09 1.3777869e-08 1.9459185e-07 0.0 8.363304e-09 1.5864542e-07
9.307274e-09 1.7497367e-09 0.0 2.0421408e-10 9.468098e-09 1.6733871e-09 0.0 2.2893631e-10
9.340909e-09 1.8171735e-09 0.0 3.3121594e-10 9.88158e-09 1.1257438e-09 0.0 2.939566e-10
3.9848764e-09 8.379858e-09 0.0 6.205487e-10 1.1364443e-08 3.6757977e-10 0.0 3.8608042e-10

exp_avg f4 [128]
00000000: ae8d 35b8 4879 39b9 dbd3 6bb7 1cd7 c737
00000010: 82a1 95b9 8618 7b39 7ae0 bf38 54bd 5cb8
00000020: bc25 0938 1465 c339 daa8 a4b9 f175 a3b8
00000030: 576d fe38 aeac 1eba 5c62 dfb8 86c7 91b9
00000040: e228 2d37 30e6 af38 ab69 04b9 cc75 ce38
00000050: 0237 2139 56f3 023a 0b9e 8938 0c1c 7939
00000060: 3510 e435 c50f c0b7 f385 bf38 f60c 2e38
00000070: 8a28 72b8 5e19 2c39 f1f9 a039 04b8 bd39
00000080: 26d1 8db8 12f2 ac39 e36e 13b8 def9 90b9
00000090: 92a9 e939 d5c1 2db7 c954 0639 6a9a 8d38
000000a0: f802 55b9 4136 f6b9 d6bb 2239 7cb4 85b8
000000b0: e094 43b8 8105 1dba 6ab4 6c39 9851 2639
000000c0: ddff 1739 468c 73b9 1994 2e37 c41e e839
000000d0: 5ad1 bbb9 baa8 0cb9 cc79 e237 20ff 7a36
000000e0: 7316 4eb7 9e62 e7b8 28a9 0b38 6768 8f38
000000f0: 5cc6 0a38 d67d 3c39 9ebb 3737 31b6 34b7
00000100: ece8 f9b7 c2ff 8639 900a bb38 4221 07b8
00000110: dcb1 5a39 5480 f237 a2fa c9b9 562a 853a
00000120: 2310 9537 c184 03ba feee 02b9 9a27 c1b8
00000130: c422 eeb8 bc02 6439 6226 8539 7f41 c7b8
00000140: dac4 f3b8 3eb2 c7b6 8068 78b5 7c7d 9a39
00000150: f3e5 8738 789d 42b8 ed51 9e39 48f1 83b7
00000160: 9a6b dfb8 15b9 25b9 5087 5cb8 2335 4338
00000170: 4a8e ca39 450b 0bb9 b603 e7b8 cad2 ca38
00000180: 7c9a 4039 fc10 fa38 25d9 ccb9 8838 47b8
00000190: 45da 6b36 e2b3 d238 919f 9d39 67a0 1338
000001a0: 926e a039 a13a 8e39 e8e3 02ba d4a9 0139
000001b0: 5ebe f8b7 9ae8 bcb8 20e3 0439 2c8c 4238
000001c0: db7a 8b39 2d69 60b8 fcbc 21b8 f7cd 3e38
000001d0: 150e 91b9 2867 c738 acf7 ceb7 382d 8db9
000001e0: abd9 1e38 6897 01b8 6048 3736 7c4a 1739
000001f0: 1cb9 f037 59e6 8b39 a037 3139 84ca 44b9
-4.3285712e-05 -0.00017688156 -1.4056418e-05 2.3822817e-05 -0.00028539827 0.00023946361 9.149402e-05 -5.2628413e-05
3.269849e-05 0.00037268607 -0.00031406322 -7.794414e-05 0.0001213203 -0.0006052953 -0.000106517895 -0.00027805212
1.0321122e-05 8.387526e-05 -0.00012627865 9.844787e-05 0.00015374649 0.00049953663 6.562107e-05 0.00023756939
1.6992041e-06 -2.2895527e-05 9.13254e-05 4.1496904e-05 -5.773505e-05 0.00016412648 0.000307038 0.00036185991
-6.762361e-05 0.00032986753 -3.5150802e-05 -0.00027651986 0.00044567563 -1.0356734e-05 0.00012810821 6.752166e-05
-0.00020314369 -0.000469612 0.00015519498 -6.375552e-05 -4.6630274e-05 -0.0005989895 0.00022573923 0.0001586139
0.00014495799 -0.00023226542 1.040569e-05 0.0004427341 -0.00035823399 -0.00013414296 2.6998016e-05 3.7401405e-06
-1.2283784e-05 -0.00011033307 3.329772e-05 6.838218e-05 3.30865e-05 0.00017975955 1.0951333e-05 -1.0771256e-05
-2.9791576e-05 0.00025749026 8.918822e-05 -3.2217482e-05 0.00020856358 2.8908406e-05 -0.00038524444 0.0010159712
1.7769698e-05 -0.00050170353 -0.00012486798 -9.2103335e-05 -0.000113552 0.00021744793 0.00025396334 -9.501259e-05
-0.000116238094 -5.9514123e-06 -9.2539267e-07 0.00029466662 6.480133e-05 -4.639986e-05 0.00030197148 -1.5728772e-05
-0.00010653511 -0.00015804575 -5.2578107e-05 4.654111e-05 0.00038634456 -0.00013260271 -0.000110156296 9.671373e-05
0.00018368097 0.000119240925 -0.00039071697 -4.7497946e-05 3.5144778e-06 0.00010047086 0.0003006426 3.5196917e-05
0.0003059996 0.00027128033 -0.0004993067 0.00012365665 -2.965255e-05 -9.007864e-05 0.00012673112 4.638375e-05
0.0002660368 -5.3503714e-05 -3.8561397e-05 4.549135e-05 -0.00027667047 9.508274e-05 -2.4672445e-05 -0.00026927306
3.7872855e-05 -3.0897005e-05 2.7311253e-06 0.0001442823 2.8696428e-05 0.00026683768 0.00016900757 -0.0001876746
