results/Racing/Driver/Driver-166628.onnx (onnx, 305142 bytes, 11 tensors)

discrete_act_size_vector f4 [1, 2]
000000 00 00 40 40 00 00 40 40
       3.0 3.0

network_body.observation_encoder.processors.0.normalizer.running_mean f4 [28]
000000 47 bf 88 3d 9c e2 6e 3f 64 9d a3 38 76 ad 83 3e
       0.06677108 0.9331453 7.801762e-05 0.25718278
000010 23 84 2a 3e 3d 5c 55 3f 79 07 17 38 db 00 87 3e
       0.16651969 0.8334387 3.6008165e-05 0.2636784
000020 0f bf 96 3d ce 23 6d 3f 0b b7 7b 38 88 10 8d 3e
       0.0736066 0.9263276 6.0013535e-05 0.27551675
000030 ad 62 f7 3e 75 4d 04 3f 4c 5f 49 37 73 b2 88 3e
       0.4831747 0.5168069 1.2002722e-05 0.26698646
000040 54 26 4c 3e fb f5 4c 3f 00 00 00 00 af 78 a7 3e
       0.19936496 0.80062836 0.0 0.32709262
000050 1f 00 49 3f f1 fa 5b 3e 46 5f 49 37 8b 57 8c 3e
       0.7851581 0.21482445 1.2002716e-05 0.2741054
000060 f7 47 21 3f 76 6e bd 3e 4a 5f c9 36 ab b1 c2 3e
       0.63000435 0.36998338 6.00136e-06 0.38026175

network_body._body_endoder.seq_layers.0.weight f4 [256, 29]
000000 92 cf 88 be 89 cd f2 3e 4f da a9 3d db f3 c3 3d
       -0.26720864 0.47422436 0.08293592 0.09567996
000010 a1 b8 d5 be f9 5f ac 3e fc 4a 1b be c1 64 09 be
       -0.41742423 0.3366697 -0.15165323 -0.13417341
000020 d8 7c 39 3e 61 7b f9 bd 8d 9e 17 be db 21 7f be
       0.1811403 -0.12181736 -0.14806576 -0.24915259
000030 10 cc 34 3d 57 4d 93 be 16 bd 54 bd a1 28 ea 3d
       0.04413992 -0.28769943 -0.05193814 0.114335306
000040 2c 69 de 3d d4 d9 5e bc da be cd 3d 5a 35 65 bc
       0.10859904 -0.013601739 0.10046168 -0.013989771
000050 09 f2 a0 be 59 4d 1b 3e 0b 29 27 3d de c1 9b bd
       -0.31434658 0.15166225 0.040810626 -0.076053366
000060 9e 1b 8c bd 6f 5a ad be c8 1b 1a be fd 86 79 3d
       -0.06841205 -0.33858058 -0.1504966 0.06091975
000070 0a 12 01 3f 88 d0 6a 3c 55 d6 38 3d c8 f3 fa 3c
       0.5041815 0.014331944 0.045126278 0.030633822
000080 09 34 1f 3e 7c 00 01 3d d9 d6 55 be cd 85 40 3d
       0.15547194 0.031494603 -0.20882739 0.047002602
000090 84 83 2c 3e 3b 95 bd 3d 69 ef d7 3d 13 6f 40 3c
       0.16847044 0.09256979 0.10543711 0.011745232
0000a0 a4 bb f1 3d 98 2f ae bd 23 73 6a be 0a f0 74 bc
       0.11803368 -0.085051715 -0.22895484 -0.014949808
0000b0 fd d5 1d be 63 55 9d 3e 21 0c 0a bf 8b 70 33 3e
       -0.15413661 0.30729207 -0.5392476 0.175234
0000c0 37 b1 5d be 22 b2 78 3e 9e 5a e1 bd 36 2a ac bc
       -0.21649633 0.24286702 -0.11003612 -0.021016221
0000d0 c5 69 b8 3b c9 7b d4 3e 05 6a 8f bd cd 4f 0e be
       0.005627843 0.4150069 -0.070026435 -0.13897629
0000e0 a9 c2 2e be da e7 42 be d6 fb 45 bd df 09 7b be
       -0.17066444 -0.19033757 -0.048335873 -0.24515484
0000f0 d6 2a b0 3e 60 40 0d 3e 11 cb a6 3b fb 8f 85 3d
       0.3440768 0.13794088 0.0050901254 0.06521603
000100 f8 8a 31 3e 2e 9b 6b 3e 3b 9a c7 3d 64 73 2f be
       0.17338169 0.23008415 0.09746214 -0.17133862
000110 74 17 04 bd 3f 8b 0f be 8e 54 58 3e 71 41 56 be
       -0.03224893 -0.14017962 0.21126005 -0.20923401
000120 a9 2f 67 bd e3 3e 04 bf 12 b2 5f 3e 26 c1 97 be
       -0.056441937 -0.5165846 0.21845272 -0.29639548
000130 bf c5 8b be 39 d1 06 3c 8c 17 69 be 50 66 8b bd
       -0.27299306 0.0082285935 -0.22762889 -0.06806624
000140 8a 28 7c 3d 12 0f 31 bf 2d f4 03 3e f6 46 76 bc
       0.0615621 -0.6916362 0.12886114 -0.015031567
000150 e2 74 dc 3e a3 68 42 3e 56 5f 2d be 0f 74 a9 bd
       0.43057925 0.18985228 -0.16930899 -0.082740895
000160 90 3a db 3d 7a 1b 1a bc 99 08 fe bc bb 64 55 be
       0.10704529 -0.009405965 -0.031009959 -0.20839207
000170 99 8a 73 be f9 73 35 3e 67 aa b8 ba 6b b9 2e 3e
       -0.2378334 0.17720021 -0.001408887 0.17062919
000180 f9 ae be 3d 27 1b 25 be 7f f2 1a 3e d4 53 fc bc
       0.09310717 -0.16123639 0.15131567 -0.030801691
000190 68 e0 7e bd b4 6e af 3d f0 38 3e 3e 98 dd 22 be
       -0.06222573 0.08566037 0.18576407 -0.15904844
0001a0 5b d5 c8 bd 46 77 56 3e a1 77 8e b9 5d 21 10 be
       -0.09806319 0.20943937 -0.0002717348 -0.14075227
0001b0 49 d5 14 bd 7b 77 23 3e 50 27 73 3d 76 c8 3e 3e
       -0.036336217 0.15963547 0.059363663 0.18631157
0001c0 7f 71 c2 3c 94 74 8f be 32 33 10 be 85 ef 9f 3e
       0.02373576 -0.2801863 -0.1408203 0.31237426
0001d0 0a 4a 88 be 7b 72 da 3d 09 91 42 3e eb d0 e2 3d
       -0.26618987 0.10666367 0.19000639 0.11075004
0001e0 48 6f 1b 3d a5 1b 04 be 46 c4 b3 be 03 03 9a be
       0.037947923 -0.1290117 -0.35110682 -0.30080423
0001f0 88 a6 67 3e a9 db 4c bd 06 d2 66 bd 05 08 98 be
       0.2262212 -0.05001417 -0.056352638 -0.29693618
000200 55 a6 45 be f7 4f 91 bd b1 c3 6b be f0 32 95 bd
       -0.19301732 -0.0709533 -0.23023869 -0.07285106
000210 0d db de 3d b8 0a 3b bd b7 16 ee 3d 8c 2b 9c 3d
       0.10881624 -0.04566452 0.11625426 0.076254934
000220 77 2f db 3e 65 d5 10 bf cd bd 98 3e 27 cc b5 be
       0.4280965 -0.56575614 0.29832307 -0.35507318
000230 88 71 1d bd 62 b0 89 be 4b e7 42 be d5 8c 05 bd
       -0.03843835 -0.26892382 -0.19033544 -0.03260501
000240 1b 46 63 be 92 07 74 3e 84 db 43 3e 55 f2 1a 3e
       -0.22194712 0.23831013 0.19126707 0.15131505
000250 e1 e5 1a 3e fe b6 95 bd fd 61 7f 3e bb 28 0d 3e
       0.15126754 -0.073102936 0.24939723 0.13785069
000260 98 c5 e9 3c a1 1e d4 3e 70 ef 42 3e 8b f8 3b 3b
       0.028536603 0.41429618 0.1903665 0.0028682079
000270 b1 df f6 3d 84 ae a5 bd f9 f0 d9 bd bf 2a 7f bd
       0.120543845 -0.08089927 -0.10641665 -0.062296625
000280 ee b3 ea 3e 85 46 7c 3c f5 a8 43 be 3b ef 0a 3e
       0.458404 0.015397673 -0.1910742 0.13567822
000290 4e 62 bc be 9b 61 61 be a3 77 2b bd 56 1f 0a 3f
       -0.3679375 -0.2200989 -0.04186214 0.53954065
0002a0 5f 6d 72 3d e7 e2 cb bd 0d c5 ea bd da 67 21 3e
       0.059186336 -0.099553876 -0.11463366 0.15762272
0002b0 41 89 91 be 5e c0 61 be 35 26 4b be f4 85 52 bd
       -0.2842503 -0.22046039 -0.19838794 -0.05139728
0002c0 0d 8a d6 3d 66 62 4a be f9 2b e4 bc 1c 9c 1e 3d
       0.1047555 -0.19764099 -0.027852999 0.038723096
0002d0 fa d6 69 be 33 9e 66 be 0d 3a 9c 3a c1 a1 4a 3d
       -0.22835913 -0.22521286 0.0011919156 0.049470667
0002e0 aa 97 4c be dd 74 cc bd 1d 24 89 bd 8d 17 58 be
       -0.1997973 -0.099832274 -0.06696341 -0.21102734
0002f0 63 cd 88 be cc 51 4c bd c7 c6 c6 3e 9d 93 ef 3e
       -0.26719198 -0.049882695 0.3882353 0.46792307
000300 92 61 cb be 51 1f 77 3e d9 59 0e be e7 76 d7 be
       -0.39722878 0.2413304 -0.13901462 -0.42082903
000310 64 66 8e be e5 95 8e 3e 95 76 99 be 51 b5 b0 be
       -0.27812493 0.27848735 -0.29973283 -0.34513333
000320 07 d5 2a 3d 6e 87 5f be cc 92 a7 3e 84 2e 4d be
       0.041707065 -0.21829006 0.32729185 -0.20037276
000330 37 5c 05 3e 4e 43 bd be 0c 06 b5 bd 2c 37 05 be
       0.13023458 -0.36965412 -0.08839044 -0.13009328
000340 d3 78 e2 bd f6 9e 46 3e ab ec bb be 0e a9 f0 3d
       -0.11058202 0.19396576 -0.36704 0.117509946
000350 a9 5f 2b be 4a d3 4d be 5c 1e 8b be 50 4d 75 bc
       -0.1673571 -0.20100132 -0.271716 -0.014972046
000360 1c 01 40 3e 57 9b 35 3e d2 48 fb 3d 64 bf bf 3e
       0.18750423 0.17735039 0.12269749 0.37450707
000370 36 70 b1 be 51 84 1c be ad ed 94 be 6f 81 85 3d
       -0.34655923 -0.1528485 -0.29087582 0.06518828
000380 f4 f3 ae 3d 04 38 65 be 5c 72 66 3e 5d fa e2 3d
       0.08542624 -0.2238465 0.22504562 0.11082909
000390 11 03 95 be 65 2f fb 3d 21 8c f5 3d 96 24 71 be
       -0.29103902 0.12264899 0.11989618 -0.23549113
0003a0 13 95 bb be 5f 54 65 bd 4a e7 96 bd 24 8d 16 3e
       -0.36637172 -0.055988666 -0.07368334 0.14702278
0003b0 3e 06 0e 3e b8 77 7f 3c 3f 12 19 bd 3c a3 34 3d
       0.13869569 0.015592508 -0.037370916 0.044100985
0003c0 8d 66 05 bf 6f 48 ce bc fd 7a 6f 3e 11 a2 7c be
       -0.52109605 -0.025181023 0.2338676 -0.24671198
0003d0 7a 3f d7 3a 7b fe a2 3e a6 45 c9 be 38 11 8f be
       0.0016422116 0.31834778 -0.3931095 -0.27942824
0003e0 d8 4f 06 bd e2 93 8f be ea 9c 8e bd 93 8a a2 bb
       -0.03279099 -0.28042513 -0.06963523 -0.004960367
0003f0 ed 9e a4 3d 53 75 25 3e ee aa 0c be 1c 57 b0 3c
       0.08038125 0.16158037 -0.1373708 0.021525912

network_body._body_endoder.seq_layers.0.bias f4 [256]
000000 a6 1d 9a 3d 89 19 ee 3c 51 ff 94 3d 41 0e ce bc
       0.07525186 0.02906491 0.0727526 -0.025153281
000010 9b a5 c6 3d 27 ec 15 bc 29 56 77 bd 08 80 39 3d
       0.096995555 -0.009150541 -0.060384903 0.045288116
000020 75 43 5b 3d fc 7d fd 3c ca b5 50 3d ab b6 61 3d
       0.05353113 0.030943863 0.050954618 0.055105846
000030 38 06 78 3d af d8 7c 3d 45 bc 4e 3d 86 06 43 3c
       0.060552806 0.061730083 0.050472517 0.011903411
000040 25 5d 12 bb c6 37 f9 bc 42 06 15 3d 76 fd 16 bb
       -0.002233335 -0.030422103 0.03638292 -0.0023039258
000050 15 99 e2 3d df f2 9b 3d d7 71 97 3d e0 ec aa 3d
       0.11064354 0.07614683 0.0739476 0.083459616
000060 12 63 ee 3c 59 1f 90 3d b4 25 2a bd aa ec ad 3c
       0.029099975 0.07037229 -0.041539863 0.021231014
000070 dc d3 fd 3b 54 49 60 3c b0 62 9f 3d e5 75 80 3d
       0.007746203 0.013689358 0.07782495 0.062724866
000080 f0 98 7b 3d 4c c6 08 3d 01 6c 24 3d 91 d8 8c 3d
       0.06142515 0.033392236 0.040142063 0.06877244
000090 13 ec 39 3c f9 40 50 3d 36 a0 2b 3d 42 7b 12 3d
       0.011347788 0.050843213 0.041900836 0.03576208
0000a0 80 a6 06 3d 72 c2 47 3d 4a 9f 8d 3d b8 e8 c4 3c
       0.03287363 0.048769422 0.069151476 0.02403675
0000b0 fc 36 54 3d 77 d7 0d 3d 80 d4 f2 3a 6c 9f 82 3d
       0.05181025 0.03462931 0.0018526465 0.063780636
0000c0 b3 1f 80 3d 68 76 24 3d e5 5a cc 3d af 23 28 3d
       0.06256046 0.040151983 0.09978274 0.041049656
0000d0 e8 a1 4a 3d 36 53 b5 3d be 21 84 3d 5f c3 51 3d
       0.049470812 0.08853762 0.06451748 0.05121171
0000e0 e2 de 90 3d 91 a7 fe 3c 39 58 91 3d e0 9a 9b 3c
       0.070737615 0.031085761 0.07096905 0.018994749
0000f0 86 ac b0 3c 1d e2 24 bc bc b7 8d 3c ce 53 96 3d
       0.02156664 -0.010063675 0.017299525 0.07340203
000100 ed 5d aa 3d c7 48 03 3d 2e 9c 88 3d 52 c2 58 3d
       0.08318696 0.032051828 0.06670414 0.052919693
000110 1e 3e 5f 3d 7d ef 1d 3d 15 0a 63 3d d1 39 72 3d
       0.0545026 0.038558472 0.055429537 0.05913717
000120 46 c2 a1 3d 08 c2 82 3d b4 d7 3f 3d 0f 07 14 3d
       0.07898383 0.06384665 0.04683657 0.036139544
000130 48 d9 8b 3d 41 b6 0e 3d 79 8b a2 3d e0 e6 8c 3c
       0.068285525 0.03484178 0.079367585 0.017199934
000140 63 2a 31 3d 11 dd 6c 3c c4 4e a3 3d e1 a2 3f 3d
       0.043253314 0.014457003 0.07974008 0.046786193
000150 88 91 8d 3d 58 1c eb 3c 05 d8 b1 3d 88 85 b9 3c
       0.069125235 0.028700039 0.086837806 0.02264668
000160 5d 60 3d 3d 58 36 c1 3d 65 61 8e bc 2b ce 58 3d
       0.046234477 0.094341934 -0.017380426 0.052930992
000170 d1 58 3a 3d b7 6a 88 3d 33 f5 b7 3d e7 ed 91 3d
       0.04549486 0.06660979 0.08982315 0.071254544
000180 30 1e e0 3b 3a 02 17 3d be 0c ce 3c fd cc 44 3c
       0.006839536 0.036867358 0.02515256 0.012011764
000190 22 eb 4a 3d 4e 94 5a bc 1d 0d ed 3c 47 b4 86 3d
       0.049540646 -0.013341023 0.028936917 0.06577354
0001a0 12 4d 55 3d 36 36 39 3d 3a c1 e5 3c b0 3d 38 3d
       0.052075453 0.045217715 0.02804624 0.044980705
0001b0 78 12 5b 3d 27 69 6d 3d 07 a9 cd 3c 5f af 0e 3c
       0.05348441 0.05796161 0.025105013 0.008708804
0001c0 f3 c8 f5 3d 8c 08 76 ba 0e 49 7d 3d 8f 5d 89 3d
       0.12001219 -0.0009385429 0.06183725 0.06707298
0001d0 3a cc 1c 3d 75 74 79 3c ed a1 5e 3c 8a eb 2b 3c
       0.038280703 0.015225519 0.013588411 0.010493169
0001e0 68 18 00 3e 9d c4 0c 3d 1c 9f 64 3d 3c 17 a6 3d
       0.1250931 0.034367193 0.0558158 0.081099
0001f0 00 55 05 3d 7e e8 68 3d e1 b1 91 3d d7 a7 6a 3d
       0.032551765 0.056862347 0.07114006 0.05728897
000200 92 22 30 3d df d7 0a 3d 50 a4 b0 3d ef 1b ca 3c
       0.04300172 0.033897277 0.0862509 0.024671523
000210 44 b3 8f 3d 79 52 7e 3d 6c a8 31 3d 6f b1 f6 3c
       0.07016614 0.06209037 0.04337351 0.030113904
000220 16 90 86 3d e5 8c 9e 3d 8e 86 d1 3c 7b af 81 3d
       0.06570451 0.07741717 0.025576856 0.06332298
000230 ae 31 a2 3c 45 1c 00 bd bd 76 18 3d 8f 61 63 3d
       0.01979908 -0.03127696 0.037222613 0.05551296
000240 a2 80 8a 3d fc b0 1a 3d 55 e4 c1 3d 42 69 e3 3c
       0.06762816 0.03776644 0.09467379 0.027760152
000250 8e e4 9e 3d aa 27 f0 3c af d3 5a 3c 54 6b 85 3d
       0.07758437 0.029315788 0.013356133 0.06514612
000260 8f a8 70 3d 9d 19 c8 3d 57 ee 51 3d 3b a0 8b 3d
       0.0587545 0.0977051 0.05125269 0.06817671
000270 a9 6d 68 3d 5e 01 5a 3c 8c ad 29 3d 97 26 75 3d
       0.056745205 0.01330599 0.041425273 0.059851255
000280 49 17 a7 3c 7b 86 9e 3c ce a4 a2 3b b7 7f 86 bd
       0.020396845 0.019351235 0.004963494 -0.065673284
000290 b2 04 85 3d b8 4c 85 3d 29 11 90 3d 1d e0 45 3d
       0.06495036 0.065087736 0.07034523 0.048309434
0002a0 5f db 32 bd 38 b0 12 3d 88 58 a3 3d f5 9c b1 3d
       -0.04366624 0.035812587 0.0797587 0.08672515
0002b0 ce 98 1a 3d 37 7a 22 3c a7 6d bf 3d 56 59 69 3d
       0.037743382 0.009916834 0.093470864 0.056969963
0002c0 d6 ca fb 3c df 7b a9 3d 6a bd 49 3d fc 8e 9f 3d
       0.030736368 0.0827558 0.049252905 0.07790944
0002d0 d7 8f d4 3c c9 e0 08 3d 9d e4 ec 3c b2 00 87 3d
       0.025947494 0.033417497 0.028917605 0.065919295
0002e0 06 00 de ba 0d ec 67 3d 73 41 b9 3c ed 11 c8 3d
       -0.0016937263 0.0566216 0.022614216 0.09769044
0002f0 46 33 92 3d 24 9b 97 3d 88 ca b4 3c 00 ab 53 3d
       0.07138686 0.074026376 0.02206923 0.05167675
000300 82 bb a2 ba cf a7 6d 3d 99 ed a5 3d f0 92 3f 3d
       -0.0012415501 0.058021363 0.08101959 0.04677099
000310 4c 45 90 bb a4 7c ec 3c 32 eb 4c bc 26 0e 94 3d
       -0.004402792 0.028868027 -0.012507247 0.07229261
000320 b6 39 54 3d e4 50 2a 3d 07 e5 2c 3d 9a 8d 8b 3c
       0.05181285 0.04158105 0.042210605 0.017035294
000330 51 79 81 3b 0c 3b ae 3c e2 fa 3c 3d b6 2d 98 3c
       0.0039512296 0.02126839 0.046137698 0.018576484
000340 f1 bb cf 3d 0a 62 0a 3d 6f a1 29 3d 2e 39 e3 3c
       0.10143269 0.033784904 0.04141372 0.027737226
000350 64 17 a5 3d 32 99 6d 3d 81 75 b0 bc cb 66 f8 3c
       0.08061102 0.058007427 -0.021540405 0.030322453
000360 a2 45 b1 bd c7 e9 7a 3d 62 8e 3e 3d c7 de 8f 3d
       -0.086558595 0.061258104 0.046522506 0.07024913
000370 65 ec 28 3d 1b ae 34 bd 3a f2 9c 3d 5f 85 7d 3d
       0.04124107 -0.044111352 0.076633886 0.06189477
000380 cc 8a 93 3d 29 65 9e 3d 79 a6 1a 3d 16 67 57 3d
       0.07204208 0.077341385 0.037756417 0.052588545
000390 63 e6 12 3d 7c 49 05 3d e7 93 85 3c e3 d5 94 3d
       0.035864245 0.032540783 0.016305877 0.07267358
0003a0 b2 be d9 3c 78 59 0e 3b 87 79 f0 3b 9f 18 74 3d
       0.026580188 0.0021720808 0.007338706 0.059593793
0003b0 19 17 93 3d ec fb 95 3d 84 51 4d 3d fd 97 ca bc
       0.0718214 0.07323441 0.050126567 -0.024730677
0003c0 45 f8 d1 3c 21 bc 0a 3d 94 ca 32 3d d4 aa 6f 3d
       0.02563108 0.03387082 0.043650225 0.058512524
0003d0 97 64 9e bc 0d 57 8a 3d e3 86 86 3d f2 6c 45 3d
       -0.019335074 0.06754885 0.06568696 0.0481996
0003e0 04 9a 62 3d c5 a5 a0 3d 04 13 94 3d ac b9 5c 3c
       0.055322662 0.07844118 0.072301894 0.013472002
0003f0 44 b2 8f 3d fd c7 0c 3d bf 67 14 3d 49 01 5d 3d
       0.07016423 0.03437041 0.036231752 0.053956304

network_body._body_endoder.seq_layers.2.weight f4 [256, 256]
000000 2d 16 4c 3c e9 9f 08 3e 3a fa b2 bd 83 af 11 bd
       0.012456459 0.13342251 -0.08739133 -0.03556777
000010 8a 5b 9b 3c 06 fb a7 bd 21 86 7c 3b b1 00 14 3e
       0.018964548 -0.08202176 0.0038532095 0.14453389
000020 ed 2f 31 3d 19 d0 e4 3d e8 27 b1 3d 51 c7 25 3d
       0.043258596 0.11172504 0.0865019 0.040473286
000030 9d f0 ef 3c 62 65 2e 3d 2d b8 0e 3d 15 86 85 3c
       0.029289538 0.042577155 0.034843612 0.016299287
000040 c8 ba 63 bc 93 2a 08 3d 95 33 de 3a ed 92 85 bd
       -0.013899513 0.033243727 0.0016952629 -0.065221645
000050 8b 76 a8 3d 4d 3d d9 bc d3 12 72 3d d7 f2 95 3c
       0.08225735 -0.026518488 0.059099983 0.018304272
000060 74 55 ba 3d f1 87 ca 3b e6 38 a2 bd 02 79 4c bd
       0.0909833 0.0061807563 -0.07921009 -0.04992009
000070 95 29 bc 3c eb ab 3e 3d 27 68 00 bb f8 01 e6 3c
       0.022969047 0.046550673 -0.001959333 0.02807711
000080 f2 31 3c bd bd 54 80 3c 1b 03 74 3e 71 89 0a 3d
       -0.04594607 0.015665406 0.2382931 0.03382248
000090 b5 31 04 bd 93 3e 0b 3e 6b 43 aa bd 59 7e 03 3c
       -0.032273967 0.13598089 -0.0831364 0.008025729
0000a0 c7 63 72 bc 05 47 50 3d 02 cf 6d 3d c6 61 d9 bc
       -0.014794297 0.05084898 0.058058746 -0.02653588
0000b0 fb 2d 23 be ea 0b e0 bd da 69 51 bc ae 49 13 3d
       -0.15935509 -0.109397724 -0.012781585 0.03595894
0000c0 41 60 54 bd 10 24 4a 3d c5 51 bb 3c c6 b0 84 bd
       -0.051849607 0.049350798 0.02286614 -0.06479029
0000d0 df d4 33 3e cc 66 5f 3d 33 96 b7 bc e3 e4 d7 3c
       0.17561673 0.054541394 -0.022410488 0.026354259
0000e0 25 28 29 3e fc c2 ce bc 49 b5 a6 bc dc 68 09 bd
       0.1651922 -0.02523946 -0.020350115 -0.033547267
0000f0 9e a3 9f 3c 10 fb 18 bd 50 70 ba 3d 32 cb 4f 3d
       0.019487198 -0.037348807 0.09103453 0.05073089
000100 cb 9e 87 bd 9c 31 b9 bd f3 8b c5 bd ec ab 1e 3d
       -0.06622084 -0.09042665 -0.09645834 0.038738176
000110 f4 ca 04 be 49 ea 93 3d 37 cb 5b 3d f2 ec 28 bc
       -0.12968045 0.07222421 0.053660598 -0.010310398
000120 1d 1c cf bc e8 65 ef bc 92 d1 de bc dc 66 07 3e
       -0.02528196 -0.029223397 -0.02719954 0.13222831
000130 ab 0d f2 3c e7 4f 07 3d 40 09 0f 3e dd cf ab 3d
       0.029547533 0.033035185 0.13968372 0.08389256
000140 46 4f 55 3d bc be 84 3c 4b 0b b7 bc 8d d0 29 3d
       0.052077554 0.01620423 -0.022344252 0.041458655
000150 8b 0e f8 3c 04 18 ac 3d af b4 d3 3c 7d 00 96 bb
       0.030280372 0.08403018 0.025842993 -0.004577695
000160 eb 15 a8 bd 1b b7 68 3d 59 c0 0d 3c c9 a0 82 3d
       -0.082073055 0.056815248 0.008651816 0.063783236
000170 3e 5a 91 bd d1 0a 57 bd 70 23 5b bd 47 cf 20 bd
       -0.070972905 -0.05250055 -0.053500593 -0.039260175
000180 88 da b9 3d d6 c7 f1 3d 8f eb 46 3d 0e ae 2e 3d
       0.09074885 0.11805694 0.04856449 0.04264646
000190 1f c3 59 3c 7b a3 b0 bb 86 82 22 3b 7b 88 07 bc
       0.013291149 -0.005390582 0.0024797036 -0.008272286
0001a0 ef 33 75 3d bd d5 fa bc f4 4c 12 bc 59 80 84 bd
       0.05986398 -0.030619496 -0.00892948 -0.06469793
0001b0 bd c8 6f bb a7 0d 97 3b 4f 5d f7 3c a2 ae dd bd
       -0.0036588155 0.004609782 0.03019586 -0.10824324
0001c0 f5 87 2f 3e f6 52 fc 3d 8f fb ab 3d 94 db 00 3e
       0.17141707 0.12320511 0.0839759 0.12583762
0001d0 34 17 e3 bc c1 f5 d2 3c 80 fa 88 3c a0 07 f3 3c
       -0.027721025 0.02575195 0.01672101 0.029666722
0001e0 3a 1c 0e 3e f7 45 8c 3d 40 c4 d6 3b c2 13 55 bd
       0.13877955 0.06849282 0.0065541565 -0.052020796
0001f0 08 03 96 3c 52 7c ae bd 77 4d 62 3d 7c a4 24 3d
       0.018311992 -0.08519806 0.055249657 0.040195927
000200 5c 95 83 bd 85 8e 84 3c c4 b2 75 3d 71 a1 2d bd
       -0.064249724 0.01618124 0.059984937 -0.04239029
000210 84 1e 40 bd 16 ea 8c bd 4a d0 73 bd 40 dd e7 3d
       -0.046904102 -0.06880586 -0.05952481 0.11321497
000220 53 d1 ce bc 99 f6 00 3b d2 58 44 3c e2 7f 13 bc
       -0.025246298 0.0019678234 0.011984067 -0.009002658
000230 d4 53 13 bb cd e8 70 3d 1b 25 7c bd f7 89 58 3d
       -0.0022480385 0.058815766 -0.061558824 0.05286595
000240 36 90 7a bd f4 5b 90 bd 5a 88 b5 bc 40 2b 99 bb
       -0.061172687 -0.07048789 -0.022159744 -0.0046743453
000250 60 46 12 bd 2a 4a fb bc 88 14 0f bd 24 06 c5 bd
       -0.035711646 -0.030675013 -0.03493169 -0.09620312
000260 a8 6f cb bd 33 2f 1d 3b 8b a3 10 bc cb c1 8c 3d
       -0.09933406 0.0023984432 -0.008828054 0.068729006
000270 fb 2f c6 3c 5e 75 a8 bc 5a 7f 39 3d b2 83 83 3c
       0.0241928 -0.020563778 0.045287468 0.016054008
000280 c9 b3 b4 3d 83 e2 04 be 44 0c 17 3e d5 f7 0b 3e
       0.08823354 -0.12977032 0.14750773 0.13668759
000290 d7 1c 40 3d b5 d4 d1 bc 2b 79 8c bc d9 d9 9c 3d
       0.046902504 -0.025614122 -0.017147621 0.07658739
0002a0 7e 40 84 bd d1 97 86 bc 94 cd 1d bd 2c 78 83 3d
       -0.064576134 -0.016429814 -0.038526133 0.06419405
0002b0 c8 2b d2 bc dd de 93 bd ff c9 51 3d 19 c6 b0 3d
       -0.025655642 -0.07220242 0.05121803 0.08631534
0002c0 25 8e b2 bc cd 35 d0 3d fc bf 0f 3d 6e e2 75 3d
       -0.021796295 0.10166512 0.0350952 0.060030393
0002d0 96 99 93 bb 43 1f 3e bc e2 2e 87 bc 7d 69 f8 3d
       -0.004504393 -0.011604133 -0.016501848 0.12129495
0002e0 0e 25 e0 3d f3 45 a1 3d aa 96 4a 3d 1c 39 89 3d
       0.109445676 0.0787467 0.04946009 0.06700346
0002f0 69 65 1a 3e 88 f7 f8 3c a8 c1 ac 3c c2 6d 35 3d
       0.15077747 0.03039147 0.021088436 0.044294126
000300 a9 4a 5c bd 8a 7f 19 bd 56 9d 80 bc 88 f9 8f bd
       -0.05378214 -0.037475146 -0.015700024 -0.07030016
000310 d5 34 8c 3d 58 94 f6 bc 7a 27 5a 3d 46 7f 55 3d
       0.068460144 -0.030100033 0.053260304 0.05212333
000320 6e 92 4b 3d c1 99 6c 3d 79 60 bf 3d 6e 13 4e bd
       0.049700193 0.05776382 0.093445726 -0.0503115
000330 31 0f 08 bc a2 02 1f bd c3 40 b4 bc 08 79 a9 bd
       -0.008304403 -0.03882087 -0.022003537 -0.08275038
000340 5b c8 5e 3d 35 ff 94 3d 14 e8 35 3c 0e b0 dc 3c
       0.054390293 0.072752394 0.011102695 0.026939418
000350 cc 06 70 3c 5e d8 05 bd e5 2c 26 3d 27 36 10 3e
       0.014650058 -0.032677047 0.04057016 0.14083157
000360 39 ab a0 3c 82 e7 9c bc 59 c9 2e bd 37 6a d2 bc
       0.019612895 -0.01915336 -0.04267249 -0.025685413
000370 94 1d f1 3b ee e9 14 3d 2b 02 b7 3d 17 62 5e 3d
       0.0073582623 0.036355905 0.089359604 0.054292765
000380 c1 61 c3 ba 7c 92 4a 3d ee 5d e9 3c d0 0b b4 3d
       -0.0014906452 0.049456105 0.028487172 0.087913156
000390 6d 10 e1 3d 92 9f 7a 3e d5 4b eb bd 11 3d 27 3c
       0.10989461 0.24474934 -0.11489073 0.01020743
0003a0 48 2c a2 bd 3e 7f 11 3c 3d b4 cc 3d 51 6c 93 3d
       -0.07918602 0.008880435 0.09995315 0.07198394
0003b0 a2 9c f3 bc 17 40 d1 3d a5 43 67 bb 57 1a 0f 3e
       -0.029737774 0.10217302 -0.0035288122 0.13974892
0003c0 c2 69 55 3d a0 50 af bd 17 36 73 3b ce 06 03 ba
       0.05210281 -0.085603 0.0037111097 -0.00049982674
0003d0 ff 09 ab 3c 13 d8 df bd 38 1a 4e 3e d8 3d 29 bd
       0.02087879 -0.10929885 0.20127189 -0.041318744
0003e0 a6 50 39 bd 1f 4d a5 3d 93 75 43 3d c1 1e 5a bc
       -0.045242928 0.0807135 0.04771955 -0.013312996
0003f0 1f 82 30 3d 06 de d9 bc 7c b2 14 3c e9 c7 aa bc
       0.043092843 -0.026595127 0.009075757 -0.020847278

network_body._body_endoder.seq_layers.2.bias f4 [256]
000000 58 64 25 3d 5f 4d a6 3c ee b4 8a bc 4c 34 12 bd
       0.0403789 0.020300565 -0.016931977 -0.035694405
000010 8d 85 99 3d 13 e8 38 bd 2a 2b 50 3c a5 37 3a 3c
       0.07496176 -0.0451432 0.012705604 0.011365806
000020 b9 c3 64 3d 68 d8 46 bd ea 91 d2 3c c9 0e 0d bd
       0.05585072 -0.048546225 0.025704343 -0.03443793
000030 11 b3 bd 3c 78 59 03 bd d7 35 9f 3b b1 a8 e4 b8
       0.023156675 -0.032067746 0.004858713 -0.000109033084
000040 6e 8f 15 3d e7 f0 eb bc bd 2c 21 3d 29 a7 b0 3c
       0.03651374 -0.028801395 0.039349306 0.021564083
000050 9b 89 1a be 6c 70 91 3c 62 ad 46 3d 71 0e 0f bd
       -0.15091555 0.017753802 0.048505194 -0.03492588
000060 e0 28 ec 3c b2 49 33 bc 1e 93 8c 3c 77 a7 fd bc
       0.028828084 -0.010942863 0.017159995 -0.030963643
000070 d8 c9 bf bb 52 8a 0b 3d 37 ce 37 bd e0 36 fc bb
       -0.005852919 0.03406746 -0.044874396 -0.0076969713
000080 bc db 16 3d 84 25 76 3c 9f 74 18 bc 8d ae 39 3d
       0.03683065 0.015023593 -0.009305148 0.04533248
000090 02 83 28 bc e6 2b d0 3c 59 31 48 bc 4c 68 cc 3c
       -0.010285141 0.025411557 -0.012218797 0.024952076
0000a0 d8 f1 80 3d c3 46 23 3d d8 95 17 3d a3 c8 a2 3c
       0.06296128 0.039862406 0.037008137 0.019871062
0000b0 9c f8 29 3d ea 99 01 3d 33 f0 a8 3d 8f 94 00 3d
       0.041496858 0.031640925 0.08248939 0.031391677
0000c0 48 86 e1 3c 02 18 2c bd e5 0f 1e bd ec 74 98 bc
       0.02752985 -0.042015083 -0.038589377 -0.01861044
0000d0 f6 75 44 bd 83 34 f7 3c b0 38 69 3d 71 b5 ed 3c
       -0.04796406 0.030176407 0.056938827 0.029017182
0000e0 cf 78 71 3d 59 9d f2 3c f1 d2 47 bd 77 fa 42 3d
       0.058953103 0.029616045 -0.048785154 0.047602143
0000f0 d4 58 d1 3c fe db a3 3c fe cd 2c bc d1 b2 c1 3c
       0.025555052 0.020002361 -0.010547159 0.023644837
000100 ca 1d cf 3c 0b e6 a3 3c 97 2b aa 3c 70 35 a8 bc
       0.02528276 0.020007154 0.020772738 -0.020533293
000110 47 d8 24 3d 81 6f ee bc 40 e3 61 3d 66 70 04 3c
       0.04024532 -0.029105904 0.055148363 0.0080834385
000120 0d cc 6a 3d bc 93 8a 3d 6b c5 17 3d 9f 2c 34 3d
       0.057323504 0.06766459 0.037053507 0.043987866
000130 c9 20 08 3d cc 35 00 bd af 11 57 3d 3f 24 bd 3c
       0.03323439 -0.031301305 0.0525071 0.023088573
000140 f2 3d 1c 3d 48 fa 41 3d ba 24 36 3d de db be 3c
       0.038145013 0.047357827 0.04446862 0.0232982
000150 c9 4f f0 3c 10 bc ee 3c ad 5a 20 3c 2f 94 a3 3c
       0.02933492 0.02914241 0.009787244 0.01996812
000160 dd 49 22 bb 11 ce 71 3d 4a e5 11 3d d5 86 b8 3c
       -0.0024763264 0.05903441 0.035619058 0.02252523
000170 e9 83 f9 3c 5c d8 0d 3d f3 58 91 3d fb 5e 8f 3d
       0.030458407 0.034630165 0.07097044 0.07000538
000180 e1 a1 bc 3b 89 67 49 3d 73 6d 46 3d d9 73 07 3d
       0.005756602 0.049171004 0.048444223 0.033069465
000190 1e 87 6c 3d 0f 87 0d 3d b8 a5 0a 3d 66 d2 f7 bc
       0.057746045 0.03455263 0.033849448 -0.030251693
0001a0 d4 6e f3 ba 1a 01 b5 bc fa 30 6c 3d 2c 9e 1a 3d
       -0.0018572458 -0.022095252 0.057663895 0.0377485
0001b0 55 82 38 bd 51 ba e7 bc 17 c3 22 3d 6c 63 91 bc
       -0.04504617 -0.028287085 0.039736833 -0.017747603
0001c0 9d b6 44 3d 8c f3 44 3d c5 6d 7c 3c 7f 11 86 3d
       0.048025716 0.048083827 0.0154070305 0.06546306
0001d0 bb 12 90 bc ed 54 8d 3c 9f 03 dd 3b e3 80 05 3d
       -0.017587056 0.01725241 0.0067448164 0.03259362
0001e0 be b2 c0 bc 8b 72 06 3d 40 77 5f 3b 7b 3d da 3c
       -0.02352273 0.03282408 0.0034098178 0.026640644
0001f0 17 fe 0f bd ba 87 a5 3c 9e 3a 23 bd 3b 37 56 3d
       -0.03515443 0.020206321 -0.039850824 0.052298766
000200 cc a4 99 bc e8 a4 1c 3d ec 9f 10 3d 8d 27 fd 3c
       -0.01875534 0.038243204 0.035308763 0.030902648
000210 8a 59 1e 3d 27 19 50 3d 7d 35 e0 3c 0f 4d de 3c
       0.03865961 0.050805237 0.027369255 0.027136354
000220 61 3c f6 bc 61 da d0 3c 5f d5 ff 3c 3c 8c fb bc
       -0.030058088 0.025494756 0.031229673 -0.030706517
000230 a4 72 b1 bb 42 ce 2e 3d 1b 4c 7a 3d f2 bc 34 3c
       -0.0054152776 0.04267717 0.061107736 0.011031376
000240 27 38 44 3b 5b 93 46 3d 7f 71 18 3d bc fe cb 3c
       0.0029940696 0.048480373 0.037217613 0.02490174
000250 4c 8b 2b 3d be c6 47 bc 32 fd 1f bd 97 ca 00 bd
       0.04188089 -0.01219338 -0.039059825 -0.031443205
000260 97 e9 43 3d 0c 13 f5 bc 92 ab 3b 3c 91 44 6b bc
       0.04783019 -0.029916309 0.01145448 -0.014359609
000270 c5 69 03 bb ed 6e aa 3c 69 e3 0e bc 02 59 e2 3c
       -0.0020052057 0.020804847 -0.008721211 0.027630333
000280 15 dd ab bc 18 a6 84 bc db 2b 34 3d c1 18 45 3d
       -0.020979444 -0.01619248 0.043987136 0.04811931
000290 8c ec 6f 3c 70 52 48 bd 44 ee 8a bd 3f 5b 33 3d
       0.0146437995 -0.048906744 -0.06783727 0.04378819
0002a0 cd 0a b0 bc 38 ab 0c 3d 3c 77 75 3d 12 60 70 3c
       -0.021489525 0.034342974 0.059928164 0.014671342
0002b0 70 f2 32 bd 88 bc a9 b9 d6 85 5e 3d 24 09 68 3d
       -0.043688238 -0.0003237466 0.054326855 0.056649342
0002c0 10 9c f1 bc d1 9b 9f 3d d9 44 f6 bc f7 ee 14 bd
       -0.029493362 0.077933915 -0.030062126 -0.036360707
0002d0 fd 86 48 3c 4d e4 36 3d e8 c1 10 3d d4 a9 5f bc
       0.012239215 0.04465132 0.035341173 -0.01365133
0002e0 97 ba 84 bc 2c 89 01 3d 24 f9 7d 3d 3e ce cc 3c
       -0.016202254 0.031624958 0.062005177 0.025000688
0002f0 2f d2 e2 3c 3f 3e 28 bd 9d 56 32 3d ca 3f 13 bd
       0.027688114 -0.041074988 0.043539632 -0.035949506
000300 dc 41 2a 3d 2f bb e9 3c 70 ed c7 bc 2c 1e 21 3d
       0.041566715 0.028531639 -0.024405211 0.039335415
000310 e5 89 84 ba 39 3f 45 bc 55 91 0d 3d 55 26 3e 3d
       -0.0010111897 -0.012038999 0.034562428 0.046423275
000320 75 f9 cb 3c cc 60 49 3c 91 2d da 3c 40 8e 1a 3d
       0.024899224 0.012291145 0.026633056 0.037733316
000330 6a 84 1a bd 9d a2 02 bd b7 f3 3b 3c 51 08 b0 bc
       -0.037723936 -0.03189336 0.01147168 -0.02148834
000340 36 9c 89 bc ad 4d e1 3b bd 56 a5 3c c9 fb cb 3c
       -0.01679812 0.0068757148 0.020182962 0.024900334
000350 16 58 ed 3c bf 3f 44 bd 09 1c 9d 3c 32 4a 42 3d
       0.028972667 -0.047912356 0.019178407 0.04743404
000360 06 47 92 bc 1c 0a 06 3d d0 f0 35 3d 6f 88 ab bc
       -0.017856132 0.032724485 0.04441911 -0.02093908
000370 b2 2d 0e 3b 50 86 d5 3c 51 b5 96 3d 58 a7 03 3d
       0.0021694717 0.026065022 0.07358802 0.032142013
000380 a0 56 02 3d 2b 82 96 3c 08 12 f5 bc 9a 52 97 3c
       0.031820893 0.018372616 -0.029915825 0.018472005
000390 91 49 7d 3d b6 9d ee 3c c7 7a c3 3c ee b7 c7 3c
       0.061837737 0.029127937 0.023862256 0.024379697
0003a0 38 f5 d7 bc bf 9d f7 3c 0b b0 f2 38 fe ce 8b 3c
       -0.026362047 0.030226586 0.0001157225 0.017066475
0003b0 be bc b6 bc a9 c8 af 3c ae 62 30 bc 09 34 60 3c
       -0.022306796 0.021457987 -0.010765715 0.013684281
0003c0 cd 60 02 3d f8 56 f9 3c 9c 66 b1 bc 13 23 00 3d
       0.031830598 0.030436978 -0.021655373 0.03128345
0003d0 55 c4 08 3d 81 da db 3c ce 98 07 3d 41 3e 05 bc
       0.03339036 0.02683759 0.03310471 -0.008132518
0003e0 c0 87 70 3c 82 a7 0a 3d a1 78 6e 3c 68 3c 63 3b
       0.014680803 0.033851154 0.014555127 0.0034673456
0003f0 4b 54 3c bd 5b 52 e2 bc 04 58 3c 3d 21 f7 c9 3c
       -0.045978826 -0.02762716 0.045982376 0.024653973

action_model._discrete_distribution.branches.0.weight f4 [3, 256]
000000 7b 29 31 bc 78 fa 81 3c 6a 91 ed 3d 9c 30 b6 3d
       -0.010813112 0.015866503 0.11600001 0.0889599
000010 16 dd 14 bd ed 39 4a 3d 8e 53 82 bc 1d e4 7f bc
       -0.036343656 0.04937165 -0.015908983 -0.015618351
000020 85 2b e8 3c f5 06 c6 bc 42 7d b4 3c 7c d9 62 3d
       0.028341064 -0.02417324 0.022032384 0.05538319
000030 86 94 3a bc b8 e3 54 3d 7a 55 55 3c c5 37 6f 3c
       -0.01138795 0.051974982 0.0130208675 0.014600699
000040 08 f0 8a 3d 29 97 7b 3c aa d9 08 3a 5a f7 51 bc
       0.067840636 0.015355864 0.0005220423 -0.012815321
000050 16 d2 2c 3e 42 55 5c bd 9b 5f b5 3c 8c b6 1e 3d
       0.16877016 -0.053792246 0.022140315 0.03874831
000060 fd e7 23 3d 2a 5a 8d 3c 09 e9 39 3c 6a 72 5f bc
       0.040016163 0.017254908 0.011347064 -0.013638118
000070 71 6a 37 3b 8d 60 a8 3c 63 a6 34 bd f9 b9 91 3c
       0.0027987028 0.020553852 -0.04410399 0.017788874
000080 fd 22 c3 3b 64 b0 b9 bb 6a 5f 17 3c 79 25 1f bb
       0.0059550987 -0.0056667794 0.009239057 -0.002428381
000090 ef 30 95 3d a6 f5 07 3c 95 4f 02 3e 22 5c cf bc
       0.07284724 0.008298313 0.1272567 -0.025312487
0000a0 f8 93 f2 bb fe 94 4c bc 98 30 76 3c c6 f9 02 3d
       -0.007402893 -0.012486694 0.015026234 0.031976484
0000b0 d9 d5 cf 3a 44 74 33 3c 6a 7d 4b 3d d1 71 96 ba
       0.0015856578 0.010953013 0.04968015 -0.0011478012
0000c0 60 00 25 bd 81 bd a9 3c 86 d7 cd 3c 97 2b fe 3c
       -0.04028356 0.020720245 0.025127184 0.031026645
0000d0 2e e7 c1 3c 4c f0 8f bd b7 c5 dc 3c 34 39 a3 3c
       0.023669805 -0.07028255 0.026949747 0.019924738
0000e0 29 2d ed bc ed 2b bd 3c 5f e7 ee 3b 67 4f a2 bb
       -0.028952198 0.023092235 0.007290765 -0.004953313
0000f0 f3 de 5f bb 38 31 10 3c e5 54 a7 3c 3d a5 5d bc
       -0.0034159988 0.008800797 0.020426223 -0.013528165
000100 aa 95 d9 bb d4 44 9f 3c d7 e2 d0 ba 66 4c dc 3d
       -0.006640156 0.019442 -0.0015936744 0.10756759
000110 b0 8d b2 3c 69 cd a0 bc 0f 78 77 bc ed 9e b2 3c
       0.021796077 -0.019629197 -0.015104308 0.021804297
000120 d4 33 a5 3a a4 ed ef bc 8a 14 b4 3a b2 13 4e bc
       0.0012603947 -0.02928812 0.0013739031 -0.012577938
000130 5d 25 32 3c 59 f9 09 3a 48 ed 47 bc c3 e4 c3 bb
       0.010873166 0.0005263291 -0.012202568 -0.0059781983
000140 fc 82 8d bd 96 07 0c 3c 05 9f 90 bc eb 65 f1 b9
       -0.06909749 0.0085467305 -0.017653951 -0.00046043037
000150 6f 07 8f 3c cb e4 38 3c 07 1d 03 bc 19 bd 97 3b
       0.0174596 0.011285017 -0.008002526 0.0046306965
000160 53 2f a5 bb 08 a8 35 3b a5 5e 28 3c c5 4c 55 3c
       -0.005041042 0.0027718563 0.010276471 0.013018792
000170 99 ce 82 bc 73 8e c1 bc 3b 7f b3 3c c0 03 a9 bc
       -0.015967654 -0.023627495 0.021911254 -0.020631671
000180 10 e0 29 3c 70 7f 09 bc 32 0b a6 bc 00 07 78 3c
       0.010368362 -0.0083922 -0.02026901 0.015138388
000190 f3 30 b6 3a aa 0c 07 3d a6 56 26 3d 0d 1f ee ba
       0.0013900086 0.03297106 0.04060998 -0.0018167213
0001a0 c6 c9 4d bc 1f 68 35 bc 46 19 34 bc 0c 0b 58 bc
       -0.012560314 -0.011072188 -0.010992354 -0.0131862275
0001b0 5b 9d 8f bb 2a ad fc 3d e5 c1 d7 39 6c 9a db 3d
       -0.004382772 0.12337716 0.00041152458 0.10722813
0001c0 06 ca c4 bb 09 7f 0e bd e5 b2 36 3c ad 88 2d 3c
       -0.0060055284 -0.03478912 0.01115105 0.010591668
0001d0 02 47 30 3d ba 1f 57 3e 6c 1a 40 bd e1 46 cf bc
       0.04303647 0.21008196 -0.046900198 -0.025302352
0001e0 b6 56 da 3d 4e e7 6e bd cc c9 99 3d e3 9e 1b 3c
       0.1066107 -0.058326058 0.07509193 0.009498331
0001f0 e7 2e 4d 3c 9b 4a de 3b 19 9c ac 3d c4 f8 04 3d
       0.012523389 0.006783796 0.08428211 0.032463804
000200 b7 16 a2 bc 94 7f 6c 3a 92 8d 3f bc b7 e2 1c bc
       -0.019786222 0.0009021696 -0.011691468 -0.009575537
000210 cc 50 86 bc 92 c9 00 bc fd 15 47 bd 4b 7b 49 bc
       -0.016395949 -0.007860558 -0.048604954 -0.012297462
000220 6e 28 1a 3c 4d ee 69 bd 30 ee 0d bc 6c 9a 09 3d
       0.009409053 -0.057112027 -0.008662745 0.033594534
000230 4e 5d 90 bc d6 2e 7a bc b5 79 90 3b 24 35 c8 3b
       -0.017622616 -0.015269956 0.00440904 0.0061098505
000240 dd 8b b8 bd 60 61 fa ba 80 0a 54 3b 77 08 e8 bb
       -0.09011052 -0.0019102506 0.0032354891 -0.007081087
000250 83 c1 19 bc 0e e4 16 3d 0c 3a 8d 3d ff 1e 90 3b
       -0.009384516 0.036838584 0.06895837 0.0043982263
000260 12 f0 5c bb 6a b2 df 3c b1 6e 5e 3c e4 9e c1 3d
       -0.003371243 0.027306754 0.013576196 0.09454134
000270 55 66 eb 3c 0c 1e 83 3c 86 fd 05 bc 8f 7b de bd
       0.02873532 0.016005538 -0.0081781205 -0.10863411
000280 c0 4e d2 3c 68 73 19 3d 95 e3 2f bd d1 19 45 3c
       0.025672317 0.037463576 -0.04294165 0.012030081
000290 22 43 ca bc 80 11 8e 3d 63 76 e6 3d 8b 42 77 bd
       -0.024690215 0.069369316 0.11253049 -0.060366195
0002a0 e9 71 10 3c e1 3a 05 bb 2d 0a 35 bd 95 e5 86 bc
       0.008816221 -0.0020329284 -0.044199158 -0.016466895
0002b0 4c 90 14 3e 13 b0 ae bc b2 40 67 3c 01 88 29 3c
       0.1450817 -0.021324193 0.014114546 0.010347367
0002c0 81 b1 4f 3d 3a 0a b3 bb b1 a6 73 3d 95 e3 a7 bb
       0.05070639 -0.0054638656 0.05948514 -0.0051235654
0002d0 1e 74 14 3c aa b6 47 bd 74 b6 88 3b b7 43 03 3c
       0.009060888 -0.048758186 0.0041721407 0.00801175
0002e0 20 05 45 bd b6 fb 97 bd b3 e7 8b bd d4 e4 40 3b
       -0.04810059 -0.07421057 -0.068313025 0.0029433267
0002f0 49 5a 58 bb c7 86 6c 3c 53 c1 b8 ba 2a 35 7d 3d
       -0.0033012799 0.01443643 -0.0014095701 0.06181828
000300 3f 74 0f 3d 95 64 e5 ba 1e e2 82 3d 08 85 13 3c
       0.03502297 -0.0017501289 0.06390785 0.009003885
000310 e9 19 3f 3d a6 8f c0 3c f6 6c f9 bc fb 8f 05 3c
       0.04665557 0.023505997 -0.030447464 0.008152003
000320 df c6 ba bb 6f 84 4a 3c c3 2c e2 3b 3d 1e ae bc
       -0.005699977 0.012360676 0.0069023087 -0.021254653
000330 15 18 bb bc 12 fe 09 3e 2c 13 88 3c 3c 20 53 3d
       -0.022838632 0.13475826 0.016610704 0.051544413
000340 95 8b 37 3d ff e5 61 3c f3 ac b5 ba 43 1e be bc
       0.04481085 0.0137877455 -0.0013860747 -0.02320779
000350 00 0b 86 3c 78 48 92 bd 21 66 8a 3c 1d 56 06 3c
       0.016362667 -0.071427286 0.016894402 0.008199242
000360 3c da 72 3b bf 74 48 bd 34 9d d4 3c 55 6a b9 3c
       0.0037056347 -0.048939463 0.025953867 0.02263371
000370 22 43 aa 3d c3 fd 2e 3c f7 7c dd bb f8 db 54 bc
       0.08313586 0.010680619 -0.0067592817 -0.012991898
000380 39 3b e0 3b ce 91 33 3c 83 61 1f bd 46 1b f7 3b
       0.0068429974 0.0109600555 -0.038911354 0.007541093
000390 61 b4 22 bc 03 7c 56 bb 0f 02 8b 3b ad 8f 22 bd
       -0.009930701 -0.0032727725 0.0042421888 -0.0396878
0003a0 7f ee b8 3d 82 9d b2 bb 03 cb 43 3b 84 54 e1 3c
       0.090298645 -0.0054509053 0.0029875643 0.02750612
0003b0 0f 2a 11 3e 5d 2a 1b 3c f0 83 85 3d 9a 87 c4 ba
       0.141762 0.009470549 0.06519306 -0.0014994026
0003c0 48 35 ae bb 07 f1 88 bb fe 23 30 3d c5 92 88 bb
       -0.00531641 -0.0041791233 0.043003075 -0.004167887
0003d0 5b 1a 69 3c 6d 41 45 3c ea 0c 64 3c 48 43 88 3d
       0.014227475 0.0120395245 0.013919095 0.06653458
0003e0 e8 61 09 3d 96 b0 b5 3c 80 55 8e bb 78 d1 fb 3b
       0.033540636 0.02217893 -0.0043436885 0.0076848827
0003f0 e4 51 3f bd 3d ae 2a 3d 07 88 80 3c 6d fb 96 bc
       -0.046708956 0.041670073 0.015689863 -0.018430436

action_model._discrete_distribution.branches.0.bias f4 [3]
000000 d1 a5 93 bc db 39 08 3d fe 30 02 bd
       -0.018023403 0.0332583 -0.031785004

action_model._discrete_distribution.branches.1.weight f4 [3, 256]
000000 0b 49 92 3c b2 0b 48 3c b6 99 61 bd fe fb 65 3d
       0.017857095 0.01220982 -0.05507823 0.05614852
000010 d6 95 df 3c d2 b9 82 bd 26 9e d9 ba 06 dc be 3b
       0.027293127 -0.06383099 -0.0016602918 0.0058245687
000020 d3 43 a0 3c 62 8f c3 bd cd 6a 16 3d 0d 30 88 3c
       0.019563591 -0.095488325 0.036722947 0.016624475
000030 a9 d0 97 3c dc 48 e2 bd 76 61 b8 3c f7 36 d6 3c
       0.018532114 -0.11049053 0.02250741 0.026149256
000040 59 05 0e 3d d9 1f 2e bd 46 a0 55 3c 6c b8 44 3c
       0.03467307 -0.04251084 0.0130387 0.01200686
000050 45 4f 30 bd dc 26 88 bd bd 92 89 3c c3 17 83 bd
       -0.043044347 -0.06648037 0.016793603 -0.064010166
000060 d9 ee 77 3c 00 81 89 bd c6 05 a1 3c 2e de 15 bd
       0.015132629 -0.06714058 0.019656073 -0.03658884
000070 75 3c 32 3c db 31 ff 3c 2f a1 6a bd c0 f4 f2 3c
       0.010878672 0.031151703 -0.057282623 0.029657722
000080 b2 e7 70 3c 36 5d b4 3b 3d ca 38 3c 3b e3 33 3c
       0.014703678 0.0055042757 0.011278686 0.010979469
000090 36 b2 41 3b e5 41 12 3c 04 fd 30 bd 09 da b5 bb
       0.0029555685 0.008926843 -0.043210045 -0.0055496735
0000a0 14 9f b6 3c 16 93 87 3b 73 12 84 3c 8f 8c 3f 3d
       0.022292651 0.004137407 0.016122079 0.046764906
0000b0 48 d9 8b 3c b4 39 d0 3c 28 8c 04 3d 97 cf 3b 3c
       0.017071381 0.02541814 0.032360226 0.0114630675
0000c0 04 c7 39 bc 03 5b 9c bd 79 79 0d bd 34 70 c2 bd
       -0.011338953 -0.076345466 -0.034539673 -0.09494057
0000d0 e2 d0 38 bd 97 ee 05 3d e0 3a 95 3c 02 fc ff 3c
       -0.04512108 0.03269824 0.01821655 0.031248096
0000e0 8d f6 08 3d 49 67 e9 39 ae 3e 6d bd 3c 6d df 3b
       0.033438254 0.00044518177 -0.057921104 0.0068184417
0000f0 dd 96 19 3c c5 c8 29 3c 54 98 13 3d 83 80 18 3c
       0.0093743475 0.010362809 0.036033943 0.009307983
000100 4a 54 11 3d 25 89 d3 3c d1 eb 2b 3c 6a a3 a6 bd
       0.035480775 0.025822232 0.010493235 -0.081366375
000110 8f 88 2e 3b 10 86 c0 bd 13 32 19 bc 63 4a 86 bc
       0.0026631688 -0.094005704 -0.0093503175 -0.016392892
000120 7a 14 ce 3c 81 83 9e 39 8d 3b ee 3c 39 45 0c 3d
       0.025156248 0.00030234086 0.02908113 0.034245703
000130 b1 cd aa 3b d3 3b de bd e2 2f 89 3c 5c 49 73 3c
       0.0052125086 -0.10851254 0.016746465 0.014849033
000140 a6 80 72 3c 60 b4 69 3c cc 6e b4 3c 48 52 c2 3b
       0.01480118 0.014264196 0.022025488 0.005930219
000150 f2 d7 34 ba 16 fd bc 3c cf ff 99 3c 9c 0e a0 3b
       -0.00068986334 0.0230699 0.018798737 0.004884554
000160 ee f4 d9 3a 03 e7 24 3d d8 51 b0 3c b8 fc 4b 3c
       0.0016628781 0.040259372 0.021523401 0.01245039
000170 cd 21 5d 3c e0 6b 35 3b 7e 15 a0 ba 7f f7 e1 3c
       0.013496828 0.0027682707 -0.0012213436 0.027583836
000180 00 c0 13 bc f1 7e 13 3b 2c 64 5b 3b dd e6 d6 3b
       -0.009017944 0.0022506083 0.0033476455 0.0065582828
000190 02 38 0b 3d 13 18 a9 3c ce d5 d0 3c ae 0f b9 bd
       0.03398896 0.020641362 0.025492575 -0.09036194
0001a0 f7 e8 33 bb be b0 65 bd 27 a1 9e 3c 70 29 9f 3c
       -0.002745209 -0.056076758 0.019363953 0.019428939
0001b0 7d 35 d8 bd 92 b5 33 bd be 69 b4 3c 81 a1 22 bc
       -0.10557077 -0.04387433 0.022023078 -0.009926201
0001c0 02 23 9d 3c 17 c5 d0 3b b3 67 87 3c ed 62 97 3c
       0.019181732 0.006371151 0.01652894 0.018479789
0001d0 da 7f 17 be 22 d3 8b 3d 37 1d 2e bb 99 1d de 3b
       -0.14794865 0.0682738 -0.0026567706 0.0067784307
0001e0 71 99 8d bd 3b 73 df 3c 8a f5 8d bd 98 cc 07 bb
       -0.06914032 0.027276626 -0.069315985 -0.0020721313
0001f0 33 f5 35 bd ec d3 14 3c 80 49 64 bd 2a bc 11 3d
       -0.044423293 0.009083729 -0.055734158 0.035579838
000200 81 e1 51 bd 20 c7 f4 3c b8 27 6b 3c 0f 0d f8 3b
       -0.051240448 0.029880106 0.014352731 0.007569916
000210 b6 d1 95 3b bd 96 b2 3c 91 68 48 3c 73 e6 40 3c
       0.0045721186 0.021800393 0.012231962 0.011773693
000220 9b 5a 4e bd 80 27 b4 3c ec 35 c4 39 a0 54 00 bd
       -0.050379377 0.021991491 0.00037424208 -0.031330705
000230 bd bc 1f 3b 87 84 9e 3c c0 27 47 bc 8a 7f 15 bc
       0.0024373971 0.019350303 -0.012155473 -0.009124646
000240 41 84 3f bd fc 00 11 3c bf 4a 04 3d ab 06 14 3c
       -0.046756987 0.008850332 0.032297846 0.009034793
000250 07 b6 e4 3a 6b e6 a0 bd a2 b5 c1 bd d6 47 91 bd
       0.0017449268 -0.07856449 -0.09458472 -0.0709378
000260 9b c3 8f 3c 9e 7f 48 3b 5c 56 c6 3b 0b 98 d2 3b
       0.017549327 0.0030593644 0.0060527753 0.0064268163
000270 19 90 8b 3c 57 d3 ce 3c 08 42 24 3d da 86 91 bd
       0.017036485 0.025247259 0.040102035 -0.07105799
000280 25 61 13 be ab e3 79 bb 11 43 98 3c 7d e4 1f 3d
       -0.14392526 -0.0038130085 0.018586667 0.039036263
000290 35 32 b0 3c b8 dc 62 bd 75 3a b0 bd 59 be 67 bc
       0.021508316 -0.055386275 -0.086049 -0.0141445035
0002a0 dd 7f 90 3c 8d 86 81 3c 75 49 a9 3c 6c 6d 00 3c
       0.017639095 0.01581123 0.02066491 0.007838588
0002b0 7c 6d 76 3b 7d cf f2 3c ca e6 c2 3c bd 9d 34 3d
       0.003760188 0.029639954 0.02379169 0.044095743
0002c0 d2 ab d5 bc 38 9d bb 3c 26 4e 81 bd 15 37 a6 bd
       -0.026082907 0.022902116 -0.06313734 -0.08115975
0002d0 d2 ca 3e 3c 30 69 ec 3b b7 7a 36 3d 29 02 97 bd
       0.011645036 0.0072146878 0.044550624 -0.07373459
0002e0 42 68 0f bd 0c 5f 54 bb 7a b7 1a 3d 55 5f 5b 3c
       -0.035011537 -0.0032405285 0.037772633 0.013389428
0002f0 fd 3b 99 3c 53 4c 3f bd 5c ec 05 3d b0 27 b1 3c
       0.018705362 -0.046703648 0.032696113 0.02162537
000300 5d 8b 1b 3d 85 34 b1 3c c0 e8 96 bd 76 0b 07 3d
       0.037974704 0.021631489 -0.07368612 0.032969914
000310 43 6c 98 bd 2e 49 b8 bc 12 43 12 3c d0 2c b5 3c
       -0.07442524 -0.022495832 0.008927124 0.022116095
000320 0f c0 c6 3b 00 81 81 3b b2 ed ce 3c 4d 95 78 3c
       0.0060653756 0.0039521456 0.025259826 0.015172315
000330 a9 b8 f5 bd 6d 1a ae bd 8e 56 b4 3a ff b5 59 bc
       -0.11998112 -0.08501134 0.0013758705 -0.01328802
000340 fd d3 87 3c a0 77 94 3c 15 ed d0 3c ba 51 b0 3b
       0.016580576 0.018123448 0.025503675 0.0053808363
000350 59 82 a4 3c f6 2a f5 bd ac a1 f5 3b 3e 09 e2 3c
       0.020081686 -0.11971085 0.0074960794 0.027592298
000360 66 e9 b1 bd 29 6a a4 3c 12 b6 29 3d 9f 08 64 bd
       -0.08687095 0.020070152 0.0414334 -0.055672284
000370 d5 ae 03 3c ea 3b 74 3c 2e 47 45 3d 15 b7 a5 3c
       0.008037289 0.014906863 0.048163585 0.020228902
000380 05 ab 21 3d d5 ec 45 3c 42 91 40 bd 19 e9 d1 3c
       0.039469738 0.012080391 -0.04701353 0.025623845
000390 ec 0b da 3c a3 0d bb 3c 10 06 12 3c 49 33 5b 3c
       0.026617013 0.022833651 0.008912578 0.013378927
0003a0 4d af 63 bb bd 97 92 3c 77 15 1e bc 8d 4b cf 3c
       -0.0034741939 0.01789462 -0.009648672 0.02530458
0003b0 27 a4 a0 3b 30 46 c7 3c 38 a5 5d bd 96 25 bc 3c
       0.004902381 0.02432546 -0.054112643 0.022967141
0003c0 6a 08 de 3c 18 80 ad 3c 12 e3 a2 bd 9f a3 61 3c
       0.027103622 0.021179244 -0.079534665 0.01377192
0003d0 0e 49 81 3c 3b e0 2d 3c 44 34 db 3c 99 d6 5c bd
       0.015781906 0.010612543 0.02675832 -0.053915594
0003e0 1e a3 2e 3c 45 a7 e5 3c 9b 8a 69 3c 85 ee ed 3a
       0.010659007 0.028033862 0.0142542375 0.0018152749
0003f0 d0 55 da bd e9 cb 16 bc 55 c8 12 3c 7d 53 a7 bb
       -0.10660899 -0.009203889 0.008958896 -0.005106388

action_model._discrete_distribution.branches.1.bias f4 [3]
000000 54 f0 e4 3c cf 03 0b bd 45 82 16 bc
       0.027946629 -0.03393918 -0.009186332

onnx::Div_78 f4 [28]
000000 e1 a0 7f 3e 15 c7 7f 3e 5c 2c 16 3c f4 4b 1c 3e
       0.24963714 0.24978288 0.00916585 0.15263349
000010 72 bf be 3e 67 c4 be 3e a5 61 d4 3b 2e bb 23 3e
       0.37255436 0.37259218 0.0064813667 0.15989372
000020 4c b4 85 3e 6d c2 85 3e b5 1d 05 3c 7a 96 29 3e
       0.26114118 0.26124898 0.0081247585 0.16561309
000030 aa db ff 3e c0 db ff 3e 8d 09 8b 3b a6 9c 24 3e
       0.49972278 0.49972343 0.004243082 0.16075382
000040 46 8f cc 3e de 8f cc 3e 43 8c 20 3b da 3e 46 3e
       0.3995306 0.39953512 0.0024497665 0.19359913
000050 f2 49 d2 3e 50 48 d2 3e ac 09 8b 3b 79 82 19 3e
       0.4107204 0.41070795 0.0042430963 0.14991178
000060 d1 32 f7 3e 60 32 f7 3e 45 0c 63 3b 6c d4 4f 3e
       0.48280957 0.4828062 0.0034644764 0.20295876
