results/Racing/Driver/Driver-58502.onnx (onnx, 305142 bytes, 11 tensors)

discrete_act_size_vector f4 [1, 2]
3.0 3.0
00000000: 0000 4040 0000 4040

network_body.observation_encoder.processors.0.normalizer.running_mean f4 [28]
0.08715793 0.91256857 0.00025639715 0.41026312 0.11556671 0.88385236 0.00056407385 0.42669913
0.26470456 0.7344237 0.0008546571 0.40321836 0.51766586 0.48211187 0.00020511757 0.40160647
0.6530609 0.34692252 0.0 0.35582086 0.7898398 0.21005759 8.54657e-05 0.35451347
0.83171797 0.1682648 0.0 0.32112682
00000000: db7f b23d 189e 693f 0b6d 8639 020e d23e
00000010: 3dae ec3d 2644 623f 5bde 133a 4f78 da3e
00000020: 5b87 873e 3103 3c3f 110b 603a a372 ce3e
00000030: c085 043f 5ed7 f63e d414 5739 5d9f cd3e
00000040: 002f 273f d49f b13e 0000 0000 272e b63e
00000050: f132 4a3f 5619 573e 0c3c b338 ca82 b53e
00000060: 78eb 543f 9c4d 2c3e 0000 0000 bc6a a43e

network_body._body_endoder.seq_layers.0.weight f4 [256, 29]
0.11322656 -0.07814169 0.15037003 0.27837902 -0.021324031 0.12922393 0.14747284 -0.02340006
0.15444513 0.16351974 -0.037689753 -0.11449221 -0.13925919 0.04007471 -0.43281224 0.20720528
0.1272069 -0.16007912 -0.09263231 0.20711 0.019139865 -0.12214336 -0.53151697 -0.072269544
0.32434347 -0.2957949 -0.32735798 -0.15175429 -0.16283955 -0.16402256 -0.085169084 -0.028076153
-0.0033980454 -0.15852684 -0.19428556 0.4065865 0.034703396 -0.087167114 0.1597772 0.20541443
0.08127856 0.39121372 0.09729965 0.05815353 0.21149465 -0.36537537 0.22690828 -0.15265405
0.23898433 -0.104651876 -0.17789273 -0.22946063 0.0678074 0.019094337 0.010600213 -0.068685554
0.34966508 0.18337426 -0.17306046 0.09880223 0.04976855 -0.2283145 -0.28864127 -0.13763002
0.29109383 0.39255124 -0.09775201 -0.4513363 -0.1477735 0.09232083 -0.10655629 0.071527906
0.039866317 0.06987318 -0.33636448 0.13389437 -0.049927313 -0.68470216 -0.11982803 0.22749503
0.29968825 -0.0071796086 0.2700336 -0.2226568 0.1866044 0.20946679 -0.3647845 -0.1891131
0.08702087 0.04744548 -0.115747616 0.05835539 -0.009590508 0.20364273 0.10550674 0.039766107
0.08606133 0.19134037 -0.015107556 0.1536188 -0.08722953 -0.13443978 -0.027633475 -0.2722086
-0.0069926158 -0.14948575 -0.040714126 -0.097445056 0.158265 0.11405626 0.47885382 -0.21134561
0.033221494 -0.12811448 0.13574022 -0.21488294 0.027265737 -0.15463163 -0.44176883 0.4029001
-0.34723398 -0.13745172 -0.06719913 0.4435578 -0.26056248 0.3698698 -0.112003006 -0.110817954
0.14732905 -0.03471178 0.039288163 0.18286099 0.32904178 -0.20213242 0.015696723 -0.036307637
0.25676018 -0.11666064 -0.028921215 -0.048467055 0.16045313 0.1202158 -0.044867348 -0.04805875
0.110094495 0.0876497 -0.15379141 0.09649618 -0.254498 -0.054229658 -0.23089938 0.32049373
-0.3465893 0.015253771 -0.07064946 0.036365718 -0.10993479 -0.21226475 0.3760372 -0.002656127
0.066002145 0.026501974 -0.12737164 0.25771913 0.3479965 0.19586317 0.09258069 0.09528544
0.005333304 -0.22870247 0.05216512 -0.06655744 0.23526719 -0.041646123 -0.11241653 0.31963935
0.042214073 -0.21641447 0.122702666 0.3028279 -0.013122246 0.013156289 -0.31835422 -0.2588505
0.012163569 -0.00717593 -0.10522442 0.020608408 -0.16257718 -0.2726333 0.22603507 0.12995817
0.16151425 0.0028864474 0.43737385 0.057240598 -0.08079009 0.18534261 0.31331444 -0.57104605
0.07689612 -0.37005746 0.016528778 0.21362974 0.14945127 0.06827567 -0.010672342 -0.035032157
0.15683092 0.19913493 0.07201918 -0.2876634 0.11208265 -0.5382453 -0.09654454 -0.14912853
-0.28588125 0.013270186 -0.14029881 -0.097265884 0.05706359 0.19112898 0.08094222 -0.24942301
0.027730823 0.3197883 -0.22406964 0.058647767 -0.17342451 -0.058031313 0.24273302 -0.23819841
0.09958036 0.1887569 -0.040908817 0.10308955 0.17953421 -0.15095906 0.11143255 -0.022372542
0.05791003 0.08005486 -0.1345178 0.39278314 0.23322779 -0.15245572 -0.29695195 0.33545226
0.32453576 -0.19013411 -0.15217412 -0.13550791 -0.17538157 0.401004 0.04632587 0.03237134
00000000: 54e3 e73d c008 a0bd 9afa 193e b287 8e3e
00000010: bcaf aebc 4753 043e 1f03 173e 7cb1 bfbc
00000020: dd26 1e3e b871 273e 9260 1abd e47a eabd
00000030: f699 0ebe 6125 243d 9199 ddbe 9f2d 543e
00000040: 8742 023e c8eb 23be 02b6 bdbd a514 543e
00000050: 35cb 9c3c 4c26 fabd 7f11 08bf 0e02 94bd
00000060: 5910 a63e 6e72 97be 779b a7be 7a65 1bbe
00000070: 69bf 26be 88f5 27be 216d aebd f6ff e5bc
00000080: beb1 5ebb dc54 22be cbf2 46be 1b2c d03e
00000090: 2625 0e3d ac84 b2bd a29c 233e 2958 523e
000000a0: 6075 a63d 2a4d c83e 0a45 c73d 6532 6e3d
000000b0: 0e92 583e 7b12 bbbe a55a 683e 5851 1cbe
000000c0: 4fb8 743e b953 d6bd 8329 36be baf7 6abe
000000d0: 9bde 8a3d ba6b 9c3c 84ac 2d3c 03ab 8cbd
000000e0: 4d07 b33e 76c6 3b3e c336 31be d358 ca3d
000000f0: 1bda 4b3d 47cb 69be cac8 93be e2ee 0cbe
00000100: 400a 953e 7afc c83e 3532 c8bd 8d15 e7be
00000110: f051 17be b412 bd3d 2f3a dabd 397d 923d
00000120: dd4a 233d ab19 8f3d f737 acbe 9b1b 093e
00000130: 9580 4cbd a448 2fbf 6668 f5bd 75f4 683e
00000140: bd70 993e ec42 ebbb d841 8a3e 2500 64be
00000150: 3915 3f3e 767e 563e 09c5 babe dda6 41be
00000160: ff37 b23d 3156 423d 160d edbd 1006 6f3d
00000170: 8221 1dbc b887 503e eb13 d83d c9e1 223d
00000180: ec40 b03d bbee 433e af85 77bc 3f4e 1d3e
00000190: 65a5 b2bd 95aa 09be 995f e2bc ed5e 8bbe
000001a0: 5022 e5bb cb12 19be dbc3 26bd 4691 c7bd
000001b0: 3810 223e 5496 e93d 542c f53e fc6a 58be
000001c0: 4313 083d 7130 03be 7cff 0a3e 460a 5cbe
000001d0: 655c df3c c157 1ebe 862f e2be ec48 ce3e
000001e0: a7c8 b1be 25c0 0cbe b39f 89bd 021a e33e
000001f0: 7268 85be 935f bd3e d561 e5bd 86f4 e2bd
00000200: 6ddd 163e f02d 0ebd a0ec 203d e93f 3b3e
00000210: 2a78 a83e cdfb 4ebe 6a96 803c 51b7 14bd
00000220: 1276 833e c6eb eebd 2fec ecbc 6485 46bd
00000230: d34d 243e b433 f63d d3c6 37bd 40d9 44bd
00000240: 3979 e13d b081 b33d 7f7b 1dbe ca9f c53d
00000250: 904d 82be eb1f 5ebd e370 6cbe c117 a43e
00000260: 2774 b1be f4ea 793c aab0 90bd 38f4 143d
00000270: 7e25 e1bd ee5b 59be f387 c03e 6b12 2ebb
00000280: 222c 873d ab1a d93c b66d 02be c3f3 833e
00000290: 992c b23e 5b90 483e f29a bd3d 0325 c33d
000002a0: ffc2 ae3b fb30 6abe 18ab 553d 444f 88bd
000002b0: e2e9 703e 2095 2abd a33a e6bd c5a7 a33e
000002c0: aae8 2c3d c19b 5dbe 894b fb3d 420c 9b3e
000002d0: b0fe 56bc 7a8d 573c 53ff a2be 0e88 84be
000002e0: b549 473c 1024 ebbb e77f d7bd f7d2 a83c
000002f0: a27a 26be 9896 8bbe bd75 673e c113 053e
00000300: fe63 253e 8d2a 3d3b 77ef df3e 1e75 6a3d
00000310: 4675 a5bd 74ca 3d3e c06a a03e 1330 12bf
00000320: b77b 9d3d 2c78 bdbe 5c67 873c c1c1 5a3e
00000330: c109 193e 1dd4 8b3d 0cdb 2ebc e17d 0fbd
00000340: 4998 203e 07ea 4b3e cb7e 933d 9e48 93be
00000350: 978b e53d 72ca 09bf 25b9 c5bd 26b5 18be
00000360: 075f 92be 326b 593c 7eaa 0fbe 5633 c7bd
00000370: 83bb 693d 51b7 433e 09c5 a53d bf68 7fbe
00000380: c02b e33c 4bbb a33e 8372 65be a438 703d
00000390: 3296 31be 3eb2 6dbd 018f 783e 49ea 73be
000003a0: caf0 cb3d 7d49 413e 0190 27bd 9d20 d33d
000003b0: d1d7 373e 0395 1abe c036 e43d 9f46 b7bc
000003c0: 1133 6d3d cdf3 a33d 09bf 09be df1a c93e
000003d0: 44d3 6e3e 5a1d 1cbe 160a 98be 66c0 ab3e
000003e0: 8d29 a63e 84b2 42be 88d3 1bbe 96c2 0abe
000003f0: 3a97 33be 6550 cd3e 32c0 3d3d cf97 043d

network_body._body_endoder.seq_layers.0.bias f4 [256]
0.069603354 0.042564698 0.05157707 0.045383558 0.0617129 0.033889595 0.03684517 0.034315668
0.041826792 0.028974071 -0.028960241 0.025303856 -0.039993256 0.07275052 0.05426618 0.006117176
0.027884059 0.051663652 -0.026913261 0.037764415 0.03729422 0.020469554 0.06396842 0.055831403
0.047335476 0.058406435 -0.010706048 0.052617304 0.049455717 0.05013698 0.039756246 0.02747568
0.028798643 0.031573646 0.006924788 0.03222854 0.041474022 -0.02959476 0.05635928 0.07114505
-0.021119382 0.03976452 0.056068107 0.046296824 0.04098099 0.033026833 0.040578444 0.04750754
0.023055375 0.018876387 0.012141831 0.057854805 0.005338629 0.043091647 0.041180007 0.014697399
0.053198274 0.047908574 0.03933827 0.037929263 0.019887188 0.027619995 -0.028276395 0.037147075
0.052229624 0.049683336 0.02689542 -0.016152017 0.057377666 0.05291598 0.066292875 -0.045464024
0.04195755 0.04944219 -0.02818762 0.036584135 0.08886163 0.053973928 0.058003496 0.021255318
0.029650202 0.058997706 0.055943098 -0.047658496 0.05004309 0.05286919 0.06123376 0.049185004
-0.0014613345 0.0606904 0.03718711 0.03332193 0.032020424 -0.039396025 0.05146496 0.05250767
0.054319326 0.020267636 0.03213533 0.03527086 0.033960566 0.082617976 -0.025500853 0.050226536
0.03766819 0.047297955 0.040451553 0.01724392 0.049074434 0.04712485 0.048816033 0.02534508
0.075291604 0.02469541 0.0664974 0.02893305 0.05147685 0.04742677 -0.03269646 -0.04665894
0.056998264 0.050248094 0.051645573 0.056419987 0.023741806 0.06201417 0.036004145 0.058242984
0.053903095 -0.038202416 0.065042354 -0.02007593 -0.0451176 0.0050730905 0.013674734 -0.021124559
-0.012753808 0.035621937 0.052621927 0.039600223 0.038773313 0.04695248 0.040137857 0.03389924
0.034672078 0.057062488 0.050200336 0.005285496 0.037834972 0.054709632 0.040114623 -0.016026556
0.042459063 0.06416814 -0.013842641 0.040150948 0.03943306 0.05430628 0.036111176 0.03651283
0.06368855 0.03451476 0.057882193 0.046533104 0.05894194 0.019908909 0.028660519 0.07426568
0.034149766 0.037693724 0.030391637 0.058843732 0.058688637 -0.02637108 0.041418497 0.030165998
-0.0043802224 0.04121716 0.041010715 0.023632146 0.04175073 0.07299579 0.006213675 0.058927946
0.043708447 0.07838359 0.073918894 0.08275116 0.05737384 0.05075269 0.007772322 0.04407475
0.043243002 0.066423856 0.027383441 0.06730234 0.058182858 0.015401209 0.061186325 0.05471184
0.054510467 0.024283864 0.053625748 0.029889746 -0.022649951 0.035881832 -0.010699653 0.04397665
0.036666244 -0.03987375 -0.006057078 0.042448945 0.056115035 0.0040765256 0.063957475 0.06504784
0.047485292 0.06792542 -0.03436168 0.03980806 0.019571442 0.045861855 0.021035586 0.044555943
0.05250623 0.083840035 0.07836133 0.07505176 -0.015463029 -0.035685074 0.039193828 0.038794905
0.027579539 0.06046174 0.00016706616 0.06000117 -0.012337237 0.037692856 0.022560079 0.046752367
0.054013576 0.054994028 0.059062507 0.042828668 0.07103604 0.08108766 0.066428244 0.056780312
0.05177189 0.026510008 0.04122013 0.04803431 0.0857589 0.001319041 0.04311956 0.044352412
00000000: 348c 8e3d 5258 2e3d 7a42 533d 1ce4 393d
00000010: aac6 7c3d d1cf 0a3d f6ea 163d 968e 0c3d
00000020: 9252 2b3d 085b ed3c 073e edbc 084a cf3c
00000030: f8cf 23bd 3afe 943d 3746 5e3d 9772 c83b
00000040: 1c6d e43c 449d 533d 3379 dcbc dcae 1a3d
00000050: d3c1 183d c4af a73c e001 833d 78af 643d
00000060: d8e2 413d 963b 6f3d 6c68 2fbc 3e85 573d
00000070: 1492 4a3d 6f5c 4d3d 72d7 223d ad14 e13c
00000080: 22eb eb3c 5e53 013d 55e9 e23b 1302 043d
00000090: aae0 293d b670 f2bc fdd8 663d 7fb4 913d
000000a0: 8e02 adbc 1fe0 223d aca7 653d bda1 3d3d
000000b0: afdb 273d 2547 073d 9535 263d 4497 423d
000000c0: a0de bc3c a7a2 9a3c 88ee 463c 29f9 6c3d
000000d0: aaef ae3b de80 303d 5eac 283d 5ccd 703c
000000e0: 6fe6 593d c83b 443d 2a21 213d b75b 1b3d
000000f0: 75ea a23c 5443 e23c e6a3 e7bc 8827 183d
00000100: bbee 553d c180 4b3d c953 dc3c 3c51 84bc
00000110: d804 6b3d 6dbe 583d 8fc4 873d 7c38 3abd
00000120: aedb 2b3d e583 4a3d b9e9 e6bc 3fd9 153d
00000130: 16fd b53d c413 5d3d 1395 6d3d a21f ae3c
00000140: fbe4 f23c 94a7 713d 9724 653d 8e35 43bd
00000150: fcf9 4c3d 5d8d 583d 40d0 7a3d 3776 493d
00000160: 408a bfba 7f96 783d 8351 183d 937c 083d
00000170: d927 033d ba5d 21bd eccc 523d 4812 573d
00000180: f17d 5e3d 5008 a63c 56a0 033d 2d78 103d
00000190: 3c1a 0b3d 9d33 a93d 2ae7 d0bc 57ba 4d3d
000001a0: f649 1a3d 80bb 413d 87b0 253d 1f43 8d3c
000001b0: 4602 493d fd05 413d 52f3 473d 7ca0 cf3c
000001c0: 7c32 9a3d 074e ca3c ca2f 883d 0105 ed3c
000001d0: 64d9 523d 9342 423d b9ec 05bd 721d 3fbd
000001e0: 0377 693d f2d0 4d3d 4f8a 533d a518 673d
000001f0: 2d7e c23c 9202 7e3d 1579 133d 3290 6e3d
00000200: 7ec9 5c3d 237a 1cbd ed34 853d 4776 a4bc
00000210: 3ccd 38bd 2b3c a63b fe0b 603c 690d adbc
00000220: 59f5 50bc 4fe8 113d 178a 573d d833 223d
00000230: c4d0 1e3d 3e51 403d 9867 243d eed9 0a3d
00000240: 4f04 0e3d 5bba 693d de9e 4d3d f431 ad3b
00000250: d8f8 1a3d 3517 603d 3b4f 243d 204a 83bc
00000260: 8ee9 2d3d 966a 833d 3fcc 62bc 5275 243d
00000270: 8f84 213d 4370 5e3d 50e9 133d 7a8e 153d
00000280: 246f 823d 595f 0d3d e115 6d3d 7f99 3e3d
00000290: 1b6d 713d 0218 a33c 77c9 ea3c 9b18 983d
000002a0: a0e0 0b3d bc64 1a3d e2f7 f83c 2006 713d
000002b0: 7f63 703d 2a08 d8bc 71a6 293d af1e f73c
000002c0: f887 8fbb 53d3 283d dafa 273d 3498 c13c
000002d0: d002 2b3d d17e 953d 159c cb3b 6e5e 713d
000002e0: a107 333d 9387 a03d ca62 973d 7179 a93d
000002f0: d500 6b3d 0de2 4f3d f6ae fe3b ba87 343d
00000300: 931f 313d 3b09 883d 3d53 e03c cfd5 893d
00000310: 2651 6e3d 5a55 7c3c 839e 7a3d 8619 603d
00000320: 5e46 5f3d f4ee c63c aca6 5b3d 57db f43c
00000330: 648c b9bc d4f8 123d 994d 2fbc dc20 343d
00000340: 582f 163d a852 23bd 747a c6bb f2de 2d3d
00000350: e1d8 653d 6094 853b 23fc 823d cd37 853d
00000360: f07f 423d 7c1c 8b3d d5be 0cbd c70d 233d
00000370: 4a54 a03c a4d9 3b3d d252 ac3c 4b80 363d
00000380: c610 573d 53b4 ab3d e87b a03d bdb4 993d
00000390: a558 7dbc 832a 12bd b589 203d 68e7 1e3d
000003a0: 7cee e13c bba6 773d 7b2e 2f39 c9c3 753d
000003b0: 1f22 4abc d363 1a3d eacf b83c 697f 3f3d
000003c0: 573d 5d3d 6b41 613d 87eb 713d 1d6d 2f3d
000003d0: 587b 913d 4911 a63d 880b 883d 7992 683d
000003e0: c30e 543d 842b d93c 70d6 283d a0bf 443d
000003f0: 5da2 af3d ace3 ac3a 239e 303d e0aa 353d

network_body._body_endoder.seq_layers.2.weight f4 [256, 256]
0.015680363 -0.052616227 -0.010952494 -0.1381404 0.010818697 0.030544573 -0.0050089145 0.040285546
-0.05446329 0.0017751396 -0.067121916 -0.039083425 -0.010789395 -0.08784932 -0.032355268 0.026417287
-0.03774717 -0.031851277 -0.042451125 0.07162051 0.075791396 -0.01703885 -0.088498645 0.0050510624
-0.129516 -0.14870805 0.026388263 -0.15489389 0.015622835 0.020726742 0.04125599 0.009271828
0.031311166 -0.09049166 0.049146045 0.031405315 -0.1066978 0.1329401 0.062756926 -0.0016845979
-0.018896678 0.06073336 -0.0021237181 0.049244136 -0.059172437 -0.029283963 0.052900948 0.032969225
0.07826748 -0.0076850452 0.0056628957 0.02173874 0.010611204 0.010974643 -0.04845029 0.016494704
-0.026772127 0.058122948 -0.13092877 0.0057840943 0.07948475 0.057675138 0.056618374 0.09413834
-0.06442792 -0.04212659 -0.04541778 0.015743824 0.07002494 -0.22375128 -0.011811829 -0.011835941
0.021753915 -0.024353435 0.059118103 -0.016949454 -0.11115174 -0.040205266 0.018852053 0.0064900625
0.0673178 -0.1849912 -0.070531495 0.020953696 -0.06258332 -0.06430661 -0.18663104 0.011660292
-0.14794736 -0.105211355 0.12709314 0.022300052 -0.038465645 0.0008989158 0.0075637694 -0.04208332
-0.16057399 -0.037122965 0.028155023 -0.08552368 0.07162368 -0.01841591 0.0706959 -0.017922541
0.053226102 -0.14392105 0.024233053 0.097588584 -0.12341084 0.08185665 -0.062103454 -0.0321079
-0.11562695 -0.072943136 0.06508806 -0.009876062 -0.18720579 -0.00496245 -0.065289415 0.10979025
-0.06141514 -0.03729673 -0.05713189 -0.01773697 -0.059833176 -0.028339878 -0.03575427 -0.00621539
-0.00609126 -0.015573401 -0.03697828 -0.0018708041 0.10910381 -0.074460305 -0.05292238 0.0005380002
-0.013313449 -0.15693523 -0.16950622 -0.113124706 -0.11242415 -0.0854699 0.15585509 -0.08472674
0.08003577 0.054517362 -0.16203076 0.027753826 0.030012041 -0.08494978 -0.13826361 0.109858796
0.038462583 -0.07297271 -0.06209523 -0.08764857 -0.011234552 0.07998686 0.005034799 -0.045096423
-0.07544402 0.053322554 -0.037215088 -0.1265182 0.05114505 -0.07171657 -0.019589337 -0.12588824
-0.00770259 -0.11624926 0.025273459 -0.031714447 -0.045638256 0.104464 -0.07420865 -0.025888972
0.08391038 -0.029829621 0.06124935 0.042767897 0.016855702 0.012625702 -0.024858257 -0.0018395049
0.012398283 -0.074649855 0.008843906 0.026133073 -0.005718723 -0.04938274 -0.083194934 0.014326108
-0.10171758 -0.028584888 0.024008365 -0.023023406 0.006248264 0.008053597 -0.061428726 -0.03561079
0.022832518 -0.11607458 0.012221796 -0.11921055 -0.003507987 0.02308196 -0.046190176 -0.056010045
-0.05420699 0.05158944 -0.06364359 -0.051674433 0.018986745 0.088033326 -0.03455875 -0.114262104
-0.06338519 0.11902666 -0.017108822 0.07189861 0.039000742 -0.13162552 -0.053410463 -0.038110264
-0.046893302 -0.08364455 -0.060521517 -0.020508587 0.048454348 0.053329706 0.0103608975 -0.13682094
0.082004815 0.0033854626 -0.06571115 -0.0005448959 -0.0904247 -0.20135307 -0.0812961 0.12478853
-0.0366505 -0.02084779 -0.16040905 0.042738225 -0.056299653 -0.09118019 -0.07274345 0.009548962
0.013256776 -0.005855978 -0.09106687 0.058522973 0.021671614 0.08532155 0.09089814 -0.06854586
00000000: 1b74 803c 1d84 57bd 1772 33bc ad74 0dbe
00000010: e740 313c 9d38 fa3c d221 a4bb 7502 253d
00000020: e614 5fbd cdab e83a 3777 89bd f115 20bd
00000030: 01c6 30bc 58ea b3bd f586 04bd 1169 d83c
00000040: c79c 1abd 7c76 02bd 3be1 2dbd c6ad 923d
00000050: 8538 9b3d 0f95 8bbc c73e b5bd 6283 a53b
00000060: d89f 04be ec46 18be 332c d83c 819c 1ebe
00000070: ebf6 7f3c 21cb a93c 0afc 283d dee8 173c
00000080: 2340 003d b153 b9bd 5d4d 493d dca2 003d
00000090: 6084 dabd 7321 083e b486 803d bacd dcba
000000a0: 35cd 9abc 8bc3 783d 142e 0bbb 38b4 493d
000000b0: cc5e 72bd ece4 efbc aaae 583d bd0a 073d
000000c0: b34a a03d d5d2 fbbb d08f b93b 7115 b23c
000000d0: 9eda 2d3c fdce 333c d073 46bd e71f 873c
000000e0: 3851 dbbc 5412 6e3d 3112 06be 8088 bd3b
000000f0: e7c8 a23d c43c 6c3d abe8 673d 9acb c03d
00000100: c9f2 83bd ee8c 2cbd fe07 3abd 31f9 803c
00000110: 3c69 8f3d 0e1f 65be 6786 41bc 89eb 41bc
00000120: 4435 b23c db80 c7bc d325 723d 95d9 8abc
00000130: 86a3 e3bd 47ae 24bd 9f6f 9a3c 97aa d43b
00000140: eadd 893d 556e 3dbe d172 90bd 16a7 ab3c
00000150: af2b 80bd 2fb3 83bd 351c 3fbe cf0a 3f3c
00000160: 837f 17be 0d79 d7bd b424 023e 99ae b63c
00000170: 278e 1dbd 38a5 6b3a 7fd9 f73b 8f5f 2cbd
00000180: 826d 24be 400e 18bd 5da5 e63c 0a27 afbd
00000190: 70af 923d f6dc 96bc 03c9 903d 4bd2 92bc
000001a0: 9d03 5a3d 0a60 13be 6584 c63c 86dc c73d
000001b0: d3be fcbd 76a4 a73d 3160 7ebd 9383 03bd
000001c0: d3cd ecbd 3663 95bd e44c 853d 35cf 21bc
000001d0: e0b2 3fbe 0c9c a2bb 75b6 85bd b6d9 e03d
000001e0: 718e 7bbd 75c4 18bd 2103 6abd 1f4d 91bc
000001f0: a213 75bd 0829 e8bc 1273 12bd 78aa cbbb
00000200: 3199 c7bb 9427 7fbc 8976 17bd c535 f5ba
00000210: d171 df3d a57e 98bd 23c5 58bd 9508 0d3a
00000220: a720 5abc a1b3 20be 0a93 2dbe edad e7bd
00000230: a23e e6bd d80a afbd 7a98 1f3e 3785 adbd
00000240: cbe9 a33d 994d 5f3d 64eb 25be fe5b e33c
00000250: d0db f53c 26fa adbd fa94 0dbe a6fd e03d
00000260: f18a 1d3d b772 95bd 9157 7ebd 1881 b3bd
00000270: 2011 38bc 27d0 a33d f5fa a43b 07b7 38bd
00000280: 6582 9abd c068 5a3d d96e 18bd fd8d 01be
00000290: 797d 513d 23e0 92bd d179 a0bc d9e8 00be
000002a0: 0266 fcbb 1814 eebd 490a cf3c 02e7 01bd
000002b0: 2eef 3abd 39f1 d53d b4fa 97bd 1c15 d4bc
000002c0: 35d9 ab3d 405d f4bc 99e0 7a3d 642d 2f3d
000002d0: f814 8a3c 08dc 4e3c 8ba3 cbbc 8b1b f1ba
000002e0: 2b22 4b3c 06e2 98bd 08e6 103c 0715 d63c
000002f0: 2064 bbbb 8e45 4abd 1b62 aabd 0db8 6a3c
00000300: 4e51 d0bd db2a eabc 31ad c43c 959b bcbc
00000310: 3dbe cc3b 3cf3 033c b09c 7bbd 9fdc 11bd
00000320: 430b bb3c 82b8 edbd ee3d 483c a924 f4bd
00000330: 41e6 65bb 6116 bd3c e931 3dbd ca6a 65bd
00000340: 2608 5ebd 734f 533d 9257 82bd 92a8 53bd
00000350: 178a 9b3c d14a b43d 7a8d 0dbd 4002 eabd
00000360: 18d0 81bd 40c4 f33d cd27 8cbc 943f 933d
00000370: 3ebf 1f3d d7c8 06be eec4 5abd 8219 1cbd
00000380: 3113 40bd d54d abbd 69e5 77bd a001 a8bc
00000390: 1178 463d 4070 5a3d c1c0 293c ca1a 0cbe
000003a0: 24f2 a73d a3de 5d3b 9193 86bd 58d7 0eba
000003b0: 9630 b9bd 802f 4ebe 927e a6bd 2191 ff3d
000003c0: d61e 16bd fcc8 aabc 4542 24be 470e 2f3d
000003d0: 779a 66bd aebc babd 85fa 94bd 4073 1c3c
000003e0: f332 593c 81e3 bfbb 4481 babd c9b5 6f3d
000003f0: ab88 b13c 11bd ae3d ce28 ba3d c661 8cbd

network_body._body_endoder.seq_layers.2.bias f4 [256]
-0.037259754 -0.023867538 0.044369332 0.051363796 -0.04880205 0.023467593 -0.03718718 0.046662617
0.05748031 0.004629971 0.05268324 0.035595916 -0.03378327 0.012910922 0.04053605 -0.03609912
0.02947778 0.023567379 0.020504575 0.051408514 0.040261522 -0.014630331 0.037195083 0.03140872
0.03552907 -0.04509763 0.02772025 0.027925625 0.044398226 0.0286727 0.005717474 0.034708235
0.025359642 -0.04678924 0.04943707 -0.030732488 0.032790158 0.025209256 0.024859887 0.026948297
0.040411133 0.016506294 -0.04388361 0.050857715 -0.034798868 0.027983624 -0.030990718 -0.027569348
-0.026484454 0.03835133 0.029545033 0.025874032 0.030809887 0.03675273 -0.019250564 -0.04499397
0.051010855 -0.04117258 0.02871122 -0.018346755 0.049675655 0.044993497 0.026459953 0.031585
-0.024563737 -0.03677034 0.004984863 0.03412792 0.002137338 0.031700835 0.022393502 0.036302708
0.029802581 -0.004632729 -0.039648544 -0.010398477 0.03623558 0.031016862 0.039627988 0.028844621
-0.010853998 0.03265026 0.03720521 -0.001613656 -0.018484533 0.02835461 0.037117403 0.041625287
-0.04981517 0.0340751 0.04072883 -0.011092561 0.02676885 -0.03672116 0.014287327 0.033762153
0.05627439 0.036363535 0.03794042 0.0032045196 -0.04251782 -0.037819967 0.04340643 0.039884683
0.033128783 0.030605625 0.032224968 -0.02187463 -0.018030116 0.04279954 0.033470273 0.036977157
-0.03900547 -0.045602806 -0.04518043 0.034731198 -0.020796105 0.03797197 0.037516415 0.04133898
0.02615202 0.027972694 0.0342746 -0.030534437 -0.03951053 0.0411164 0.049686145 -0.0092497235
-0.043380145 0.043920986 0.034433898 0.044445448 0.030202765 0.04527663 0.026277948 0.037593015
0.0416225 -0.039449714 -0.033223122 0.025532737 0.021354485 0.031385433 0.037199955 0.032609463
-0.03587405 0.030117242 -0.007776856 0.0507506 0.035123643 0.0365649 0.034407638 0.03329397
0.01176109 0.03286571 0.026979927 0.012589303 0.078378916 0.004095229 0.028135797 -0.01293848
0.04737204 0.033502184 0.040780567 0.02906731 0.042727537 0.026161266 -0.007893576 0.056271017
0.04650779 -0.02356075 0.048867762 0.02772662 0.040864497 -0.0140030105 0.004645232 0.047918502
0.035546895 0.035848517 -0.036607943 0.03644622 -0.037675932 0.03817935 0.018885963 0.029991077
0.009896192 0.037721675 0.043441262 0.04743893 -0.02078211 0.032201584 -0.03934085 -0.048222497
-0.03467528 0.028732711 0.017282953 0.05188162 0.01764501 0.04456232 0.03881118 0.010111837
-0.043209407 -0.010990078 -0.017441073 -0.04313068 -0.004921652 0.013046271 -0.041735187 -0.009469528
0.022446517 0.045705512 0.053927742 0.0036350484 -0.015629398 -0.03765202 -0.03451886 0.0142812105
0.016434975 -0.04922871 0.038184036 0.045294944 0.036882076 0.039693736 0.007819068 0.01390457
0.03402556 -0.024778416 0.014402086 0.036664385 0.0248429 0.018910285 -0.040734626 -0.045104966
-0.026148144 0.03230237 -0.039149694 0.038903523 -0.025740143 0.0320821 -0.030812643 0.041687272
0.043244448 0.042921472 0.042110525 -0.04700927 0.028751584 -0.0074944347 0.036235385 0.031132516
-0.029440638 -0.0050574737 -0.03709714 0.04060949 0.03206568 -0.039163925 0.034001134 0.055998463
00000000: af9d 18bd db85 c3bc 9ebc 353d d862 523d
00000010: a9e4 47bd 1c3f c03c 9651 18bd 4d21 3f3d
00000020: 7970 6b3d 03b7 973b 62ca 573d 06cd 113d
00000030: 5360 0abd 5588 533c 2109 263d acdc 13bd
00000040: 637b f13c 6010 c13c 36f9 a73c bc91 523d
00000050: 44e9 243d 0eb4 6fbc df59 183d 6ea6 003d
00000060: ee86 113d 4bb8 38bd 9415 e33c 48c4 e43c
00000070: eada 353d 03e3 ea3c a659 bb3b 392a 0e3d
00000080: 06bf cf3c 13a6 3fbd 867e 4a3d b3c2 fbbc
00000090: f94e 063d a483 ce3c f6a6 cb3c adc2 dc3c
000000a0: 2586 253d 3538 873c 4dbf 33bd 2e50 503d
000000b0: 4289 0ebd ea3d e53c 3fe0 fdbc 1dd9 e1bc
000000c0: edf5 d8bc 4916 1d3d 6d08 f23c c7f5 d33c
000000d0: 0465 fc3c 088a 163d 5cb3 9dbc 994b 38bd
000000e0: c2f0 503d 94a4 28bd cb33 eb3c ef4b 96bc
000000f0: b378 4b3d 1a4b 383d 8bc2 d83c 465f 013d
00000100: e439 c9bc 7f9c 16bd 1058 a33b b8c9 0b3d
00000110: 9512 0c3b bcd8 013d 9472 b73c 26b2 143d
00000120: 8b24 f43c 26ce 97bb 8366 22bd 605e 2abc
00000130: c26b 143d 1317 fe3c f550 223d 8e4b ec3c
00000140: f8d4 31bc 47bc 053d 7e64 183d 4f81 d3ba
00000150: e06c 97bc ed47 e83c 6b08 183d 477f 2a3d
00000160: fe0a 4cbd 5592 0b3d 46d3 263d 93bd 35bc
00000170: 594a db3c ed68 16bd 6515 6a3c 2f4a 0a3d
00000180: fa7f 663d eef1 143d 6a67 1b3d eb02 523b
00000190: 2a27 2ebd 1ce9 1abd f1ca 313d 1f5e 233d
000001a0: 0cb2 073d a6b8 fa3c 54fe 033d 6d32 b3bc
000001b0: e5b3 93bc 924e 2f3d 2018 093d 5c75 173d
000001c0: 33c4 1fbd 02ca 3abd 1d0f 39bd 4d42 0e3d
000001d0: 985c aabc 7f88 1b3d d0aa 193d 1053 293d
000001e0: c33c d63c fe26 e53c 8663 0c3d 5b23 fabc
000001f0: cbd5 21bd ac69 283d b383 4b3d 278c 17bc
00000200: 61af 31bd 7ee6 333d 8f0a 0d3d 6e0c 363d
00000210: ca6b f73c fd73 393d da44 d73c 22fb 193d
00000220: 5b7c 2a3d 0696 21bd f814 08bd 082a d13c
00000230: 9aef ae3c 038e 003d fb5e 183d 8091 053d
00000240: abf0 12bd 6fb8 f63c ffd4 febb dcdf 4f3d
00000250: cfdd 0f3d 14c5 153d 06ef 0c3d 425f 083d
00000260: 96b1 403c 329e 063d 0205 dd3c 5d43 4e3c
00000270: 2085 a03d 4531 863b 0b7d e63c ebfb 53bc
00000280: 2f09 423d 9639 093d 8609 273d 911e ee3c
00000290: 1203 2f3d 2750 d63c 0f54 01bc 707c 663d
000002a0: f47e 3e3d 7902 c1bc 9029 483d f022 e33c
000002b0: 8861 273d e26c 65bc 0837 983b 3146 443d
000002c0: 9f99 113d e5d5 123d 36f2 15bd a248 153d
000002d0: 1452 1abd f361 1c3d bcb6 9a3c d9af f53c
000002e0: a323 223c 0b82 1a3d 77ef 313d 534f 423d
000002f0: 3e3f aabc cfe5 033d df23 21bd f484 45bd
00000300: ab07 0ebd dd60 eb3c fb94 8d3c d281 543d
00000310: 458c 903c fb86 363d 79f8 1e3d 1eac 253c
00000320: 59fc 30bd ba0f 34bc 95e0 8ebc cca9 30bd
00000330: cf45 a1bb 07c0 553c 84f2 2abd 1426 1bbc
00000340: c2e1 b73c b435 3b3d 56e3 5c3d fe39 6e3b
00000350: 3909 80bc 0139 1abd a663 0dbd bdfb 693c
00000360: a4a2 863c 0ba4 49bd dd66 1c3d 3187 393d
00000370: a911 173d e695 223d 8c1b 003c fecf 633c
00000380: 635e 0b3d 1bfc cabc baf6 6b3c 652d 163d
00000390: 5683 cb3c bee9 9a3c 5ad9 26bd fcbf 38bd
000003a0: a234 d6bc 7d4f 043d 6e5b 20bd 4d59 1f3d
000003b0: fedc d2bc 8568 033d cc6a fcbc 46c0 2a3d
000003c0: 1721 313d 6dce 2f3d 167c 2c3d cb8c 40bd
000003d0: 7188 eb3c e093 f5bb 8e6b 143d 9e09 ff3c
000003e0: 7e2d f1bc 2ab9 a5bb 2cf3 17bd 2356 263d
000003f0: 4d57 033d 5a6a 20bd c644 0b3d a55e 653d

action_model._discrete_distribution.branches.0.weight f4 [3, 256]
0.0031134572 0.044456035 0.024704864 0.019556442 -0.00094987487 0.01115445 0.11176937 -0.020613141
0.004846115 0.0065305727 -0.0101119615 -0.0030291295 0.013910751 0.0143999355 -0.004529433 0.012358212
0.017126428 -0.017744385 -0.04335117 -0.0169249 -0.024304863 0.025800224 0.014630304 0.026238622
-0.011096447 -0.02016301 -0.00050283887 0.01521702 0.0073291906 0.011998425 0.02505857 0.041151147
0.010655012 0.0031992602 -0.0049963295 -0.0039858734 0.012004525 -0.03440352 -0.01751498 -0.008566913
0.013231308 -0.022965113 -0.022535523 -0.012672837 0.022683064 -0.006703318 0.024491915 0.059695937
0.030848151 -0.011950818 -0.00011704437 -0.0018655222 0.0055219247 0.0242289 0.025950307 0.0051593916
0.03327524 0.010119616 0.014746101 0.0020430894 0.01996123 0.018255135 0.019341255 0.005989382
0.0040619858 -0.021420665 -0.024791708 0.02453205 0.0072231786 0.004715168 -0.0368114 -0.010394911
-0.014596921 -0.0004500638 0.025017032 -0.017080951 -0.016797535 0.030392732 0.013289662 0.01219844
0.035122674 0.019120036 0.012705788 0.012360258 -0.06594891 0.0055152928 0.008016726 0.026989186
0.012208854 0.023514941 -0.0015709233 0.02460012 -0.00655584 0.035410255 -0.0064590857 -0.012334535
0.010604395 0.0063957884 0.012647244 0.024156185 0.036428254 0.013558869 0.0011634078 -0.022504894
-0.01844819 0.020701831 -0.020927524 0.018669784 -0.025743362 0.016608711 0.00641264 0.0051290337
0.01143362 0.010587714 -0.01782593 -0.006802205 0.009115704 0.039451886 0.02465503 -0.055558924
-0.0029009124 0.019095346 0.00834497 0.023159545 0.013484433 0.0137914065 -0.014306344 0.035417445
0.0064446293 0.0062926062 -0.0073848707 0.013850176 -0.004617676 -0.003439448 0.020501673 -0.0014169669
0.023801833 0.08308751 0.042300496 -0.010800847 0.010084129 0.012427228 -0.017033255 0.0027642886
-0.0011780355 -0.010529066 0.017774066 0.025740331 0.010031683 0.0036065844 0.04080735 -0.0051731695
-0.020852707 -0.0016124714 0.016319308 0.08220575 0.049801406 0.008904651 0.030022053 0.004906913
-0.013251984 0.02164463 -0.01362832 0.009846422 -0.0117705865 0.012203649 0.019259613 0.020440899
-0.011213354 -0.0104572 0.024460005 0.033283815 0.0013260514 0.063912325 -0.020490225 -0.013332357
0.004330402 0.004330513 0.011356024 0.009978632 0.02551206 0.020994268 -0.0034240095 -0.0053991205
-0.003280374 0.011869462 0.015704516 0.007693797 0.004690702 0.0049003093 0.007877299 0.012802176
0.03698016 -0.03451372 0.008492771 -0.02268909 0.028092368 0.028258724 0.01752132 -0.007734803
0.07917056 -0.009467268 -0.011378719 0.017911464 0.020303238 -0.0058435104 0.0345328 0.0036732787
0.016810166 0.0030529916 0.037809268 0.025594201 0.003881656 0.0065391134 0.05067148 0.02621246
-0.0076780864 0.060091373 0.010364502 -0.0023002515 -0.0005230138 0.009899337 -0.013463029 -0.018319573
0.023945978 0.025467876 -0.048897114 -0.024819078 -0.015211075 0.022774812 0.0035016874 -0.00028842036
0.07807754 -0.0014213296 0.01034859 -0.0008965117 -0.0305014 -0.005399226 0.061697453 0.009072555
-0.0011056458 0.04028486 -0.002931183 0.020971313 -0.0010632315 -0.014139341 0.019960426 -0.007930897
0.11458943 0.008705975 0.008161058 0.001959607 -0.012691936 -0.004526387 0.026657008 0.006842705
00000000: 250b 4c3b 8817 363d db61 ca3c d534 a03c
00000010: 0601 79ba 27c1 363c 57e7 e43d e4dc a8bc
00000020: 29cc 9e3b 6afe d53b a4ac 25bc 5c84 46bb
00000030: ebe9 633c b5ed 6b3c a36b 94bb 197a 4a3c
00000040: b94c 8c3c ac5c 91bc ff90 31bd 16a6 8abc
00000050: fe1a c7bc fe5a d33c f1b3 6f3c 61f2 d63c
00000060: dfcd 35bc e62c a5bc f2d0 03ba cf50 793c
00000070: b529 f03b 0b95 443c a147 cd3c 1b8e 283d
00000080: 5c92 2e3c aeaa 513b 40b8 a3bb ee9b 82bb
00000090: a1ae 443c b5ea 0cbd 937b 8fbc 3d5c 0cbc
000000a0: 21c8 583c 5521 bcbc 6b9c b8bc bba1 4fbc
000000b0: d5d1 b93c 82a7 dbbb 45a3 c83c ba83 743d
000000c0: 43b5 fc3c 5dcd 43bc b875 f5b8 8a84 f4ba
000000d0: 43f1 b43b b07b c63c bd95 d43c 1d10 a93b
000000e0: 9e4b 083d bfcc 253c a199 713c 5ae5 053b
000000f0: bc85 a33c cb8b 953c 8d71 9e3c 9442 c43b
00000100: 681a 853b 647a afbc fb17 cbbc 70f7 c83c
00000110: 6ab0 ec3b b281 9a3b 8dc7 16bd 6b4f 2abc
00000120: ed27 6fbc 8af6 ebb9 85f0 cc3c 5aed 8bbc
00000130: fc9a 89bc 2efa f83c e2bc 593c f7db 473c
00000140: cbdc 0f3d 9fa1 9c3c f02b 503c ae82 4a3c
00000150: 3910 87bd a1b9 b43b 9658 033c 6d18 dd3c
00000160: a507 483c 68a2 c03c 70e7 cdba 3186 c93c
00000170: 5fd2 d6bb 580a 113d bda6 d3bb ca16 4abc
00000180: 0ebe 2d3c c393 d13b 6336 4f3c 31e3 c53c
00000190: cb35 153d 0526 5e3c 7d7d 983a 2f5c b8bc
000001a0: a920 97bc e396 a93c 3370 abbc 60f1 983c
000001b0: bee3 d2bc fe0e 883c 2021 d23b 7411 a83b
000001c0: 1454 3b3c 1778 2d3c af07 92bc 08e5 debb
000001d0: 095a 153c 4d98 213d 58f9 c93c c191 63bd
000001e0: 3c1d 3ebb d86d 9c3c 57b9 083c 16b9 bd3c
000001f0: d0ed 5c3c 5af5 613c 2865 6abc e211 113d
00000200: 782d d33b 3532 ce3b c9fc f1bb d9eb 623c
00000210: e04f 97bb 5d68 61bb 20f3 a73c 85b9 b9ba
00000220: 10fc c23c c929 aa3d 4943 2d3d 09f6 30bc
00000230: e737 253c 929b 4b3c 5389 8bbc 1129 353b
00000240: 5068 9aba 1b82 2cbc eb9a 913c 63dd d23c
00000250: ee5b 243c 725c 6c3b 9c25 273d b183 a9bb
00000260: 4cd3 aabc 9059 d3ba 12b0 853c 7d5b a83d
00000270: 8ffc 4b3d d0e4 113c cff0 f53c 2bca a03b
00000280: d91e 59bc 1450 b13c 5149 5fbc e352 213c
00000290: 6bd9 40bc d0f1 473c 56c6 9d3c ac73 a73c
000002a0: 37b8 37bc ad54 2bbc 5960 c83c 9c54 083d
000002b0: e7ce ad3a 77e4 823d 1edb a7bc f56f 5abc
000002c0: 0be6 8d3b fae6 8d3b 9e0e 3a3c 6b7d 233c
000002d0: abfe d03c 2cfc ab3c 5965 60bb 1beb b0bb
000002e0: 8bfb 56bb 2278 423c c2a6 803c 3f1c fc3b
000002f0: 76b4 993b c692 a03b c90f 013c 38c0 513c
00000300: 8278 173d 425e 0dbd 4325 0b3c 78de b9bc
00000310: f721 e63c d77e e73c df88 8f3c 3b74 fdbb
00000320: 2d24 a23d 9a1c 1bbc ce6d 3abc 10bb 923c
00000330: fa52 a63c eb7a bfbb 4472 0d3d 64bb 703b
00000340: 79b5 893c b314 483b e4dd 1a3d eeaa d13c
00000350: 6263 7e3b 0f46 d63b e68c 4f3d 83bb d63c
00000360: 7598 fbbb 5f22 763d dfcf 293c d1bf 16bb
00000370: dd1a 09ba d430 223c 0994 5cbc ee12 96bc
00000380: 5b2a c43c 02a2 d03c 5748 48bd 6151 cbbc
00000390: df37 79bc 3e92 ba3c 917c 653b 2037 97b9
000003a0: 1ee7 9f3d e84b baba 228d 293c e203 6bba
000003b0: 12de f9bc feeb b0bb 78b6 7c3d 0ea5 143c
000003c0: 51eb 90ba bd01 253d 1719 40bb 08cc ab3c
000003d0: 215c 8bba b2a8 67bc 0c84 a33c 98f0 01bc
000003e0: ddad ea3d 81a3 0e3c f5b5 053c c06c 003b
000003f0: d7f1 4fbc 1652 94bb cc5f da3c c538 e03b

action_model._discrete_distribution.branches.0.bias f4 [3]
-0.01289012 0.024565248 -0.023845164
00000000: 1531 53bc 0f3d c93c ef56 c3bc

action_model._discrete_distribution.branches.1.weight f4 [3, 256]
-0.04077889 -0.031582266 0.022781335 0.0405899 -0.025599362 0.014679106 -0.007411039 0.025763405
-0.0058339415 0.008413909 0.033201177 0.022182645 -0.031601515 0.0029542646 0.010964894 -0.052632265
0.038553897 0.007544303 0.0011693174 0.01531531 0.018203072 -0.052961063 0.025015987 0.031179585
0.008484058 -0.04795176 0.00927018 0.017238658 0.014485927 0.013969445 -0.0028435467 0.018225066
0.00371398 -0.041602325 0.010821963 -0.0626457 0.019747127 -0.024371479 0.007809698 -0.0036617115
0.02029217 -0.012667896 -0.0294328 0.016475003 -0.037955374 0.008904176 -0.0303625 -0.035733458
-0.033284765 0.0032621277 0.02376452 0.008002962 0.024352882 0.03182434 0.00044041162 -0.04881189
0.02558994 -0.033745553 0.012310194 -0.02609073 0.027961444 0.027121784 0.0015211429 0.019869419
-0.025298076 -0.04821284 0.0076101394 0.018682154 0.007983587 0.011831949 0.013288717 0.00976593
-0.012104621 0.0042891568 -0.046325002 -0.004059622 0.019287923 0.020378722 -0.0031889244 0.021201324
-0.02259768 0.009948798 0.013330841 -0.0053057354 -0.034708943 0.015022506 0.0070403595 0.0077535124
-0.046339802 0.0019087732 0.00875922 -0.016517062 0.019259032 -0.036804892 -0.0011777469 0.029560158
0.0003768887 0.013283647 -0.007674952 0.007934682 -0.04106508 -0.03946845 0.01911943 0.006566448
0.007913888 0.0036470012 0.012414758 -0.01003676 -0.029511712 0.01184342 0.003113905 0.016537547
-0.040213645 -0.023742864 -0.049402338 0.022293374 -0.0054132584 -0.0105438875 -0.0010323226 -0.0005810731
0.014448118 0.027966619 0.03005165 -0.010925421 -0.017677914 0.004598929 0.026613485 0.011138649
-0.030346453 0.020493912 0.015291784 0.013079134 0.0123326685 0.015586876 0.01233671 0.019731613
0.0072559332 -0.0031646925 -0.042416625 0.008619488 0.005791109 0.015750177 0.00984436 0.01426643
-0.044628303 6.902435e-05 -0.0126832 0.029346123 0.033859916 0.023296364 0.023358993 -0.028016964
-0.00015152301 0.006209755 0.009336954 0.017768895 0.039975617 0.0031301132 0.015438099 -0.019237803
0.014382085 0.04316759 0.028456526 0.023970323 0.00827457 -0.006827268 -0.0010224184 -0.0042427187
0.01574299 -0.021108368 0.036935188 0.0012751915 0.019264858 0.0051686205 0.004618249 0.014406299
0.013767366 0.004078989 -0.03639369 0.02093074 -0.03688589 0.02185536 0.010858496 -0.0019329874
-0.0006405104 0.02787705 0.0072914837 0.014737967 -0.010490435 0.024722349 -0.04548479 -0.034919992
-0.03690721 0.00756151 0.009158284 0.01397618 0.021833654 -0.0069254003 0.012713026 0.00012468381
-0.015252772 -0.018014612 -0.011959805 -0.04299272 -0.0057399003 0.0045961775 -0.04443965 -0.007133036
0.0078124194 0.013576602 0.01538287 -0.0044544376 -0.02788599 -0.04408299 -0.05487154 0.0115606235
-0.001400712 -0.027021809 -0.0020647065 0.01347956 0.021990985 0.009630994 0.00019195655 0.014462932
-0.0043864166 -0.06578235 -0.06568772 0.016264442 0.021074245 0.0038705117 -0.036024094 -0.04155585
-0.05966023 0.013097389 -0.035614103 0.023808848 -0.015945483 0.012574469 -0.045816526 0.013510925
0.0033568048 0.008524799 0.015027777 -0.0418964 0.0051103225 -0.021690672 -0.009503811 0.0067618303
-0.005079606 -0.026114037 -0.048308693 0.004943658 0.005072328 -0.049147595 0.013441073 0.0139804995
00000000: c407 27bd 685c 01bd ec9f ba3c 9841 263d
00000010: c1b5 d1bc a280 703c 4dd8 f2bb c70d d33c
00000020: a62a bfbb 7eda 093c f5fd 073d 61b8 b53c
00000030: 9770 01bd 569c 413b 19a6 333c ee94 57bd
00000040: b1ea 1d3d 3336 f73b c843 993a 11ed 7a3c
00000050: 9c1e 953c b3ed 58bd 54ee cc3c 546c ff3c
00000060: b800 0b3c 1169 44bd f4e1 173c 1638 8d3c
00000070: 6256 6d3c 19e0 643c cc5a 3abb bc4c 953c
00000080: 3f66 733b 3367 2abd 9a4e 313c 644c 80bd
00000090: bac4 a13c b2a6 c7bc 7fe8 ff3b 53f9 6fbb
000000a0: c43b a63c 028d 4fbc 0e1d f1bc 96f6 863c
000000b0: 1877 1bbd d2e2 113c c7ba f8bc 3f5d 12bd
000000c0: 9b55 08bd 6cc9 553b d0ad c23c db1e 033c
000000d0: b27f c73c 3d5a 023d 0ce7 e639 faee 47bd
000000e0: fea1 d13c c738 0abd b2b0 493c 3abc d5bc
000000f0: 660f e53c 812e de3c 1661 c73a 31c5 a23c
00000100: e93d cfbc d47a 45bd 7a5e f93b 510b 993c
00000110: 97cd 023c cbda 413c ebb8 593c 4701 203c
00000120: 7652 46bc 0e8c 8c3b 49bf 3dbd 9406 85bb
00000130: b501 9e3c 47f1 a63c 46fd 50bb 66ae ad3c
00000140: c51e b9bc 4900 233c 9a69 5a3c bcdb adbb
00000150: f72a 0ebd f520 763c d1b2 e63b 2d11 fe3b
00000160: cece 3dbd cd2f fa3a d582 0f3c ca4e 87bc
00000170: 1ec5 9d3c bac0 16bd a15e 9aba 2528 f23c
00000180: 2599 c539 a7a3 593c 2a7e fbbb 7800 023c
00000190: db33 28bd aba9 21bd 5aa0 9c3c 5c2b d73b
000001a0: 41a9 013c 8702 6f3b 4567 4b3c 3971 24bc
000001b0: 8cc2 f1bc e70a 423c a812 4c3b c079 873c
000001c0: 10b7 24bd 6580 c2bc 1b5a 4abd 98a0 b63c
000001d0: b461 b1bb 45c0 2cbc 004f 87ba 2853 18ba
000001e0: cdb7 6c3c 401a e53c e12e f63c 8900 33bc
000001f0: 46d1 90bc 9db2 963b 8604 da3c e17e 363c
00000200: 2099 f8bc d9e2 a73c 648a 7a3c dd49 563c
00000210: f60e 4a3c 1960 7f3c e91f 4a3c 31a4 a13c
00000220: 2ec3 ed3b bb66 4fbb 0ebd 2dbd c138 0d3c
00000230: 58c3 bd3b 8406 813c 3d4a 213c bfbd 693c
00000240: 2bcc 36bd 2ac1 9038 32cd 4fbc 4867 f03c
00000250: b2b0 0a3d 04d8 be3c 5c5b bf3c d583 e5bc
00000260: 26e2 1eb9 337b cb3b 06fa 183c 1390 913c
00000270: 79bd 233d 9622 4d3b 15f0 7c3c 9998 9dbc
00000280: d6a2 6b3c 80d0 303d a91d e93c 695d c43c
00000290: 1092 073c 46b7 dfbb ab02 86ba 8106 8bbb
000002a0: 71f7 803c 75eb acbc 5a49 173d 5424 a73a
000002b0: 56d1 9d3c 885d a93b ae54 973b 6608 6c3c
000002c0: 8590 613c 0aa9 853b 8d11 15bd f176 ab3c
000002d0: a915 17bd 030a b33c d5e7 313c 4b5c fdba
000002e0: ede7 27ba 695e e43c 66ed ee3b 8477 713c
000002f0: 13e0 2bbc 8686 ca3c 424e 3abd 4408 0fbd
00000300: 042c 17bd 8bc6 f73b a10c 163c 59fc 643c
00000310: 7edc b23c 78ee e2bb 4c4a 503c 8ebd 0239
00000320: c3e6 79bc 6193 93bc 0ff3 43bc 2219 30bd
00000330: c615 bcbb 889b 963b 5a06 36bd 3ebc e9bb
00000340: 53ff ff3b 6570 5e3c 6f08 7c3c 88f6 91bb
00000350: 2971 e4bc 5e90 34bd fbc0 60bd c568 3d3c
00000360: 1898 b7ba d75c ddbc 0750 07bb 5fd9 5c3c
00000370: 7026 b43c 51cb 1d3c f247 4939 eff5 6c3c
00000380: eebb 8fbb e6b8 86bd 4987 86bd 023d 853c
00000390: e5a3 ac3c 69a8 7d3b 008e 13bd 7836 2abd
000003a0: 495e 74bd 6e96 563c 18e0 11bd c60a c33c
000003b0: 1aa0 82bc 2505 4e3c 1caa 3bbd ed5c 5d3c
000003c0: d7fd 5b3b 99ab 0b3c 1137 763c 8f9b 2bbd
000003d0: 7e74 a73b a3b0 b1bc dfb5 1bbc 5892 dd3b
000003e0: d372 a6bb 1bed d5bc 56df 45bd 69fe a13b
000003f0: c535 a63b fd4e 49bd f237 5c3c 770e 653c

action_model._discrete_distribution.branches.1.bias f4 [3]
0.025411168 -0.031998586 -0.013749361
00000000: 152b d03c f310 03bd 0045 61bc

onnx::Div_78 f4 [28]
0.2820966 0.28249645 0.016535552 0.2133389 0.31973138 0.32042888 0.0241008 0.2202121
0.44119507 0.44165885 0.02951304 0.19809286 0.4997049 0.49969676 0.014905328 0.19204642
0.47601432 0.47600868 0.004134385 0.16014849 0.4074431 0.40737024 0.010126768 0.15455826
0.37413937 0.37412423 0.004134385 0.14155987
00000000: f76e 903e 60a3 903e 9175 873c 8375 5a3e
00000010: d5b3 a33e 410f a43e 0a6f c53c 487f 613e
00000020: 52e4 e13e 1c21 e23e 55c5 f13c dbd8 4a3e
00000030: 52d9 ff3e 41d8 ff3e 7a35 743c d1a7 443e
00000040: 26b8 f33e 69b7 f33e bc79 873b f7fd 233e
00000050: 629c d03e d592 d03e beea 253c 8544 1e3e
00000060: 328f bf3e 368d bf3e bc79 873b 12f5 103e
