results/Racing_Imitation2/Driver.onnx (onnx, 88644 bytes, 9 tensors)

discrete_act_size_vector f4 [1, 2]
0	0x40400000	3.0
1	0x40400000	3.0

network_body._body_endoder.seq_layers.0.weight f4 [128, 29]
0	0x3da7e7e1	0.08198524
1	0x3e074d9f	0.13213204
2	0xbdd81b2f	-0.1055206
3	0xbe8eaa42	-0.2786427
4	0xbe542a12	-0.20719174
5	0xbd557be1	-0.052120093
6	0xbdb3bda3	-0.08776405
7	0x3de5f722	0.112287775
8	0xbe1f8db1	-0.15581395
9	0xbd0a2bbd	-0.03373312
10	0x3ecde014	0.4021002
11	0xbea7d24e	-0.32777637
12	0x3e2febd5	0.17179807
13	0xbccf8cdf	-0.025335727
14	0xbdc0b5ae	-0.09409653
15	0xbe935f0c	-0.28783453
16	0x3d6d6f4e	0.057967477
17	0x3d7df32f	0.061999496
18	0xbdabd911	-0.083910115
19	0xbeb3cc8c	-0.35116994
20	0xbc8efff7	-0.017456038
21	0xbd0ae091	-0.03390557
22	0xbe13cfd9	-0.14434756
23	0x3c9bfee5	0.019042442
24	0xbe2c457a	-0.16823378
25	0x3dc0f28b	0.094212614
26	0x3be9ffb7	0.0071410793
27	0x3d86fe8a	0.06591518
28	0x3dd615a1	0.10453344
29	0xbdbd9923	-0.09257724
30	0xbdccd258	-0.100010574
31	0x3e21bfe1	0.15795852
32	0x3e80c0cf	0.251471
33	0xbe52d00a	-0.20587173
34	0xbe1375cc	-0.14400405
35	0x3d09b1d1	0.033616845
36	0x3e36aa35	0.17838366
37	0x3dba26c2	0.09089424
38	0xbd8e8295	-0.069585
39	0x3e36e3ff	0.17860411
40	0x3e1534c8	0.14570916
41	0xbd3f7562	-0.046742804
42	0x3e35852d	0.17726584
43	0x3e2551f0	0.16144538
44	0x3e23f495	0.1601127
45	0xbe4937ec	-0.19650239
46	0xbd7052a4	-0.058672562
47	0xbdec44ab	-0.11536535
48	0xbd2a743d	-0.04161476
49	0xbd9c26f2	-0.07624616
50	0xbdcdefb3	-0.100554846
51	0x3e1ee1c2	0.15515807
52	0xbebe76c3	-0.37199983
53	0xbdbb8a61	-0.09157253
54	0x3d2607ed	0.040534902
55	0xbd29aa0b	-0.04142193
56	0x3e81d79f	0.25359818
57	0xbe8a78d1	-0.270453
58	0xbd5de676	-0.054174863
59	0xbe9faca3	-0.311864
60	0xbca81ff4	-0.020523049
61	0x3eae7b95	0.3407866
62	0x3e0c74cc	0.1371643
63	0x3dc68d52	0.096949235
64	0xbe2f8ab0	-0.17142749
65	0xbe021bef	-0.12705968
66	0xbd92ebda	-0.07173891
67	0xbda235e7	-0.07920437
68	0xbeb5e9d8	-0.3552997
69	0x3d985f77	0.074400835
70	0xbd087075	-0.033310372
71	0x3d9707bc	0.07374522
72	0x3dbb49d8	0.09144944
73	0x3f0002ea	0.50004447
74	0x3d7ab2ff	0.06120586
75	0x3ed09439	0.40738085
76	0x3e73edfe	0.23821256
77	0x3e2dd0df	0.16974209
78	0x3d83c18b	0.064334
79	0xbe1fad0b	-0.15593354
80	0x3d2a49f2	0.041574426
81	0x3ebe44c6	0.37161845
82	0xbe1561c0	-0.1458807
83	0x3e6d246a	0.23158422
84	0xbda16d1e	-0.078821406
85	0x3c38be51	0.011275844
86	0x3d88269b	0.066479884
87	0x3b671637	0.0035261044
88	0x3e634a7a	0.2219638
89	0xbe466e5c	-0.19378036
90	0xbd0f8131	-0.035035316
91	0xbc9568e0	-0.018238485
92	0x3d4f7171	0.050645296
93	0x3e9c3680	0.3051033
94	0x3c8527ab	0.016254267
95	0x3d89ec1d	0.06734488
96	0x3dbae160	0.09125018
97	0x3e485593	0.19563894
98	0xbe5a4f43	-0.21319298
99	0x3d145d1d	0.036221612
100	0x3e970d2a	0.2950223
101	0xbe6eda91	-0.23325564
102	0x3e9214c9	0.28531483
103	0x3de15095	0.11001698
104	0xbddf5b67	-0.109061055
105	0xbe949c76	-0.2902562
106	0x3e347de9	0.17626156
107	0xbc7a2e49	-0.015269824
108	0x3e3e0c41	0.18559362
109	0xbdf83b9b	-0.12120744
110	0xbe8f7746	-0.28020686
111	0xbdee445d	-0.11634133
112	0xbe1b611d	-0.15173765
113	0xbdedb345	-0.116064586
114	0xbe1e3549	-0.15450014
115	0x3e1f85c5	0.15578373
116	0x3da5a475	0.08088008
117	0x3e405e80	0.18786049
118	0x3e0d7cfc	0.13817209
119	0xbddfbf38	-0.10925144
120	0xbde4a516	-0.111643
121	0x3e9ec269	0.31007698
122	0xbd967f4c	-0.07348499
123	0x3c46a93b	0.012125309
124	0xbe9b087c	-0.3027991
125	0xbd2bf191	-0.041978423
126	0x3d59be07	0.05315974
127	0x3d5d9416	0.054096304
128	0x3e023a3c	0.12717527
129	0x3da43d04	0.0801945
130	0xbe4a668d	-0.19765683
131	0xbd4abf1c	-0.049498662
132	0xbe9281f5	-0.28614774
133	0x3dd98e89	0.106228895
134	0xbe606187	-0.21912204
135	0xbedca2d8	-0.4309299
136	0xbd8a1903	-0.06743052
137	0x3e2f6769	0.17129292
138	0x3dc6fe2b	0.097164474
139	0x3e477aff	0.19480513
140	0xbe3d44bc	-0.18483251
141	0xbba95faf	-0.005168877
142	0xbe113e24	-0.14183861
143	0xbea60300	-0.32424164
144	0x3d9f9645	0.077923335
145	0x3c36e9cf	0.011164143
146	0xbe84ffb2	-0.2597633
147	0xbdbb229f	-0.09137463
148	0xbde9eb14	-0.11421791
149	0xbe49d2e4	-0.19709355
150	0x3c80b602	0.015711788
151	0x3c9ab3f4	0.018884636
152	0xbe35ba17	-0.17746769
153	0x3df11532	0.11771621
154	0x3deb775f	0.114973776
155	0xbd603d64	-0.054746047
156	0x3e1c0ab8	0.15238464
157	0x3e12e314	0.14344436
158	0x3e321d2a	0.17393938
159	0xbe69bc17	-0.22825657
160	0xbeb716c8	-0.35759568
161	0x3e70af8d	0.23504467
162	0x3e3a5c64	0.18199307
163	0xba03bb5c	-0.0005025172
164	0x3e846270	0.25856352
165	0xbe0fc505	-0.1404
166	0x3d9568fe	0.07295416
167	0x3e2beea6	0.16790256
168	0xbe6891fa	-0.22711936
169	0xbc25e234	-0.010124732
170	0x3e8de8f8	0.27716804
171	0xbe34cad3	-0.17655496
172	0xbde9fe05	-0.114254035
173	0xbcbb6d59	-0.02287929
174	0x3ad54b90	0.001627313
175	0x3d5c7f53	0.053832363
176	0x3e4a04f1	0.19728447
177	0xbe266a8f	-0.16251586
178	0x3e323f5b	0.1740698
179	0x3e90fd5f	0.28318307
180	0x3d7bfb7d	0.061519135
181	0x3e224879	0.15847959
182	0xbe2c8aab	-0.16849773
183	0x3c8533e8	0.016260102
184	0x3dd4f0c6	0.103974864
185	0x3bc81362	0.0061058262
186	0xbe8d7bd7	-0.27633545
187	0x3d4e623f	0.050386664
188	0xbe97f68f	-0.29680297
189	0x3e6623ff	0.22474669
190	0x3e2584f9	0.16164006
191	0xbe339fea	-0.17541471
192	0xbd97fb25	-0.07420949
193	0xbec531c5	-0.38514534
194	0xbc9c8f41	-0.019111278
195	0x3e8c5a7a	0.27412778
196	0x3d53a687	0.051672485
197	0xbe355bc2	-0.17710784
198	0x3e2a7750	0.16647077
199	0x3e23d98b	0.16000955
200	0xbdd8fab0	-0.1059469
201	0xbdb72338	-0.08942264
202	0x3be2d2ed	0.006922117
203	0x3d423aaa	0.047419228
204	0xbe83558a	-0.256512
205	0x3ec212aa	0.37904865
206	0x3da7e3ee	0.08197771
207	0x3e10e9d8	0.14151704
208	0x3e0aaa0f	0.13541435
209	0xbd8aa4ea	-0.06769736
210	0x3dd553dc	0.104163855
211	0xbd6af9d4	-0.05736716
212	0x3de63dda	0.11242266
213	0xbe3b289a	-0.18277207
214	0x3dbd183f	0.0923314
215	0xbdc85351	-0.09781516
216	0xbcb3a967	-0.021931363
217	0xbe189ac4	-0.14902788
218	0xbc888437	-0.016664607
219	0xbe13be33	-0.14428024
220	0xbe185e9c	-0.1487984
221	0x3ea90659	0.33012655
222	0xbec95901	-0.39325717
223	0x3db608b3	0.08888378
224	0x3e14ef72	0.14544466
225	0x3d11d811	0.035606448
226	0xbe1e519f	-0.15460823
227	0xbe2bc079	-0.16772641
228	0xbd019a41	-0.03164125
229	0x3dcffbab	0.10155424
230	0xbc65856b	-0.01400886
231	0xbda4d342	-0.08048107
232	0x3d98a2db	0.07452937
233	0x3dd56640	0.10419893
234	0x3e9c7272	0.30556065
235	0x3dc7494f	0.097307794
236	0xbe605afa	-0.21909705
237	0x3d9bb13b	0.076021634
238	0x3e12ab0f	0.14323066
239	0x3e95d310	0.2926259
240	0x3e97d296	0.29652852
241	0xbebf3c13	-0.3735052
242	0x3ccba117	0.024857087
243	0xbc0d2db0	-0.00861685
244	0xbdfdb567	-0.123881154
245	0xbe04a006	-0.12951669
246	0xbeca171d	-0.3947076
247	0xbda8d808	-0.0824433
248	0x3b9fe717	0.004879843
249	0x3df93145	0.121676005
250	0x3ccbafbb	0.024864068
251	0x3d8802dc	0.066411704
252	0x3e343a91	0.17600466
253	0xbe7d5e06	-0.24742898
254	0x3e9f7b3b	0.31148705
255	0x3c8dc052	0.01730362

network_body._body_endoder.seq_layers.0.bias f4 [128]
0	0x00000000	0.0
1	0x00000000	0.0
2	0x00000000	0.0
3	0x00000000	0.0
4	0x00000000	0.0
5	0x00000000	0.0
6	0x00000000	0.0
7	0x00000000	0.0
8	0x00000000	0.0
9	0x00000000	0.0
10	0x00000000	0.0
11	0x00000000	0.0
12	0x00000000	0.0
13	0x00000000	0.0
14	0x00000000	0.0
15	0x00000000	0.0
16	0x00000000	0.0
17	0x00000000	0.0
18	0x00000000	0.0
19	0x00000000	0.0
20	0x00000000	0.0
21	0x00000000	0.0
22	0x00000000	0.0
23	0x00000000	0.0
24	0x00000000	0.0
25	0x00000000	0.0
26	0x00000000	0.0
27	0x00000000	0.0
28	0x00000000	0.0
29	0x00000000	0.0
30	0x00000000	0.0
31	0x00000000	0.0
32	0x00000000	0.0
33	0x00000000	0.0
34	0x00000000	0.0
35	0x00000000	0.0
36	0x00000000	0.0
37	0x00000000	0.0
38	0x00000000	0.0
39	0x00000000	0.0
40	0x00000000	0.0
41	0x00000000	0.0
42	0x00000000	0.0
43	0x00000000	0.0
44	0x00000000	0.0
45	0x00000000	0.0
46	0x00000000	0.0
47	0x00000000	0.0
48	0x00000000	0.0
49	0x00000000	0.0
50	0x00000000	0.0
51	0x00000000	0.0
52	0x00000000	0.0
53	0x00000000	0.0
54	0x00000000	0.0
55	0x00000000	0.0
56	0x00000000	0.0
57	0x00000000	0.0
58	0x00000000	0.0
59	0x00000000	0.0
60	0x00000000	0.0
61	0x00000000	0.0
62	0x00000000	0.0
63	0x00000000	0.0
64	0x00000000	0.0
65	0x00000000	0.0
66	0x00000000	0.0
67	0x00000000	0.0
68	0x00000000	0.0
69	0x00000000	0.0
70	0x00000000	0.0
71	0x00000000	0.0
72	0x00000000	0.0
73	0x00000000	0.0
74	0x00000000	0.0
75	0x00000000	0.0
76	0x00000000	0.0
77	0x00000000	0.0
78	0x00000000	0.0
79	0x00000000	0.0
80	0x00000000	0.0
81	0x00000000	0.0
82	0x00000000	0.0
83	0x00000000	0.0
84	0x00000000	0.0
85	0x00000000	0.0
86	0x00000000	0.0
87	0x00000000	0.0
88	0x00000000	0.0
89	0x00000000	0.0
90	0x00000000	0.0
91	0x00000000	0.0
92	0x00000000	0.0
93	0x00000000	0.0
94	0x00000000	0.0
95	0x00000000	0.0
96	0x00000000	0.0
97	0x00000000	0.0
98	0x00000000	0.0
99	0x00000000	0.0
100	0x00000000	0.0
101	0x00000000	0.0
102	0x00000000	0.0
103	0x00000000	0.0
104	0x00000000	0.0
105	0x00000000	0.0
106	0x00000000	0.0
107	0x00000000	0.0
108	0x00000000	0.0
109	0x00000000	0.0
110	0x00000000	0.0
111	0x00000000	0.0
112	0x00000000	0.0
113	0x00000000	0.0
114	0x00000000	0.0
115	0x00000000	0.0
116	0x00000000	0.0
117	0x00000000	0.0
118	0x00000000	0.0
119	0x00000000	0.0
120	0x00000000	0.0
121	0x00000000	0.0
122	0x00000000	0.0
123	0x00000000	0.0
124	0x00000000	0.0
125	0x00000000	0.0
126	0x00000000	0.0
127	0x00000000	0.0

network_body._body_endoder.seq_layers.2.weight f4 [128, 128]
0	0xbc92d32d	-0.017922962
1	0x3e1b6af4	0.15177518
2	0xbde65e56	-0.11248462
3	0xbcb5a20c	-0.022171997
4	0x3dac6a8f	0.08418762
5	0x3b0489ab	0.0020223658
6	0x3da9e428	0.082954705
7	0xbe0e1662	-0.13875726
8	0x3cf66a2d	0.030079925
9	0x3dbc2dfc	0.09188458
10	0xbd28bc35	-0.041195113
11	0xbcb24d32	-0.021765325
12	0x3ca5eb49	0.020253794
13	0x3d7887db	0.060676437
14	0x3cadcbfd	0.021215433
15	0x3e2b9f80	0.16760063
16	0x3dde1ef4	0.108457476
17	0x3db7f428	0.08982116
18	0x3d61190e	0.054955535
19	0xbdde52a6	-0.10855608
20	0xbd8fdd7b	-0.07024666
21	0x3b692091	0.003557239
22	0x3e6b6aa2	0.22989896
23	0x3dcea85a	0.10090704
24	0xbda0154b	-0.07816561
25	0x3d532949	0.051553044
26	0xbd9ce8e3	-0.07661607
27	0xbcb8fcd3	-0.022581493
28	0xbdcfe18f	-0.10150444
29	0xbd3c0e9c	-0.04591237
30	0xbdf78946	-0.1208673
31	0x3d032e25	0.03202643
32	0xbd92abf9	-0.071617074
33	0x3c3aef98	0.011409663
34	0xbc6d3b45	-0.014479463
35	0x3d92778a	0.071517065
36	0xbcf59051	-0.029976042
37	0x3c3d9110	0.01157023
38	0xbda4bb2f	-0.08043515
39	0xbdac4643	-0.08411839
40	0x3e067a9d	0.13132711
41	0x3b7ecf38	0.0038880836
42	0x3debd46e	0.11515127
43	0xbcc194bc	-0.023630492
44	0x3c265fbf	0.010154664
45	0x3d756c92	0.059917994
46	0x3dbf0fbe	0.093291745
47	0x3e2e74b1	0.17036702
48	0x3d1d4231	0.038393203
49	0xbe1e68df	-0.15469693
50	0x3b9103ea	0.0044255154
51	0x3e1705a1	0.14748241
52	0x3c206463	0.009789559
53	0xbd841e1f	-0.06451058
54	0xbe1d6d00	-0.15373611
55	0xbdbff0df	-0.093721144
56	0x3c7f3734	0.015577126
57	0x3c883610	0.016627342
58	0xbd534c3b	-0.05158637
59	0x3c633cbe	0.013869463
60	0x3debb0d4	0.11508337
61	0x3b2c2cb7	0.002627177
62	0xbe140cb3	-0.1445797
63	0xbd8fb62f	-0.07017171
64	0x3ce8a3ae	0.028398361
65	0xbc8f0c36	-0.017461877
66	0xbdcdd263	-0.10049894
67	0x3e29594c	0.1653797
68	0x3e048d19	0.1294445
69	0x3e71cb51	0.23612715
70	0xbd9495dc	-0.07255146
71	0xb9349532	-0.00017221717
72	0x3d757e3b	0.059934836
73	0x3e33bcf8	0.17552555
74	0xbd9eb6c9	-0.07749707
75	0x3d3ad7da	0.04561601
76	0x3db91f5e	0.09039186
77	0xbddcddc8	-0.10784489
78	0x3d8e8b24	0.06960133
79	0x3ca38c3f	0.019964335
80	0xbd83462a	-0.06409867
81	0x3cce4200	0.025177956
82	0x3c49068d	0.012269628
83	0xbd132323	-0.03592218
84	0x3e3ccdad	0.18437834
85	0xb9dc5b95	-0.00042029904
86	0x3ce02e11	0.027365716
87	0xbe086801	-0.13320924
88	0xbe2f3f8f	-0.1711409
89	0x3cd8b6a6	0.026454281
90	0x3b54a6f2	0.003244814
91	0x3d4b6def	0.049665388
92	0xbdb10bbd	-0.08644817
93	0x3d722d63	0.059125315
94	0x3c703bbc	0.014662679
95	0xbdf57767	-0.11985665
96	0x3d5bce22	0.05366338
97	0xbc9b0556	-0.018923443
98	0x3d9a0d79	0.07522101
99	0x3d9ff633	0.07810631
100	0x3d2ba84a	0.04190854
101	0x3c209b6d	0.009802681
102	0xbe2954c7	-0.16536246
103	0x3d67b74c	0.05657129
104	0xbdaadcb0	-0.08342874
105	0xbdf21647	-0.11820655
106	0xbdc51040	-0.0962224
107	0xbd90467e	-0.07044695
108	0x3dbe71bb	0.09299036
109	0x3c92c916	0.01791815
110	0x3c6b0457	0.014344296
111	0xbdaa00a1	-0.08300901
112	0xbb8950e5	-0.0041905516
113	0xbddb1165	-0.10696677
114	0x3d787408	0.06065753
115	0xbd87b2ce	-0.06625901
116	0x3d26d44a	0.0407298
117	0xbe20d345	-0.15705593
118	0x3b91ee43	0.004453452
119	0x3cdb42cf	0.026765255
120	0x3c650582	0.013978364
121	0xbd05d36c	-0.03267233
122	0x3d715a1b	0.058923822
123	0xbd7202a7	-0.05908456
124	0x3bfe90d7	0.007768731
125	0xbd237c3e	-0.03991341
126	0x3af27b05	0.0018499797
127	0x3da2d32c	0.07950434
128	0xbde72b1c	-0.11287519
129	0x3d28126f	0.041033205
130	0x3c9a9554	0.018870033
131	0x3ce263ec	0.027635537
132	0xbe0bef0e	-0.13665411
133	0x3e05a5f1	0.13051583
134	0x3dcafd5d	0.099116065
135	0xbdc9b669	-0.09849245
136	0x3d3cbc9f	0.04607832
137	0x3bb5c207	0.0055468115
138	0x3e4ac3cd	0.19801255
139	0x3d317de8	0.043332964
140	0xbd2295dd	-0.039693702
141	0x3d451d5e	0.04812371
142	0x3aa734fa	0.0012756877
143	0x3e00259f	0.12514351
144	0x3dc8246a	0.097725704
145	0xbe344ed9	-0.17608203
146	0xbcc33de9	-0.023833232
147	0xbceb9a5b	-0.028760126
148	0xbd498a16	-0.049203955
149	0x3da35e68	0.07976991
150	0xbe2ed7c0	-0.1707449
151	0x3dd449b2	0.10365619
152	0xbd354116	-0.044251524
153	0xbe359e42	-0.17736152
154	0x3de7e5f2	0.113231555
155	0x3d9afce8	0.07567769
156	0x3e13d5be	0.14437005
157	0x3c180245	0.009277885
158	0x3d0afdeb	0.03393356
159	0x3cb7d4d3	0.02244035
160	0x3d68b529	0.056813393
161	0x3cc81ca9	0.024427729
162	0xbe216ed6	-0.15764937
163	0x3dc11c0d	0.094291784
164	0x3d83085b	0.06398078
165	0x3d052e0c	0.032514617
166	0xbc8b9c54	-0.017042316
167	0xbdf4dff0	-0.11956775
168	0x3e69eb42	0.2284365
169	0xba5ec662	-0.0008498189
170	0xbd574c3c	-0.052562937
171	0x3ca83403	0.020532614
172	0x3cc5f3fd	0.024164194
173	0x3b4cf02a	0.0031271079
174	0x3dae7e5b	0.08520194
175	0x3c9a3c98	0.018827721
176	0x3e28273f	0.16421221
177	0xbdcf3216	-0.10116975
178	0x3cb89af8	0.022534832
179	0xbcd12726	-0.025531363
180	0x3cf429fb	0.029805174
181	0xbd977d97	-0.07397001
182	0x3c34e694	0.011041302
183	0xbd1080a7	-0.035278942
184	0xbcb8df67	-0.022567464
185	0xbe08fd30	-0.13377833
186	0x3d9e1b12	0.07720007
187	0x3c3ccf30	0.011524007
188	0x3bec543e	0.007212191
189	0x3cda5ab4	0.026654579
190	0xbdfd3f22	-0.12365557
191	0x3c0e8434	0.008698512
192	0x3dff25f6	0.12458412
193	0x3d8b1a08	0.067920744
194	0x3d608c7b	0.054821473
195	0xbd94aad4	-0.072591454
196	0xbe202e6a	-0.15642706
197	0x3d64081c	0.055671796
198	0x3dfe9bb0	0.12432039
199	0x3e3477c6	0.17623815
200	0x3da77468	0.081764996
201	0x3caaf101	0.020866873
202	0x3dac9597	0.084269695
203	0x3dd50ec2	0.104032055
204	0xbdde07a0	-0.10841298
205	0x3dfcc678	0.123425424
206	0x3e15ce9e	0.146296
207	0x3e1c7e29	0.15282501
208	0xbd0251e5	-0.031816382
209	0xbe501dd2	-0.20323876
210	0x3d7d6bdc	0.06187044
211	0xbd4bbf81	-0.04974318
212	0x3cd12150	0.02552858
213	0x3d9f3c3d	0.077751614
214	0xbd152656	-0.036413513
215	0xbe302d4c	-0.1720478
216	0xbd827481	-0.063698776
217	0xbd576e80	-0.052595615
218	0x3c2d475b	0.0105760945
219	0xbda6b745	-0.08140425
220	0xbdff6bb0	-0.12471712
221	0x3e104361	0.14088203
222	0x3d22820d	0.039674807
223	0xbd85c91d	-0.065325
224	0x3d005745	0.031333227
225	0xbe1f11ad	-0.15534087
226	0x3d92177e	0.07133387
227	0x3d08c6ef	0.033392843
228	0xbd250169	-0.040284548
229	0xbdbb31d3	-0.091403626
230	0x3d4a192a	0.049340405
231	0x3d9d25e3	0.07673242
232	0x3d8f3962	0.06993367
233	0x3d99a7fe	0.07502745
234	0xbd9240c2	-0.07141258
235	0x3d99c476	0.07508175
236	0x3d30d343	0.043170225
237	0xbd47e03c	-0.04879783
238	0x3d33b5c6	0.043874525
239	0x3d849f08	0.06475645
240	0x3d65d14a	0.056107797
241	0x3e453b8e	0.19261
242	0xbe1d5d45	-0.15367611
243	0xbdd021ff	-0.10162734
244	0x3ddc4083	0.10754492
245	0x3dedfdb5	0.116206564
246	0xbdc840d8	-0.09777993
247	0x3e2e8742	0.17043784
248	0xbde4d559	-0.11173505
249	0xb947823a	-0.00019026632
250	0xbcbdd5e8	-0.023173288
251	0xbde263a3	-0.110541604
252	0xbe098376	-0.13429055
253	0x3cdae5a9	0.026720839
254	0xbcbd17d8	-0.023082659
255	0xbcdfe876	-0.027332526

network_body._body_endoder.seq_layers.2.bias f4 [128]
0	0x00000000	0.0
1	0x00000000	0.0
2	0x00000000	0.0
3	0x00000000	0.0
4	0x00000000	0.0
5	0x00000000	0.0
6	0x00000000	0.0
7	0x00000000	0.0
8	0x00000000	0.0
9	0x00000000	0.0
10	0x00000000	0.0
11	0x00000000	0.0
12	0x00000000	0.0
13	0x00000000	0.0
14	0x00000000	0.0
15	0x00000000	0.0
16	0x00000000	0.0
17	0x00000000	0.0
18	0x00000000	0.0
19	0x00000000	0.0
20	0x00000000	0.0
21	0x00000000	0.0
22	0x00000000	0.0
23	0x00000000	0.0
24	0x00000000	0.0
25	0x00000000	0.0
26	0x00000000	0.0
27	0x00000000	0.0
28	0x00000000	0.0
29	0x00000000	0.0
30	0x00000000	0.0
31	0x00000000	0.0
32	0x00000000	0.0
33	0x00000000	0.0
34	0x00000000	0.0
35	0x00000000	0.0
36	0x00000000	0.0
37	0x00000000	0.0
38	0x00000000	0.0
39	0x00000000	0.0
40	0x00000000	0.0
41	0x00000000	0.0
42	0x00000000	0.0
43	0x00000000	0.0
44	0x00000000	0.0
45	0x00000000	0.0
46	0x00000000	0.0
47	0x00000000	0.0
48	0x00000000	0.0
49	0x00000000	0.0
50	0x00000000	0.0
51	0x00000000	0.0
52	0x00000000	0.0
53	0x00000000	0.0
54	0x00000000	0.0
55	0x00000000	0.0
56	0x00000000	0.0
57	0x00000000	0.0
58	0x00000000	0.0
59	0x00000000	0.0
60	0x00000000	0.0
61	0x00000000	0.0
62	0x00000000	0.0
63	0x00000000	0.0
64	0x00000000	0.0
65	0x00000000	0.0
66	0x00000000	0.0
67	0x00000000	0.0
68	0x00000000	0.0
69	0x00000000	0.0
70	0x00000000	0.0
71	0x00000000	0.0
72	0x00000000	0.0
73	0x00000000	0.0
74	0x00000000	0.0
75	0x00000000	0.0
76	0x00000000	0.0
77	0x00000000	0.0
78	0x00000000	0.0
79	0x00000000	0.0
80	0x00000000	0.0
81	0x00000000	0.0
82	0x00000000	0.0
83	0x00000000	0.0
84	0x00000000	0.0
85	0x00000000	0.0
86	0x00000000	0.0
87	0x00000000	0.0
88	0x00000000	0.0
89	0x00000000	0.0
90	0x00000000	0.0
91	0x00000000	0.0
92	0x00000000	0.0
93	0x00000000	0.0
94	0x00000000	0.0
95	0x00000000	0.0
96	0x00000000	0.0
97	0x00000000	0.0
98	0x00000000	0.0
99	0x00000000	0.0
100	0x00000000	0.0
101	0x00000000	0.0
102	0x00000000	0.0
103	0x00000000	0.0
104	0x00000000	0.0
105	0x00000000	0.0
106	0x00000000	0.0
107	0x00000000	0.0
108	0x00000000	0.0
109	0x00000000	0.0
110	0x00000000	0.0
111	0x00000000	0.0
112	0x00000000	0.0
113	0x00000000	0.0
114	0x00000000	0.0
115	0x00000000	0.0
116	0x00000000	0.0
117	0x00000000	0.0
118	0x00000000	0.0
119	0x00000000	0.0
120	0x00000000	0.0
121	0x00000000	0.0
122	0x00000000	0.0
123	0x00000000	0.0
124	0x00000000	0.0
125	0x00000000	0.0
126	0x00000000	0.0
127	0x00000000	0.0

action_model._discrete_distribution.branches.0.weight f4 [3, 128]
0	0x3b536d8d	0.0032261342
1	0xbc57e478	-0.01317703
2	0xb8dc9912	-0.00010518929
3	0xbc320aaf	-0.010866805
4	0x3bde3dbb	0.006782261
5	0xbc1ba7e0	-0.009500474
6	0x3a5da418	0.0008454933
7	0xbc51ff5a	-0.012817228
8	0xba077f68	-0.00051688263
9	0xbbc42485	-0.005985799
10	0xbbe73905	-0.007056358
11	0x3ac63f7c	0.0015125121
12	0x3be22c70	0.00690227
13	0x3c3ee877	0.011652104
14	0x3c8b07d8	0.016971514
15	0x3c954025	0.018219063
16	0x3bcc490c	0.006234294
17	0xbbd4cc0d	-0.0064940513
18	0x3c0c4015	0.0085602
19	0x3859c003	5.1915657e-05
20	0xbbd66c63	-0.0065436824
21	0x3c617000	0.013759613
22	0xbba14361	-0.0049213623
23	0xbb60ff35	-0.0034331803
24	0x3b851cc1	0.0040622656
25	0xbbc3b7f1	-0.0059728553
26	0x3ba1b62a	0.0049350457
27	0xbafc2123	-0.001923595
28	0xbaff2ee0	-0.0019468926
29	0x3c13d1ef	0.00902222
30	0x3c59729a	0.013271952
31	0x3c1f24d0	0.009713367
32	0xbc2f3248	-0.01069314
33	0xbc83e663	-0.016101068
34	0x3bb229ae	0.0054370975
35	0xbc820fce	-0.015876677
36	0xba37d2ca	-0.0007012306
37	0x3c65ac38	0.014018111
38	0xbc8f7629	-0.017512398
39	0xbae43a43	-0.0017412383
40	0xbc8403ff	-0.016115187
41	0xbb41ee36	-0.0029591448
42	0x3c0b16b6	0.008489301
43	0x3b92df3c	0.004482178
44	0xbbb1ddaf	-0.005428038
45	0xbc80a1ff	-0.015702246
46	0xba2e7aff	-0.0006655901
47	0xbad17fd2	-0.0015983528
48	0x3c822b30	0.015889734
49	0xbc5a1aa3	-0.013312015
50	0x3b635573	0.0034688383
51	0x3b94fe74	0.0045469347
52	0xbc8a286d	-0.01686498
53	0xbc440aac	-0.011965435
54	0x3a804dae	0.0009788775
55	0xbb341a03	-0.0027481325
56	0xba1bf8e6	-0.00059498695
57	0x38b2f931	8.534117e-05
58	0xb9af09b7	-0.0003338584
59	0xbc4a357a	-0.012341851
60	0x3c4e8aea	0.012606362
61	0x3c130135	0.008972456
62	0xbc24d91c	-0.0100615285
63	0xbb28eb06	-0.002577485
64	0x3bd259e0	0.0064194053
65	0x3a7c79b2	0.0009631171
66	0xbbaae13a	-0.0052148374
67	0xba865a1c	-0.0010250243
68	0x39ab957c	0.00032727036
69	0x3c348f17	0.011020443
70	0xbc7550ca	-0.014972875
71	0x3c28bce0	0.010298938
72	0x3b368864	0.0027852291
73	0x3c663770	0.014051303
74	0xbc0f5acf	-0.008749678
75	0xbbce0600	-0.0062873363
76	0xbc14b9a5	-0.009077464
77	0xbc04fdd3	-0.008117157
78	0xbc99641f	-0.0187245
79	0xbc6a2d7b	-0.01429307
80	0xbb813e54	-0.0039441977
81	0xbb0bd30c	-0.002133551
82	0x3bd36818	0.006451618
83	0x3c5d0cd3	0.013491827
84	0xbc2586cf	-0.010102942
85	0x3bc2684a	0.0059328424
86	0x3c622913	0.013803738
87	0xbbe2b65b	-0.006918711
88	0xbcf0c4bf	-0.02939069
89	0xbbbb4767	-0.005715299
90	0x3be13d97	0.006873797
91	0x3c26cfdf	0.010181396
92	0x3c6c59bd	0.014425692
93	0x3c159acb	0.009131144
94	0x3b58a6cf	0.003305841
95	0xbac67de1	-0.0015143716
96	0x3a8a6494	0.0010558539
97	0xbc3b27ef	-0.011423095
98	0x3b597c32	0.0033185598
99	0x3adbbfe8	0.0016765567
100	0xbb8e1a5b	-0.004336638
101	0x3c9162ef	0.01774737
102	0x3cc489f4	0.023991562
103	0xb8d073c5	-9.939777e-05
104	0xbb896c9d	-0.004193856
105	0x3b858a8b	0.0040753535
106	0x3be1e5df	0.006893858
107	0x3c84163d	0.016123885
108	0x3b10f711	0.002211992
109	0x3a55d30f	0.00081567554
110	0x3a90cc5a	0.001104723
111	0x3a9d57f4	0.0012004361
112	0xbbff6d65	-0.0077950233
113	0x3a0ab0fd	0.00052906555
114	0xbae2f9b0	-0.0017316844
115	0x3b07f901	0.0020747783
116	0xb958f620	-0.00020691054
117	0x3b4e65e8	0.0031493846
118	0xbba8e750	-0.0051545277
119	0xb5c78fe5	-1.4868534e-06
120	0xbc2ae687	-0.010430939
121	0xbb5d30df	-0.0033751053
122	0xbbbd10a2	-0.005769805
123	0xbc2b662a	-0.0104613695
124	0x3a93b330	0.0011268612
125	0xbc94a659	-0.018145727
126	0xbc40fc63	-0.011778924
127	0xbbf1908a	-0.0073719667
128	0xbb32e7cc	-0.0027298806
129	0x3c0e27dc	0.008676495
130	0xbab31683	-0.0013663325
131	0xbbc0daab	-0.0058854423
132	0xbbe344b8	-0.006935682
133	0xbcd0c738	-0.02548562
134	0xbb8f165e	-0.00436668
135	0xbc9d1783	-0.01917625
136	0xbc4b6a71	-0.012415514
137	0xbae8d50a	-0.0017763686
138	0x3c4b0de8	0.012393452
139	0xbb26e5d7	-0.0025466585
140	0x3915fb73	0.0001430342
141	0xbba22be0	-0.004949078
142	0x3c28fb41	0.01031381
143	0x3b283e0a	0.0025671744
144	0xbb8e46e3	-0.0043419464
145	0x3c3402cc	0.010986995
146	0xbc15b2b3	-0.0091368435
147	0xb9dc5940	-0.00042028166
148	0xbc681b0f	-0.0141666075
149	0x3b5a7f1b	0.003333992
150	0x3c847da1	0.016173186
151	0x3bdba11f	0.0067025567
152	0xbace1c73	-0.0015725031
153	0x3c67133b	0.014103706
154	0xb8e039ba	-0.00010691905
155	0xbcaf057a	-0.021364916
156	0xbc267f48	-0.010162182
157	0x3b7132fd	0.0036804073
158	0x3a75011f	0.00093461754
159	0x3c1351db	0.008991684
160	0x3c5c2a37	0.013437799
161	0xbbc4c095	-0.006004403
162	0xbc0c6c3b	-0.008570726
163	0xbc751623	-0.014958891
164	0xbbd5928a	-0.006517713
165	0xbb957651	-0.0045612236
166	0xbba1d0e3	-0.0049382313
167	0xbb16d3e8	-0.002301449
168	0x3ca16127	0.019699646
169	0x3bc86840	0.006115943
170	0x3bb48a26	0.0055096326
171	0x3a804268	0.0009785416
172	0x3bc3bc17	0.00597335
173	0xbad35d1f	-0.0016125775
174	0x3bce35da	0.0062930407
175	0xbc6f3b2f	-0.014601513
176	0xbbd9157b	-0.006624875
177	0x3baa5603	0.0051982417
178	0x3bf8dcf8	0.007594701
179	0x3b5bb342	0.0033523594
180	0xbc2162c6	-0.00985021
181	0x3b276504	0.0025542388
182	0x3b7ef4b0	0.003890317
183	0x3c350dcc	0.011050653
184	0xbae3ad20	-0.0017370321
185	0xbbe124ba	-0.006870833
186	0xbbb04ec6	-0.0053804843
187	0xbc6a16e2	-0.014287682
188	0x39a7cf63	0.00032007237
189	0xbbc31ebf	-0.005954593
190	0x3b98d00e	0.004663474
191	0x3c9376f4	0.018001057
192	0xbc459e8d	-0.012061727
193	0x3b49ea6b	0.003080989
194	0x3c010858	0.007875524
195	0x3c348deb	0.011020164
196	0x3aa548ca	0.0012610194
197	0x3c536452	0.012902336
198	0xbb5ed50f	-0.0034001505
199	0x3bf6f0ab	0.007536014
200	0x3caf4c0b	0.021398565
201	0x3c29a01b	0.0103531135
202	0xbc478d42	-0.012179675
203	0x3b348479	0.002754478
204	0xbc3f0aec	-0.011660319
205	0x3be1639f	0.006878331
206	0xbbdef05f	-0.006803557
207	0xbc11bf12	-0.008895652
208	0x3c19fdaa	0.009398857
209	0xbae43a28	-0.0017412351
210	0x3c08a6b3	0.008340525
211	0x3c38b21c	0.011272933
212	0xbbfa4ff2	-0.0076389248
213	0xbaf01e22	-0.0018319527
214	0xbc01a8aa	-0.007913748
215	0xbc62d262	-0.0138441045
216	0x3c73d64a	0.014882633
217	0x398e2598	0.0002711236
218	0xbc24ef03	-0.01006675
219	0xbc1a090d	-0.009401572
220	0xbbfed377	-0.0077766734
221	0x3bfd6afb	0.0077337003
222	0x3ca98236	0.020691972
223	0x3b42e48a	0.002973827
224	0xbc3fd86b	-0.011709313
225	0xbc29e522	-0.010369571
226	0xbbe7211b	-0.007053507
227	0xbbf69557	-0.007525127
228	0x3cba6f1c	0.02275806
229	0x3c094ce8	0.008380152
230	0x3bc60448	0.006042991
231	0xbb8787a7	-0.004136044
232	0x3c839876	0.01606391
233	0xba7a5dc3	-0.0009550715
234	0xbab6ffa7	-0.0013961688
235	0x3cae0c6b	0.021246156
236	0xbb35528f	-0.0027667617
237	0xbb98cc15	-0.0046630003
238	0xbbbcbb8a	-0.005759661
239	0x3bd229ba	0.0064136656
240	0xbb14e453	-0.00227191
241	0xbaeefe72	-0.001823379
242	0xbc443848	-0.011976309
243	0x3c769a08	0.015051372
244	0xba4061d3	-0.00073387957
245	0xb819965c	-3.6618076e-05
246	0xbc6576cb	-0.014005373
247	0xbc4e0b22	-0.012575896
248	0x3c9c811f	0.019104538
249	0xbbf69ad3	-0.0075257807
250	0x3c68c83d	0.014207897
251	0xb975bcff	-0.00023435427
252	0x3b8a0ea0	0.004213169
253	0x3bd5b940	0.0065223277
254	0x3c5ebb9b	0.013594533
255	0xbb94db34	-0.0045427326

action_model._discrete_distribution.branches.0.bias f4 [3]
0	0x00000000	0.0
1	0x00000000	0.0
2	0x00000000	0.0

action_model._discrete_distribution.branches.1.weight f4 [3, 128]
0	0x3c063471	0.008191214
1	0xbb492afc	-0.0030695787
2	0xbbd65dcb	-0.0065419427
3	0xbcae799a	-0.021298219
4	0xbaef7ebd	-0.0018272024
5	0x3caa2228	0.02076824
6	0x3b6e7ba7	0.003638962
7	0xbc1d4c0d	-0.009600651
8	0x3bf13da0	0.0073620826
9	0x3c71f428	0.014767684
10	0xbb85907a	-0.004076061
11	0xbb956211	-0.0045588096
12	0x3bcba855	0.006215135
13	0xbbe5185f	-0.0069914307
14	0x3c2722b9	0.01020115
15	0x3bc9fd81	0.006164253
16	0xbc1dde56	-0.009635529
17	0x3becfdd3	0.0072324066
18	0xbbd46c00	-0.006482601
19	0xbb61a4ef	-0.0034430583
20	0xbb51871b	-0.0031971398
21	0x3c7725b3	0.015084672
22	0x3bc41f0b	0.005985146
23	0x3b080f32	0.002076101
24	0x3a60d1ad	0.0008576166
25	0x3bb367f3	0.005475038
26	0xbbaec570	-0.005333595
27	0xbb9d7dc4	-0.004806252
28	0x3ba5da1f	0.0050614025
29	0x3a9153f8	0.0011087647
30	0xba502d90	-0.00079413597
31	0xbc5e6b57	-0.0135753965
32	0x3c3392b1	0.010960267
33	0x396d91e0	0.00022656424
34	0xbc10a7c5	-0.008829062
35	0x3bc2816b	0.005935838
36	0xbc0d9557	-0.008641562
37	0xbbd083bd	-0.0063633607
38	0x3ac202c3	0.0014801848
39	0xbae52c65	-0.0017484544
40	0x3bdbcbc7	0.0067076418
41	0xbb4577c7	-0.0030131207
42	0x39c07dc3	0.00036714794
43	0xbb01b3ff	-0.0019791124
44	0xbc1f54f3	-0.009724843
45	0x3a29c45b	0.00064760976
46	0xbc107263	-0.008816334
47	0xbc090829	-0.008363762
48	0x3c07a52b	0.008279125
49	0x39eb740b	0.00044909152
50	0xbc0072b6	-0.007839849
51	0x3c576bef	0.013148292
52	0x3aa4b388	0.0012565712
53	0xbbf87b60	-0.007583067
54	0xbaa2a95b	-0.0012410091
55	0x3c134f60	0.008991092
56	0xbb7172cd	-0.0036842108
57	0xbc1236bb	-0.008924182
58	0xbc4cb925	-0.012495314
59	0x3c3792a1	0.011204393
60	0x3c7a8bfa	0.015292162
61	0x3c87e8ca	0.016590495
62	0xbc366cdb	-0.011134352
63	0x3b00a71f	0.0019630862
64	0xbb219807	-0.0024657266
65	0x3bdf83f5	0.0068211504
66	0xbcbcc68f	-0.023043899
67	0xbc825cc3	-0.015913373
68	0xbbd78c5a	-0.0065780105
69	0x3c522f80	0.012828708
70	0x3b1df972	0.002410498
71	0x3a7598ba	0.00093687663
72	0x3b79dfe5	0.0038127836
73	0x3b5216b8	0.0032056998
74	0x3b29ddcb	0.0025919552
75	0x38d3bc3f	0.000100963276
76	0xbbfccaa0	-0.0077145845
77	0x3a58d39a	0.0008271277
78	0xb9bcc7ce	-0.0003600702
79	0xbb45bcbc	-0.003017231
80	0x3becb9d7	0.0072243023
81	0xbb182f8a	-0.0023221695
82	0x3c0abb05	0.0084674405
83	0x3ba4e239	0.0050318507
84	0x3b866971	0.004101925
85	0x3aae09c3	0.0013278056
86	0x3bf9319f	0.0076047922
87	0xba87c2f1	-0.001035778
88	0x3b4c3a1b	0.0031162563
89	0x3b1cac38	0.0023906361
90	0x3c7b26bb	0.015329058
91	0xbb49921c	-0.0030757254
92	0x3c21c579	0.009873741
93	0xbbb15eb7	-0.005412902
94	0xbb3afc65	-0.0028531787
95	0x3ca8f5de	0.020625051
96	0xbb9efede	-0.00485216
97	0x3a98d2db	0.001165952
98	0x3be97cfa	0.007125494
99	0x3ba6aeda	0.005086762
100	0x3b9b71a4	0.0047437716
101	0xbb6a614d	-0.0035763562
102	0xbacd27f7	-0.0015652169
103	0xbc31739a	-0.010830784
104	0x3b833118	0.004003655
105	0xbc72c352	-0.014817076
106	0x3b848aac	0.0040448513
107	0x3bd52d03	0.00650561
108	0x3b56becd	0.0032767535
109	0x3c1b902b	0.009494822
110	0xbbc0fb4a	-0.005889331
111	0x3bedc9b2	0.00725671
112	0x3bc7ea13	0.006100902
113	0xbc8425b3	-0.016131258
114	0xbb97c927	-0.0046321335
115	0xbc3a2483	-0.011361244
116	0x3c2873d3	0.010281521
117	0xbc4270d1	-0.011867718
118	0xbc2f007b	-0.010681267
119	0xbcaab4af	-0.02083811
120	0x3b48d87b	0.003064661
121	0x3c55b0bd	0.013042626
122	0x3c1c10dc	0.009525504
123	0xbb233ef2	-0.0024909345
124	0x3bf342cb	0.007423734
125	0x3c442b8d	0.011973274
126	0xba45761f	-0.0007532555
127	0xbbbdca4c	-0.005791938
128	0x3a93e5ff	0.0011283754
129	0xbbf098f3	-0.0073424517
130	0xbbc1ae5b	-0.0059106774
131	0xbc0ffd9c	-0.0087884925
132	0x3b2156b7	0.0024618336
133	0x3c071668	0.008245088
134	0xb9a82c64	-0.0003207653
135	0xba20aba7	-0.0006129094
136	0x3c387fb5	0.0112609165
137	0xbc1d14fa	-0.009587521
138	0x3bef4713	0.007302174
139	0x3bf15bfd	0.007365702
140	0xbc8bd4ec	-0.017069302
141	0x3ab4a537	0.0013782148
142	0x3adac333	0.0016690254
143	0x3c76aa1d	0.015055207
144	0xbc14f9e7	-0.0090927845
145	0x39d5e102	0.0004079417
146	0x3a0256b7	0.0004972028
147	0x3b38e566	0.0028212904
148	0xbbcc6728	-0.006237883
149	0x3b2f4afc	0.0026747575
150	0x3cd36c88	0.025808588
151	0x3bec656a	0.007214238
152	0xbbf98728	-0.007614989
153	0x39d1529f	0.00039925144
154	0xbc1258e7	-0.008932329
155	0x3b5355fd	0.0032247298
156	0xbbca5ec9	-0.00617585
157	0xbbe352d8	-0.006937366
158	0xbb63d94b	-0.0034766968
159	0xbc31577e	-0.010824082
160	0x3c1fc8c1	0.009752453
161	0xbc06470e	-0.008195652
162	0x3c6f9a90	0.014624253
163	0x3ba8e8e3	0.0051547154
164	0xbc80b30f	-0.015710382
165	0xbc4a2901	-0.012338878
166	0xbba25110	-0.004953511
167	0x3b5c8478	0.0033648293
168	0xbcbdd209	-0.023171442
169	0xbbbee9b4	-0.0058261994
170	0x3b867090	0.004102774
171	0x3c38f237	0.011288217
172	0xbb1f7534	-0.0024331333
173	0x3a758e62	0.0009367225
174	0xbbf3f008	-0.0074443854
175	0xbb71fc9b	-0.0036924246
176	0x3c464eb9	0.01210373
177	0x3ae0f913	0.0017164074
178	0x3b0db2c7	0.0021621452
179	0xbba33915	-0.00498117
180	0xbb75ea9f	-0.0037523878
181	0x3c36d840	0.011159956
182	0xbc662332	-0.014046477
183	0x3c800c75	0.01563094
184	0xbce11955	-0.0274779
185	0xbc4ac0e4	-0.01237509
186	0x38aaacab	8.1383936e-05
187	0x3b7e3993	0.003879164
188	0x3c207f89	0.009796032
189	0x3abd690c	0.0014450862
190	0xbbdb3b17	-0.0066903937
191	0xbb7bcda3	-0.003842213
192	0x3c8b6d0c	0.017019771
193	0xbacde440	-0.0015708283
194	0xbc4b5d4c	-0.01241238
195	0xbac1b9f3	-0.0014780149
196	0xbb57f99b	-0.0032955173
197	0x3b1f26f2	0.0024284688
198	0x3ba33135	0.004980231
199	0x3bca7fb2	0.0061797732
200	0x3afbb33f	0.00192032
201	0xbaee1fdd	-0.0018167455
202	0x3a90a792	0.0011036268
203	0x3c58773a	0.01321202
204	0xbc02eeda	-0.007991517
205	0x3c37119f	0.011173635
206	0x3bcce625	0.0062530213
207	0x3b84ba51	0.004050531
208	0xbb6210d2	-0.003449489
209	0xbba313e9	-0.0049767387
210	0xbb460c9d	-0.003021992
211	0xbac05d07	-0.0014676162
212	0xbb053fb5	-0.0020332162
213	0xbb51c7f0	-0.0032010041
214	0x3c5cc0ca	0.013473699
215	0xbb20854f	-0.002449352
216	0xbc50054d	-0.012696576
217	0xbba3d117	-0.0049992907
218	0xbbe8405f	-0.0070877518
219	0x3c35dfcb	0.01110072
220	0x3b96f393	0.004606673
221	0xbc18f95c	-0.009336796
222	0xbc35177f	-0.011052965
223	0xbbcafaa6	-0.0061944304
224	0xbbb24b7e	-0.0054411283
225	0xbc4909bb	-0.012270386
226	0xbbc81d6f	-0.0061070244
227	0xbb0c7795	-0.002143358
228	0xbaed7305	-0.0018115944
229	0x3ba94ab6	0.005166377
230	0x3c220896	0.009889742
231	0x3cea29dd	0.028584415
232	0x3bd680d0	0.0065461174
233	0xbc3fa5e3	-0.011697265
234	0xbaffd8ab	-0.0019519528
235	0xba82e191	-0.0009985437
236	0x3be33ce5	0.0069347494
237	0xbb5ffa7d	-0.0034176402
238	0x3bf7f1ef	0.0075666825
239	0x3c78c923	0.0151846735
240	0x3a3b1bc7	0.0007137623
241	0x3abf6606	0.0014602549
242	0x3ba46d8b	0.0050179414
243	0x3c019f52	0.00791152
244	0x3bc6c8e6	0.0060664294
245	0x3afe93d2	0.0019422716
246	0xbbe332ba	-0.0069335373
247	0xbc326683	-0.0108886985
248	0xbb5fd808	-0.0034155864
249	0x3bef173f	0.0072964723
250	0x3c40c4d8	0.011765681
251	0x3a96ae62	0.0011496062
252	0x3bbaf9ab	0.0057060323
253	0x3c0ebfc2	0.008712711
254	0x3c22fc2b	0.009947817
255	0x3c808f15	0.015693227

action_model._discrete_distribution.branches.1.bias f4 [3]
0	0x00000000	0.0
1	0x00000000	0.0
2	0x00000000	0.0
