results/Driver/Driver/Driver-499962.onnx (onnx, 305142 bytes, 11 tensors)

discrete_act_size_vector f4 [1, 2]
0	0x40400000	3.0
1	0x40400000	3.0

network_body.observation_encoder.processors.0.normalizer.running_mean f4 [28]
0	0x3defd8b8	0.11711258
1	0x3f61e66f	0.8824224
2	0x39f02456	0.0004580344
3	0x3e8d5db6	0.27610558
4	0x3e0ccc2e	0.13749763
5	0x3f5cb191	0.86208445
6	0x39e6b550	0.00044004107
7	0x3e94c7dd	0.29058734
8	0x3e1cd631	0.15316083
9	0x3f58a988	0.84633684
10	0x39f886f5	0.00047402797
11	0x3e990a88	0.29890847
12	0x3eba6345	0.36403862
13	0x3f22ac6d	0.6354435
14	0x39f67101	0.0004700497
15	0x3e984e2d	0.29747143
16	0x3eddd007	0.43322775
17	0x3f10fb47	0.5663342
18	0x39f02456	0.0004580344
19	0x3ea55ac9	0.32295826
20	0x3f240e9d	0.640848
21	0x3eb75007	0.35803244
22	0x3a8cc851	0.0010740851
23	0x3e9de6fa	0.30840284
24	0x3f39ba51	0.7254992
25	0x3e8c4945	0.2739965
26	0x39ecfefe	0.00045203412
27	0x3eaec301	0.3413315

network_body._body_endoder.seq_layers.0.weight f4 [256, 29]
0	0xbea2cd06	-0.31797045
1	0x3cec232f	0.02882537
2	0x3ec718d9	0.38886145
3	0x3e54410a	0.20727935
4	0x3d17f4b4	0.0370986
5	0xbe8dc23a	-0.27687246
6	0xbd94f43e	-0.07273148
7	0xbdc4f44f	-0.09616911
8	0xbeb0f34d	-0.34560624
9	0xbdfab7c2	-0.1224208
10	0xbe1df5a9	-0.15425743
11	0x3e26a6b7	0.16274534
12	0x3dcb7443	0.099342845
13	0x3d16bbc0	0.036800146
14	0xbe5e690f	-0.21719764
15	0xbdc3bd22	-0.095575586
16	0xbddc7782	-0.10764982
17	0x3e10c8ff	0.14139174
18	0xbe468217	-0.19385563
19	0x3eb8265c	0.35966766
20	0x3e8466a9	0.25859573
21	0xbe4c78bc	-0.19967932
22	0x3d8557b6	0.0651087
23	0xbd933b92	-0.071890965
24	0x3e2f483c	0.17117399
25	0xbdb99ab8	-0.090627134
26	0xbcd43179	-0.025902497
27	0x3f58c16c	0.8467014
28	0xbee11f77	-0.43969318
29	0xbe8f2ef6	-0.27965516
30	0x3e19a7d4	0.15005428
31	0xbc18f481	-0.009335638
32	0xbe3edc5d	-0.1863875
33	0xbe252043	-0.16125588
34	0x3abce88c	0.0014412566
35	0x3e98d011	0.29846242
36	0xbe3849d8	-0.17996919
37	0xbf007cf9	-0.50190693
38	0x3eca94c4	0.39566624
39	0x3dd99cee	0.10625635
40	0xbd88fbae	-0.06688629
41	0x3e55a0dd	0.20862146
42	0x3f070e56	0.5275625
43	0xbddec8f6	-0.10878174
44	0xbbbddbae	-0.00579401
45	0x3ebea9f1	0.3723903
46	0xbd63a49e	-0.055576913
47	0xbd580f68	-0.052749068
48	0x3f077b1c	0.52922225
49	0x3dc32695	0.09528843
50	0x3ee9764a	0.4559806
51	0xbe590bbf	-0.21195887
52	0x3e28d0b5	0.16485865
53	0xbd9711d1	-0.07376445
54	0xbe595620	-0.2122426
55	0xbede4933	-0.43415222
56	0x3e3218f4	0.17392331
57	0x3f2b4f6b	0.6691806
58	0xbddc9f98	-0.107726276
59	0x3eb5e268	0.35524297
60	0x3e524041	0.20532323
61	0xbe905b50	-0.28194666
62	0xbe9eb007	-0.30993673
63	0xbcb56b23	-0.022145813
64	0x3d4bbe1e	0.049741857
65	0xbe4ec6d7	-0.20193039
66	0x3e6502ac	0.223643
67	0x3e1171e2	0.14203599
68	0x3c80872a	0.015689451
69	0xbee938c4	-0.4555112
70	0x3d6f3e0f	0.058408793
71	0xbd08bc84	-0.033382908
72	0xbe4280eb	-0.18994491
73	0xbe0f3db3	-0.1398838
74	0x3dd9d11a	0.10635586
75	0x3b8bc24f	0.0042651067
76	0xbd0190fb	-0.031632405
77	0xbcf2e59d	-0.029650504
78	0x3e3c0dc4	0.18364626
79	0x3e2c5be2	0.16831926
80	0xbd11e0fa	-0.035614945
81	0x3e9001e8	0.28126454
82	0xbe1687ba	-0.14700213
83	0x3ed1cd50	0.40976954
84	0x3db0e25d	0.08636925
85	0xbe8908f5	-0.26764646
86	0xbe3b201e	-0.1827397
87	0x3dfbffe6	0.12304668
88	0xbe459c32	-0.19297865
89	0xbde55ed6	-0.11199729
90	0x3e57ecd2	0.21086434
91	0x3e48dca1	0.19615413
92	0xbe61f006	-0.22064218
93	0x3e7562ad	0.23963423
94	0x3e0f354a	0.13985172
95	0xbe02499f	-0.12723397
96	0x3d56ba44	0.05242373
97	0xbe971d59	-0.29514578
98	0x3ce21d1a	0.027601767
99	0xbe3a8012	-0.18212917
100	0xbe31837f	-0.17335318
101	0xbe06deb7	-0.13170896
102	0xbb2d430d	-0.002643767
103	0x3e8c4e4b	0.27403483
104	0xbeb37f68	-0.3505814
105	0xbe19fcc8	-0.15037835
106	0xbf5a9162	-0.85378087
107	0xbd84fa65	-0.064930715
108	0xbd755829	-0.05989853
109	0x3e5c6aa0	0.21525049
110	0xbd97192b	-0.07377847
111	0x3ed2a201	0.41139224
112	0x3ab00138	0.0013428098
113	0x3dd7c0b2	0.105348006
114	0xbe962488	-0.29324746
115	0xbda9d9a0	-0.08293462
116	0x3da48c3d	0.08034561
117	0xbecc87b3	-0.3994728
118	0xbe2b7485	-0.16743667
119	0xbe4194ac	-0.1890437
120	0x3d328d4d	0.043591786
121	0xbdc9dbef	-0.09856402
122	0xbdaa08b0	-0.08302438
123	0x3e149f49	0.14513887
124	0xbe58c321	-0.21168186
125	0x3cadf71b	0.021235993
126	0xbeef8e34	-0.4678818
127	0xbeb5265a	-0.35380822
128	0x3e77b2b7	0.24189268
129	0xbe47c5d6	-0.19509062
130	0x3e0d02c1	0.13770582
131	0x3e46f51e	0.19429442
132	0xbc6b966b	-0.014379124
133	0xbe79a981	-0.24381067
134	0x3d953e02	0.07287218
135	0xbee085f0	-0.43852186
136	0x3deb7d52	0.11498512
137	0x3d3f789e	0.04674589
138	0x3eff41b7	0.49854824
139	0x3eed866c	0.46391618
140	0xbdfeb804	-0.12437442
141	0x3e754064	0.23950344
142	0xbd683aba	-0.05669663
143	0xbf206d6c	-0.62666965
144	0x3dd6169e	0.10453533
145	0xbe8ef4cc	-0.2792114
146	0xbe83bae1	-0.25728515
147	0xbe2376df	-0.15963314
148	0x3e88efe2	0.26745516
149	0xbe745b83	-0.23863034
150	0xbdb79be0	-0.08965278
151	0x3d2e71eb	0.04258911
152	0x3ca7c4a2	0.020479504
153	0x3d0766ef	0.03305715
154	0x3dd8e3a1	0.10590292
155	0xbe416657	-0.18886696
156	0x3db9ccf1	0.090722926
157	0xbe57e8f2	-0.21084955
158	0x3cb8ba15	0.022549668
159	0x3db54cb2	0.08852519
160	0xbe87c747	-0.26519224
161	0xbd9c9133	-0.07644882
162	0xbebfddf5	-0.37474027
163	0x3db627d4	0.08894315
164	0x3ea82bf8	0.32846045
165	0x3e455205	0.19269569
166	0x3cacb3d1	0.021081837
167	0xbda27e5a	-0.07934256
168	0xbe4c7b33	-0.19968872
169	0x3d6dcd61	0.058057193
170	0xbe578eab	-0.21050517
171	0x3e760ace	0.24027559
172	0x3eb2b3aa	0.34902698
173	0xbee38c85	-0.44443145
174	0x3d407015	0.04698189
175	0xbe9b8038	-0.3037126
176	0xbe2200a2	-0.15820554
177	0x3e49d274	0.19709188
178	0x3e0b4ade	0.13602778
179	0xbe2f2d34	-0.17107087
180	0x3e15ac98	0.1461662
181	0x3e7ce323	0.24696021
182	0x3c26aeff	0.010173558
183	0x3db27496	0.08713643
184	0x3e2fa70b	0.17153566
185	0x3d92e58c	0.07172689
186	0xbe465426	-0.19368038
187	0x3e153d5a	0.14574185
188	0x3dbaa972	0.091143504
189	0x3eb23a4f	0.3481011
190	0x3e9a57aa	0.30145007
191	0x3c849f50	0.016189247
192	0xbe45f48c	-0.19331568
193	0x3ede8b0d	0.43465462
194	0x3e151767	0.14559709
195	0xbe95f4e7	-0.29288408
196	0x3f0877d8	0.5330787
197	0x3df1558e	0.117838964
198	0xbe7f2183	-0.24915127
199	0x3f0efaf2	0.5585166
200	0x3ea89510	0.32926226
201	0xbeb6a4c0	-0.3567257
202	0xbf746633	-0.95468444
203	0xbe5de92b	-0.21670978
204	0x3eae52f0	0.3404765
205	0xbdc2cf5f	-0.09512209
206	0xbdb69306	-0.08914761
207	0xbe29a715	-0.16567643
208	0x3e99b197	0.30018303
209	0x3dc6bff4	0.09704581
210	0xbe5b06fc	-0.21389383
211	0xbdbb73ab	-0.09152921
212	0x3e8f35f0	0.2797084
213	0xbdb563b4	-0.088569075
214	0xbe46fe86	-0.1943303
215	0xbe00b00e	-0.1256716
216	0x3e81ba5a	0.25337487
217	0xbe455f76	-0.19274697
218	0x3f0a472c	0.5401485
219	0xbdd20905	-0.102556266
220	0x3d9d03e9	0.076667614
221	0xbd8a647b	-0.067574464
222	0x3ee94c50	0.45566034
223	0xb9baccbf	-0.00035629232
224	0xbdd85586	-0.10563187
225	0xbd9461d4	-0.07245222
226	0x3e41b90e	0.18918249
227	0xbd3b19d5	-0.045678932
228	0x3e0a96ff	0.13534163
229	0xbe2e48f4	-0.17020017
230	0x3e670b0c	0.22562808
231	0xbd4aa518	-0.049473852
232	0xbd19aadd	-0.037516464
233	0x3e2dac6b	0.16960303
234	0xbee747b6	-0.451719
235	0x3dbcfdd5	0.09228102
236	0xbd927c5e	-0.071526274
237	0xbe6ccc34	-0.23124772
238	0xbe37e73f	-0.17959307
239	0x3dbdd19b	0.09268495
240	0xbe9f2f2a	-0.3109067
241	0xbdfa4b11	-0.12221349
242	0xbd4b8424	-0.049686566
243	0x3f0240a2	0.5087987
244	0x3cda7cef	0.026670901
245	0xbdcb7a31	-0.099354155
246	0x3dc66567	0.0968731
247	0x3e92ccb7	0.2867181
248	0x3dffe4e9	0.12494833
249	0x3ed10e3e	0.40831178
250	0xbde73c16	-0.11290757
251	0x3e70f19e	0.2352967
252	0xbd4c60e1	-0.04989708
253	0xbe929fe4	-0.28637612
254	0xbf0d5d61	-0.5522061
255	0x3e91d5f7	0.28483555

network_body._body_endoder.seq_layers.0.bias f4 [256]
0	0x3e2f25d8	0.1710428
1	0x3d8cdf5e	0.068785414
2	0x3d3aba2f	0.045587715
3	0x3dcd0711	0.100111134
4	0x3d8ce342	0.068792835
5	0x3db558d3	0.088548325
6	0x3dfffbf8	0.12499231
7	0x3d8de765	0.06928901
8	0x3d31352f	0.04326361
9	0x3decfdf9	0.11571879
10	0x3d5a2c45	0.053264875
11	0x3c5ad1f2	0.013355719
12	0xbcdab40c	-0.026697181
13	0x3d59d8dc	0.05318533
14	0x3dbcef4a	0.09225328
15	0x3d99677b	0.074904405
16	0x3d4134f1	0.04716963
17	0xbb98f905	-0.0046683573
18	0x3d6a5ac2	0.05721546
19	0x3e0cf109	0.13763823
20	0x3d4de62f	0.05026835
21	0xbb7638cc	-0.0037570475
22	0x3d83c8f9	0.06434817
23	0x3dcc946a	0.09989245
24	0x3d04a880	0.032387257
25	0x3d883961	0.06651569
26	0x3d5ecb4e	0.054393105
27	0x3d885791	0.06657327
28	0x3dab7bb2	0.083732024
29	0x3db556c0	0.08854437
30	0x3c4de9a1	0.0125679085
31	0x3c91c8ac	0.017795883
32	0x3d4c82e6	0.049929522
33	0x3e24b61f	0.16085099
34	0x3d70ba01	0.058771137
35	0x3d8aed65	0.06783561
36	0x3e35763b	0.17720883
37	0xbccc219d	-0.024918372
38	0x3de74bc1	0.11293746
39	0x3d820346	0.063482806
40	0x3e028915	0.12747605
41	0x3e005b8c	0.12534922
42	0x3d057b95	0.03258856
43	0x3d288d4a	0.04115037
44	0x3da6fe21	0.0815394
45	0xbd87beea	-0.06628211
46	0x3d4b6ba5	0.049663205
47	0x3d82bdfb	0.06383892
48	0x3d17f158	0.037095398
49	0x3d38fe78	0.045164555
50	0x3d2c41b1	0.042054836
51	0x3d7a4b3f	0.061106917
52	0x3d92985b	0.07157966
53	0x3db7c071	0.08972252
54	0x3d976666	0.07392578
55	0x3d6fbeab	0.058531445
56	0x3de8049e	0.11329006
57	0x3d6ecba8	0.05829969
58	0x3bef0235	0.0072939643
59	0x3c0e263b	0.008676107
60	0x3dba3637	0.09092372
61	0x3dee862b	0.11646684
62	0x3d42a3de	0.047519557
63	0x3dda41c8	0.10657078
64	0x3d11ce16	0.03559693
65	0x3d87c229	0.0662883
66	0x3d5fc249	0.054628644
67	0xbc5f6a77	-0.013636223
68	0x3dfe3b8f	0.12413704
69	0x3db2333e	0.0870118
70	0x3d80c962	0.06288411
71	0x3da973e5	0.08274058
72	0x3d9763e9	0.07392103
73	0x3e1d06cb	0.15334623
74	0x3cc75225	0.024331162
75	0x3e166dac	0.14690274
76	0x3d90365f	0.070416205
77	0x3ddda162	0.10821797
78	0x3daa5d5a	0.08318587
79	0x3d30a202	0.043123253
80	0x3c9215ca	0.017832655
81	0x3cd2f3c9	0.025751011
82	0x3d4eaf39	0.050460074
83	0x3dd96be8	0.106162846
84	0xbbe69160	-0.007036373
85	0x3dc66166	0.09686546
86	0x3e3f6b26	0.18693218
87	0x3d654bb2	0.05598039
88	0x3c6d39eb	0.014479141
89	0x3e27bbf4	0.16380292
90	0x3db1b428	0.0867694
91	0x3e04f7ad	0.12985106
92	0x3d261a5d	0.040552486
93	0x3ccfd43f	0.025369762
94	0x3d8e1aa6	0.069386765
95	0x3de5a8f5	0.112138666
96	0x3dcb2c72	0.09920587
97	0x3e0fbd69	0.14037098
98	0x3dfb6e84	0.122769386
99	0x3d6c2f5c	0.057662353
100	0x3d125098	0.03572139
101	0x3dfe9580	0.124308586
102	0x3db94856	0.09047
103	0x3dc658b3	0.09684887
104	0x3e20f1fa	0.15717307
105	0x3ca58546	0.020205151
106	0x3c7ed71b	0.015554215
107	0x3de10c99	0.10988731
108	0x3e227661	0.1586547
109	0x3d82f27a	0.06393905
110	0x3cb05914	0.02152685
111	0x3d593c46	0.053035997
112	0x3e19aa25	0.15006311
113	0x3d268c83	0.040661346
114	0x3e08b0cc	0.13348693
115	0x3d4b8117	0.049683657
116	0x3dbaf799	0.09129257
117	0x3da37ba9	0.07982571
118	0x3e258915	0.16165574
119	0x3d9d22c8	0.076726496
120	0x3c928caa	0.01788934
121	0x3ddc9ef9	0.10772509
122	0x3e349496	0.17634806
123	0x3da3304e	0.07968198
124	0x3d810bdc	0.0630109
125	0x3cedb378	0.029016241
126	0x3da96238	0.08270687
127	0x3d246ace	0.04014092
128	0x3d2d84a4	0.042362824
129	0x3d101d58	0.035184234
130	0x3e28bae6	0.16477546
131	0x3de096ed	0.10966287
132	0x3d2989c3	0.041391145
133	0x3e77ead8	0.2421068
134	0x3da2d72b	0.07951196
135	0x3d8c94c1	0.0686431
136	0x3dd33bd1	0.103141434
137	0x3c51995f	0.012792914
138	0x3c8bfa08	0.017086998
139	0x3d5295ce	0.051412396
140	0x3ddba83f	0.1072545
141	0x3d0056fa	0.031332947
142	0x3c72c370	0.014817104
143	0x3b465ef4	0.0030268999
144	0x3dbf3029	0.09335358
145	0x3e0d5299	0.1380104
146	0xbbe209d6	-0.006898145
147	0x3cc36f74	0.023856856
148	0x3d33730c	0.04381089
149	0x3e0c5f0a	0.1370813
150	0x3c813a3c	0.015774839
151	0x3d743614	0.059621885
152	0x3e128674	0.14309102
153	0x3dbb3dec	0.0914267
154	0x3de86e99	0.1134922
155	0x3d0dbaf7	0.03460213
156	0x3db42d80	0.08797741
157	0x3c8742a1	0.016511263
158	0x3dd93a71	0.1060685
159	0x3e0456e4	0.12923771
160	0x3d73794a	0.059441842
161	0x3dd0e39d	0.10199664
162	0x3cf673d6	0.030084532
163	0x3d6f8c81	0.058483604
164	0x3d8d74f3	0.06907072
165	0x3d778fd0	0.060439885
166	0x3cea0d42	0.028570775
167	0x3e132b38	0.14371955
168	0x3d740e43	0.059583914
169	0xbd5cd214	-0.053911284
170	0xbd21d695	-0.039511282
171	0x3d1948f1	0.037423078
172	0x3d10edf9	0.0353832
173	0x3cd42d5f	0.02590054
174	0x3da75218	0.08169955
175	0x3db71546	0.089396045
176	0xbcbea32b	-0.023271164
177	0x3da7135f	0.081579916
178	0x3de2c03b	0.11071821
179	0x3d952a63	0.07283475
180	0x3d82eb5e	0.06392549
181	0x3d9780d1	0.07397617
182	0x3daa3ac5	0.08311991
183	0x3c5da8ce	0.013529016
184	0x3cc99bf7	0.024610503
185	0x3dcfcf82	0.10147001
186	0x3db39fcf	0.087707154
187	0x3dcb32a2	0.09921767
188	0x3d86f002	0.065887466
189	0x3ddfd3a0	0.10929036
190	0x3d40909f	0.04701292
191	0x3d89f227	0.0673564
192	0x3d75512b	0.05989186
193	0x3e360880	0.1777668
194	0x3d9241d5	0.07141463
195	0x3d9c8485	0.076424636
196	0x3d7f0537	0.062260833
197	0x3dfbb137	0.122896604
198	0x3dd0498b	0.10170277
199	0x3d72fc26	0.0593225
200	0x3dc686da	0.0969369
201	0x3d274be2	0.040843852
202	0x3d4a048e	0.04932075
203	0x3dbe4947	0.0929132
204	0x3cab60b5	0.020920137
205	0x3d25f351	0.040515248
206	0x3da187ad	0.07887206
207	0x3d691e4f	0.05691367
208	0xbcab7156	-0.020928066
209	0x3d8c9006	0.06863408
210	0x3de52cbc	0.11190173
211	0x3c136654	0.008996565
212	0xbd4989d1	-0.049203698
213	0xbb5ffc65	-0.0034177538
214	0x3e0421c0	0.129035
215	0x3dc18a11	0.09450162
216	0x3dab1aca	0.08354719
217	0x3d532433	0.051548194
218	0x3d871726	0.06596212
219	0x3d7fa0b9	0.062409136
220	0x3cdb9f84	0.026809461
221	0x3d9477ff	0.0724945
222	0x3dd05a1f	0.10173439
223	0x3c97d4df	0.018534122
224	0x3d3879b2	0.045037933
225	0x3d2fc3ba	0.04291127
226	0x3e0fb392	0.14033344
227	0x3d29f464	0.041492835
228	0x3e2a87f8	0.1665343
229	0x3d5d23db	0.053989273
230	0x3dd1564e	0.102215394
231	0x3da1c9ec	0.07899842
232	0x3cd9b370	0.02657482
233	0x3da1f4af	0.07907998
234	0xbb24ba90	-0.0025135614
235	0x3d17de78	0.037077397
236	0x3da0c399	0.07849807
237	0x3dcbec0a	0.0995713
238	0x3db9d825	0.090744294
239	0x3d942810	0.07234204
240	0x3e0f3824	0.1398626
241	0x3d33fa8e	0.04394012
242	0x3dc49a5f	0.095997564
243	0x3cd7f42f	0.026361553
244	0x3d970b10	0.07375157
245	0x3df6e287	0.120549254
246	0x3da309b4	0.07960835
247	0xbbf48040	-0.0074615777
248	0x3e216e2d	0.15764685
249	0x3dbf6e8c	0.09347257
250	0xbba852a8	-0.0051368065
251	0x3d2e00f4	0.042481378
252	0x3dec903f	0.1155095
253	0x3daf9ed8	0.08575219
254	0x3d1b76de	0.037955157
255	0x3c58645b	0.01320752

network_body._body_endoder.seq_layers.2.weight f4 [256, 256]
0	0x3d279188	0.040910274
1	0x3d979021	0.07400537
2	0x3e61e067	0.22058259
3	0xbe0a3b36	-0.1349915
4	0xbdb663cc	-0.089057535
5	0xbd4d8ef3	-0.050185155
6	0x3ce6ba4e	0.028165009
7	0xbe1513f5	-0.14558394
8	0x3d9da9e2	0.07698418
9	0xbd896917	-0.067094974
10	0xbdcbc7d4	-0.099502236
11	0x3bd72ef8	0.0065668784
12	0x3d25b15c	0.040452346
13	0xbe054b08	-0.13016903
14	0xbd509314	-0.050921515
15	0x3e183e41	0.14867498
16	0x3dbecda1	0.09316564
17	0xbdb6ce86	-0.0892611
18	0x3ccd9b07	0.025098337
19	0x3ced6b15	0.028981725
20	0xbd15eaae	-0.03660076
21	0xbb76c2fa	-0.0037652836
22	0x3d00f4fe	0.031483643
23	0x3d06af13	0.032881808
24	0x3ca7ef79	0.020499932
25	0x3c71eb07	0.014765508
26	0xbe1cfae5	-0.15330084
27	0x3c85fd17	0.016356034
28	0xbde64a82	-0.1124468
29	0xbdfdb56a	-0.123881176
30	0xbdff6fbd	-0.12472484
31	0xbc5af42f	-0.013363882
32	0xbcd40a74	-0.02588389
33	0xbc2e6a62	-0.010645481
34	0xbe5fe28b	-0.21863763
35	0xbd7fde25	-0.062467713
36	0x3e294cae	0.16533157
37	0xbd573fae	-0.052550964
38	0xbdeff911	-0.117174275
39	0xbdf7f97f	-0.121081345
40	0xbddc9a55	-0.10771624
41	0xbd0a716c	-0.033799574
42	0xbe027293	-0.12739019
43	0xbd970b37	-0.07375186
44	0xbdd6ead8	-0.10494012
45	0xbd36874e	-0.04456263
46	0xbd4af3f4	-0.049549058
47	0xbd26abb0	-0.040691078
48	0xbe091ea0	-0.13390589
49	0x3c8ecf98	0.017432973
50	0xbe065ce2	-0.1312137
51	0xbe2173c4	-0.15766817
52	0xbde46601	-0.11152268
53	0xbdf32333	-0.11871948
54	0x3d204809	0.039131198
55	0xb9de8e12	-0.0004244899
56	0xbdad08e7	-0.084489636
57	0x3c871691	0.016490253
58	0xbd8be62f	-0.068310134
59	0xbdce86a0	-0.100842714
60	0xbdd73917	-0.10508936
61	0x3bf9f513	0.007628092
62	0x3c815c84	0.015791185
63	0xbd835581	-0.06412793
64	0xbe736d24	-0.23772103
65	0xbe0bdd01	-0.13658525
66	0x3ba90f4b	0.0051592938
67	0x3d054efd	0.032546032
68	0xbe02200b	-0.12707536
69	0x3d1227d9	0.035682533
70	0x3dc11ba4	0.094291
71	0xbd23e124	-0.040009633
72	0x3c1f71bd	0.009731707
73	0xbda3ba56	-0.07994525
74	0xbd3c7ac3	-0.046015512
75	0xbe016f45	-0.12640102
76	0xbe029c41	-0.12754919
77	0x3cb1c99d	0.021702582
78	0xbd0cdfd8	-0.03439316
79	0x3d60e40e	0.05490499
80	0x3cf43cd8	0.029814169
81	0xbddd01f8	-0.10791391
82	0xbd96fdac	-0.07372603
83	0xbe4c29b2	-0.1993778
84	0xbd13c681	-0.03607798
85	0xbd07529d	-0.03303777
86	0xbe0e1481	-0.13875009
87	0xbc9f183c	-0.019420736
88	0x3daadd85	0.08343033
89	0xbd22a50e	-0.03970819
90	0x3e66512c	0.22491902
91	0x3db02439	0.08600659
92	0x3dea6dc6	0.11446719
93	0xbe4195f2	-0.18904856
94	0xbe18703d	-0.14886566
95	0xbe1cb7e8	-0.1530453
96	0xbdaab488	-0.08335215
97	0xbca68a82	-0.020329718
98	0xbd0bfa59	-0.034174297
99	0xbd082ab0	-0.033243835
100	0xbe5f28dc	-0.2179293
101	0x3dcd7f54	0.100340515
102	0xbd9a957b	-0.075480424
103	0x3d35bddd	0.04437052
104	0x3caba3e2	0.020952169
105	0xbe3c28c0	-0.1837492
106	0xbecc1510	-0.3985982
107	0xbd49784c	-0.04918699
108	0xbb917d71	-0.0044400026
109	0x3e790026	0.24316463
110	0xbdd061dd	-0.10174916
111	0xbd65231a	-0.05594168
112	0xbd2c42f1	-0.042056028
113	0xbcdc5350	-0.026895195
114	0xbdab25e3	-0.08356836
115	0xbc8b9253	-0.017037546
116	0x3e002bfd	0.1251678
117	0x3dbebccb	0.09313353
118	0xbd1cb5f9	-0.03825948
119	0xbdb5e263	-0.088810705
120	0xbc9a15d0	-0.01880923
121	0xbd83ddae	-0.064387664
122	0xbd1f3d53	-0.038876843
123	0x3e0682cd	0.13135834
124	0x3da964f0	0.082712054
125	0xbd593918	-0.053032964
126	0xbdba84e0	-0.09107375
127	0xbceeecc3	-0.029165631
128	0xbd166e7f	-0.03672647
129	0xbd1716e5	-0.03688707
130	0xbd4cfbf3	-0.050044965
131	0x3d47a127	0.04873767
132	0x3b84768b	0.0040424517
133	0xbe32c69c	-0.17458576
134	0xbcdc297c	-0.02687525
135	0x3da4c632	0.08045615
136	0xbd9f1020	-0.077667475
137	0xbe011e76	-0.12609276
138	0xbd3921ca	-0.04519824
139	0xbcff842a	-0.03119095
140	0xbd363e78	-0.04449317
141	0xbe0c1bff	-0.13682555
142	0x3ddb5838	0.10710186
143	0xbceab894	-0.028652467
144	0x3c9bed92	0.01903418
145	0xbd5955b3	-0.053060245
146	0x3e084034	0.13305742
147	0x3df7f90e	0.1210805
148	0xbe3732aa	-0.1789042
149	0xbdb87ed9	-0.09008569
150	0xbdeb038e	-0.114752874
151	0xbb06f994	-0.0020595537
152	0x3d97626d	0.0739182
153	0x3c269c66	0.010169124
154	0x3c54d9d6	0.012991389
155	0x3d3c5816	0.045982443
156	0xbc6175a8	-0.013760962
157	0xbd2bebc6	-0.041972898
158	0xbdaecb28	-0.08534843
159	0xbd3dc704	-0.046332374
160	0x3d914b00	0.07094383
161	0xbca1cb46	-0.019750249
162	0xbd29c7f5	-0.04145046
163	0xbc47e21f	-0.012199908
164	0xbdeea733	-0.116529845
165	0xbe175e99	-0.1478218
166	0x3c95048f	0.01819065
167	0xbdc970de	-0.09835981
168	0xbdcf7a12	-0.10130705
169	0xbdf6eb71	-0.12056626
170	0xbc4da486	-0.0125514325
171	0x3d9fafed	0.07797227
172	0xbd90a6ca	-0.070630625
173	0xbd9b9463	-0.07596662
174	0x3d61b1ef	0.05510133
175	0xbe4d9dac	-0.20079678
176	0x3db4262a	0.08796342
177	0xbdddc895	-0.108292736
178	0xbcb86356	-0.022508305
179	0x3df26fa8	0.11837703
180	0x3d1066d9	0.035254333
181	0x3d86fd7f	0.06591319
182	0x3d895993	0.06706538
183	0xbc92ae60	-0.017905414
184	0xbd4da050	-0.050201714
185	0xbd8274e9	-0.06369955
186	0x3e2035fa	0.1564559
187	0xbd321a08	-0.043481857
188	0xbc474501	-0.012162448
189	0x3df37fce	0.11889611
190	0xbe5f0368	-0.21778643
191	0x3befb7d0	0.0073156133
192	0xbd5307ec	-0.051521227
193	0x3d954a3b	0.07289549
194	0xbdabb806	-0.08384709
195	0xbe6cd88a	-0.23129478
196	0xbd72e153	-0.059296917
197	0x3d876caf	0.066125266
198	0xbd744f70	-0.05964607
199	0x3bda12d9	0.006655079
200	0x3ddc1bff	0.10747527
201	0x3dbd98af	0.09257638
202	0x3dadb66d	0.084820606
203	0xbe723dba	-0.2365636
204	0xbda44a66	-0.08022003
205	0xbddac747	-0.106825404
206	0x3c5e11e4	0.01355407
207	0xbe56b4f4	-0.20967466
208	0xbe05b598	-0.13057554
209	0xbe1a03fb	-0.15040581
210	0x3b5150cd	0.003193903
211	0x3dde20b9	0.10846085
212	0xbe01ea6f	-0.12687086
213	0x3d28c566	0.04120388
214	0x3d347e88	0.044065982
215	0xbbcbf54b	-0.0062243096
216	0xbe6960f2	-0.22790888
217	0xbdb4d787	-0.08830171
218	0xbd9605a3	-0.07325294
219	0xbc2e2dc7	-0.010631031
220	0x3e6c5a12	0.23081234
221	0x3d89f671	0.06736458
222	0x3dc05355	0.09390894
223	0xbdee721f	-0.116428606
224	0x3dd50488	0.10401255
225	0xbdec83d5	-0.115485825
226	0x3cb27583	0.02178455
227	0xbdda5d60	-0.10662341
228	0x3df93dfd	0.121700265
229	0x3d4652c1	0.048418764
230	0xbd39809c	-0.045288667
231	0x3dbf06bb	0.093274556
232	0xbd879141	-0.06619502
233	0x3c11fa10	0.008909717
234	0x3e43ba73	0.19114093
235	0xbdb449b9	-0.08803124
236	0xbe534d08	-0.20634854
237	0x3cc31bfd	0.023817057
238	0xbc163435	-0.009167721
239	0x3df217d0	0.11820948
240	0xbd7227f9	-0.059120152
241	0xbd24fddf	-0.040281173
242	0xbb67df97	-0.0035381073
243	0x3d2619c1	0.040551905
244	0xbe100ab4	-0.14066583
245	0xbcac5766	-0.021037769
246	0x3ca7465a	0.020419288
247	0xbd9dd3a5	-0.077063836
248	0xbd3b50ae	-0.04573124
249	0xbd0a44ce	-0.033757024
250	0xbddb1e5f	-0.10699152
251	0xbbdccc3b	-0.0067382134
252	0xbd976645	-0.07392553
253	0x3e10a07b	0.14123718
254	0xbd97121d	-0.07376502
255	0xbc4b6304	-0.012413744

network_body._body_endoder.seq_layers.2.bias f4 [256]
0	0x3c36f24e	0.011166168
1	0x3b64c1b4	0.0034905495
2	0x3cf557d9	0.029949116
3	0x3cb8c4ef	0.022554843
4	0xbc6c02d2	-0.014404969
5	0x3db0bf9b	0.08630296
6	0x3ba423fa	0.0050091716
7	0x3d153d0e	0.03643518
8	0x3c045438	0.00807672
9	0xbb66eb63	-0.0035235516
10	0x3c5e1f60	0.013557285
11	0x3ce639d5	0.028103748
12	0x3c593c33	0.0132589815
13	0xbc82a677	-0.015948517
14	0x3d095a7d	0.033533562
15	0xbceb9ecb	-0.028762242
16	0x3c628833	0.013826418
17	0x3ce43a9e	0.027859982
18	0x3cff0140	0.031128526
19	0x3d04e0c9	0.032440934
20	0xbd2fbb1a	-0.042903043
21	0xbc42eb00	-0.011896849
22	0x3d26e816	0.04074868
23	0x3d509270	0.050920904
24	0xbcd20cf0	-0.025640935
25	0x3ca8208a	0.020523328
26	0xba8984a2	-0.0010491798
27	0x3cbb3ecc	0.022857092
28	0x3d26bb17	0.040705767
29	0x3c839375	0.016061524
30	0x3d0a251e	0.033726804
31	0x3cee1b89	0.029065864
32	0x3d233885	0.039848823
33	0x3c7ced22	0.015437396
34	0x3c3d10d6	0.0115396585
35	0xbcfa5e10	-0.03056243
36	0x3d401b3a	0.046900965
37	0xbcc3771d	-0.023860509
38	0x3a304b23	0.00067250634
39	0x3d5bfada	0.053706028
40	0xbbdeada6	-0.006795603
41	0x3d63aecb	0.055586617
42	0x3c25faff	0.010130643
43	0xbd9cfa49	-0.076649256
44	0x3d710d62	0.058850653
45	0x3baacd3e	0.005212455
46	0xbc60f9de	-0.013731448
47	0xbd197c86	-0.03747227
48	0x3ce98afd	0.028508658
49	0x3bbba817	0.005726825
50	0x3be2a765	0.0069169276
51	0xbdaca567	-0.084299855
52	0x3ae3ffb1	0.0017394928
53	0x3c9aded2	0.018905077
54	0x3d235037	0.03987142
55	0x3d1aa18b	0.037751716
56	0xbd2c0243	-0.041994344
57	0x3dc4d9d7	0.09611862
58	0xbb9fdf89	-0.0048789424
59	0xbcfee362	-0.031114284
60	0xbd857c88	-0.06517893
61	0x3ca1a1cf	0.019730477
62	0x3d2eea98	0.042704195
63	0xbc836a05	-0.016041765
64	0x3cc51803	0.024059301
65	0xbd3502fc	-0.0441923
66	0xbdc2184a	-0.09477289
67	0xbd0b66bf	-0.034033533
68	0xbd932636	-0.071850225
69	0xbca9badf	-0.02071899
70	0x3ce396cc	0.027781866
71	0xbd54179e	-0.051780336
72	0x3cda0f9a	0.026618768
73	0x3c85fa84	0.016354807
74	0xbc24fe4d	-0.010070396
75	0x3d619f33	0.055083465
76	0x3cbc4fd2	0.02298728
77	0xbc7c9e4f	-0.015418603
78	0xbc4e6f15	-0.012599726
79	0x3c2c1eb7	0.01050537
80	0x3c7efaf5	0.0155627625
81	0xbd2650be	-0.040604346
82	0xbc6a0fff	-0.01428604
83	0xbd364378	-0.044497937
84	0xbae274b9	-0.0017277218
85	0xbd0b8eb3	-0.034071635
86	0x3ba52d09	0.005040769
87	0x3d4a832f	0.049441513
88	0xbd795ab6	-0.060877524
89	0x3cae40e9	0.021271186
90	0x3ae9bd24	0.0017832858
91	0x3ceceeb7	0.028922422
92	0xbcb1b94a	-0.021694798
93	0x3c4403c9	0.011963793
94	0xbd9d6fc6	-0.07687335
95	0xbcd26d72	-0.025686953
96	0x3c14e1f8	0.009087078
97	0xbc4aa6df	-0.012368887
98	0xbca83560	-0.020533264
99	0x3d3cfdf4	0.046140626
100	0xbcc1b8b3	-0.023647642
101	0x3c5214f5	0.012822379
102	0x3d803056	0.06259219
103	0x3d247394	0.040149286
104	0x3c4de040	0.012565672
105	0xbcc3210b	-0.023819467
106	0x3cd0705d	0.025444204
107	0xbd19626a	-0.03744737
108	0x3cbc0828	0.022953108
109	0xbcd55929	-0.026043491
110	0x3b37838a	0.0028001987
111	0xbcbbee96	-0.022940915
112	0xbc78b8f9	-0.01518082
113	0xbd9ff2c2	-0.07809974
114	0x3d0f87d8	0.03504166
115	0x3d22628d	0.039644767
116	0x390d18e4	0.0001345608
117	0x3c66f085	0.01409543
118	0x3d064ea2	0.032789834
119	0x3d08a894	0.033363894
120	0xbc984462	-0.018587295
121	0x3d39fba4	0.045406
122	0xbd3f8791	-0.046760146
123	0x3bfdea91	0.0077489098
124	0xbd3ace39	-0.045606826
125	0x3ced9e04	0.029006012
126	0x3c7094b9	0.014683896
127	0x3d1d5980	0.038415432
128	0xbcc68795	-0.024234572
129	0x3d13be1f	0.036069985
130	0xbd43c467	-0.047794726
131	0x3d8c86e5	0.068616666
132	0x3b342ea9	0.0027493632
133	0xbb5ffd20	-0.0034177974
134	0xbdc1dee5	-0.09466342
135	0xbcdf1a63	-0.027234262
136	0xbd84fe88	-0.064938605
137	0x3d10944f	0.035297688
138	0x3d439493	0.047749113
139	0xbb1afaec	-0.0023648096
140	0xbd3a4ccd	-0.0454834
141	0xbd308bd0	-0.043102086
142	0xbcf39dea	-0.029738385
143	0x3d5144c4	0.05109097
144	0xbb24f9a3	-0.002517321
145	0x3d4190ac	0.04725711
146	0xbb7d770a	-0.003867569
147	0x39c4818e	0.0003748056
148	0xbca7e9dc	-0.020497255
149	0x3b3ca14f	0.002878267
150	0x3cd2fd2d	0.02575549
151	0xbd42fc10	-0.047603667
152	0xbb8ae186	-0.0042383103
153	0xbbb2164b	-0.0054347864
154	0x3cfef2e5	0.03112168
155	0xbbb7d1dd	-0.0056097344
156	0xbdb40c14	-0.08791366
157	0x3d069244	0.032854334
158	0xbd53699f	-0.0516144
159	0xbc06b701	-0.0082223425
160	0xbce3674f	-0.027759222
161	0xbd86527e	-0.06558703
162	0xbd66b68d	-0.056326438
163	0xbae9683b	-0.0017807552
164	0x3b5c0adf	0.0033575816
165	0xbd292c65	-0.041302104
166	0xbcbf547b	-0.023355713
167	0x3caac504	0.020845897
168	0xbc194b6c	-0.009356361
169	0x3c2a612f	0.010399147
170	0x3c5360b2	0.012901472
171	0x3c9770ae	0.018486347
172	0xbb0c1452	-0.0021374417
173	0x3c415741	0.011800588
174	0x3bf57e86	0.0074918894
175	0x3c982545	0.018572459
176	0x3c6e622a	0.014549771
177	0xbc927195	-0.017876426
178	0x3a2ec008	0.0006666188
179	0x3d8c2ff9	0.068450876
180	0x3cc48565	0.023989389
181	0x3a9d5524	0.0012003523
182	0xbca13b0a	-0.019681472
183	0x3aa2332d	0.0012374871
184	0x3cca8b11	0.024724515
185	0xbb871687	-0.0041225585
186	0x3cce1928	0.02515848
187	0x3cf971ac	0.03044971
188	0x3c2ad0b6	0.010425737
189	0x3ce54b69	0.02799006
190	0x3b9ae893	0.004727432
191	0x3c7d10e9	0.015445926
192	0x3c819829	0.015819626
193	0x3cb5270e	0.02211335
194	0x3ae81933	0.0017707705
195	0xbcf3647b	-0.029710999
196	0x3ad618f5	0.0016334342
197	0x3c6ce0d1	0.014457897
198	0xbd0043c9	-0.031314645
199	0x3d80e36d	0.06293378
200	0xbbbc6539	-0.0057493714
201	0x3d53141d	0.051532853
202	0xbd2e7879	-0.04259536
203	0xbc59b555	-0.013287862
204	0x3c4d1562	0.012517305
205	0x3ca2a28e	0.019852903
206	0x3ce3ff6d	0.027831757
207	0xbca397e7	-0.019969894
208	0x3d031508	0.03200248
209	0x3be87bfb	0.0070948577
210	0x3d4800c6	0.048828863
211	0x3d7e92e3	0.0621518
212	0xbc99a277	-0.018754227
213	0xbc37a28c	-0.011208188
214	0x3d822128	0.0635398
215	0xbb922cf6	-0.004460926
216	0xbc7da5b8	-0.015481405
217	0x3c8efb06	0.017453682
218	0xbd52209a	-0.051300623
219	0x3cfa8ab3	0.030583715
220	0x3d3ea322	0.046542294
221	0xbcaeef4e	-0.021354344
222	0x3d3dd75a	0.046347953
223	0x3ad49be1	0.0016220772
224	0x3d2705ab	0.04077689
225	0x3d409656	0.04701837
226	0xbd6699c5	-0.05629899
227	0x3c1d8a46	0.0096154865
228	0xbd111cf4	-0.035428002
229	0xbc828ef1	-0.0159373
230	0x3c1aeae7	0.009455419
231	0xbd3343a6	-0.043765686
232	0x3c42e33a	0.011894995
233	0xbd1a1fbf	-0.03762793
234	0x3d044af1	0.032298032
235	0x3d3a8487	0.045536544
236	0xbb027d2b	-0.0019911032
237	0x3cccda7c	0.025006525
238	0xbd178c72	-0.036999173
239	0xbc274601	-0.010209561
240	0xba83a8f0	-0.0010044854
241	0x3cbaba91	0.02279404
242	0x3cc79089	0.024360912
243	0x3cd315b3	0.025767183
244	0x3c582572	0.013192521
245	0xbadefc6c	-0.0017012483
246	0xbc71ae10	-0.014750972
247	0x3cfd8421	0.030946793
248	0x3cec7220	0.028863013
249	0xba76a5d0	-0.0009408863
250	0xbcd026e0	-0.025409162
251	0x3c796314	0.015221376
252	0x3d11d672	0.0356049
253	0x3cc2e2a4	0.023789711
254	0x3ce6b318	0.02816157
255	0x3d9492e3	0.07254579

action_model._discrete_distribution.branches.0.weight f4 [3, 256]
0	0xbbff2879	-0.007786807
1	0xbb6c2651	-0.003603358
2	0xbaa1922e	-0.001232689
3	0x3e513668	0.2043091
4	0x3cca4485	0.024690876
5	0xbce5b36f	-0.028039662
6	0x3c4d3a73	0.012526142
7	0x3bc7f7f5	0.006102557
8	0xbd261791	-0.04054982
9	0x3ca33837	0.019924266
10	0x3c9b8c9a	0.018987942
11	0x3c9ede1b	0.019393018
12	0x3d724a90	0.05915314
13	0x3b7c00ec	0.0038452698
14	0x3d6c47f8	0.057685822
15	0xbca1ab6d	-0.019735062
16	0x3e31c7a6	0.17361316
17	0xbea63847	-0.3246481
18	0x3d0a0dc7	0.033704545
19	0x3e7ea333	0.24866943
20	0x3d3dd99a	0.0463501
21	0xbc3c6dd0	-0.011500791
22	0x3d29da18	0.041467756
23	0x3c27c0ff	0.010238885
24	0xbd292c1e	-0.04130184
25	0x3cdd481f	0.02701193
26	0x3dde5038	0.10855144
27	0x3d555338	0.052081317
28	0x3d75c666	0.06000366
29	0x3c4fc852	0.012682037
30	0xbd4586ea	-0.048224367
31	0x3ca82fc0	0.020530581
32	0x3cfb2b6e	0.030660357
33	0xbd687b8f	-0.05675846
34	0x3b3973f7	0.002829788
35	0x3b5d1bf0	0.0033738576
36	0x3dabd56b	0.083903156
37	0x3ddc32a9	0.1075185
38	0x3e1facd2	0.1559327
39	0x3daa048d	0.08301649
40	0x3bbaf577	0.005705531
41	0xbf059363	-0.5217802
42	0x3df034ac	0.11728796
43	0x3d7e58bd	0.062096346
44	0xbd13c312	-0.036074705
45	0x3be5df2a	0.0070151286
46	0xbc825925	-0.015911648
47	0xbdb449ec	-0.08803162
48	0x3c5e8db7	0.013583592
49	0x3c2261c2	0.009911003
50	0xbbad1840	-0.005282432
51	0x3e665881	0.22494699
52	0x3cbb8f36	0.022895437
53	0x3d44806e	0.047974043
54	0xbe43419f	-0.19068001
55	0xbc233f15	-0.00996377
56	0x3db4194b	0.08793887
57	0x3d3d1c39	0.046169493
58	0x3c437801	0.011930467
59	0x3e9396af	0.288259
60	0x3e222fea	0.1583859
61	0x3c81918f	0.015816478
62	0x3de17f44	0.11010602
63	0x3d211610	0.03932768
64	0x3c934d04	0.01798106
65	0x3dd0b7e7	0.101913266
66	0x3ce3f535	0.027826885
67	0x3de46bb1	0.11153353
68	0xbe5b953e	-0.2144365
69	0x3e629583	0.22127347
70	0x3c4aa215	0.012367745
71	0xbdcf9b36	-0.10137026
72	0x3e2b7051	0.16742064
73	0x3cd897bc	0.02643954
74	0x3e16f27c	0.14740938
75	0xbd11cf6d	-0.035598207
76	0x3cb65299	0.022256183
77	0xbe5b7437	-0.21431051
78	0xbdb9cb02	-0.09071924
79	0x3e27f4f8	0.16402042
80	0xbd0876cd	-0.033316422
81	0x3c9e4249	0.019318717
82	0x3ca1cb7c	0.01975035
83	0x3d0cc806	0.034370445
84	0xbc439c58	-0.011939131
85	0x3dee8ec3	0.116483234
86	0xbc066315	-0.008202334
87	0x3cc8a9ff	0.024495123
88	0x3e5b0e53	0.21392183
89	0xbd7618e9	-0.06008235
90	0xbbc2a367	-0.0059398892
91	0xbcf2db2f	-0.02964553
92	0xbdd36566	-0.103220746
93	0xbda8e5e3	-0.082469724
94	0x3e65e75c	0.22451538
95	0xbeb3ac0c	-0.350922
96	0xbd160bf5	-0.036632497
97	0xbd1f57ef	-0.03890222
98	0xbb14170a	-0.002259674
99	0x3cd90382	0.02649093
100	0x3e8c4cbd	0.27402297
101	0x3e491990	0.19638658
102	0x3d2e6037	0.042572226
103	0x3d11d102	0.035599716
104	0x3d1b3831	0.037895385
105	0xbd699ede	-0.057036273
106	0x3d54fdb9	0.05199978
107	0x3e3d0fbd	0.18463035
108	0xbb0df591	-0.0021661262
109	0x3e59941c	0.21247905
110	0x3c88385c	0.016628437
111	0x3c838799	0.016055869
112	0x3d9dac35	0.076988615
113	0x3e60b4ff	0.21944045
114	0xbe58ea02	-0.21183017
115	0xbd1d3d94	-0.038388804
116	0xbe228dc6	-0.15874395
117	0xbcd79597	-0.026316447
118	0xbe6c174d	-0.23055764
119	0x3ca8c39a	0.020601083
120	0x3c9f992c	0.019482218
121	0x3d56ca1b	0.052438837
122	0xbcc26625	-0.023730347
123	0x3d687a71	0.056757394
124	0xbc93b2ee	-0.018029656
125	0xbb8a7109	-0.0042249006
126	0xbb98cd30	-0.004663132
127	0x3de71da4	0.112849504
128	0x3d2b8363	0.041873347
129	0xbcc84d10	-0.024450809
130	0x3e2dc741	0.1697054
131	0x3d0afde3	0.03393353
132	0x3dacc715	0.084364094
133	0xbcccfa3e	-0.025021669
134	0x3e3a5dfd	0.18199916
135	0xbd844bdf	-0.06459784
136	0x3e5c152b	0.2149245
137	0x3ced13cf	0.02894011
138	0x3e87eb9b	0.2654694
139	0xbd5c34df	-0.05376136
140	0x3e701461	0.23445274
141	0x3e8826d1	0.26592115
142	0x3d901fe9	0.070373364
143	0xbda5deb8	-0.08099121
144	0xbce0bcfd	-0.027433867
145	0xbc0556e7	-0.008138395
146	0x3cad4ac1	0.02115381
147	0x3c2aa7d1	0.010415987
148	0x3cf18371	0.029481621
149	0xbcf7af0f	-0.030234842
150	0x3c5aa99e	0.013346104
151	0x3d0b4293	0.033999037
152	0x3caa71a4	0.020806141
153	0x3e283bac	0.16429013
154	0xbd0dca32	-0.034616657
155	0x3cc4e11c	0.024033122
156	0x3deebc8f	0.116570584
157	0xbc5859f5	-0.013205041
158	0xbc8657ed	-0.016399348
159	0x3dcc7210	0.09982693
160	0x3dcf9b2f	0.10137021
161	0x3d25585f	0.04036748
162	0x3e8eebf7	0.27914402
163	0xbb60c86f	-0.0034299155
164	0x3b800a2a	0.0039074617
165	0xbd9cac3d	-0.07650039
166	0x3db60bdd	0.088889815
167	0x3c2f96af	0.010717078
168	0x3d4e25c9	0.050329003
169	0x3cc4d623	0.02402789
170	0xbd381256	-0.04493936
171	0xbc8777f4	-0.01653669
172	0x3e141b85	0.14463623
173	0xbd054e65	-0.032545466
174	0x3c9151a7	0.01773913
175	0x3d1a10a2	0.03761352
176	0x3ddb6fc5	0.10714678
177	0xbed60888	-0.41803384
178	0x3a9170fa	0.0011096292
179	0xbb8d61c5	-0.0043146336
180	0xbb9feff7	-0.004880901
181	0x3dba9457	0.09110325
182	0xbd5c9d24	-0.0538608
183	0xbd880ef4	-0.06643477
184	0xbd3456e3	-0.044028174
185	0x3e58a671	0.21157242
186	0xbd8f980a	-0.07011421
187	0x3c03bd31	0.008040712
188	0xbc5ba40e	-0.013405813
189	0x3c37ed67	0.011226035
190	0xbd040f24	-0.032241
191	0x3cc24d54	0.023718514
192	0x3e2111af	0.15729402
193	0xbd8fa590	-0.070140004
194	0xbe495726	-0.1966215
195	0x3eccda06	0.4001009
196	0x39dd401b	0.00042200167
197	0x3d87aa5e	0.06624292
198	0xbe90ace3	-0.28256902
199	0xbd00fc95	-0.03149088
200	0x3be2a334	0.006916428
201	0xbeb5a544	-0.3547765
202	0x3d9ca389	0.07648379
203	0x3c8b7a68	0.017026141
204	0x3d8bf8a7	0.06834536
205	0xbe3f49f0	-0.18680549
206	0x3cc3cea0	0.023902237
207	0x3d0315f9	0.032003377
208	0x3cf5d9eb	0.030011138
209	0x3cbb6fd9	0.022880482
210	0xbca81659	-0.020518469
211	0xbee31f00	-0.4435959
212	0xbd6b8f6f	-0.057509836
213	0xbcca4c8d	-0.024694705
214	0xbd46aea0	-0.04850638
215	0x3c4800f7	0.012207261
216	0x3dcc5f13	0.099790715
217	0x3ac99b2b	0.0015381327
218	0x3e501ce7	0.20323525
219	0x3d15f62b	0.036611717
220	0xbd144559	-0.036198948
221	0x3def9e70	0.117001414
222	0xbd89c42b	-0.06726869
223	0xbbb0420b	-0.0053789667
224	0x3d25cbd5	0.040477592
225	0x3cb509ca	0.022099394
226	0xbe1035de	-0.14083049
227	0x3e0b84f7	0.13624941
228	0xbce49d0e	-0.02790692
229	0xbc971f6f	-0.018447606
230	0x3d4bba10	0.04973799
231	0x3d349288	0.044085056
232	0x3cbb3436	0.022852045
233	0x3db6457d	0.088999726
234	0x3ba1370a	0.0049198912
235	0x3d88826f	0.06665503
236	0x3d2b69e4	0.041849032
237	0x3cc58b62	0.024114314
238	0x3dada0a7	0.08477908
239	0x3bccdd92	0.006251999
240	0x3dd1cbc3	0.102439426
241	0x3c2ed60d	0.010671151
242	0x3c81e293	0.01585511
243	0x3db640af	0.08899056
244	0x3ab358f3	0.0013683125
245	0x3c9b8bfe	0.018987652
246	0xbd8d7c8c	-0.06908521
247	0x3c7d983d	0.015478191
248	0xbe4c9a10	-0.19980645
249	0x3e0a6c37	0.13517843
250	0xbe1bc73d	-0.15212722
251	0x3d54c00b	0.05194096
252	0xbbd9c18f	-0.0066453884
253	0xbe1d75aa	-0.15376917
254	0x3d477a2e	0.048700504
255	0x3cfff019	0.031242417

action_model._discrete_distribution.branches.0.bias f4 [3]
0	0xbb533e1e	-0.003223307
1	0x3cbb7055	0.022880713
2	0xbd09feb1	-0.03369016

action_model._discrete_distribution.branches.1.weight f4 [3, 256]
0	0xbe193218	-0.14960515
1	0x3b0f3c67	0.002185607
2	0x3b83d652	0.0040233517
3	0x3d993c09	0.07482154
4	0x3da22cf6	0.07918732
5	0x3da77b43	0.08177807
6	0xbc75180f	-0.014959349
7	0xbca83fc1	-0.020538213
8	0x3dc05005	0.093902625
9	0xbdfbc9a6	-0.12294321
10	0xbc1719d8	-0.00922247
11	0x3d2ddf7a	0.042449452
12	0xbcb7529c	-0.022378258
13	0xbbabde43	-0.0052450015
14	0x3e15bfe6	0.14623985
15	0x3bc1bba0	0.005912259
16	0xbd75443c	-0.059879526
17	0xbe2a53ef	-0.1663358
18	0x3c52ef21	0.012874396
19	0xbdf6d5a5	-0.12052468
20	0xbac8ac30	-0.0015310105
21	0xbe250f53	-0.16119127
22	0x3cffb4dd	0.031214172
23	0x3ce5c765	0.02804918
24	0xbe17199b	-0.14755861
25	0x3d2db7a8	0.042411476
26	0x3d550c85	0.052013893
27	0xbcbb6ef3	-0.022880053
28	0x3c401f92	0.011726277
29	0x3d2096d1	0.03920633
30	0x3c856c16	0.016286891
31	0x3cd5aeab	0.026084265
32	0x3bdd96e3	0.006762372
33	0x3c8a10a4	0.016853638
34	0x3c32116a	0.01086841
35	0xbe007898	-0.12546003
36	0xbccd07dc	-0.025028162
37	0x3bbb64af	0.0057187895
38	0xbb1583ae	-0.0022814083
39	0x3dc7d875	0.09758083
40	0xbdd3022a	-0.10303147
41	0xbdcc3446	-0.09970908
42	0x3dcf1e19	0.101131625
43	0xbe26415c	-0.1623587
44	0xbca5becc	-0.02023258
45	0x3c899975	0.016796807
46	0x3e013330	0.12617183
47	0x3afec20a	0.001943649
48	0x3ce1e3c1	0.027574422
49	0x3bfc17b6	0.0076932563
50	0x3d975d3e	0.073908314
51	0xbe5e6948	-0.21719849
52	0x3c867d0c	0.016417049
53	0x3cd59229	0.026070671
54	0xbd063f90	-0.03277546
55	0x3cf3acd7	0.029745502
56	0xbddaab39	-0.106771894
57	0x3cdde32a	0.02708586
58	0x3c65de14	0.014029998
59	0x3dc9ba51	0.0984999
60	0xbd29de16	-0.041471563
61	0x3cc663c0	0.024217486
62	0x3c8cdf35	0.017196277
63	0x3d3c15ef	0.045919355
64	0x3ce20e9c	0.027594857
65	0x3bd0a61e	0.006367459
66	0xbd874b58	-0.066061676
67	0xbd77473c	-0.06037067
68	0xbe9a16d8	-0.30095553
69	0xbe309be3	-0.17246966
70	0x3ca24e4e	0.01981273
71	0x3d076e17	0.033063974
72	0x3dd486ae	0.103772506
73	0x3cba9596	0.022776406
74	0xbc23d756	-0.010000071
75	0x3dca6f86	0.09884553
76	0x3c8738b6	0.016506534
77	0xbdc015f9	-0.09379191
78	0x3cf9a2e5	0.030473182
79	0x3c98c92b	0.018650612
80	0x3d3b4a0d	0.045724917
81	0xbdfda53c	-0.123850316
82	0xbbfba240	-0.007679254
83	0x3dbc010f	0.091798894
84	0xbbed47b6	-0.0072412146
85	0xbe1f5468	-0.15559542
86	0x3cfb5a83	0.030682808
87	0x3d455eb3	0.048186015
88	0xbdef36eb	-0.11680397
89	0x3d426509	0.047459636
90	0x3cd044a9	0.025423365
91	0x3c458f81	0.01205814
92	0xbe1c795c	-0.1528067
93	0xbe817e7b	-0.2529181
94	0xbe06712d	-0.1312911
95	0xbd58945c	-0.05287586
96	0xbbf9a93f	-0.0076190527
97	0xbe029c71	-0.1275499
98	0xbaa1eb45	-0.0012353441
99	0x3a80f72f	0.0009839291
100	0xbe1f00e7	-0.15527688
101	0xbe3923ea	-0.18080106
102	0x3c475017	0.012165091
103	0x3d89fd2e	0.06737743
104	0x3bdd5400	0.0067543983
105	0xbea4b071	-0.32165864
106	0x3ca2ae08	0.019858375
107	0xbd8ceba5	-0.06880883
108	0x3cba953e	0.022776242
109	0xbdab745a	-0.08371802
110	0xbe172ab9	-0.14762391
111	0xbaab60f7	-0.0013075162
112	0xbd077a93	-0.03307588
113	0xbe6836fb	-0.22677223
114	0xbe8c8281	-0.27443317
115	0x3cf5db61	0.030011835
116	0xbe0fc38a	-0.14039436
117	0x3c3247a5	0.010881339
118	0x3dec33d8	0.11533326
119	0x3bed2261	0.0072367643
120	0xbdbfb550	-0.093607545
121	0x3c8a00c5	0.01684607
122	0xbe1fbc91	-0.15599276
123	0xbc957935	-0.018246273
124	0xbc7a2025	-0.015266453
125	0x3b94242d	0.004520914
126	0x3d286404	0.041111007
127	0x3d013b03	0.03155042
128	0xbc2678cf	-0.010160639
129	0x3b60bcc5	0.0034292203
130	0xbd1d3ecc	-0.038389966
131	0x3d21e780	0.039527416
132	0xbd7228e6	-0.059121035
133	0x3d219721	0.03945077
134	0xbdf912d3	-0.121617936
135	0x3ce04acc	0.027379416
136	0xbe0549a9	-0.1301638
137	0x3d195448	0.037433892
138	0xbda7e562	-0.08198048
139	0x3c271d6e	0.010199888
140	0xbde3c180	-0.111208916
141	0xbddc2f5c	-0.107512206
142	0xbde2f08a	-0.110810354
143	0x3c96bd98	0.018400952
144	0x3d0ed8d7	0.034874763
145	0x3d2a11e2	0.04152096
146	0x3c868065	0.016418645
147	0x3b9c7966	0.004775214
148	0xbd723e6c	-0.05914156
149	0x3cbf005c	0.023315601
150	0x3d45e412	0.048313208
151	0xbcf27a80	-0.029599428
152	0xbc0cf1de	-0.0086025875
153	0xbc3948fd	-0.011308906
154	0x3d0d22f1	0.03445715
155	0xbaba310c	-0.0014205291
156	0xbe04236b	-0.12904136
157	0x3d37dd75	0.044888932
158	0x3db1b88d	0.086777784
159	0x3dd6db22	0.10491015
160	0xbe3daf2a	-0.18523851
161	0x3d3ea68b	0.046545547
162	0xbda0a494	-0.07843891
163	0x3d16349f	0.036671277
164	0x3ca76d02	0.020437721
165	0xbc3a337b	-0.011364813
166	0xbcd89bd8	-0.0264415
167	0x3b8de990	0.0043308213
168	0x3cdd93a0	0.027047932
169	0x3d1b385d	0.03789555
170	0xbdd1e537	-0.102487974
171	0x3d157f85	0.036498565
172	0xbdf4d5c9	-0.11954839
173	0xbd0fc55b	-0.035100322
174	0x3be36a8a	0.0069401907
175	0x3c52061b	0.0128188385
176	0xbc1bf678	-0.009519212
177	0xbb02a97d	-0.0019937449
178	0x3c3501c3	0.011047783
179	0x3d7500e1	0.05981529
180	0x3ccda6f1	0.025104018
181	0x3db3f60c	0.08787164
182	0x3c6add55	0.014334996
183	0x3b72aee5	0.0037030515
184	0xbc49be93	-0.012313503
185	0x3aaf781a	0.0013387233
186	0xbce27f10	-0.027648479
187	0x3d09ddc1	0.033658747
188	0x3c851acf	0.016248135
189	0x3c9a14b5	0.018808702
190	0xbda78454	-0.081795365
191	0x3ba0736c	0.004896572
192	0xbdeda6d7	-0.11604088
193	0xbc999581	-0.018748047
194	0xbd85cda8	-0.065333664
195	0x3c7ab99a	0.01530304
196	0xbc604fe9	-0.013690927
197	0xbdc39081	-0.09549046
198	0xbcf22b31	-0.02956161
199	0x3d358b9d	0.0443226
200	0x3cecea76	0.028920393
201	0xbe1475f2	-0.14498118
202	0xbc9edeed	-0.019393409
203	0x3c9cc88e	0.0191386
204	0x3d243ea5	0.040098805
205	0x3a925171	0.0011163187
206	0x3cb3f894	0.021969117
207	0x3d4cf4c4	0.050038114
208	0xbc797534	-0.015225697
209	0x3d233846	0.03984859
210	0x3cad113e	0.021126386
211	0xbe4c853b	-0.19972698
212	0xb7d095a1	-2.4865209e-05
213	0x3d04b14f	0.032395657
214	0x3dbd97d5	0.09257475
215	0x3d0e4d36	0.034741603
216	0x3b79f87e	0.0038142498
217	0x3cace1b3	0.021103716
218	0xbda317e9	-0.07963545
219	0x3c9f7036	0.019462686
220	0x3ce56047	0.02800001
221	0xbdb65a8a	-0.08903988
222	0xbe66e59f	-0.22548531
223	0x3cbe96db	0.023265293
224	0x3cfccfad	0.030860746
225	0x3cbb3e74	0.022856928
226	0x3d9f68af	0.07783639
227	0xbe6ed8c3	-0.23324876
228	0xbb8c8e3a	-0.0042894157
229	0x3db18ea0	0.08669782
230	0x3b829dc6	0.003986093
231	0xbda90616	-0.08253114
232	0xb9cecf60	-0.00039445888
233	0xbcfd0e3b	-0.030890575
234	0x3b9ca18c	0.00478
235	0x3d0ed991	0.034875456
236	0xbcd2d561	-0.025736513
237	0xbb833fb0	-0.004005395
238	0x3cab03ba	0.0208758
239	0x3c1f6c67	0.009730435
240	0x3c938486	0.018007528
241	0xb82e2bbe	-4.152557e-05
242	0x3c458d0a	0.012057552
243	0xbbe45fbe	-0.006969421
244	0x3ba092e7	0.0049003246
245	0xbe0d2ffc	-0.13787836
246	0x3cf20b54	0.029546417
247	0x3d0f8259	0.03503642
248	0xbbd8aba3	-0.0066122576
249	0xbdd525a1	-0.10407568
250	0xbe37fbf6	-0.17967209
251	0x3ce535be	0.027979728
252	0x3d445066	0.047928236
253	0xbc812235	-0.015763381
254	0x3c70a510	0.0146877915
255	0x3d8bc245	0.06824163

action_model._discrete_distribution.branches.1.bias f4 [3]
0	0x3d3bb9b1	0.045831386
1	0xbd2bc3ae	-0.04193466
2	0xbd5b53b3	-0.05354662

onnx::Div_78 f4 [28]
0	0x3ea4a3e5	0.32156292
1	0x3ea4eb86	0.3221094
2	0x3cafaa40	0.021443486
3	0x3e31a668	0.17348635
4	0x3eb0526a	0.34437877
5	0x3eb08f41	0.34484294
6	0x3cac3217	0.021019978
7	0x3e325306	0.17414483
8	0x3eb8642b	0.36013922
9	0x3eb8a010	0.36059618
10	0x3cb2b145	0.021813044
11	0x3e47a4a3	0.19496398
12	0x3ef65b90	0.48116732
13	0x3ef66d16	0.481301
14	0x3cb1f0c7	0.021721257
15	0x3e27db37	0.16392218
16	0x3efdb53a	0.49552327
17	0x3efdbd68	0.49558568
18	0x3cafaa40	0.021443486
19	0x3e47c5d7	0.19509064
20	0x3ef5a1d1	0.4797502
21	0x3ef57886	0.47943515
22	0x3d064af1	0.032786313
23	0x3e1d4a72	0.1536043
24	0x3ee47b92	0.44625527
25	0x3ee45d89	0.44602612
26	0x3cae842b	0.021303257
27	0x3e35fd4b	0.17772405
