results/Driver/Driver/Driver-491022.onnx (onnx, 305142 bytes, 11 tensors)

discrete_act_size_vector f4 [1, 2]
000000 00 00 40 40 00 00 40 40
       3.0 3.0

network_body.observation_encoder.processors.0.normalizer.running_mean f4 [28]
000000 85 35 f4 3d 95 5a 61 3f 72 83 f4 39 d4 37 8d 3e
       0.119242705 0.8802884 0.0004663724 0.27581656
000010 6e 4d 0e 3e 35 4f 5c 3f 7e e7 ea 39 e7 9d 94 3e
       0.13896725 0.8605836 0.00044804433 0.2902672
000020 46 62 1f 3e a8 07 58 3f 4d 0e fd 39 c9 d2 98 3e
       0.15564832 0.8438668 0.00048266575 0.29848316
000030 b4 a5 b9 3e a5 0d 23 3f ad eb fa 39 29 1a 98 3e
       0.36259234 0.63692695 0.00047859308 0.2970746
000040 d1 3a de 3e e1 c3 10 3f 72 83 f4 39 48 fa a4 3e
       0.43404248 0.5654889 0.0004663724 0.322222
000050 56 0e 23 3f a3 53 b9 3e 54 58 8f 3a 6d e3 9d 3e
       0.6369375 0.36196622 0.0010936358 0.30837575
000060 f5 5e 39 3f 8e 05 8d 3e 72 4f f1 39 82 7c ae 3e
       0.7241052 0.275433 0.00046026293 0.34079367

network_body._body_endoder.seq_layers.0.weight f4 [256, 29]
000000 f4 26 a1 be 5f be d1 3c 43 b8 c8 3e fd 86 53 3e
       -0.3147503 0.025603471 0.3920308 0.20656963
000010 02 5d 17 3d e8 af 8d be 9a 74 8e bd 66 ca c5 bd
       0.036953934 -0.27673268 -0.06955834 -0.09657745
000020 28 75 b0 be 0c b3 fc bd 61 b5 1a be fb 76 25 3e
       -0.34464383 -0.12338838 -0.15108253 0.16158669
000030 b1 36 cf 3d 5b 39 0f 3d 72 e6 5b be 1e 51 c4 bd
       0.101178534 0.034966808 -0.21474627 -0.095857844
000040 71 16 dd bd d6 17 11 3e 36 43 43 be 88 95 b7 3e
       -0.10795296 0.14169249 -0.19068608 0.3585627
000050 0f 50 83 3e 26 55 4a be c2 98 90 3d 3f e4 99 bd
       0.25647017 -0.19759044 0.07060386 -0.075142376
000060 31 66 2d 3e da d7 b5 bd 07 37 ba bc 1e 49 57 3f
       0.16933514 -0.08879061 -0.022731317 0.8409594
000070 01 5b e1 be 8f ff 8e be 77 49 19 3e 79 50 17 bc
       -0.44014743 -0.2792935 0.14969431 -0.009235495
000080 23 e0 3f be bc 56 24 be aa d2 30 3a 34 dd 98 3e
       -0.18737845 -0.16048712 0.00067452586 0.29856265
000090 b1 4e 39 be 1a 53 00 bf 62 41 ca 3e 05 d1 d9 3d
       -0.18096425 -0.501268 0.39503008 0.106355704
0000a0 de ba 8b bd f1 09 55 3e fe 33 07 3f 29 91 de bd
       -0.068227515 0.20804574 0.5281371 -0.10867531
0000b0 13 dc cd bb 9f fd bd 3e cc 41 5e bd 67 a6 57 bd
       -0.0062823384 0.3710756 -0.054261968 -0.052648928
0000c0 b8 f5 06 3f 6d 82 c0 3d 70 1e ea 3e f7 41 58 be
       0.5271869 0.09399877 0.45726347 -0.21118914
0000d0 f4 f5 27 3e 2e 95 97 bd 20 14 59 be 11 3c de be
       0.16402417 -0.07401501 -0.21199083 -0.43405202
0000e0 26 0e 31 3e b2 7c 2a 3f 89 1b db bd af 81 b5 3e
       0.17290553 0.6659652 -0.10698611 0.35450503
0000f0 0d 6f 52 3e 52 53 90 be 44 ed 9e be ab 9c b1 bc
       0.20550175 -0.28188568 -0.31040394 -0.02168115
000100 44 79 4c 3d c8 fe 4e be 32 3a 65 3e db 3a 11 3e
       0.049920335 -0.20214379 0.22385481 0.14182608
000110 32 fc 81 3c 72 fb e8 be 42 ff 6c 3d 31 7f 06 bd
       0.015867326 -0.45504338 0.05786062 -0.032836143
000120 9b 56 42 be d5 00 10 be 96 3f d6 3d 15 e4 c4 3b
       -0.1897835 -0.14062817 0.10461347 0.006008635
000130 be d5 00 bd fb 84 f4 bc 05 89 3c 3e d2 e2 2b 3e
       -0.03145384 -0.029848566 0.18411644 0.16785744
000140 7c 8e 13 bd 48 87 8f 3e fb 2f 17 be a2 21 d2 3e
       -0.036024556 0.280329 -0.14764397 0.41041285
000150 ff 3f b1 3d 02 12 89 be 80 07 3b be ed b4 fc 3d
       0.086547844 -0.2677155 -0.1826458 0.12339196
000160 4b f7 45 be 39 59 e4 bd f9 32 57 3e c3 4f 47 3e
       -0.19332616 -0.1114983 0.21015538 0.1946402
000170 7e 65 60 be 8d e5 75 3e 20 e0 0e 3e 3d c5 02 be
       -0.21913716 0.24013348 0.13952684 -0.12770553
000180 6c a5 58 3d 03 dc 96 be 06 f1 e1 3c 03 1b 3a be
       0.052892134 -0.2946473 0.02758075 -0.18174367
000190 71 e9 31 be 37 56 06 be 14 24 2c bb 28 d3 8b 3e
       -0.17374207 -0.13118826 -0.0026266621 0.27309537
0001a0 3e 04 b3 be f4 79 19 be 8f e3 59 bf 6f 7a 86 bd
       -0.34964174 -0.14987928 -0.8511285 -0.06566321
0001b0 4a 24 72 bd 7c e3 59 3e e8 b9 97 bd 9f 01 d2 3e
       -0.05911664 0.21278185 -0.07408506 0.41016862
0001c0 d6 3d 28 3b 56 c6 d8 3d 72 fe 94 be 7a 73 ac bd
       0.0025671623 0.105847046 -0.29100376 -0.08420463
0001d0 0f 9f 9e 3d 7b 0b cb be 51 43 2e be e4 a4 42 be
       0.07745182 -0.39657196 -0.17017867 -0.19008213
0001e0 f2 0b 1d 3d a9 1b bf bd 38 a6 af bd d8 78 12 3e
       0.03834147 -0.09331448 -0.085766256 0.1430391
0001f0 8c 12 5c be 97 7a c8 3c 4b f5 f0 be 19 48 b5 be
       -0.2149145 0.024472518 -0.47062144 -0.3540657
000200 35 b0 76 3e 42 c3 46 be 13 52 0a 3e c3 f4 43 3e
       0.24090655 -0.19410422 0.13507871 0.19136338
000210 91 b3 7c bc 59 97 78 be 71 a0 8f 3d 04 cc e0 be
       -0.015423671 -0.24276485 0.07013024 -0.43905652
000220 58 62 e7 3d fb d0 47 3d 0f 8a fc 3e 31 69 eb 3e
       0.112980545 0.048783284 0.4932408 0.45978692
000230 2a 66 00 be 43 4a 76 3e d5 75 73 bd 22 d8 1f bf
       -0.12538972 0.24051766 -0.059438545 -0.6243917
000240 c5 ad dd 3d ef d8 8e be e8 d6 83 be d0 c3 22 be
       0.108241595 -0.27899882 -0.25749898 -0.15895009
000250 12 07 89 3e 03 d4 74 be e6 aa b6 bd de 40 31 3d
       0.26763207 -0.23909001 -0.08919315 0.043274753
000260 fb 0b ac 3c ac 3b 03 3d c8 f8 da 3d 84 b3 40 be
       0.021001806 0.03203933 0.106919825 -0.1881848
000270 11 b4 b9 3d c9 ff 55 be a5 74 a9 3c e8 1b b6 3d
       0.09067548 -0.20898356 0.020685503 0.088920414
000280 54 e6 86 be 00 4a 9b bd cf 2f c0 be e2 8d b7 3d
       -0.263476 -0.07582474 -0.37536475 0.08962609
000290 36 c6 a7 3e 87 d3 45 3e 16 b7 a8 3c 0a 68 a2 bd
       0.3276841 0.19318973 0.020595115 -0.0793
0002a0 6f 5f 4c be d0 95 6d 3d e2 80 57 be 2a be 76 3e
       -0.1995828 0.0580042 -0.21045259 0.2409598
0002b0 f3 f1 b1 3e a4 44 e3 be d6 83 37 3d ea 62 9a be
       0.34754905 -0.44388306 0.044803463 -0.3015359
0002c0 c8 07 24 be 7d 05 48 3e e2 04 0c 3e b8 e6 2f be
       -0.16018593 0.19533344 0.13673738 -0.17177856
0002d0 f5 a4 13 3e a3 3b 7a 3e 19 b1 1b 3c 26 d6 b3 3d
       0.14418395 0.24436812 0.009502673 0.0878108
0002e0 ce a0 2d 3e 35 3f 90 3d 9c 20 46 be 50 09 15 3e
       0.16955873 0.07043306 -0.19348377 0.14554334
0002f0 b8 07 b7 3d 5c b7 b0 3e 94 11 9a 3e 8e 02 89 3c
       0.08937019 0.34514892 0.30091536 0.016724851
000300 b2 fb 47 be e3 22 dd 3e 0f dd 14 3e ee ce 95 be
       -0.19529608 0.4319068 0.14537452 -0.29259437
000310 2a 20 07 3f 35 4a ec 3d 1e b8 7b be 09 20 0e 3f
       0.52783453 0.11537591 -0.24581954 0.5551763
000320 52 91 a7 3e ab 28 b6 be 0e 51 72 bf 3c 9a 5c be
       0.32728058 -0.35577902 -0.9465493 -0.2154321
000330 98 ab ad 3e 1f 7f c0 bd b2 c4 b8 bd 20 dd 27 be
       0.33919978 -0.093992464 -0.09021892 -0.16392946
000340 ea cc 98 3e 31 10 c9 3d 36 cb 5c be 6a 5d b6 bd
       0.29843837 0.098175414 -0.21561894 -0.08904536
000350 de f0 8d 3e c0 13 b3 bd 51 33 48 be b1 3b 01 be
       0.2772283 -0.087440014 -0.19550826 -0.12620427
000360 0d 00 82 3e 95 44 44 be fe 85 09 3f d0 fd d1 bd
       0.25390664 -0.19166787 0.5372008 -0.10253489
000370 68 f8 9c 3d 3b 14 88 bd 43 7b e7 3e dc ca 0d bb
       0.07664567 -0.06644484 0.4521123 -0.0021635806
000380 57 9d d4 bd a3 9d 92 bd b5 69 40 3e b1 5e 3d bd
       -0.10381573 -0.07158973 0.18790324 -0.046232883
000390 a2 28 0b 3e c5 20 2d be b3 36 63 3e 10 6e 48 bd
       0.13589719 -0.16907032 0.22188835 -0.04893309
0003a0 58 52 18 bd 91 56 2d 3e 6c 52 e7 be 67 9b ba 3d
       -0.037187904 0.16927554 -0.4518007 0.09111672
0003b0 43 08 93 bd e7 85 6c be bc fc 37 be 8b 56 bd 3d
       -0.0717931 -0.23097955 -0.17967504 0.092450224
0003c0 e5 f0 9e be e0 42 fb bd 2b d9 4b bd 1d 70 01 3f
       -0.31043163 -0.12268615 -0.049767654 0.50561696
0003d0 a1 5e c8 3c 39 f5 c6 bd fd 8f c6 3d 5a 46 92 3e
       0.024459185 -0.09714741 0.09695432 0.285693
0003e0 df 17 01 3e 6e 7b d0 3e ec 66 e7 bd f3 c9 6c 3e
       0.12606762 0.4071917 -0.11298928 0.23123913
0003f0 36 1b 4e bd 0f 68 92 be c3 72 0d bf 1c 3f 91 3e
       -0.05031892 -0.28595015 -0.5525324 0.2836846

network_body._body_endoder.seq_layers.0.bias f4 [256]
000000 c1 1f 2c 3e f1 d8 8c 3d d7 39 3a 3d fc 12 cc 3d
       0.16808988 0.06877316 0.045465317 0.099645585
000010 e2 4d 92 3d 3d 6c b4 3d 42 31 01 3e 5b a8 8b 3d
       0.07143761 0.08809707 0.12616447 0.06819221
000020 2f c3 30 3d 01 b7 eb 3d 5c d7 53 3d 7e 12 64 3c
       0.04315489 0.115095146 0.051719055 0.0139204245
000030 38 9f e1 bc 37 cd 56 3d 56 96 bb 3d bc ea 96 3d
       -0.027541742 0.052441802 0.09159534 0.07368991
000040 2d 9a 40 3d a4 7c 8a bb ca 78 63 3d 8c 52 0c 3e
       0.047022033 -0.004226284 0.055535115 0.13703364
000050 1b 95 46 3d e5 2d 6f bb ff 30 81 3d f5 05 c9 3d
       0.04848204 -0.003649586 0.063081734 0.09815589
000060 5e 18 05 3d 57 07 88 3d 79 1a 5f 3d 75 ef 88 3d
       0.03249394 0.06642025 0.054468606 0.06686298
000070 3e b0 aa 3d ff bb b4 3d 42 d0 41 3c 40 cf 96 3c
       0.08334397 0.0882492 0.011829438 0.018409371
000080 d9 9b 4d 3d 1d ad 23 3e 16 dd 6e 3d 81 22 8b 3d
       0.050197456 0.15984006 0.058316313 0.067936905
000090 c7 ec 32 3e e0 b7 d3 bc fc d9 e9 3d d7 cf 86 3d
       0.17473136 -0.025844514 0.1141853 0.06582611
0000a0 6e e1 fe 3d 92 2e ff 3d 72 2f 0a 3d 5f e1 2b 3d
       0.12445341 0.124600545 0.033736654 0.041962977
0000b0 1e e3 a8 3d 71 01 87 bd 47 ff 4d 3d e6 97 81 3d
       0.08246444 -0.06592072 0.05029228 0.063278005
0000c0 4f c5 16 3d ac fd 34 3d 59 ee 2d 3d e4 c2 79 3d
       0.036809262 0.044187233 0.042463634 0.060976878
0000d0 e5 4f 95 3d cf be b3 3d c4 64 95 3d d9 c6 6b 3d
       0.07290629 0.08776628 0.0729461 0.057562683
0000e0 4f 5f e7 3d 82 6f 6d 3d 73 95 0c 3c 70 c6 19 3c
       0.112974755 0.05796767 0.008580553 0.00938569
0000f0 ab 5d b9 3d 07 26 ec 3d 7e 87 3f 3d 16 89 d4 3d
       0.09051069 0.11530691 0.046760075 0.103777096
000100 5c 98 10 3d d0 39 84 3d 3c 37 61 3d 2a 5e 5c bc
       0.03530155 0.06456339 0.054984316 -0.013450185
000110 88 cb fa 3d c6 b2 b0 3d 70 d6 80 3d 15 fc a6 3d
       0.12245852 0.08627848 0.06290901 0.081535496
000120 a1 3b 97 3d 1a c2 1c 3e c0 60 b8 3c b3 01 14 3e
       0.0738442 0.15308419 0.022507071 0.14453773
000130 9e f7 91 3d d1 f7 da 3d cb 32 a9 3d 4a 3e 29 3d
       0.07127307 0.106917985 0.08261641 0.04131917
000140 d2 60 9d 3c 2d b3 de 3c 5a dc 44 3d a6 e1 d6 3d
       0.019211207 0.027185047 0.048061706 0.10492258
000150 0e ad f1 bb 87 c6 c5 3d 21 ef 3d 3e 09 62 60 3d
       -0.007375366 0.09657007 0.18548252 0.054780994
000160 b3 c1 64 3c bc da 23 3e 63 e6 ac 3d 3a 20 04 3e
       0.013962197 0.1600141 0.0844238 0.12902918
000170 c9 a2 22 3d 93 b2 d8 3c 80 8e 8d 3d a9 65 e0 3d
       0.039706025 0.026452338 0.06911945 0.1095689
000180 5b bc cb 3d 1d 2e 0f 3e 53 71 f8 3d b7 bc 6a 3d
       0.09948035 0.13982435 0.1213099 0.05730888
000190 da 16 10 3d 93 62 fa 3d 83 eb b9 3d d0 13 c3 3d
       0.035178043 0.12225833 0.090781234 0.09525263
0001a0 c0 d8 1e 3e 56 ce 9e 3c ef cf 7d 3c b8 d6 e3 3d
       0.15512371 0.019385498 0.01549147 0.11124939
0001b0 cf 91 20 3e c3 54 81 3d b6 9b b9 3c 15 49 5a 3d
       0.15680622 0.06314995 0.022657257 0.053292353
0001c0 7b 53 15 3e 33 ea 25 3d 1c cc 08 3e 74 7c 45 3d
       0.14582627 0.040506553 0.13359112 0.04821439
0001d0 91 93 b8 3d 78 34 a0 3d c9 02 24 3e 3a 6e 9b 3d
       0.09012521 0.078225076 0.16016687 0.075893834
0001e0 50 85 a3 3c b3 4e da 3d 0c fb 32 3e 7f 1f 9f 3d
       0.01996103 0.10659542 0.1747858 0.07769679
0001f0 31 4d 7e 3d e8 16 e7 3c 56 18 a8 3d ee 8b 20 3d
       0.062085334 0.028209165 0.08207767 0.039195947
000200 30 ec 2a 3d d7 ca 16 3d 66 06 26 3e 72 24 de 3d
       0.041729152 0.036814537 0.16213378 0.10846795
000210 4d f1 25 3d c4 f1 74 3e ea 8c a0 3d 08 08 8e 3d
       0.040513325 0.23920351 0.07839377 0.069351256
000220 d4 d6 d2 3d 44 31 58 3c ef ec 90 3c 0d c2 52 3d
       0.102948815 0.01319534 0.017691104 0.051454592
000230 92 12 d8 3d fb 68 f7 3c d5 a0 5b 3c 7d 9a 67 3b
       0.10550417 0.030201426 0.013405045 0.0035339885
000240 24 fb bc 3d 8d 54 0a 3e 5e 7b b6 bb 57 9c bb 3c
       0.09227589 0.13508816 -0.0055689057 0.022901697
000250 98 de 37 3d 70 f6 0a 3e 29 36 87 3c 0e 3e 6a 3d
       0.044890016 0.13570571 0.016505318 0.057188086
000260 ef f6 0f 3e c7 8b b7 3d be c5 e7 3d 11 d6 0b 3d
       0.14059041 0.08962207 0.11317013 0.034139697
000270 56 16 b3 3d 63 70 79 3c 64 cc d2 3d 1d ec 01 3e
       0.087444946 0.015224549 0.10292891 0.12687726
000280 56 3e 6e 3d 34 16 ce 3d 24 0b ed 3c ed 9f 6e 3d
       0.058164917 0.10062829 0.028935976 0.058257986
000290 9d 0b 8d 3d d5 bc 76 3d 24 da ea 3c 1f f9 11 3e
       0.06886981 0.060238678 0.02866847 0.14255188
0002a0 37 4a 6e 3d 96 1e 5b bd 69 88 26 bd 0f 90 1b 3d
       0.058176246 -0.053495966 -0.040657435 0.03797918
0002b0 ca 90 0d 3d 10 b5 dc 3c e2 d7 a3 3d 72 74 b8 3d
       0.03456191 0.026941806 0.08000161 0.09006585
0002c0 71 32 b5 bc ab 43 a3 3d 0a 66 e0 3d 4e 8f 92 3d
       -0.022118779 0.07971891 0.109569624 0.071562394
0002d0 07 86 84 3d 86 46 96 3d 57 6a a8 3d b4 36 67 3c
       0.06470876 0.0733767 0.08223408 0.014112163
0002e0 e5 72 c7 3c 0c 8b ca 3d 16 a0 b0 3d 61 64 c7 3d
       0.024346778 0.09889802 0.08624284 0.09735943
0002f0 03 87 87 3d d7 91 dc 3d bb 28 45 3d fd 2b 8a 3d
       0.06617548 0.10770004 0.048134547 0.06746671
000300 e1 5d 7b 3d ba f4 31 3e ef 0e 92 3d de c2 9b 3d
       0.061368827 0.17378512 0.071317546 0.07605527
000310 a6 0d 7f 3d 16 6e f7 3d 34 be cd 3d 3a 07 6a 3d
       0.062268876 0.12081544 0.10046044 0.057135798
000320 27 b8 c4 3d 56 01 2d 3d 24 03 46 3d 1e 5a bc 3d
       0.09605437 0.042237602 0.04834284 0.09196876
000330 2c 44 a9 3c 79 59 23 3d c8 80 a2 3d fb ee 67 3d
       0.02066239 0.03988025 0.07934719 0.056624394
000340 df 62 9e bc ae d0 8c 3d 3b 55 de 3d 48 80 12 3c
       -0.019334255 0.0687574 0.108561 0.008941717
000350 de 06 4b bd 68 b2 3e bb 5a f4 03 3e e5 f4 c1 3d
       -0.049567096 -0.0029098038 0.12886181 0.09470538
000360 7f 6e ab 3d 78 78 54 3d dd 61 83 3d 14 f4 7a 3d
       0.08370685 0.0518727 0.0641515 0.061267927
000370 ae 71 c8 3c 5d 94 94 3d df 80 d1 3d 4d 62 9d 3c
       0.02446827 0.072548606 0.10229658 0.019211913
000380 ca 81 3c 3d f0 05 2d 3d 11 d6 0b 3e 0c 17 2a 3d
       0.046022214 0.04224199 0.13655879 0.041525885
000390 e2 c2 2a 3e 88 af 58 3d 52 80 d1 3d 47 1f 9d 3d
       0.16675904 0.052901775 0.10229553 0.07671981
0003a0 0d fb cd 3c 2b e4 a0 3d e1 18 10 bb 75 35 0d 3d
       0.025144124 0.078560196 -0.0021987485 0.03447481
0003b0 93 72 a0 3d 53 90 cb 3d cd 58 b5 3d 4f 9b 91 3d
       0.07834353 0.09939637 0.08854828 0.07109701
0003c0 00 2e 0c 3e 36 75 2c 3d df 6f c4 3d 07 d5 d3 3c
       0.13689423 0.04210397 0.0959165 0.025858415
0003d0 cb 62 92 3d 2f b7 ef 3d 58 9c a1 3d 3c 96 ea bb
       0.071477495 0.117048614 0.07891148 -0.0071590226
0003e0 8c 93 1f 3e 0e 3a bf 3d 7e 85 bc bb 3b bf 2a 3d
       0.15583628 0.09337245 -0.005753218 0.041686278
0003f0 4f 48 e9 3d 78 11 ad 3d d5 4d 1e 3d 57 78 71 3c
       0.11390745 0.084505975 0.038648445 0.014738164

network_body._body_endoder.seq_layers.2.weight f4 [256, 256]
000000 31 99 23 3d dc 79 93 3d 70 30 62 3e 2e 2c 05 be
       0.039941017 0.07200977 0.2208879 -0.13005134
000010 51 9b b2 bd 80 fe 54 bd 92 8e f4 3c 02 cd 15 be
       -0.087210305 -0.052000523 0.02985314 -0.14628986
000020 c0 8e 99 3d 5e 50 8a bd 58 22 d0 bd 79 85 03 3c
       0.074979305 -0.0675361 -0.101628006 0.008027428
000030 cc b1 28 3d ec b5 03 be 0b 10 4a bd 6d d3 16 3e
       0.041185185 -0.12862366 -0.049331706 0.1472909
000040 c2 dd bd 3d 3b 39 b1 bd 65 23 bb 3c 2e a9 f0 3c
       0.092708126 -0.08653494 0.022844026 0.029377546
000050 29 05 20 bd 36 55 7d bb 54 13 e6 3c 1e 05 09 3d
       -0.03906742 -0.0038655526 0.028085388 0.033452146
000060 13 c5 9d 3c c3 56 87 3c 28 a1 1a be 02 0e 88 3c
       0.019259011 0.016520863 -0.15100539 0.016608242
000070 bd f2 e9 bd 62 88 fc bd 15 ec ff bd 52 17 70 bc
       -0.11423252 -0.123307005 -0.12496201 -0.0146539975
000080 de ed cc bc bf b9 4c bc 77 f8 5e be 71 ae 7f bd
       -0.025015768 -0.012495457 -0.2177447 -0.06242222
000090 26 19 2b 3e be c5 5b bd 08 4c f1 bd 0f 97 f3 bd
       0.16708812 -0.05365538 -0.1178208 -0.118940465
0000a0 9a 20 db bd fa cf 0d bd 2a 7e 03 be ff 89 92 bd
       -0.10699578 -0.03462217 -0.12841097 -0.07155227
0000b0 2a dd d7 bd 6d fd 3a bd a0 b6 49 bd f3 d4 19 bd
       -0.105402306 -0.045651842 -0.04924643 -0.0375566
0000c0 b5 61 09 be 83 6d 90 3c dd 29 06 be 70 8e 23 be
       -0.13416179 0.017630344 -0.13101907 -0.15972304
0000d0 73 6b e1 bd a0 1f f5 bd ce 5d 20 3d e4 f5 04 bb
       -0.110068224 -0.119689226 0.03915196 -0.0020288164
0000e0 21 06 ae bd 1c 68 93 3c 46 93 8d bd 48 a4 cd bd
       -0.08497263 0.01799398 -0.06912856 -0.100411
0000f0 fc cf d3 bd 6e 0d c0 3b 41 8d 77 3c 36 6d 83 bd
       -0.10342404 0.005860976 0.015109361 -0.06417315
000100 d9 53 73 be c2 c4 0e be a1 bc 81 3b 19 24 06 3d
       -0.23762454 -0.13942245 0.003959254 0.03274927
000110 25 80 03 be 37 26 17 3d 41 31 bf 3d ee d3 1e bd
       -0.12841852 0.03690168 0.09335566 -0.03877633
000120 fb af 2f 3c fb 9a a6 bd a1 47 3c bd 5e 54 01 be
       0.010723109 -0.08135029 -0.04596675 -0.1262984
000130 86 4c 04 be 05 bb aa 3c be cc 10 bd d4 83 6b 3d
       -0.12919816 0.020841131 -0.035351507 0.057498768
000140 5b ac ef 3c 71 9b dc bd 8e 39 9a bd cd 11 4a be
       0.02925699 -0.107718356 -0.07530509 -0.19733353
000150 ee 69 17 bd e3 69 11 bd fd 39 0f be 74 d9 a0 bc
       -0.036966257 -0.035501372 -0.13986965 -0.01963494
000160 a0 3f a9 3d 33 47 27 bd fa b8 66 3e de 3b b0 3d
       0.08264089 -0.040839385 0.225315 0.08605169
000170 e6 28 eb 3d d4 c3 41 be 92 bf 1b be a9 b2 1c be
       0.1148241 -0.18922359 -0.15209797 -0.15302528
000180 af 75 aa bd cb 99 90 bc c7 fd 0d bd 0e 2f 06 bd
       -0.083232276 -0.01765146 -0.03466585 -0.03275972
000190 ac fc 5c be f0 45 cf 3d e2 e1 99 bd 17 d4 38 3d
       -0.21580762 0.101207614 -0.07513787 0.04512414
0001a0 55 e6 bf 3c a0 dd 3c be 5a f4 ca be 4e 9c 4f bd
       0.02342526 -0.18443918 -0.3963955 -0.050686173
0001b0 97 d4 af bb 62 83 78 3e c9 4a d3 bd 7b c5 61 bd
       -0.005365919 0.24268869 -0.103169985 -0.055119973
0001c0 d7 f7 33 bd fe 8f e1 bc 21 7e a8 bd c0 a6 8f bc
       -0.04393753 -0.027534481 -0.08227182 -0.017535567
0001d0 f2 8d ff 3d 8d 9b bc 3d 99 a6 1d bd 29 cf bb bd
       0.12478246 0.092093565 -0.038488958 -0.09170372
0001e0 38 83 a2 bc 3d f2 81 bd ef 09 22 bd eb 72 07 3e
       -0.01983796 -0.063450314 -0.039560255 0.13227431
0001f0 5f c1 a6 3d e8 68 57 bd a2 e1 b7 bd 3d fa f3 bc
       0.08142351 -0.05259028 -0.08978583 -0.029782409
000200 78 67 19 bd 1a 6f 18 bd 99 55 53 bd ff 27 45 3d
       -0.03745219 -0.03721533 -0.051595304 0.048133846
000210 e9 da 4f 3b b3 f1 30 be cb f4 e8 bc 50 bc a5 3d
       0.0031716174 -0.17279701 -0.028437039 0.080925584
000220 74 35 9a bd 70 23 02 be 93 57 32 bd 54 e1 02 bd
       -0.075297266 -0.12708831 -0.04354055 -0.03195317
000230 7c ca 32 bd 53 1e 0c be c4 c5 dc 3d 26 97 de bc
       -0.043650135 -0.13683443 0.10779908 -0.027171683
000240 ab f5 a9 3c e8 46 58 bd 86 30 07 3e 65 14 fa 3d
       0.020747026 -0.052801996 0.13202104 0.12210921
000250 22 c1 36 be 65 db b7 bd 52 37 ec bd 55 bb 47 ba
       -0.17847112 -0.08977393 -0.11533989 -0.0007619162
000260 14 b9 97 3d 3c cc 2d 3c e8 6f 5d 3c d3 14 39 3d
       0.07408348 0.010607775 0.01351545 0.045185875
000270 1a 6f 61 bc ce b8 2f bd 68 64 b1 bd e1 22 41 bd
       -0.013759399 -0.042900853 -0.08661729 -0.047152404
000280 36 24 92 3d 44 fa a5 bc e1 b0 2c bd 6a cb 2b bc
       0.07135813 -0.020260938 -0.042160872 -0.010485509
000290 56 2d ec bd 38 f7 19 be 0d 7e 98 3c ee 50 ce bd
       -0.11532085 -0.15035713 0.018614793 -0.1007403
0002a0 f2 a6 d2 bd de d8 f6 bd 04 ad 2f bc da 7e a1 3d
       -0.102857485 -0.12053083 -0.0107224025 0.07885523
0002b0 8a 93 91 bd 01 bd 9b bd 7b b0 5f 3d 7e 12 4f be
       -0.07108219 -0.07604409 0.054611664 -0.20221898
0002c0 b0 d7 b4 3d 75 02 de bd e1 83 bb bc 65 b0 ee 3d
       0.088302016 -0.108403124 -0.022890033 0.11654738
0002d0 39 93 14 3d 2d 61 86 3d 12 f6 86 3d 83 72 90 bc
       0.036273215 0.065615036 0.06589903 -0.017632728
0002e0 d2 fd 51 bd 5b 7f 85 bd 2e ec 1f 3e 5b ca 31 bd
       -0.051267453 -0.06518432 0.15617439 -0.04340587
0002f0 cb 96 31 bc 9b 46 f4 3d 1c 74 5e be 21 e3 10 3c
       -0.0108391745 0.119275294 -0.2172398 0.008843214
000300 be f4 4f bd be 35 95 3d 53 94 ab bd 0c 49 6b be
       -0.050770514 0.07285641 -0.083779 -0.22977084
000310 fa 3e 72 bd ba 15 85 3d f8 ed 77 bd 16 e8 ab 3b
       -0.05914209 0.06498285 -0.06052968 0.0052461727
000320 ab 22 dc 3d ed d6 be 3d 40 77 ab 3d 66 57 71 be
       0.107488 0.093183376 0.083723545 -0.23568496
000330 5a ff a6 bd 6b b4 d8 bd 97 b2 55 3c 21 33 57 be
       -0.08154173 -0.10581287 0.013043067 -0.21015598
000340 3b ce 06 be 19 9d 17 be 29 4d 1b 3b 6e 7d d8 3d
       -0.13164608 -0.14806022 0.0023697114 0.10570799
000350 5e 22 00 be 6e c1 32 3d 27 5c 33 3d 26 99 e3 bb
       -0.1251311 0.0436415 0.043789055 -0.006945747
000360 0d de 66 be 7f 93 b8 bd 9f 13 98 bd 7a f7 ee bb
       -0.22545643 -0.09012508 -0.074256174 -0.007292685
000370 00 b5 6b 3e 0f 1b 8b 3d b9 ce c3 3d 36 82 ef bd
       0.23018265 0.067922704 0.095609136 -0.11694758
000380 ee 67 d5 3d 4a d7 e7 bd 74 52 a3 3c 2e 22 dd bd
       0.10420214 -0.1132036 0.019936778 -0.10797535
000390 8c 24 fa 3d 6b 78 45 3d 4c 57 32 bd 41 f3 bb 3d
       0.12214002 0.048210543 -0.043540284 0.091772564
0003a0 c6 a4 82 bd 66 10 19 3c e3 eb 43 3e 8c 84 b2 bd
       -0.06379084 0.009342289 0.19132952 -0.087166876
0003b0 48 d2 51 be 37 95 c1 3c d9 2a 20 bc 3c 08 f0 3d
       -0.20490372 0.023630721 -0.009775841 0.117203206
0003c0 ec f3 6e bd 44 d1 27 bd 8a bd 2d bb 06 7d 22 3d
       -0.05833809 -0.040971056 -0.002651068 0.039670013
0003d0 b3 83 0e be f5 0e b9 bc c4 3f a8 3c 7c 7a a0 bd
       -0.13917427 -0.02259014 0.020538218 -0.07835862
0003e0 94 65 42 bd a9 99 14 bd 2f 58 de bd 6a aa dd bb
       -0.047460154 -0.036279354 -0.108566634 -0.0067646997
0003f0 f0 e8 9a bd c9 52 10 3e a9 c2 95 bd ae 26 4f bc
       -0.075639606 0.1409408 -0.07312519 -0.012643499

network_body._body_endoder.seq_layers.2.bias f4 [256]
000000 96 4d 39 3c 06 d0 73 3b 92 2d f3 3c c7 a4 b4 3c
       0.011310002 0.003720285 0.029684816 0.022051228
000010 f7 36 82 bc 31 da ae 3d 05 2f b1 3b 66 65 13 3d
       -0.01589535 0.085377105 0.0054072165 0.035985373
000020 ee ac cb 3b 95 eb a8 bb be 8b 79 3c 83 43 e5 3c
       0.006215683 -0.0051550367 0.015231071 0.027986294
000030 d9 b6 61 3c 48 ef 64 bc 7c 12 0b 3d b0 d6 e8 bc
       0.013776504 -0.013973065 0.033953175 -0.028422683
000040 41 8d 68 3c e0 c4 d5 3c e5 be fa 3c c9 ae 06 3d
       0.014193834 0.026094854 0.030608604 0.032881532
000050 b8 a1 2a bd 6b 37 51 bc 31 12 26 3d 1e 17 4f 3d
       -0.041658133 -0.01276956 0.040544692 0.050559156
000060 a9 42 d1 bc ce b7 ab 3c 7a 7b a4 39 45 78 be 3c
       -0.025544481 0.020961668 0.00031372515 0.023250708
000070 47 1d 20 3d b1 ed 88 3c 98 4d 0a 3d 59 c1 ee 3c
       0.03909042 0.016714903 0.033765405 0.02914493
000080 3c eb 1e 3d 93 42 75 3c 83 4e 40 3c ae 6c fe bc
       0.038798556 0.014969486 0.011737469 -0.031057682
000090 af cf 41 3d bb a7 c3 bc dc 1f ff 39 58 c9 5c 3d
       0.047317203 -0.023883691 0.00048661127 0.053902954
0000a0 2c 78 03 bc b7 58 5f 3d 2e 60 37 3c cb 66 9e bd
       -0.008024257 0.054527964 0.011192365 -0.0773445
0000b0 cf 0a 6d 3d 0a 5a bb 3b ba 42 6a bc 5a 86 1c bd
       0.057871636 0.0057175206 -0.014298135 -0.038214065
0000c0 8d c5 ea 3c 3d 80 cf 3b 69 4b bc 3b ea cb ac bd
       0.028658653 0.006332426 0.0057462943 -0.08437331
0000d0 a4 9e 42 3a f9 90 9b 3c 12 b6 20 3d f6 51 1a 3d
       0.0007424152 0.018990027 0.039236136 0.03767582
0000e0 52 13 2c bd 68 5b c4 3d 3c 3d 86 bb 21 b3 fa bc
       -0.042010613 0.09587747 -0.004096655 -0.030602993
0000f0 7b ce 84 bd 38 07 a2 3c 73 7b 33 3d a4 20 6b bc
       -0.064846955 0.019778833 0.043818902 -0.014351044
000100 13 2a d1 3c 7a 76 2e bd d4 bb c0 bd aa 31 0b bd
       0.025532758 -0.042593457 -0.09410825 -0.03398291
000110 00 0d 92 bd 4b dd a5 bc e1 8f e9 3c 6f 27 4c bd
       -0.07131386 -0.020247122 0.02851099 -0.049842294
000120 1f 93 dc 3c ac 1c 8c 3c 9f d2 2f bc e4 46 5f 3d
       0.026925622 0.017103516 -0.010731368 0.054510966
000130 51 ee bf 3c f7 d9 80 bc 51 63 3d bc 2e bc 38 3c
       0.023429068 -0.015728934 -0.011559323 0.011275334
000140 81 a2 6c 3c eb 50 25 bd a1 c2 6b bc 67 0c 30 bd
       0.014443041 -0.040360373 -0.014389665 -0.042980578
000150 bb d4 62 ba f1 3b 0b bd 13 86 9f 3b 5d 1d 4c 3d
       -0.0008652915 -0.03399271 0.004868278 0.04983269
000160 0d 96 77 bd 1b ce aa 3c 27 de 45 3a 75 c2 e6 3c
       -0.060445834 0.020850232 0.0007548057 0.028168896
000170 7a fb b6 bc e2 37 35 3c e8 ad 9e bd 64 fe d9 bc
       -0.02233671 0.011060687 -0.07748014 -0.02661056
000180 22 1f 07 3c 6e a2 51 bc c0 b9 a4 bc e8 7d 3b 3d
       0.008247169 -0.012795074 -0.020108104 0.04577437
000190 8a 08 ca bc 74 5d 58 3c 84 71 81 3d 6d 51 20 3d
       -0.024662275 0.013205875 0.063204795 0.039140154
0001a0 08 a7 60 3c 7c ab c2 bc 33 b8 d8 3c 08 41 18 bd
       0.013711698 -0.02376341 0.02645502 -0.037171394
0001b0 6b 82 bb 3c d6 b7 da bc 34 1b 42 3b 21 0d a9 bc
       0.022889337 -0.026698988 0.0029618265 -0.020636143
0001c0 d4 5f 78 bc 94 83 9d bd 39 80 12 3d da f0 1f 3d
       -0.015159566 -0.07691112 0.035766814 0.039048053
0001d0 2e fd 99 39 52 68 6a 3c f7 9b 06 3d 6d be 03 3d
       0.00029371068 0.014307098 0.032863583 0.032164026
0001e0 98 4a 90 bc d2 1a 3c 3d 08 44 3b bd d5 ec f7 3b
       -0.017613694 0.045924015 -0.045719177 0.0075660744
0001f0 87 5e 38 bd d4 9b e8 3c 99 57 77 3c e2 ba 20 3d
       -0.045012023 0.028394617 0.0150965685 0.039240725
000200 02 95 c0 bc 00 52 10 3d fe 8f 45 bd 61 be 8c 3d
       -0.023508552 0.03523445 -0.048233025 0.068722494
000210 ad 9d 4f 3b 76 71 91 bb bf 0d bf bd 2e 1d d8 bc
       0.0031679675 -0.0044385744 -0.09328794 -0.026381101
000220 d8 54 85 bd ad 40 11 3d ef e4 3f 3d 51 5d 61 bb
       -0.06510323 0.03546207 0.046849187 -0.0034387896
000230 bc f8 3a bd 7d 6c 2d bd 9a 1d f8 bc fa ee 48 3d
       -0.045647368 -0.04233979 -0.030287553 0.04905603
000240 7e fb 3f bb 89 c0 3d 3d 58 91 00 bb ee c2 9c 39
       -0.0029294188 0.046326194 -0.0019617882 0.00029899873
000250 7f df b2 bc 7a 67 53 3b 91 61 ca 3c 66 02 41 bd
       -0.021835087 0.0032257722 0.024704726 -0.047121428
000260 9c ad b5 bb c7 b0 a9 bb 62 38 ff 3c 9d 88 b9 bb
       -0.0055443775 -0.005178544 0.031154815 -0.0056620375
000270 10 10 b1 bd 80 66 04 3d 4a 38 4e bd cc ee f5 bb
       -0.08645642 0.032324314 -0.05034665 -0.0075052734
000280 4b e2 e2 bc 85 08 84 bd cb 5e 63 bd 56 ad e6 ba
       -0.027695796 -0.064469375 -0.055510323 -0.0017599266
000290 b4 93 81 3b 13 ae 27 bd 19 d2 be bc 45 52 a9 3c
       0.003954375 -0.040937494 -0.023293542 0.020669112
0002a0 72 b7 08 bc 18 74 39 3c 5b 2c 51 3c 91 7e 9b 3c
       -0.008344518 0.011319183 0.012766923 0.01898125
0002b0 70 50 6b bb cb b6 2d 3c 19 6f e0 3b 6f 51 95 3c
       -0.0035906099 0.010602663 0.0068491814 0.018227307
0002c0 b4 bf 66 3c 8c 12 98 bc cc b5 08 3a 18 f6 88 3d
       0.0140837915 -0.018563531 0.0005215078 0.06687564
0002d0 68 28 ca 3c 67 73 16 3b 36 1a a9 bc 78 db 15 3b
       0.02467747 0.0022956969 -0.020642381 0.002286641
0002e0 19 12 c7 3c 29 60 32 bb 36 90 d1 3c 69 c6 fc 3c
       0.024300622 -0.002721796 0.02558146 0.030856328
0002f0 d5 b0 2b 3c af 02 de 3c e5 d6 4c 3b 9d f1 74 3c
       0.010479172 0.027100889 0.0031256017 0.014950183
000300 5b 16 82 3c 26 1e b6 3c 3d 5d b9 3a 03 cf f7 bc
       0.0158798 0.022231173 0.0014142167 -0.030250078
000310 07 ab 3a ba 2a 29 71 3c 4d a8 01 bd ec d2 7f 3d
       -0.0007120822 0.014719287 -0.031654645 0.06245701
000320 9d 8c a4 bb d1 cb 4c 3d c2 3a 32 bd 6c c9 49 bc
       -0.005021645 0.049999062 -0.043513067 -0.012316089
000330 5f 4b 4d 3c b5 8e a0 3c 1f 74 e1 3c 10 a0 9f bc
       0.012530177 0.019599298 0.027521191 -0.019485503
000340 6d b6 06 3d 95 0d ff 3b fe 06 48 3d 33 59 76 3d
       0.03288882 0.0077836015 0.048834793 0.06014366
000350 c6 e2 a2 bc 44 90 53 bc aa 5f 82 3d 7c 33 40 bb
       -0.019883525 -0.012912814 0.06365903 -0.0029327562
000360 02 a6 7c bc e8 26 91 3c 43 d7 51 bd 1f f4 fa 3c
       -0.015420439 0.017718747 -0.05123068 0.030633984
000370 10 45 3e 3d f1 41 af bc c6 fb 35 3d cb d6 a6 3a
       0.046452582 -0.021393748 0.044429563 0.0012728808
000380 31 6a 24 3d 6c 1d 44 3d b3 4e 5c bd 38 37 21 3c
       0.040140335 0.04787962 -0.05378599 0.009839825
000390 c6 e1 10 bd d8 09 82 bc a9 28 2d 3c 64 ef 2f bd
       -0.035371564 -0.015873834 0.010568776 -0.04295291
0003a0 39 cb 46 3c 95 de 1a bd 11 34 07 3d c8 11 39 3d
       0.012133413 -0.037809927 0.03300864 0.045182973
0003b0 2b 47 49 bb 45 ab d8 3c c7 46 14 bd 14 27 29 bc
       -0.0030712585 0.026448855 -0.03620031 -0.010324258
0003c0 4f c7 00 ba a6 48 b2 3c 77 08 bf 3c c4 7c dc 3c
       -0.0004912512 0.021763157 0.023319466 0.026914962
0003d0 a2 e2 65 3c e3 6e 9f ba d6 46 77 bc 95 b7 ff 3c
       0.014031084 -0.0012163784 -0.015092572 0.031215468
0003e0 12 55 e4 3c cf d5 64 ba 21 51 d4 bc dc 34 83 3c
       0.027872596 -0.000872937 -0.025917592 0.016016416
0003f0 7e 2b 10 3d 26 a0 b8 3c 77 53 f1 3c 06 a9 93 3d
       0.035197727 0.022537302 0.029458744 0.07209973

action_model._discrete_distribution.branches.0.weight f4 [3, 256]
000000 50 c6 17 bc 96 a1 50 bb dc 9e 86 ba 6f b1 50 3e
       -0.00926359 -0.0031834594 -0.0010270732 0.20380186
000010 48 d4 c1 3c a8 30 dd bc 83 33 62 3c 98 50 ac 3b
       0.023660794 -0.02700074 0.013806227 0.005258631
000020 66 87 24 bd 1b b0 a6 3c 0b f4 99 3c c4 5b 9e 3c
       -0.04016819 0.020347646 0.018793127 0.019330867
000030 15 8f 71 3d bc 2b 81 3b 69 60 6a 3d e1 4c a3 bc
       0.058974344 0.003941981 0.05722085 -0.01993412
000040 d4 ab 2f 3e 81 1c a5 be 0e 9b 0c 3d e1 19 7c 3e
       0.17155391 -0.3224831 0.03432756 0.24619247
000050 79 17 3d 3d 86 60 51 bc c3 ea 2a 3d b3 e6 24 3c
       0.046164963 -0.012779361 0.041727792 0.010064769
000060 ce 98 2e bd c4 9b d8 3c 1a 2f dd 3d 59 c6 53 3d
       -0.042626195 0.026441462 0.107999995 0.05170283
000070 0f 8c 74 3d 7a 91 57 3c eb 56 43 bd 5e 9d a9 3c
       0.059703883 0.013157243 -0.047690313 0.020704921
000080 16 44 01 3d 7d 2f 66 bd 08 7c 1b 3b c6 f8 74 3b
       0.031559072 -0.056197632 0.0023725051 0.0037379726
000090 0e c6 ab 3d ed 5c d9 3d 5f 57 1e 3e 1f 56 ab 3d
       0.08387385 0.10613427 0.15463017 0.08366036
0000a0 9d bf b5 3b 04 f7 04 bf 81 a5 f1 3d 43 a8 72 3d
       0.0055465237 -0.51939416 0.117991455 0.059242498
0000b0 66 b9 12 bd 05 15 cc 3b e1 23 87 bc c1 f5 af bd
       -0.03582134 0.0062280917 -0.0164966 -0.08591796
0000c0 e6 8b 5b 3c 87 73 21 3c e9 6b 88 bb c6 ef 62 3e
       0.013400054 0.009854204 -0.0041632545 0.22161779
0000d0 9b 6a ab 3c 03 e1 3c 3d fb 9e 42 be 12 01 1e bc
       0.020924857 0.046113025 -0.19005959 -0.00964381
0000e0 d4 90 b2 3d 7a ce 3f 3d 55 11 28 3c 3b de 92 3e
       0.0871903 0.04682777 0.0102580385 0.28685173
0000f0 6b 5e 20 3e 18 69 83 3c 14 d0 e1 3d 40 60 1a 3d
       0.15661018 0.016041324 0.11026016 0.037689447
000100 7c 1b 91 3c 96 5c ce 3d 84 c8 f2 3c f6 a9 df 3d
       0.0177133 0.10076253 0.029636629 0.10921089
000110 a4 b0 59 be 91 05 63 3e 1b 75 55 3c 8d bd cc bd
       -0.2125879 0.22170092 0.013028408 -0.099970914
000120 03 e9 2a 3e 91 c7 d7 3c 9a 36 16 3e 78 0a 0e bd
       0.1669045 0.026340278 0.14669266 -0.034677953
000130 96 25 b6 3c e4 34 59 be 5b 21 b9 bd ac f6 26 3e
       0.02223472 -0.21211582 -0.09039565 0.16305035
000140 83 47 03 bd b7 b8 86 3c f0 c7 ad 3c f4 30 0a 3d
       -0.03205062 0.0164455 0.021213502 0.03373809
000150 e2 55 3c bc b9 89 ee 3d 82 90 05 bc 31 30 c8 3c
       -0.011495085 0.11647362 -0.008152129 0.024437042
000160 e6 c0 59 3e e1 19 76 bd ee 71 ad bb 5c ec eb bc
       0.21264991 -0.060083274 -0.0052931225 -0.028799228
000170 45 33 cc bd cf a8 a2 bd e8 10 64 3e b1 f2 b2 be
       -0.099707164 -0.07942354 0.22272074 -0.34950784
000180 b3 96 12 bd 5f 49 1f bd 79 53 fe ba 83 af db 3c
       -0.03578825 -0.03888833 -0.0019403539 0.026817089
000190 12 10 88 3e e7 e9 46 3e e0 fb 2d 3d ea 8b 10 3d
       0.2657476 0.19425164 0.042476535 0.035289682
0001a0 bc d8 1b 3d 58 cc 66 bd ed 8a 51 3d c7 5d 3a 3e
       0.03804849 -0.05634722 0.05115788 0.18199836
0001b0 ca 76 0b bb 71 dd 57 3e a0 16 8f 3c 81 a4 81 3c
       -0.002128052 0.21080567 0.017466843 0.015825512
0001c0 ea c1 9b 3d 40 36 5a 3e 26 5c 56 be 5b c7 16 bd
       0.076053455 0.21309757 -0.2093359 -0.036811214
0001d0 4d 82 23 be dd 09 d9 bc 77 7b 6a be b5 67 aa 3c
       -0.15967675 -0.026493961 -0.2289866 0.020801404
0001e0 03 c7 9c 3c 51 a8 59 3d e2 eb be bc c8 63 62 3d
       0.019137865 0.053139035 -0.023305837 0.05527094
0001f0 32 87 a8 bc 0c 65 63 bb 13 a8 b2 bb 78 ee e6 3d
       -0.020572279 -0.003469768 -0.005452165 0.11275953
000200 fb f3 26 3d 36 35 c3 bc 24 b8 2c 3e 65 45 0e 3d
       0.04076002 -0.023829084 0.16867119 0.03473415
000210 0b 81 ac 3d 5f f9 bf bc 59 5e 38 3e 24 43 82 bd
       0.084230505 -0.02343434 0.18004741 -0.06360462
000220 dd dd 59 3e 69 e1 f3 3c 27 4d 85 3e 13 76 5e bd
       0.2127604 0.02977057 0.26035425 -0.054311823
000230 08 bb 6e 3e 2c 80 86 3e bb c3 8b 3d ef 73 a1 bd
       0.23313534 0.26269662 0.06824442 -0.07883441
000240 b9 b3 d6 bc 9e f7 fc bb 7a 4f ac 3c 4c 01 1c 3c
       -0.026208745 -0.007719948 0.021033991 0.009521794
000250 c5 fa f0 3c 8a c0 f0 bc bc 85 56 3c 60 5b 08 3d
       0.029416451 -0.029388685 0.013093408 0.033290267
000260 b7 e7 a3 3c c8 03 25 3e 55 09 08 bd b3 ae b8 3c
       0.020007951 0.16114724 -0.033212025 0.02254424
000270 5c 03 e4 3d 25 80 4f bc 8d 4b 85 bc 05 5f cd 3d
       0.11133453 -0.012664829 -0.016271377 0.10027889
000280 7f ed c9 3d 99 84 24 3d 9a e1 8d 3e e0 4f 45 bb
       0.09859752 0.040165517 0.27711183 -0.0030107424
000290 d4 d7 70 3b 29 00 94 bd 8e 17 b2 3d c2 f9 2c 3c
       0.0036749737 -0.07226593 0.08695899 0.010557594
0002a0 48 66 4f 3d 1e 22 b9 3c 31 2a 3a bd 13 1a 89 bc
       0.050634652 0.022599276 -0.045450393 -0.016736066
0002b0 06 26 11 3e 37 a2 01 bd 0a ef 8e 3c 80 59 18 3d
       0.14174661 -0.03164884 0.017447967 0.03719473
0002c0 c7 28 dc 3d 2f 3c d5 be 20 00 b5 37 9e 10 8c bb
       0.10749965 -0.4164748 2.157694e-05 -0.004274442
0002d0 86 f2 89 bb bf 6c b7 3d 96 5f 52 bd 3c 54 87 bd
       -0.0042098192 0.089562885 -0.05136069 -0.06607863
0002e0 a2 a3 31 bd 0d 27 58 3e b7 47 8e bd 48 6f 04 3c
       -0.043368943 0.21108647 -0.06947272 0.008083172
0002f0 14 9c 50 bc 46 96 43 3c b0 c4 02 bd 78 87 c8 3c
       -0.012732524 0.011937683 -0.031925857 0.024478659
000300 82 14 20 3e 3f 45 8e bd ca c7 48 be 79 e0 ca 3e
       0.15632823 -0.069468014 -0.19607463 0.39624384
000310 ae fd 4a b9 ce f3 83 3d 98 18 90 be c7 0e f8 bc
       -0.00019358724 0.064429864 -0.28143764 -0.030280484
000320 79 f3 bc 3b 87 be b4 be 15 ca 99 3d 8f 2e 8a 3c
       0.005766329 -0.3530161 0.07509247 0.016867904
000330 b1 48 8a 3d c2 85 3e be 93 7b c5 3c 9f 20 f5 3c
       0.06752146 -0.18605712 0.024106776 0.029922782
000340 5c 82 f3 3c 48 4b b5 3c 61 e7 a0 bc 42 47 dd be
       0.029725246 0.022130623 -0.01964158 -0.43218428
000350 60 54 64 bd 46 7d c7 bc bd c2 43 bd 34 ff 36 3c
       -0.05574453 -0.024351727 -0.04779314 0.011169244
000360 c4 dd ca 3d 5b 67 70 3a ad b7 4c 3e 5a 33 14 3d
       0.0990558 0.00091706746 0.19991942 0.036181785
000370 94 0f 12 bd 14 8a e8 3d aa d4 8d bd 3a cc a4 bb
       -0.035659388 0.11354461 -0.06925328 -0.0050292285
000380 dc d2 26 3d 42 07 ad 3c 12 c0 0e be 6b 76 08 3e
       0.040728435 0.021121625 -0.13940457 0.13326423
000390 2b 66 e4 bc 9f c5 95 bc 11 f0 4a 3d 03 d9 2d 3d
       -0.027880749 -0.01828271 0.04954535 0.042443287
0003a0 8b 38 bd 3c e0 63 b1 3d ed 29 a9 3b 5c ec 87 3d
       0.02309825 0.08661628 0.0051624686 0.06636879
0003b0 71 2f 1d 3d 03 28 c1 3c 61 ff a8 3d 10 89 d4 3b
       0.03837532 0.02357865 0.08251835 0.0064860657
0003c0 34 3a d2 3d 54 6a 3a 3c ec c2 80 3c 65 cc b5 3d
       0.102650076 0.01137789 0.015717946 0.08876876
0003d0 e0 1c a8 3a e5 12 97 3c b4 50 8b bd 63 44 81 3c
       0.0012825988 0.018441627 -0.06802502 0.01577968
0003e0 31 1c 4b be 39 4c 09 3e 2a 44 1a be b5 49 59 3d
       -0.19834973 0.13407983 -0.15065065 0.053048808
0003f0 a2 04 d1 bb c9 55 1d be cd 73 46 3d a4 1b fd 3c
       -0.006378726 -0.15364756 0.04845028 0.03089697

action_model._discrete_distribution.branches.0.bias f4 [3]
000000 4e da 0f bb 96 06 b2 3c 08 fb 04 bd
       -0.0021950188 0.021731656 -0.032465965

action_model._discrete_distribution.branches.1.weight f4 [3, 256]
000000 2b 53 1a be 6f 99 b7 3a f8 68 8a 3b 72 39 94 3d
       -0.15070789 0.0014007519 0.004223939 0.07237519
000010 a1 29 9f 3d 20 91 a7 3d aa f6 74 bc bf 33 a0 bc
       0.07771612 0.08181977 -0.014951387 -0.019555924
000020 96 56 bf 3d f3 49 f0 bd 3f 69 15 bc 6b e3 29 3d
       0.09342687 -0.11732855 -0.009119331 0.04147665
000030 e4 85 ae bc da 7c c2 bb 32 d5 15 3e db 45 ca 3b
       -0.021304078 -0.0059352936 0.14632109 0.006172878
000040 ee fa 6a bd c0 ad 29 be b1 36 51 3c 9d 4d f1 bd
       -0.05736821 -0.16570187 0.012769387 -0.11782382
000050 f3 33 33 bb 46 c2 22 be 9a ce 01 3d 11 a3 e0 3c
       -0.0027344197 -0.15894422 0.03169117 0.027421506
000060 3b ef 14 be 3b c4 2c 3d 70 c2 58 3d 9e 2c c4 bc
       -0.14544384 0.042179327 0.052919805 -0.023947056
000070 df 55 48 3c ab d8 23 3d a1 3b 84 3c 8e 3b d7 3c
       0.0122275045 0.040001553 0.016141715 0.026273515
000080 84 61 f4 3b e1 5e 8c 3c c6 68 30 3c 81 a4 fd bd
       0.007457914 0.017135086 0.010767167 -0.12384892
000090 e0 e1 c6 bc 0f ff a5 3b 84 86 0a bb 31 b5 c6 3d
       -0.024277627 0.0050658057 -0.0021137306 0.09702528
0000a0 6b 43 d3 bd 78 1f c8 bd 90 01 cb 3d 7e 56 20 be
       -0.10315593 -0.09771627 0.099124074 -0.15657994
0000b0 65 62 ab bc 65 17 85 3c 7b c4 f9 3d ee 2d 79 3b
       -0.020920942 0.016246507 0.12195679 0.003802176
0000c0 8b 4b dc 3c f2 c2 ee 3b db 90 92 3d fd 95 5c be
       0.02689149 0.007286423 0.07156535 -0.21541591
0000d0 c7 95 88 3c 38 15 d2 3c f2 43 01 bd 01 04 f3 3c
       0.016672982 0.025644884 -0.03155894 0.029664995
0000e0 b6 2d d7 bd c9 14 e0 3c fc c6 5e 3c 6b 49 c5 3d
       -0.105067655 0.027353661 0.013597246 0.09633144
0000f0 55 74 2b bd 91 91 c9 3c 6b 93 95 3c f6 15 42 3d
       -0.04185899 0.024605544 0.01825877 0.047384225
000100 ee b3 da 3c d6 86 d6 3b c0 6c 87 bd 65 cf 72 bd
       0.026697125 0.0065468354 -0.06612539 -0.059279818
000110 2a 0e 98 be 62 26 2f be e4 16 9f 3c cb d6 07 3d
       -0.29698306 -0.17104486 0.019420095 0.033163827
000120 4e d5 d0 3d 57 28 b9 3c f1 d3 1a bc cd 34 ca 3d
       0.10196935 0.022602243 -0.009449945 0.09873352
000130 d2 db 8d 3c 9f 41 c0 bd 4e 49 fa 3c 35 a5 99 3c
       0.017316733 -0.09387516 0.030552533 0.018755535
000140 25 9e 38 3d ed 31 fa bd 20 f7 fa bb 7c eb bb 3d
       0.045072693 -0.12216554 -0.007658854 0.091757745
000150 b5 6e e1 bb 9c 3b 1e be 63 bd fa 3c 7e 8f 43 3d
       -0.0068796524 -0.15452427 0.030607885 0.047744267
000160 e2 a9 ec bd df aa 3f 3d 30 4f cf 3c 78 fb 44 3c
       -0.1155584 0.046793815 0.025306314 0.012022845
000170 35 be 1a be b6 3b 7f be 0d e2 06 be 86 6e 56 bd
       -0.1511162 -0.24925122 -0.13172169 -0.052351497
000180 03 1f 1a bc 15 5d 03 be 56 7c df ba 8e cf e6 3a
       -0.009406808 -0.12828477 -0.0017050605 0.0017609464
000190 c6 94 1a be 8a 0f 38 be a3 be 54 3c 58 82 87 3d
       -0.15095815 -0.17974678 0.012984904 0.06616658
0001a0 ca f8 dc 3b 2a 05 a3 be 7f f6 9c 3c 71 a8 8a bd
       0.006743525 -0.31839877 0.019160507 -0.06770409
0001b0 16 53 b9 3c cb 07 aa bd 9e 2b 17 be d8 b4 41 ba
       0.022622626 -0.08302268 -0.14762732 -0.00073893135
0001c0 40 f8 02 bd d2 3d 61 be 95 6e 8a be 75 85 f7 3c
       -0.03197503 -0.21996239 -0.27037492 0.030215004
0001d0 cb e6 0e be 00 a8 27 3c 5f 75 ea 3d 86 3c 0c 3c
       -0.13955228 0.010232925 0.11448168 0.008559352
0001e0 f6 77 bc bd 07 b7 8c 3c f6 6f 1e be 03 95 8d bc
       -0.09202568 0.017177118 -0.15472397 -0.017282968
0001f0 eb b1 83 bc 39 b6 a9 3b b7 f6 25 3d d7 72 ff 3c
       -0.016076049 0.0051791933 0.04051849 0.03118269
000200 14 9e 2f bc 42 57 45 3b 16 35 23 bd 53 2b 24 3d
       -0.010718841 0.0030111824 -0.03984555 0.04008038
000210 56 79 73 bd 6a 32 1b 3d c0 50 f2 bd 3d 71 dc 3c
       -0.059441887 0.037889875 -0.11831808 0.026909465
000220 42 a6 03 be c5 c8 19 3d 03 f1 a4 bd 49 c3 1c 3c
       -0.12856391 0.037544984 -0.08053782 0.009568044
000230 fe 13 e0 bd 46 d8 da bd d7 f5 dd bd b3 55 94 3c
       -0.10941313 -0.10685782 -0.10837906 0.01810727
000240 31 08 04 3d a4 8f 27 3d 1e 49 86 3c 21 bf ae 3b
       0.032234374 0.04090847 0.016392287 0.005332843
000250 f3 27 6e bd a2 51 b7 3c a0 7a 46 3d 99 77 f1 bc
       -0.058143567 0.022377793 0.048456788 -0.029475974
000260 00 69 eb bb 68 ba 27 bc 2f 8a 0b 3d 7c 98 78 b8
       -0.007184148 -0.010237314 0.03406733 -5.926982e-05
000270 9f 78 02 be 09 45 37 3d 37 26 b0 3d 88 b3 ce 3d
       -0.12741326 0.04474357 0.08601039 0.100928366
000280 24 92 39 be 24 e3 3b 3d 33 ef a0 bd 71 6b 12 3d
       -0.18122154 0.045870915 -0.07858124 0.035746995
000290 94 5a a8 3c 07 04 53 bc 93 2e d2 bc 60 2a 9e 3b
       0.020551004 -0.012879378 -0.025656974 0.004826829
0002a0 69 22 e3 3c e8 72 18 3d 4a 02 d2 bd 3b 4e 19 3d
       0.027726369 0.03721896 -0.10254343 0.037428122
0002b0 c2 4c f5 bd 32 c4 0b bd 79 e9 11 3c 62 f4 60 3c
       -0.11977531 -0.034122653 0.008905762 0.01373014
0002c0 05 38 29 bc 75 32 0e bb d7 7b 41 3c f5 bf 70 3d
       -0.0103282975 -0.0021697555 0.011809311 0.058776814
0002d0 b0 0f d7 3c df 2c b4 3d f7 32 70 3c 00 ea fa 3a
       0.026252598 0.08797621 0.014660588 0.0019143224
0002e0 e2 5e 4e bc ae 7e c1 39 1a 4f e7 bc ef 25 0c 3d
       -0.012595864 0.00036906212 -0.02823596 0.034215864
0002f0 f1 0c 8e 3c 09 a5 91 3c 0c 99 a5 bd c6 79 cc 3b
       0.017340155 0.01777889 -0.08085832 0.0062401025
000300 d4 50 ed bd 50 b2 9a bc 42 01 85 bd 5c 37 79 3c
       -0.11587682 -0.018883854 -0.064943805 0.015210953
000310 57 b8 62 bc 80 f6 c1 bd 92 90 f7 bc 63 a8 36 3d
       -0.013837895 -0.09470844 -0.030220304 0.04459418
000320 2c e0 e8 3c 8d 91 0f be da f9 ae bc f5 2e 9a 3c
       0.028427206 -0.14020367 -0.021359373 0.018821219
000330 b3 36 21 3d b2 8a a5 3a b4 79 b5 3c 97 e1 41 3d
       0.039358806 0.0012629835 0.02215276 0.04733428
000340 14 6c 61 bc e4 df 1c 3d ba 0d b3 3c 4b 45 4f be
       -0.013758678 0.038299456 0.021857131 -0.20241277
000350 95 df 85 3a 93 31 04 3d 33 9e bc 3d 5d 2f 0b 3d
       0.0010213727 0.03227384 0.092098616 0.033980716
000360 42 3c 56 3b ce 0d b5 3c a7 63 a2 bd dc ab a8 3c
       0.0032689725 0.02210131 -0.079291634 0.020589761
000370 bc 41 e8 3c 5c 26 b5 bd d6 d2 63 be e2 16 c1 3c
       0.028351657 -0.08845207 -0.22248396 0.023570482
000380 9c 8f f5 3c 7b b5 ba 3c 00 e8 9c 3d 18 6e 6a be
       0.029975705 0.022791615 0.07661438 -0.2289356
000390 60 91 ab bb 9e 0f b0 3d 11 d3 98 3b 26 9b a8 bd
       -0.005235836 0.08596729 0.004663833 -0.08232717
0003a0 b3 ae 99 3a 00 f8 fb bc 0a a9 a9 3b c1 98 11 3d
       0.0011725038 -0.030757904 0.0051776217 0.035546068
0003b0 49 32 d6 bc 1a 88 52 bb f5 13 99 3c 53 b9 15 3c
       -0.026147025 -0.003212458 0.018686274 0.009138423
0003c0 0a 00 91 3c 28 0b 0e 3b 97 88 55 3c 5a 39 f0 bb
       0.017700214 0.002167413 0.013033054 -0.0073310556
0003d0 30 da 99 3b c1 51 0c be f6 75 f0 3c 3a e1 0e 3d
       0.0046951994 -0.13703062 0.029353123 0.03488276
0003e0 cf 35 de bb fa 1d d4 bd 9d 2a 37 be aa e8 df 3c
       -0.006781317 -0.1035728 -0.1788735 0.027332623
0003f0 2e 5c 45 3d fb 3f 79 bc 78 0f 72 3c 28 6f 8c 3d
       0.048183613 -0.015213008 0.014774196 0.06857139

action_model._discrete_distribution.branches.1.bias f4 [3]
000000 a6 03 3b 3d 05 bd 2c bd 69 74 57 bd
       0.045657776 -0.04217245 -0.05260125

onnx::Div_78 f4 [28]
000000 73 ed a5 3e 7c 35 a6 3e 9f 41 b1 3c eb f1 31 3e
       0.32407722 0.3246268 0.021637736 0.1737744
000010 bc 1b b1 3e 3e 59 b1 3e 68 c1 ad 3c 3c 91 32 3e
       0.34591472 0.346384 0.021210387 0.17438215
000020 d1 9c b9 3e 1a d9 b9 3e aa 4f b4 3c 0e f7 47 3e
       0.36252454 0.36298448 0.022010643 0.19527838
000030 ef 24 f6 3e e9 36 f6 3e 6d 8d b3 3c e0 f9 27 3e
       0.48075053 0.48088768 0.021918023 0.16403913
000040 92 c3 fd 3e b6 cb fd 3e 9f 41 b1 3c d4 e4 47 3e
       0.4956327 0.49569482 0.021637736 0.19520885
000050 89 36 f6 3e 70 0d f6 3e 46 82 07 3d cc a5 1d 3e
       0.48088482 0.48057127 0.033083223 0.15395278
000060 d3 d8 e4 3e 5e ba e4 3e df 18 b0 3c 9f 48 36 3e
       0.44696674 0.44673437 0.021496234 0.1780114
