results/Driver/Driver/Driver-435499.onnx (onnx, 305142 bytes, 11 tensors)

discrete_act_size_vector f4 [1, 2]
00000000: 0000 4040 0000 4040
3.0 3.0

network_body.observation_encoder.processors.0.normalizer.running_mean f4 [28]
00000000: 5e20 093e 4295 5d3f f5d7 093a af7a 8e3e
00000010: 58f1 1a3e 7622 593f 296d 043a 07df 953e
00000020: 6fec 2b3e 11e1 543f cba8 0e3a 1306 9a3e
00000030: 074f bb3e 1d35 223f 89da 0c3a 23da 973e
00000040: 95e3 df3e 96eb 0f3f f5d7 093a 461b a63e
00000050: 7dbf 203f c4e7 bd3e 71e4 983a 459e 9e3e
00000060: 3983 353f 42b5 943e b809 083a cc3a b03e
0.13391253 0.86555874 0.00052583154 0.27827975 0.15131128 0.8481821 0.00050516665 0.2927172
0.16789411 0.83155924 0.0005442022 0.3008276 0.3658373 0.63362294 0.00053731404 0.29658613
0.4372832 0.5621885 0.00052583154 0.32442683 0.6279219 0.37090886 0.001166476 0.30980125
0.70903355 0.2904454 0.00051894365 0.34419858

network_body._body_endoder.seq_layers.0.weight f4 [256, 29]
00000000: 8a42 9bbe 0111 673c 583c cd3e b46d 533e
00000010: d9ae 103d 07dc 8cbe 25d0 78bd fce1 c6bd
00000020: 56be afbe 7d9a ffbd d6e0 11be aeec 213e
00000030: 6bac d83d f4d2 f83c 9fcc 56be a204 bebd
00000040: 5d9f e1bd 525a 133e 053b 3abe fbf0 b23e
00000050: 1f1c 803e 51e8 43be ab4c a63d 18a7 a8bd
00000060: ffff 223e 6f0c a1bd e8f8 63bc 7450 4e3f
00000070: d68b ddbe 441c 8fbe 0984 193e aaeb 29bc
00000080: 62c6 3fbe add3 27be 7e80 853b 7348 983e
00000090: a5b2 38be 840e ffbe 8bab c83e f874 d73d
000000a0: facb 8fbd 16fb 553e b8f7 063f 29c8 e0bd
000000b0: 630e 01bc 9d2b bc3e 37b1 4fbd 0a4d 5cbd
000000c0: e194 053f 2a68 c23d c59b e93e 846a 53be
000000d0: 117c 1c3e a47e 95bd de1e 5abe efd0 debe
000000e0: 0ed6 2e3e 79db 263f 9258 cdbd 9c10 b23e
000000f0: 1eb8 593e 7054 8bbe 8c20 9fbe af95 aebc
00000100: cb9c 693d f260 46be b03f 683e 3133 0e3e
00000110: fe49 bc3c 5806 e2be 23fe 5a3d 2a1a e9bc
00000120: 3f1b 3bbe 1fac 0fbe 0e73 cc3d 27b2 303c
00000130: 5763 c7bc 6960 b7bc 8884 433e ddda 243e
00000140: 70cc e4bc 8958 8c3e d869 17be 5c3d d23e
00000150: eed1 bf3d c25e 86be 1eb6 33be f206 023e
00000160: d7a6 49be ac1c d8bd f8dd 503e d5ea 3e3e
00000170: 5708 58be 0a04 7c3e b6b8 0a3e 1880 00be
00000180: 698a 4f3d 02cb 93be 8612 d03c ff1f 3dbe
00000190: 98e6 2ebe 4c0c 00be 55e9 41bb d4d2 883e
000001a0: e903 b0be ac5b 13be d292 56bf 7618 8bbd
000001b0: 73c7 67bd 75e0 4f3e 7907 9abd c66a d03e
000001c0: 71a4 b93b 1103 e53d fd17 8dbe 3364 bcbd
000001d0: dd81 b13d fcc2 cfbe 8202 29be 4fe8 3cbe
000001e0: a180 fe3c 6449 b0bd 9624 a5bd 9588 113e
000001f0: d2cf 52be 87d4 7c3c 4955 eebe 3895 b0be
00000200: 3029 753e 4f3f 45be c649 103e dc74 3a3e
00000210: 97e5 92bc 6207 76be 1d22 9a3d 2937 dabe
00000220: 8883 e93d 4dfa 433d a10f fb3e 1661 e43e
00000230: 8b65 fdbd ab96 743e ae72 5ebd 8330 19bf
00000240: 2ca2 f03d 433b 8ebe 4b75 84be 21e9 21be
00000250: c7f5 883e 3c69 72be ad81 bbbd 4192 343d
00000260: 2718 a93c 8b27 0b3d 1200 d73d 6fe1 3fbe
00000270: 43ba b83d b362 51be 16a7 843c e763 b33d
00000280: 068e 80be b3af 9cbd bed6 bfbe 0d43 b93d
00000290: 8afc a23e 06d0 443e 0623 b13c 4dfc a4bd
000002a0: 1ef3 44be f97d 653d 807b 55be 0896 773e
000002b0: e34b ad3e 48dc dfbe 6d68 483d f97d 9cbe
000002c0: 60db 23be 851a 3e3e a818 133e 38fb 36be
000002d0: 57d0 133e 52b7 6c3e f685 743c 50be a83d
000002e0: bece 2d3e 5473 843d 3fab 3ebe 6b90 0d3e
000002f0: 950f ba3d 67b4 a53e 8949 983e 5b89 a53c
00000300: 4acf 47be db79 d43e 90b3 0b3e 1f1d 91be
00000310: dbf2 023f 0236 c53d 653c 74be c840 0c3f
00000320: 2aa7 a73e 4e6a b4be 3b1e 68bf 27e8 5bbe
00000330: 1953 ad3e d831 c0bd 0c33 b9bd 2b92 25be
00000340: 96a8 973e 3a5d c93d 83bc 61be 6e6e 9ebd
00000350: 86f9 873e 09ce b2bd 4cb7 48be 6624 02be
00000360: ce74 823e bf88 44be 2a37 053f ec63 d5bd
00000370: 845d a03d f4c6 87bd ff36 e33e 67b4 a3bb
00000380: a7cb cebd 1ad0 91bd 4893 323e 20bb 47bd
00000390: a7bf 0d3e bcf9 2cbe b147 513e 5242 14bd
000003a0: 91bd 0abd 9bf3 293e 63b9 e5be 64d7 be3d
000003b0: c6ba 91bd 3e2d 6dbe cac8 34be cd84 c83d
000003c0: 79b1 9fbe a741 f8bd 6c1b 3fbd d0cd ff3e
000003d0: 32c2 cd3c a74e c8bd 4f1f cf3d bec3 8e3e
000003e0: 0f88 073e 5a43 cd3e f102 e1bd 7c00 663e
000003f0: c3e7 5fbd 1636 90be 5b3d 0cbf 1200 8a3e
-0.30324203 0.014103175 0.400851 0.20647317 0.035322998 -0.27511618 -0.060745377 -0.09711072
-0.34324902 -0.12480638 -0.14245924 0.15812942 0.10579761 0.030374028 -0.20976494 -0.092782274
-0.11016724 0.14389923 -0.18186577 0.34949479 0.25021455 -0.1913159 0.08120092 -0.082349956
0.15917967 -0.078637 -0.013914324 0.8059151 -0.4327075 -0.27951252 0.14991774 -0.010371128
-0.18728021 -0.16389342 0.0040741554 0.29742774 -0.18036897 -0.49815762 0.39193377 0.10520357
-0.07021327 0.20896563 0.5272174 -0.109756775 -0.007876965 0.36752024 -0.050706115 -0.053784408
0.52180296 0.09492524 0.45626655 -0.20646101 0.15281703 -0.072995454 -0.21300837 -0.4351878
0.17073843 0.6517864 -0.10026659 0.34778297 0.21261641 -0.27212858 -0.3107952 -0.02131161
0.057034295 -0.19372919 0.22680545 0.13886715 0.022984501 -0.44145465 0.05346502 -0.028454859
-0.18272112 -0.14030503 0.099828824 0.010784662 -0.024339361 -0.02238484 0.19093525 0.16099115
-0.027929515 0.27411297 -0.1478647 0.41062438 0.09366213 -0.2624417 -0.17549941 0.12697962
-0.1969255 -0.10552344 0.20397174 0.18644269 -0.21096931 0.24610916 0.13547024 -0.12548864
0.050669108 -0.2886582 0.025399458 -0.18469237 -0.17080152 -0.12504691 -0.002958854 0.2672335
-0.34377983 -0.14390439 -0.8381778 -0.06791775 -0.056586694 0.20300467 -0.075209565 0.40706462
0.005665355 0.111822255 -0.27557364 -0.09198799 0.086673476 -0.4057845 -0.16504863 -0.18447994
0.031067194 -0.08607748 -0.08063619 0.14212258 -0.2058709 0.01543153 -0.46549442 -0.34488845
0.23941493 -0.19262432 0.14090642 0.18208641 -0.017931743 -0.24026254 0.07526038 -0.4262021
0.11402041 0.047846127 0.4903536 0.4460532 -0.123728834 0.238856 -0.054308586 -0.5983965
0.11749682 -0.27779588 -0.25870737 -0.15811588 0.26750013 -0.23672956 -0.09155593 0.04408479
0.0206414 0.033973258 0.1049806 -0.1873834 0.090199016 -0.20447807 0.016192954 0.08759289
-0.25108355 -0.076506995 -0.37468523 0.09045992 0.31833297 0.1921998 0.021623146 -0.08055935
-0.19233367 0.05602834 -0.20847893 0.24178326 0.3384696 -0.4372275 0.048927713 -0.3056486
-0.16001654 0.18564804 0.14364874 -0.1786927 0.14434944 0.23116806 0.014924517 0.08239424
0.16973397 0.064673096 -0.18620013 0.13824622 0.09085003 0.323642 0.29743603 0.020207098
-0.19512668 0.41499218 0.13642716 -0.2834253 0.5115182 0.09629442 -0.23851164 0.5478635
0.32744724 -0.35237354 -0.9067113 -0.21475278 0.3385246 -0.09384507 -0.090429395 -0.1616904
0.29620808 0.09832235 -0.22044568 -0.077359065 0.2655756 -0.08730704 -0.19601172 -0.12709197
0.2547974 -0.1919279 0.520373 -0.10419449 0.07830337 -0.06629744 0.44377896 -0.004995871
-0.10097437 -0.0711977 0.17438996 -0.04876244 0.13842641 -0.16892141 0.20437504 -0.03619606
-0.03387219 0.16596834 -0.44868 0.09318426 -0.07115702 -0.2316179 -0.1765472 0.09790955
-0.31190088 -0.12121897 -0.04665701 0.4996171 0.025117014 -0.09780627 0.101133935 0.27883714
0.13235496 0.40090448 -0.10986889 0.22461122 -0.054664385 -0.28166264 -0.5478112 0.2695318

network_body._body_endoder.seq_layers.0.bias f4 [256]
00000000: 9c99 223e 9165 8f3d 1c65 1c3d 20df bf3d
00000010: 67c3 873d c2fa ad3d 8d88 fe3d 25d2 8b3d
00000020: 766f 3d3d b7a4 e93d 522a 5c3d 6c86 943c
00000030: e63d f3bc a64c 543d 2c40 b43d ed70 8f3d
00000040: 209b 323d cf15 16bc 222c 583d 5635 013e
00000050: ff37 303d bbec 12bc 2172 773d 2ccd af3d
00000060: 6658 da3c 1d25 843d c625 5e3d e899 893d
00000070: 9f6d a13d 035e a63d 0dbb 413c 251a 893c
00000080: 714a 3c3d 10c3 203e a56a 793d 551c 843d
00000090: 4f70 2b3e 3706 dbbc 4ee6 ef3d bcff 803d
000000a0: dccb eb3d 057a e53d 8b91 043d 02d5 2c3d
000000b0: 7ca4 9a3d 3f6c 5abd dbc5 473d ee08 593d
000000c0: 98d5 1a3d e830 1d3d 2f17 293d 623f 663d
000000d0: c6de 8e3d ff44 a53d bd1e 903d 474f 5b3d
000000e0: 8137 e63d 82be 653d bdbd 153c 75d9 3b3c
000000f0: 56e9 ac3d 773a db3d a01a 453d 3717 c43d
00000100: 2393 013d 1acd 663d aeb3 4d3d b5f2 6abc
00000110: 78af e53d 1c23 a33d 1651 753d 8d51 963d
00000120: f04b 9a3d e273 1a3e 20eb a63c c2e7 073e
00000130: fc77 893d a682 da3d 7e6f a63d 2f71 fd3c
00000140: 6461 833c 8c5e 0b3d 2a94 553d 07d8 c53d
00000150: 74e9 f3b8 a47a be3d 012b 323e a008 4e3d
00000160: 5f95 a33c a6ae 193e a497 903d 05ab fd3d
00000170: b5fd 063d 2191 db3c 6434 803d 7ce3 d13d
00000180: e27a c63d c5f0 103e 9b50 e83d fe4f 5d3d
00000190: d711 df3c ef84 d63d 4560 b73d 59d4 b53d
000001a0: f402 0f3e 1263 d13c 8025 643c 16f5 d33d
000001b0: 05a1 1f3e de57 6e3d bfcb c63c 9b25 573d
000001c0: 2e62 113e be90 1c3d e1a3 fe3d 1d2e 2a3d
000001d0: 2028 b73d 3512 913d daa2 1b3e b39f 8a3d
000001e0: a5c0 c73c f53e e23d 91d5 243e 6af4 983d
000001f0: 54e7 7c3d e10d cd3c 0ed4 a93d 5f6d 153d
00000200: 926a 313d 294c 0b3d f8c2 203e bae3 c43d
00000210: 72c8 2f3d cb1a 693e 21c4 963d 9908 713d
00000220: 6c98 d73d a27e 793c c7bb 7d3c ecba 523d
00000230: e19d c53d 26df 173d 1faa f63b f416 8abb
00000240: 4063 a63d 83a6 003e e79c 66ba c5ae ae3c
00000250: 16ea 493d 1eed 033e 5adc 6a3c 3106 3a3d
00000260: 933a 043e e96a a83d 3fce e13d d795 073d
00000270: 14f3 af3d a147 d53b a908 ca3d 6798 f23d
00000280: 5d4d 5a3d 048a d03d bfd7 ec3c fcad 783d
00000290: d9f8 823d f5ec 6b3d 2462 dc3c 11e5 103e
000002a0: 4420 743d e573 41bd e305 2bbd 7f13 193d
000002b0: 0dc1 063d c6fa de3c 4650 9f3d dc5a b33d
000002c0: 08b0 85bc c8f8 a73d 31c1 dd3d 03f9 803d
000002d0: 3c55 823d 8457 933d 04c1 ab3d 6ab0 8a3c
000002e0: f2d2 dc3c dc8d c73d 3ed5 973d 0178 c43d
000002f0: 7ee5 8a3d 48e0 d33d 330f 433d 8dfe 843d
00000300: 4116 733d 4466 283e 0739 8a3d 11e1 9d3d
00000310: 419e 7f3d 3144 de3d 92a3 c53d 6fb6 5b3d
00000320: dcf3 c63d 4ae0 3b3d e634 313d 2431 ad3d
00000330: 60e6 923c 1a12 153d ee5b 9d3d 17a7 563d
00000340: b143 9fbc e240 943d bc1f d53d b33a 0e3c
00000350: 9142 49bd d134 0cbc 319d 023e 251c b03d
00000360: d7c9 8c3d 652e 643d 0abb 6c3d 697c 6a3d
00000370: 2873 6f3c 2219 893d 159b ca3d bbc3 c33c
00000380: 863a 273d 6e6f 1e3d dcd2 eb3d 75c1 333d
00000390: d3e4 233e be56 2b3d 8ff7 c63d 2f64 943d
000003a0: b8ef d23c 8902 9d3d 57b3 d0bb c03d c83c
000003b0: 0a0b 923d 1383 be3d e916 a83d 4806 903d
000003c0: a0ad 033e c0b7 483d 083a ae3d cd7f d33c
000003d0: 7b82 7d3d 8db1 cc3d b1ef 883d 4322 ddba
000003e0: 57dc 1b3e bf26 d23d 0601 b73b 4460 1a3d
000003f0: 03f0 e13d 0963 993d 2e7b 0a3d e4d3 b93c
0.1587891 0.07001794 0.038182363 0.093687296 0.06629067 0.08495094 0.12428389 0.06827191
0.046248876 0.1140837 0.053751297 0.018130504 -0.029692601 0.05183091 0.08801302 0.07003961
0.04360497 -0.009160473 0.052776463 0.12618002 0.043022152 -0.008967574 0.060411576 0.08584055
0.02665348 0.06452391 0.054235242 0.067188084 0.07882237 0.081234 0.011824382 0.0167361
0.04596943 0.1569941 0.06089272 0.064507164 0.16742061 -0.026736362 0.11713849 0.062987775
0.115134925 0.11204914 0.032365363 0.042195328 0.07550904 -0.053325888 0.048772674 0.05298703
0.037801355 0.03837672 0.041281875 0.05621279 0.069760844 0.080698006 0.07037113 0.0535424
0.11241055 0.056089886 0.009139475 0.01146542 0.08442943 0.10704511 0.048121095 0.095747404
0.03163446 0.056347944 0.050220184 -0.014340092 0.11215109 0.07965681 0.059891783 0.07339773
0.07534015 0.15083268 0.020375788 0.13272002 0.06712338 0.106694505 0.08126734 0.03093776
0.01603765 0.034025714 0.052143253 0.096603446 -0.00011630627 0.093007356 0.17399217 0.050301194
0.019968687 0.1500803 0.07060173 0.12386135 0.032956798 0.026802601 0.06259993 0.10248467
0.09691407 0.14154346 0.11343499 0.054031365 0.027230186 0.10474574 0.08953909 0.08878393
0.1396597 0.025559936 0.013924956 0.10349481 0.15588768 0.058189265 0.024267076 0.052526098
0.14197609 0.038223974 0.12433601 0.041547883 0.089432 0.07083551 0.15198842 0.067687415
0.024383852 0.11047164 0.16097094 0.07468493 0.06174405 0.025031032 0.08292399 0.036481258
0.043314524 0.03400818 0.15699375 0.09613748 0.04291577 0.22764127 0.07361627 0.05884609
0.10527119 0.0152279455 0.015486664 0.051447794 0.09649254 0.037078045 0.0075276042 -0.004214162
0.08124399 0.12563519 -0.0008797184 0.021323571 0.049295507 0.12883422 0.0143347625 0.04541606
0.1291297 0.082235165 0.110256664 0.033101883 0.08591285 0.006508783 0.09864933 0.11845475
0.053296436 0.101825744 0.02891147 0.0607128 0.0639512 0.057599027 0.026902266 0.14149882
0.059601083 -0.047229666 -0.04175366 0.03737211 0.03289895 0.027219187 0.07778983 0.087575644
-0.01631929 0.08201748 0.10827864 0.06297495 0.063639134 0.07194427 0.08386424 0.016929824
0.026956055 0.097438544 0.074137196 0.095932014 0.067820534 0.10345513 0.047621917 0.06493864
0.059347395 0.16445261 0.06749158 0.07708944 0.062406782 0.1085285 0.09650339 0.05364078
0.09714481 0.045868196 0.04326334 0.084566385 0.017932117 0.036394216 0.0768355 0.052405443
-0.019441457 0.07238938 0.104064435 0.008680987 -0.04913575 -0.008557514 0.12755276 0.08599118
0.068744354 0.055708308 0.05779556 0.057247553 0.014614858 0.06694247 0.09892861 0.023897042
0.040827297 0.038680486 0.115148276 0.043885667 0.16005258 0.04183077 0.09715187 0.07245671
0.025749072 0.07666499 -0.006369035 0.024443507 0.07131012 0.09302344 0.08207495 0.07032448
0.12859201 0.049003363 0.08507162 0.025817776 0.061892014 0.099948026 0.066863425 -0.0016871173
0.15220772 0.102612965 0.005584839 0.037689462 0.11032107 0.074895926 0.03380888 0.022684045

network_body._body_endoder.seq_layers.2.weight f4 [256, 256]
00000000: b5b1 3e3d 4b08 ab3d fbc3 5a3e 1402 f7bd
00000010: bc50 afbd f22b 45bd 013f 123d 849d 10be
00000020: 71af 923d c18f 8ebd e310 bebd fed3 d53b
00000030: 02f8 243d 9247 f8bd 2425 2bbd 5542 123e
00000040: 7629 af3d 69a1 b4bd 7ca3 583c 86c5 fb3c
00000050: 0a0b 35bd 8002 c13a afc5 113d 34b4 183d
00000060: 3a56 c13c 6399 9d3c 48c0 18be 37b1 9a3c
00000070: cced dfbd f1a9 f5bd 5729 ffbd 9eea 47bc
00000080: 6f38 adbc c5be 20bb 134f 59be 1eb6 87bd
00000090: a2bd 313e 114b 71bd a80e f0bd 427a f7bd
000000a0: cde4 d4bd 59a0 febc 7879 00be 5755 7abd
000000b0: d544 d6bd 47e2 46bd 232f 58bd 0348 cfbc
000000c0: 3706 01be c4fd 553c 700c 06be 555b 1ebe
000000d0: 3c2d e5bd 425f debd 5cbd 193d 4e8d 543b
000000e0: 5572 bcbd 4c0e 5a3c 13eb 82bd 2bd3 bebd
000000f0: 3f1e c8bd dd38 373c e78b 403c 366a 86bd
00000100: e034 71be 4c30 0dbe adb0 9e3b cd83 063d
00000110: 939d 03be 00c4 203d 2e7a b73d 9f9f 21bd
00000120: 4709 0c3c 1090 92bd 32e2 4abd 0fd2 fcbd
00000130: 325c 00be 8d4a 963c 6653 1dbd 2b52 803d
00000140: a46e 133d 5d2c ddbd b56f 90bd f366 3fbe
00000150: 61bf 27bd 1f89 d9bc 9b31 05be 4361 dabc
00000160: 2726 9a3d 63da 11bd 8975 623e 47b5 b43d
00000170: 36f9 fa3d 5d7d 41be 6b0b 13be 8318 15be
00000180: c291 acbd bb3e 26bc 88db 06bd e99f 0cbd
00000190: 37cf 50be 07b6 d53d e7e1 90bd a0c7 3c3d
000001a0: 6336 a73c 795d 3ebe a1f0 c3be 5603 2dbd
000001b0: 499d fbba ff2a 7a3e 2ea2 cdbd ef86 70bd
000001c0: aac8 16bd e261 07bd 5cfd a1bd 91ef 87bc
000001d0: 34aa fa3d 686f b03d ac4a 1bbd 9ca6 babd
000001e0: 66a8 b0bc a821 72bd 097d 25bd 4cba 063e
000001f0: 842c a33d b7c7 53bd 81f1 a4bd d486 18bd
00000200: 9497 33bd 609f 21bd 363f 2fbd 35e6 3e3d
00000210: 48e5 f238 4d15 28be 0b3b e0bc 3276 aa3d
00000220: c614 a4bd 179e 00be 2949 25bd d6d0 08bd
00000230: 6b20 3abd 0621 0bbe ae94 db3d 7bce d7bc
00000240: 313c e73c 98b0 50bd ff98 033e 95dc f93d
00000250: 6fa3 34be 0584 b0bd 1b18 eebd 1194 a8bb
00000260: dff8 983d c9e5 143c 8ca2 993c 8006 2a3d
00000270: 2314 dfbb ff4a 3dbd 5281 b0bd f765 3dbd
00000280: 196a 923d 4fe4 5dbc 74c0 43bd 8acd ebbb
00000290: 1e5d e5bd 64ef 0ebe 0bba 893c 6f46 cdbd
000002a0: 3fb3 c6bd 4c41 f9bd 4897 b6bb 47ea a83d
000002b0: 8076 9bbd 8224 9abd 1ed7 523d 8ea9 47be
000002c0: 5018 b13d 62ef d7bd 5584 9abc e1ff ea3d
000002d0: 4e01 113d ede6 813d 9e24 883d f43a a8bc
000002e0: c922 5fbd d1a5 89bd 2a28 1c3e b340 38bd
000002f0: 60fb 48bc bdb6 f13d e81c 5fbe f0be 393c
00000300: 56a1 3abd 2409 9b3d c536 b9bd 7d76 61be
00000310: 0089 7dbd cb71 8d3d 1175 68bd 055b 093b
00000320: 4bbc e03d 3672 be3d cfb8 a33d 293f 6fbe
00000330: 30be 9ebd cfa4 d1bd 50e8 5a3c 221e 53be
00000340: 5718 00be 4f66 12be 3fab 803b 44ef e43d
00000350: a5a2 eebd cda5 3f3d c455 213d 000b 86bb
00000360: 274c 67be 88e5 c8bd 7bf0 92bd cd49 fdbb
00000370: a559 633e 13b4 933d 7eb3 c83d 5868 f2bd
00000380: 2798 d93d f62a e9bd 53e3 d03c 8c96 e7bd
00000390: 655b fb3d 8ddd 2c3d 08ef 2dbd 27cd b73d
000003a0: b567 6dbd 0a14 293c fe6a 403e 02da b0bd
000003b0: 2ab5 47be 811c c03c 4313 1cbc bc17 de3d
000003c0: 5fb2 52bd afb7 28bd a070 08ba b94d 0b3d
000003d0: f388 0abe 7f86 82bc 4004 be3c 8008 a3bd
000003e0: 5778 1ebd 1767 36bd 4c85 d8bd 68ff 2bbc
000003f0: 4fbc 97bd 2cec 0f3e 1c3c 97bd 6c9f 40bc
0.046556193 0.08351191 0.21363823 -0.12060943 -0.08560321 -0.048137613 0.035704616 -0.14122587
0.07162369 -0.06961013 -0.09280565 0.0065255156 0.04027558 -0.12123026 -0.041783467 0.14283116
0.0855283 -0.08819849 0.013222571 0.030733835 -0.04419998 0.0014725477 0.035588916 0.03728123
0.023600686 0.01923818 -0.149171 0.01888333 -0.10934028 -0.119953044 -0.12459057 -0.012201933
-0.021145074 -0.002452777 -0.2122157 -0.06626533 0.17357495 -0.05890948 -0.117215455 -0.12083866
-0.10395203 -0.03108232 -0.12546337 -0.061116543 -0.104623474 -0.04855564 -0.052779328 -0.025302893
-0.12600027 0.013060991 -0.13090682 -0.15464528 -0.111902684 -0.10858013 0.037534103 0.0032432857
-0.092014946 0.013309073 -0.06392493 -0.09317621 -0.09771394 0.011182991 0.011752105 -0.06563227
-0.23555326 -0.13787955 0.0048428387 0.03284054 -0.12853079 0.03924942 0.08958851 -0.039458867
0.008547134 -0.07156384 -0.049532123 -0.12344753 -0.1253517 0.018346095 -0.038409613 0.06265672
0.035994187 -0.10799477 -0.070525564 -0.18691616 -0.040953998 -0.026554642 -0.13007204 -0.026657706
0.07526808 -0.03560866 0.22115149 0.088236384 0.122545645 -0.18895479 -0.14359824 -0.14560132
-0.084262386 -0.010146792 -0.032924205 -0.03433219 -0.20391546 0.104351096 -0.070743375 0.046088815
0.020411676 -0.18590344 -0.38269523 -0.04223951 -0.0019196655 0.24430464 -0.10040699 -0.058722433
-0.036812462 -0.033052333 -0.079096526 -0.016593726 0.12239495 0.08614999 -0.03791301 -0.091138095
-0.021564674 -0.05911413 -0.040402446 0.13157004 0.07967475 -0.051704135 -0.08053876 -0.037237957
-0.043845728 -0.039458632 -0.042784892 0.04660626 0.00011582166 -0.16414376 -0.027371904 0.08323325
-0.08011775 -0.12560306 -0.040352974 -0.033402286 -0.045441072 -0.13586816 0.10721718 -0.026343575
0.028226944 -0.050949663 0.12851332 0.12200276 -0.1764047 -0.08618931 -0.116256915 -0.005144604
0.074693434 0.009087988 0.018754266 0.041510105 -0.0068078204 -0.0462141 -0.08618416 -0.04623982
0.07149143 -0.013543203 -0.04779096 -0.007196133 -0.11199401 -0.13958508 0.016812345 -0.100232
-0.09702157 -0.121706575 -0.0055722333 0.0824781 -0.075909615 -0.075264946 0.051474683 -0.19498274
0.08647215 -0.105437055 -0.018861929 0.11474586 0.035401635 0.06342874 0.06647609 -0.020535924
-0.054476533 -0.0672108 0.15249696 -0.044983577 -0.012266964 0.11802433 -0.2178837 0.011337027
-0.04556402 0.07570103 -0.090436496 -0.22017856 -0.06189823 0.0690647 -0.05675227 0.0020958793
0.10973414 0.09299128 0.07994234 -0.23363937 -0.07751119 -0.10236513 0.013361052 -0.20616964
-0.12509285 -0.1429684 0.003926664 0.11178449 -0.11652116 0.04678898 0.039388433 -0.004090667
-0.22587644 -0.098094046 -0.07174774 -0.007729745 0.22202165 0.07212081 0.097998604 -0.11836308
0.10624724 -0.11385147 0.025499022 -0.113080114 0.122732915 0.042203475 -0.042464286 0.089746766
-0.05796023 0.010319719 0.18790814 -0.08635332 -0.19502702 0.023451092 -0.009526077 0.10844371
-0.05143964 -0.0411908 -0.0005204771 0.03400967 -0.13528804 -0.015933273 0.023195386 -0.079606056
-0.038688984 -0.044531908 -0.10572299 -0.010497905 -0.07408964 0.14054936 -0.07384512 -0.011756759

network_body._body_endoder.seq_layers.2.bias f4 [256]
00000000: eec9 313c 466a b43b 7c49 023d e616 9b3c
00000010: 7820 d2bc 8d8f a63d a27d 703c 139a 1f3d
00000020: 192d 2f3b e776 0ebc 7d23 b43c f63c e53c
00000030: 6238 7b3c ad19 56bc 3004 0d3d 66a5 cdbc
00000040: 43a7 403c 0263 9c3c c3f2 fd3c ca87 0b3d
00000050: d434 2dbd 20cc 88bc 3a13 2e3d a85b 5e3d
00000060: bc8f d0bc 2206 ac3c 4853 2d3b b1b3 cd3c
00000070: 1b42 2b3d bb82 943c 3a80 123d 1fac 053d
00000080: 7bf3 253d 634d 783c e99f 813c c078 03bd
00000090: 4bb9 373d 78ff cdbc a2fb 1bbb 737f 483d
000000a0: 65b8 5dbc 8cde 4d3d a4b2 1f3c d75d 91bd
000000b0: 0137 663d 5a0a 363c e276 82bc 1917 14bd
000000c0: b5e9 e63c a8cc 7c3c 2edc ed3b 570f a3bd
000000d0: 7754 33ba 7f1e 9c3c 0944 123d a485 1a3d
000000e0: 7803 30bd 8620 bb3d c99f 5bbb 4cf3 f6bc
000000f0: 8558 82bd 00c4 ae3c 3ce6 2c3d acb3 28bc
00000100: e82f d23c e21c 21bd eacd a8bd e33c 0abd
00000110: 7ad5 81bd a356 ccbc c378 f83c b8bf 41bd
00000120: c305 d93c 889d 893c ae4d 38bc f346 483d
00000130: fb80 d33c 0800 90bc 11c2 4abc c2fa 563c
00000140: 3850 7f3c acec 21bd 446c 46bc cf72 18bd
00000150: da25 fa3b b694 12bd 059e d23b 1a86 493d
00000160: 0728 75bd da46 b13c a84d 0a3b 897d f03c
00000170: f5ab b1bc 1dfe ee3b b124 96bd 4c15 afbc
00000180: d9e5 c73b 0fd9 78bc 789c 71bc 9b4d 3e3d
00000190: 3ce6 e8bc ef9f 173c 37b9 803d 35b1 1c3d
000001a0: 4f59 643c 10de babc 590d e03c 31f9 18bd
000001b0: 3f9e d53c fc8e debc c1d8 87ba 08d5 66bc
000001c0: 8df3 63bc 2798 90bd 793d 0b3d e4bd 1a3d
000001d0: 94f0 913b 59f2 843c ebb9 ec3c ecba 103d
000001e0: e030 80bc ec30 3a3d 29d8 3fbd 3f1c 023c
000001f0: 8a16 2fbd 44a4 073d 011e 863c b2fe 193d
00000200: 61a1 b9bc ab74 133d 3193 55bd 512c 873d
00000210: bef2 453b b47e 69bb f1e0 b0bd 7561 b8bc
00000220: 088f 80bd bf3a 143d 2772 273d 3a79 feba
00000230: 9706 38bd 3a11 24bd 3db3 f5bc d54f 393d
00000240: 8143 2db9 5279 303d 971b a43b 4d27 273b
00000250: d1ad 8dbc e6bf ae3b 0707 d33c 769f 17bd
00000260: 2d04 1b3a edcc a9bb 4c4d f03c 64d3 eb38
00000270: e65d adbd c5ea fd3c 9202 48bd 7c6d b2bb
00000280: dc6b e4bc 14c1 70bd ed27 4fbd ede6 263b
00000290: bc63 0c3c e259 29bd ca4d b5bc 0c4e c43c
000002a0: 3845 c6bb 5d8c 083c afcc 263c dfa0 b53c
000002b0: 65c9 02bc cb69 4a3c ae75 1c3c 12ad a93c
000002c0: a0a3 573c 2d86 b6bc 4f85 e83a a3cd 793d
000002d0: f7d0 ca3c a03a ad3b e22f a1bc ebfc 3e3b
000002e0: 6dae cd3c 2bf5 2dbb da78 d43c 1465 fa3c
000002f0: d58e 483c ea9f d53c d756 1cbb 6e09 733c
00000300: e97a 3d3c 9d8d ca3c 603f 763a b5b7 07bd
00000310: 2aec a13b cc16 713c 6198 0abd ca46 743d
00000320: e60b 56bb d40e 383d 467f 3fbd 7b40 65bc
00000330: 316b 593c 2276 a03c 4a86 f63c 23af 80bc
00000340: 431f 193d bf84 553c 005c 463d 29ed 763d
00000350: 7d4b b2bc dafc 5cbc 6474 843d 5016 19bb
00000360: 8fb0 7dbc 0849 ba3c 48d0 4fbd dec0 063d
00000370: 7de8 3a3d f47e adbc ac78 2d3d c179 363b
00000380: 94a8 133d 1dfb 403d 6793 49bd 8941 033c
00000390: 6911 02bd 2960 64bc 7940 583c 7f1d 2ebd
000003a0: 2a69 633c 4583 24bd 6cea 0d3d 22e4 2c3d
000003b0: 4fe9 57bb 0a8b 013d 31b4 11bd 84d5 b3bb
000003c0: 133b 3dba e1a8 ae3c 4b8c ce3c facf e93c
000003d0: bd2b a83c 26ba 46bb 443c 58bc f9ba 103d
000003e0: 6ca0 c63c 938a 95ba c667 e2bc 5b0b 7e3c
000003f0: bc58 0c3d dba2 a83c 805e 023d 5830 933d
0.010851366 0.005505833 0.03180836 0.018931817 -0.025650248 0.08132849 0.014678391 0.038965296
0.002672976 -0.008695341 0.021989578 0.02798317 0.015333267 -0.013067645 0.03442782 -0.025103282
0.011758628 0.01909018 0.030999547 0.034065045 -0.04228671 -0.016698897 0.042498805 0.05428663
-0.025459163 0.020999018 0.0026447345 0.025110098 0.04181109 0.018128743 0.035766818 0.03263485
0.040515404 0.015155169 0.015823321 -0.032097578 0.044854444 -0.025146231 -0.0023801108 0.04894967
-0.013532733 0.050261065 0.009747181 -0.07097977 0.0562048 0.011110866 -0.015925828 -0.03615484
0.028187612 0.015429653 0.0072589135 -0.0796191 -0.00068408943 0.01905751 0.035709415 0.037725106
-0.042972058 0.09137063 -0.0033511987 -0.03014531 -0.0636454 0.021333694 0.042211756 -0.010296743
0.02565761 -0.039334185 -0.082424 -0.033749472 -0.063395455 -0.024943655 0.030331021 -0.047301978
0.026492005 0.01679875 -0.011248989 0.048895787 0.025818339 -0.01757814 -0.012375371 0.013121309
0.0155830905 -0.03953235 -0.0121107735 -0.037218865 0.007633907 -0.035786353 0.006427529 0.049200155
-0.059852626 0.02164023 0.0021103416 0.029356735 -0.02168844 0.0072934763 -0.07331217 -0.02137246
0.006100398 -0.01518847 -0.014746778 0.04646073 -0.028430097 0.00925444 0.06285327 0.038254935
0.013937308 -0.022810966 0.027350115 -0.037347022 0.026076434 -0.02716779 -0.001036428 -0.014088877
-0.0139130475 -0.07060271 0.03399417 0.03777875 0.004453728 0.016228842 0.028897246 0.035334513
-0.015648305 0.04545681 -0.046837006 0.007941305 -0.042746104 0.03311564 0.016371729 0.037596412
-0.02265996 0.035999935 -0.052142326 0.066002496 0.00302045 -0.00356285 -0.08636654 -0.022507409
-0.06277281 0.036188837 0.04088035 -0.001941479 -0.04492816 -0.04005549 -0.029992694 0.04524215
-0.00016523713 0.04308445 0.005008172 0.0025505603 -0.017294796 0.0053329347 0.025760187 -0.03701731
0.0005913403 -0.0051818998 0.029333733 0.00011245048 -0.08465175 0.030995736 -0.048830576 -0.0054451805
-0.027883463 -0.058777884 -0.050575186 0.0025467232 0.0085687 -0.041345485 -0.02213182 0.023962997
-0.006050732 0.008334246 0.010180636 0.022171436 -0.0079825865 0.012354325 0.009549541 0.02071241
0.01316157 -0.022280777 0.0017739924 0.060987126 0.024757845 0.0052865297 -0.019676153 0.002914245
0.025107587 -0.0026543837 0.025936533 0.030565776 0.012241085 0.02607723 -0.0023855472 0.014833791
0.011564949 0.02472573 0.0009393599 -0.03313418 0.004941483 0.014714908 -0.033836726 0.059637822
-0.00326609 0.044936016 -0.046752237 -0.013992424 0.013270185 0.01958758 0.03009333 -0.015708512
0.03738333 0.013032137 0.04842758 0.060284767 -0.021764511 -0.013488019 0.06467512 -0.0023359247
-0.015483989 0.022739902 -0.05073574 0.032898776 0.045631874 -0.0211787 0.04235141 0.0027843567
0.03604944 0.04711448 -0.04921284 0.00801123 -0.031754885 -0.013938942 0.013198965 -0.0425086
0.013880054 -0.04016425 0.03464739 0.042209752 -0.003294546 0.03162674 -0.035572235 -0.0054880995
-0.00072185806 0.021320762 0.025213381 0.028541554 0.020528669 -0.0030323355 -0.013197962 0.03533456
0.024246417 -0.0011409096 -0.027637374 0.015505637 0.03426431 0.020585468 0.031828403 0.07186955

action_model._discrete_distribution.branches.0.weight f4 [3, 256]
00000000: 03ac 0ebc 3471 6e3b e770 39bb 76c6 4f3e
00000010: cd54 ab3c c99a c6bc 10cd 4b3c b27f bb3a
00000020: 84b5 0fbd f595 b13c 024d 843c 050a a23c
00000030: 5c9e 693d c8cd 813b 1d2a 673d 7b2f 6dbc
00000040: 93fb 253e f12c 9ebe 3f10 083d a63b 6d3e
00000050: 531b 253d 2615 80bc 1e37 2c3d de28 383c
00000060: d408 27bd 3d7f bf3c 6efb e13d 9abf 4a3d
00000070: e205 683d 8e35 833c 3f0e 32bd 7100 a73c
00000080: 264b ff3c ca62 62bd 4fb5 cd3a ceb9 cc3b
00000090: 786f a03d cecd bc3d 3dd8 173e 3b8a ae3d
000000a0: 1c1c 3e3c c081 fcbe aae3 ed3d ee87 5b3d
000000b0: e97e 13bd f611 d53b d1ca 82bc 1de8 9ebd
000000c0: bb04 643c 2394 0a3c 26f7 c63a 5d66 4f3e
000000d0: d1bc 9e3c e835 373d b3a8 39be 68eb 13bc
000000e0: 91da aa3d 0386 3b3d 16cc cf3b d1e4 903e
000000f0: 184e 143e 508c 803c 47be da3d c855 ef3c
00000100: effb 983c c5f5 bf3d d4b8 033d 8597 d83d
00000110: 1db6 50be ea1b 5b3e 43e4 4f3c 7b10 aabd
00000120: c7a8 253e f948 c23c 4666 0f3e 7375 ebbc
00000130: b558 b23c 3895 4fbe 0da8 afbd 9f3b 1c3e
00000140: 72a6 e4bc c8fd 703c 7e73 cf3c 7765 053d
00000150: eec9 32bc c1d6 f43d e3c1 c4bb 5a0b c63c
00000160: 1aed 4d3e ad25 80bd 3e0b 423b a02b e8bc
00000170: 3d89 b3bd 031e 7dbd 687f 4d3e 520b b0be
00000180: 25bd ffbc aa32 13bd 921f abbb e6ab df3c
00000190: bcb2 653e 048d 383e 78fb 273d dc48 103d
000001a0: cf9e 183d d016 64bd 620b 3f3d a5ba 2e3e
000001b0: ddf0 48bb f54a 543e 5817 bb3c d4bf 563c
000001c0: 03ac 913d 7820 393e 6bb0 43be 5f5d 0fbd
000001d0: 0622 24be 6df1 cabc f8b7 5abe c832 af3c
000001e0: 64c2 a63c a8d9 573d c28d 98bc 17c0 473d
000001f0: 7925 f8bc 0a62 42bb 59d6 6abb d444 e03d
00000200: 2360 203d 883c b9bc e487 2b3e f400 0b3d
00000210: 456b aa3d d02c 89bc fce8 283e 6b1d 6abd
00000220: 30eb 4e3e ae7d 023d f41c 693e 021f 60bd
00000230: a16b 603e d1b6 763e 7d4c 6e3d d426 8abd
00000240: a6b6 6dbc 239e f7bb d7a6 a53c 78ea 1b3c
00000250: ff5e fa3c ec09 96bc fa75 5f3c fbe8 dd3c
00000260: e34f 963c ad64 1e3e 1f88 e3bc e70c 9c3c
00000270: b3a6 ab3d c3d3 4bbc b2a2 fdbb 2432 bf3d
00000280: a7e9 b53d 44b7 283d e925 893e 5816 d63a
00000290: afdc 9e3b 4862 67bd b27b 9b3d c13e 1b3c
000002a0: ae02 553d 3ed5 b23c 7d53 35bd cd36 70bc
000002b0: 5b2c 013e 9633 f0bc ab6c 7a3c 9f6c 0b3d
000002c0: 0549 dd3d fd3b d0be fee9 2cbb 26ba 37bb
000002d0: 6ec6 4abb 6235 ab3d dbae 2cbd bf36 80bd
000002e0: d9dc 23bd cf3f 563e 4b4a 85bd 62fc 233c
000002f0: 8311 3abc 9002 5d3c 7160 e1bc 02cd c63c
00000300: a37f 173e 9c3a 87bd c2f3 44be cedb bc3e
00000310: 76da deba d34d 623d 12bc 8cbe 2d7f e9bc
00000320: 85ec 093c e0b7 a7be 38d4 8c3d 0e4e 913c
00000330: 867b 833d 9975 35be 2112 c23c 9a68 e23c
00000340: 052e f83c af53 a23c 586d 9cbc f19c bebe
00000350: 3242 43bd c5df b2bc 807c 34bd 2d21 3d3c
00000360: ceda c33d b282 c63a 9b4a 3f3e 1cb1 0d3d
00000370: 8981 12bd 8e72 cd3d 733c 9abd 9c50 4eba
00000380: ac31 1f3d 74fe 8b3c bdee f8bd aff1 fb3d
00000390: 1f24 d5bc 9a85 7bbc 9866 403d 19ee 0c3d
000003a0: 87b1 ab3c 2ee5 9c3d 0923 ab3b d3e9 833d
000003b0: cd1c 053d 8041 c73c 9cb0 893d bf16 2b3c
000003c0: 0c2b cb3d ccad 4c3c d988 773c 1800 b23d
000003d0: a220 aaba ba37 7e3c 390c 7fbd fa59 8a3c
000003e0: 0170 41be b022 fe3d 3910 10be 6a40 5c3d
000003f0: cb55 dcbb c273 19be f746 403d fdbb e03c
-0.008708003 0.0036383392 -0.0028296055 0.2029055 0.02091446 -0.02424373 0.012439027 0.0014305024
-0.035085216 0.02167795 0.016150001 0.019780168 0.05703579 0.0039612986 0.056436647 -0.014476652
0.16209249 -0.30893663 0.03321862 0.23167285 0.04030926 -0.015635084 0.04204475 0.011240212
-0.040779904 0.023376102 0.110342845 0.04949913 0.056646235 0.016016748 -0.043470617 0.020385953
0.031163763 -0.055269994 0.0015694293 0.0062477356 0.07833761 0.09218942 0.14828582 0.08522459
0.0116033815 -0.4931774 0.11615689 0.05359643 -0.036009703 0.0065023853 -0.015965851 -0.07759116
0.013917143 0.00845817 0.0015179857 0.20253892 0.019377144 0.044729143 -0.1813076 -0.009028293
0.083424695 0.0457821 0.0063414676 0.28299573 0.14482915 0.015691906 0.10680824 0.029215708
0.018674819 0.09373049 0.032158688 0.10575775 -0.2038197 0.21397367 0.012688699 -0.08303925
0.16177665 0.023716437 0.14003858 -0.028742528 0.021770814 -0.20271766 -0.08576975 0.15257119
-0.027911399 0.014708944 0.025323626 0.032567468 -0.010912402 0.119550236 -0.0060045584 0.024175335
0.20109978 -0.06257186 0.0029608752 -0.028341115 -0.087664105 -0.0617962 0.20068133 -0.34383637
-0.03121812 -0.03593699 -0.0052222693 0.027303647 0.22431463 0.18022543 0.041011304 0.035225734
0.037260827 -0.05568582 0.046641715 0.17063387 -0.0030661144 0.20731719 0.02283828 0.013107259
0.07112887 0.18078792 -0.19110267 -0.035001155 -0.16028604 -0.024773324 -0.21359241 0.02138652
0.020356365 0.052697808 -0.018622283 0.048767176 -0.030291306 -0.0029660487 -0.0035833328 0.10950628
0.039154183 -0.022611871 0.16751057 0.033936456 0.08321241 -0.016745001 0.16495126 -0.05715696
0.20206904 0.03185814 0.22764951 -0.05471707 0.21916057 0.24093176 0.058178414 -0.06745687
-0.014508879 -0.007556693 0.020221157 0.009516351 0.030562876 -0.018315278 0.013638968 0.027088633
0.01834864 0.15468092 -0.027774869 0.019049121 0.08381405 -0.012440625 -0.007740342 0.093357354
0.08882456 0.0411904 0.26786736 0.0016333563 0.004848085 -0.056490213 0.075919524 0.009475411
0.05200451 0.021830197 -0.044269074 -0.014661503 0.12614577 -0.029321473 0.0152846975 0.034039136
0.10804943 -0.40670767 -0.0026384587 -0.0028034537 -0.0030941027 0.08359791 -0.042158943 -0.06260442
-0.04000554 0.20922779 -0.06508311 0.010008903 -0.011356714 0.0134893805 -0.027511807 0.024267677
0.14794783 -0.06602976 -0.19233611 0.36886448 -0.0017002362 0.05525 -0.27487236 -0.028503025
0.008418207 -0.32757473 0.06876415 0.017737415 0.064200446 -0.17720641 0.023690285 0.027637769
0.030295381 0.019815294 -0.019095108 -0.37229112 -0.04767055 -0.021835217 -0.044064045 0.011543554
0.09563218 0.0015145151 0.18680803 0.034592733 -0.035768066 0.10031615 -0.07531061 -0.0007870288
0.03886573 0.017089106 -0.12154911 0.12301957 -0.0260182 -0.015351677 0.04697284 0.034406755
0.020958675 0.076609 0.0052226824 0.06441083 0.03249817 0.024323225 0.06723139 0.010442435
0.0992032 0.012492608 0.015108311 0.08691424 -0.0012979696 0.015516216 -0.062267516 0.016888607
-0.18890382 0.1240896 -0.14068688 0.053772368 -0.0067240945 -0.14985564 0.046942677 0.02743339

action_model._discrete_distribution.branches.0.bias f4 [3]
00000000: 1a2c 02bb c77b af3c fc77 e9bc
-0.0019862712 0.021421326 -0.028499596

action_model._discrete_distribution.branches.1.weight f4 [3, 256]
00000000: 63e7 12be 9a19 2b3a 12ef d83b 77af 683d
00000010: c3de 8d3d 0cd3 a13d b96b 03bc fa25 a1bc
00000020: a49b b03d 12f9 cdbd 827b 07bc 7126 303d
00000030: 1929 a5bc e542 adbb 341c 0d3e f5f4 8e3b
00000040: 6bb2 5dbd 367d 27be 0c41 5b3c faae d5bd
00000050: 6bc3 e7bb 28cb 16be 8811 123d d664 f83c
00000060: 0136 0fbe d0b5 293d d67f 583d f9cc bdbc
00000070: f76c 443c c390 213d afbd 843c e94a f13c
00000080: 26bb 2a3c 6222 873c 5e99 213c 32cc debd
00000090: 0edd c4bc 65c0 113b 7ec9 59bc 52ed bd3d
000000a0: 178c bfbd 75dc d1bd d15a c23d 7312 f2bd
000000b0: 82cb 96bc c65a 853c 76c0 b33d d5eb 8f3b
000000c0: 44ae d43c f015 443c c522 743d 7afd 4dbe
000000d0: 2d25 823c 31a8 c03c a5ab dbbc 3e90 d13c
000000e0: 3c24 cdbd 0df6 d33c 4dd6 4e3c d1ba b83d
000000f0: 9768 3abd 8b06 cf3c e2bd a83c 6937 4b3d
00000100: 9ae7 c53c be73 e53b b028 81bd 4b03 68bd
00000110: d939 8cbe 8f4d 23be 6a80 a23c 8fca 0e3d
00000120: 2d59 bf3d 6954 a83c e302 f1bb c0d6 bd3d
00000130: 3a37 a03c 636f b9bd 6afc e63c ec03 9a3c
00000140: aa97 223d b5f9 e4bd 8ad7 9abb a754 b23d
00000150: 015f 1bbb 2760 12be 699e dd3c e46b 4e3d
00000160: f034 dabd 5ec6 2f3d 3f1a a93c a3ef 413c
00000170: 5fc1 0fbe 721a 6abe 028e 07be 740f 62bd
00000180: 78bc 80bc 3918 01be 028b 98b9 a11e b53b
00000190: 7a8b febd 5d2e 2dbe 20e4 423c 1a16 793d
000001a0: afb1 0d3c d459 99be 9b3e a83c 084b 7abd
000001b0: 0973 cb3c 7bb0 97bd 8a8f 0cbe e1ee 163a
000001c0: a7b6 edbc 6360 2fbe 88cc 80be b504 e73c
000001d0: 2d78 0cbe b9b2 4e3c 2bb8 d33d d229 1f3c
000001e0: 4da2 acbd 2be1 893c 27b5 14be 58f5 47bc
000001f0: ebfa 74bc 7e0d 023c acd5 0b3d 30d3 fe3c
00000200: 80be 19bc 83da 873b 75c3 36bd 2e2e 203d
00000210: fbe9 6abd 7f76 dc3c c73c cdbd f099 c53c
00000220: 729b e4bd bee5 0e3d dc82 abbd c9c4 023c
00000230: f3a7 d8bd 5519 d8bd a5c9 cabd 58c7 8c3c
00000240: 92d7 c83c 0d0c 1e3d 4f62 633c 7873 b53b
00000250: 7e3b 54bd 870a 873c 9cd9 3e3d 5be3 bebc
00000260: 914e a3bb 4922 05bc e51d 093d b2a2 4cbb
00000270: 5bc4 ecbd d129 303d 9a23 a43d 3927 b13d
00000280: 700a 24be 33d5 2c3d 4082 9cbd e0b4 fe3c
00000290: f90b a93c b01d 9bbc 1624 bcbc 7f12 973b
000002a0: abd5 ea3c e348 f93c b492 d0bd 54cd 203d
000002b0: efad e2bd 12c8 05bd a1c6 1c3c 4afc 673c
000002c0: 285a 50bc c6d5 bebb e586 633c 2677 513d
000002d0: b3f9 e03c f59d aa3d 31ae 8c3c bb2f 723a
000002e0: c196 49bc 961b 8abb 0953 e6bc 66a5 043d
000002f0: dfb7 913c aa00 793c b725 9abd 37af d03b
00000300: a0ed e7bd 87f4 98bc b45b 88bd 492c fa3b
00000310: bc4a 5ebc 909f bbbd 137f 08bd 3383 323d
00000320: c369 d93c d393 07be 60ff f0bc 3df8 8a3c
00000330: 4141 223d 688c 7a3a 6dc1 b73c 3895 123d
00000340: b7c8 42bc b5a1 f43c 2749 bb3c 9c24 5ebe
00000350: d7c8 853b db18 bf3c 380f b53d e464 f43c
00000360: 967d cb3a fc8b be3c eeeb 9ebd 0135 c83c
00000370: d0e1 e83c 5dd4 aebd 9879 57be 5db6 b63c
00000380: 13a8 e93c e5f7 bd3c efb5 933d 05d1 52be
00000390: 2cf5 e6bb 3407 a73d bdae a83b b2be 9bbd
000003a0: 27c3 0a3b 8174 02bd b095 e53b 5740 0f3d
000003b0: 94a6 cdbc c295 5f3b 24d0 f93b 04ee 253c
000003c0: 543a 883c bdc3 913b 8c8a 653c 757a 43bc
000003d0: b80d 033c d28f 04be a711 003d 17fa 0f3d
000003e0: 4760 3f3a 127c c8bd fed7 2fbe bae2 e23c
000003f0: 3367 3e3d 3458 6dbc 3e31 713c 83f1 8d3d
-0.1434608 0.0006526947 0.0066202963 0.05680796 0.06927254 0.07901582 -0.008021289 -0.019671429
0.08623436 -0.10057272 -0.008269193 0.04300541 -0.020161198 -0.0052875155 0.1378029 0.0043626972
-0.05412523 -0.16356358 0.013382208 -0.10433765 -0.007072856 -0.14725935 0.03566125 0.03032152
-0.13985445 0.041433156 0.05285629 -0.023169028 0.01198887 0.039444696 0.01620373 0.029454665
0.010420596 0.016495887 0.009863226 -0.10878791 -0.024031188 0.002223992 -0.013292668 0.09273781
-0.09352892 -0.10247127 0.09489978 -0.11819925 -0.018407587 0.016278636 0.087769434 0.004392127
0.025962003 0.011968121 0.05960347 -0.20116225 0.015886867 0.0235177 -0.026815245 0.025581475
-0.10016677 0.025874162 0.0126243355 0.090200074 -0.0455099 0.025271675 0.020598356 0.04961339
0.024158288 0.007002323 -0.06306589 -0.056643765 -0.27387884 -0.15947555 0.019836623 0.034861144
0.09343181 0.020548062 -0.0073550805 0.09269476 0.019557584 -0.090544485 0.028196532 0.018800698
0.03969542 -0.1118044 -0.0047254013 0.087075524 -0.002370775 -0.14294492 0.027053075 0.05039586
-0.10654628 0.042913787 0.020642398 0.011836919 -0.14038609 -0.2286165 -0.13237765 -0.05519052
-0.015714869 -0.12606896 -0.00029095268 0.005527333 -0.12428947 -0.16912217 0.01189521 0.060812093
0.00864832 -0.29951346 0.020537665 -0.06110671 0.024835126 -0.07406708 -0.13726631 0.00057576416
-0.02901776 -0.17126612 -0.25156045 0.028200487 -0.13717718 0.012615853 0.103378616 0.009714561
-0.08429394 0.016831001 -0.14522229 -0.012204491 -0.014952402 0.007937787 0.03413932 0.031106561
-0.009383798 0.0041459217 -0.044619996 0.03910654 -0.057352047 0.026911972 -0.10021358 0.024121255
-0.11162461 0.034887068 -0.08374569 0.007981488 -0.10578909 -0.10551707 -0.09901742 0.017184898
0.024516854 0.03858571 0.013878419 0.0055374466 -0.05181455 0.016484512 0.046594247 -0.02330177
-0.004983731 -0.00812585 0.033475775 -0.0031224904 -0.11560889 0.04300863 0.08014603 0.08650059
-0.16019607 0.04219551 -0.07642031 0.031092107 0.020635592 -0.018935055 -0.022966426 0.004610359
0.028666338 0.030430263 -0.101842314 0.039258316 -0.110683315 -0.032661505 0.009568841 0.0141592715
-0.012716807 -0.0058238236 0.013887142 0.05113902 0.027462816 0.08330909 0.017172905 0.000923868
-0.012304009 -0.0042147143 -0.028115766 0.0323843 0.017787872 0.015197912 -0.07526725 0.0063685435
-0.1132462 -0.018671287 -0.06658116 0.0076346737 -0.013567623 -0.091612935 -0.033324312 0.043582153
0.026539689 -0.13239984 -0.029418647 0.016964072 0.039613012 0.00095576653 0.0224311 0.035786837
-0.011888674 0.029862264 0.02286203 -0.21693653 0.00408278 0.023327282 0.08840793 0.029833265
0.0015525098 0.02326011 -0.07759844 0.024439337 0.028427988 -0.08536599 -0.21042478 0.022303754
0.028522527 0.023189494 0.072124355 -0.20587547 -0.0070482697 0.08155671 0.0051477836 -0.076047316
0.0021173449 -0.031849388 0.0070063695 0.03497347 -0.025103845 0.0034116362 0.0076236892 0.010127548
0.016629376 0.0044483826 0.014010083 -0.0119310515 0.007998876 -0.12945488 0.031266835 0.035150614
0.0007300418 -0.097892895 -0.17172238 0.027696002 0.046485137 -0.014486361 0.014721213 0.0693083

action_model._discrete_distribution.branches.1.bias f4 [3]
00000000: 1df0 383d 772c 27bd e96e 40bd
0.045150865 -0.04081389 -0.046980772

onnx::Div_78 f4 [28]
00000000: 205e ae3e 6ea8 ae3e 2236 bc3c d98c 313e
00000010: 457a b73e f0ba b73e 7b7e b83c fe43 313e
00000020: 825f bf3e 129f bf3e 8f74 bf3c 5f3f 483e
00000030: fd9c f63e a3b0 f63e d83e be3c b441 233e
00000040: b7fa fd3e 7203 fe3e 2236 bc3c 6a1a 483e
00000050: 277b f73e 6a52 f73e 39f3 0b3d 2f60 1c3e
00000060: 558e e83e ca6e e83e 07fb ba3c ec52 373e
0.34056187 0.34112877 0.022975031 0.17338885 0.35835472 0.3588481 0.022521248 0.17311093
0.37377554 0.3742605 0.02337101 0.19555424 0.48166648 0.48181638 0.023223326 0.15943033
0.49605343 0.49612004 0.022975031 0.19541326 0.48336145 0.48305064 0.034167502 0.15271066
0.4542109 0.45397025 0.022824777 0.17902726
