results/Driver/Driver/Driver-465393.onnx (onnx, 305142 bytes, 11 tensors)

discrete_act_size_vector f4 [1, 2]
0	0x40400000	3.0
1	0x40400000	3.0

network_body.observation_encoder.processors.0.normalizer.running_mean f4 [28]
0	0x3e00b922	0.12570623
1	0x3f5fb14b	0.873799
2	0x3a00fd46	0.0004920553
3	0x3e8ca7f3	0.27471885
4	0x3e13beb7	0.1442822
5	0x3f5af142	0.8552438
6	0x39f7d721	0.00047271795
7	0x3e93f82c	0.28900278
8	0x3e262815	0.16226228
9	0x3f565475	0.8372262
10	0x3a057ee9	0.00050924585
11	0x3e98297b	0.29719147
12	0x3eb8c415	0.360871
13	0x3f237cba	0.6386219
14	0x3a045e90	0.00050494913
15	0x3e96be63	0.2944213
16	0x3eddd649	0.4332755
17	0x3f10f477	0.56623024
18	0x3a00fd46	0.0004920553
19	0x3ea42e8b	0.3206676
20	0x3f204cd8	0.62617254
21	0x3ebed330	0.37270498
22	0x3a92bb9b	0.0011194827
23	0x3e9d0a80	0.30672073
24	0x3f37faf9	0.7186733
25	0x3e8fca32	0.2808395
26	0x39fe9965	0.00048560943
27	0x3eae1f85	0.34008422

network_body._body_endoder.seq_layers.0.weight f4 [256, 29]
0	0xbe9dcbd7	-0.3081958
1	0x3c9c0fd1	0.01905051
2	0x3ecba705	0.39775863
3	0x3e5396fa	0.20663062
4	0x3d1b9b6e	0.037990026
5	0xbe8e38b4	-0.27777636
6	0xbd82ba2e	-0.06383167
7	0xbdc78019	-0.097412296
8	0xbeaf905c	-0.34289825
9	0xbe00266b	-0.12514655
10	0xbe14d841	-0.1453562
11	0x3e24a8c1	0.1608
12	0x3dd1903d	0.102325894
13	0x3d0a8f83	0.03382827
14	0xbe57b76f	-0.21066068
15	0xbdc3d240	-0.095615864
16	0xbdde6199	-0.10858459
17	0x3e11bc2b	0.14231937
18	0xbe3d65b8	-0.18495834
19	0x3eb56f38	0.35436416
20	0x3e819e8c	0.25316274
21	0xbe46e47a	-0.19423094
22	0x3d9d2614	0.076732785
23	0xbd9fd539	-0.07804341
24	0x3e27c3b9	0.16383256
25	0xbdaa9410	-0.08329022
26	0xbc8b4c1a	-0.017004061
27	0x3f539271	0.82645327
28	0xbee08772	-0.43853337
29	0xbe8ea46e	-0.27859825
30	0x3e189413	0.14900236
31	0xbc149a86	-0.009070044
32	0xbe4149e8	-0.18875849
33	0xbe248d5d	-0.16069551
34	0x3a66ce46	0.0008804541
35	0x3e98f2f2	0.29872853
36	0xbe3a83a4	-0.1821428
37	0xbeff8d10	-0.4991231
38	0x3ec92917	0.39289162
39	0x3dda26e3	0.10651948
40	0xbd8ff60a	-0.0702935
41	0x3e53d097	0.2068504
42	0x3f078236	0.5293306
43	0xbdde2ff9	-0.10848994
44	0xbc1219f0	-0.008917317
45	0x3ebd0226	0.36915702
46	0xbd566647	-0.052343633
47	0xbd56f8d7	-0.052483406
48	0x3f05f28c	0.5232322
49	0x3dbc9235	0.09207574
50	0x3eeb16c6	0.45915812
51	0xbe55722d	-0.20844336
52	0x3e217f54	0.15771228
53	0xbd96ea3c	-0.073688954
54	0xbe59698d	-0.2123167
55	0xbede2666	-0.4338867
56	0x3e2e4f89	0.17022528
57	0x3f28ba87	0.6590962
58	0xbdd3132b	-0.103063904
59	0x3eb37f9d	0.350583
60	0x3e5611d9	0.20905246
61	0xbe8ea8e3	-0.27863225
62	0xbe9edb60	-0.31026745
63	0xbcb2da7d	-0.021832699
64	0x3d5b0413	0.053470682
65	0xbe4c7ae6	-0.19968757
66	0x3e66e0d3	0.22546701
67	0x3e0f9325	0.14020975
68	0x3c9f1593	0.019419467
69	0xbee6a3a9	-0.45046738
70	0x3d6c1588	0.05763772
71	0xbd059a4b	-0.03261785
72	0xbe3eb8c2	-0.18625167
73	0xbe118091	-0.142092
74	0x3dd0f1f0	0.10202396
75	0x3c0cd01b	0.008594538
76	0xbce49567	-0.027903272
77	0xbce27613	-0.027644193
78	0x3e3d30f8	0.18475711
79	0x3e2b36c5	0.16720112
80	0xbd04a913	-0.032387804
81	0x3e8d70f9	0.27625254
82	0xbe17eb3b	-0.14835827
83	0x3ed27ea5	0.41112247
84	0x3db8857c	0.09009835
85	0xbe885095	-0.2662398
86	0xbe36d3cd	-0.17854233
87	0x3dfd8b38	0.123800695
88	0xbe466376	-0.19373879
89	0xbde020a3	-0.10943725
90	0x3e55b78d	0.208708
91	0x3e43b4e9	0.1911198
92	0xbe5ccccf	-0.21562503
93	0x3e7801c4	0.24219424
94	0x3e0e4ebe	0.13897225
95	0xbe01e5f3	-0.12685375
96	0x3d552646	0.052038454
97	0xbe95cdb3	-0.292585
98	0x3ce69900	0.028149128
99	0xbe3a8c28	-0.18217528
100	0xbe3178bb	-0.17331211
101	0xbe0425f1	-0.12905098
102	0xbaede3fa	-0.0018149607
103	0x3e8af10c	0.2713703
104	0xbeb22222	-0.34791666
105	0xbe175dab	-0.14781825
106	0xbf587874	-0.84558797
107	0xbd8506d0	-0.0649544
108	0xbd748780	-0.059699535
109	0x3e54b504	0.20772177
110	0xbd95bc82	-0.07311346
111	0x3ed17611	0.4091039
112	0x3b6de450	0.0036299415
113	0x3ddcfed0	0.10790789
114	0xbe918263	-0.2841979
115	0xbdb11195	-0.08645932
116	0x3da7f0a3	0.08200195
117	0xbecd5f6d	-0.40111867
118	0xbe2aee77	-0.1669253
119	0xbe407ad7	-0.1879686
120	0x3d1f48c5	0.038887758
121	0xbdc03e84	-0.09386924
122	0xbda8fc8e	-0.08251296
123	0x3e1211ba	0.14264575
124	0xbe590e8e	-0.21196958
125	0x3cb05387	0.021524204
126	0xbeef4af8	-0.46736884
127	0xbeb34991	-0.35017064
128	0x3e76ff2b	0.24120776
129	0xbe47135a	-0.19440976
130	0x3e0defc0	0.13860989
131	0x3e405191	0.18781115
132	0xbc815381	-0.015786888
133	0xbe7838e6	-0.24240455
134	0x3d964a20	0.07338357
135	0xbedd7817	-0.43255684
136	0x3dea7038	0.11447185
137	0x3d41ce9f	0.04731619
138	0x3efcc595	0.49369493
139	0x3ee86ce2	0.4539557
140	0xbdff2d45	-0.12459806
141	0x3e757aec	0.23972672
142	0xbd662291	-0.05618531
143	0xbf1ce086	-0.61280096
144	0x3de3f975	0.111315645
145	0xbe8e0109	-0.27735165
146	0xbe84aedb	-0.25914654
147	0xbe215acb	-0.15757291
148	0x3e88bcd4	0.26706564
149	0xbe73d37a	-0.2381114
150	0xbdb8abae	-0.0901712
151	0x3d36dde9	0.044645224
152	0x3ca5a0bb	0.020218244
153	0x3d068bf4	0.032848313
154	0x3dd94f1c	0.10610792
155	0xbe3f49d7	-0.18680511
156	0x3db85f26	0.09002523
157	0xbe553498	-0.20820844
158	0x3ca32650	0.01991573
159	0x3db71f6b	0.089415394
160	0xbe846b49	-0.25863102
161	0xbd9c3ff5	-0.07629386
162	0xbebff297	-0.3748977
163	0x3dba5fe5	0.09100322
164	0x3ea55a08	0.3229525
165	0x3e44abe9	0.19206204
166	0x3cb1febe	0.021727916
167	0xbda0a47d	-0.07843874
168	0xbe48b1e4	-0.1959911
169	0x3d66b79c	0.056327447
170	0xbe55c979	-0.20877637
171	0x3e782668	0.24233401
172	0x3eafde13	0.34349117
173	0xbee2fbea	-0.4433282
174	0x3d3e8225	0.046510834
175	0xbe9b4257	-0.3032405
176	0xbe237920	-0.15964174
177	0x3e43c8ed	0.19119616
178	0x3e107b3a	0.14109507
179	0xbe345d48	-0.17613709
180	0x3e14334d	0.14472695
181	0x3e744144	0.23853022
182	0x3c34eb25	0.011042391
183	0x3db0b02c	0.08627352
184	0x3e2e2ff4	0.1701048
185	0x3d88d4e5	0.066812314
186	0xbe43eb27	-0.19132672
187	0x3e12d24c	0.14338034
188	0x3db9407a	0.09045501
189	0x3eac083c	0.33600032
190	0x3e98b3d7	0.29824707
191	0x3c9ee476	0.019396048
192	0xbe476d0a	-0.19475189
193	0x3ed94bbf	0.42440602
194	0x3e1150b1	0.14190938
195	0xbe93f5ba	-0.28898412
196	0x3f04d7bb	0.5189168
197	0x3ddc60e5	0.10760669
198	0xbe795419	-0.24348487
199	0x3f0d86e8	0.55283976
200	0x3ea7d87a	0.32782346
201	0xbeb5473e	-0.35405916
202	0xbf6e90bd	-0.93189603
203	0xbe5a8cc5	-0.21342762
204	0x3eaca505	0.3371965
205	0xbdbcdedf	-0.09222197
206	0xbdb74d8b	-0.08950337
207	0xbe25a774	-0.1617716
208	0x3e97b24b	0.29628214
209	0x3dccb056	0.09994571
210	0xbe5dec95	-0.2167228
211	0xbda9d977	-0.08293431
212	0x3e8ad108	0.27112603
213	0xbdaf743d	-0.085670926
214	0xbe47e7fe	-0.19522092
215	0xbe0209a9	-0.12698998
216	0x3e8266cc	0.25469053
217	0xbe429bbf	-0.19004725
218	0x3f07968f	0.5296411
219	0xbdd4bec9	-0.10387952
220	0x3d9fb827	0.07798796
221	0xbd8473fb	-0.06467434
222	0x3ee6368d	0.44963494
223	0xbbb75761	-0.005595133
224	0xbdcd87a8	-0.1003564
225	0xbd91d5ac	-0.07120833
226	0x3e38f18d	0.18060894
227	0xbd456db2	-0.048200317
228	0x3e0d2bb6	0.13786206
229	0xbe2b5095	-0.16729958
230	0x3e5b5d18	0.21422231
231	0xbd38491e	-0.044991605
232	0xbd0bbcd3	-0.034115624
233	0x3e2a324d	0.1662075
234	0xbee5d2e7	-0.44887468
235	0x3dbbd871	0.09172142
236	0xbd93092e	-0.07179485
237	0xbe6c84f5	-0.23097594
238	0xbe34fcbd	-0.17674537
239	0x3dc0c417	0.09412401
240	0xbe9f3865	-0.31097713
241	0xbdfa25ef	-0.122142665
242	0xbd3fe588	-0.046849757
243	0x3f00a3a5	0.502497
244	0x3cc2ef0e	0.02379563
245	0xbdc59b23	-0.096487306
246	0x3dcd7fe8	0.10034162
247	0x3e904520	0.28177738
248	0x3e02c02b	0.12768619
249	0x3ecfa6fb	0.40557083
250	0xbde168e1	-0.11006332
251	0x3e699d1c	0.22813839
252	0xbd5cb9c3	-0.053888094
253	0xbe909693	-0.2823988
254	0xbf0cce3a	-0.55002177
255	0x3e8e046f	0.27737758

network_body._body_endoder.seq_layers.0.bias f4 [256]
0	0x3e26281a	0.16226235
1	0x3d8cb9a1	0.068713434
2	0x3d2b4edb	0.04182325
3	0x3dc7bea8	0.09753162
4	0x3d8ba2ac	0.068181366
5	0x3db0520b	0.086093985
6	0x3e00246b	0.12513892
7	0x3d882129	0.0664695
8	0x3d2ff41a	0.042957403
9	0x3de98452	0.11402191
10	0x3d4ea724	0.050452366
11	0x3c77589f	0.0150968125
12	0xbcfbee00	-0.030753136
13	0x3d5443ac	0.05182235
14	0x3db885c1	0.090098865
15	0x3d921d34	0.07134476
16	0x3d3d9db7	0.046292987
17	0xbbc4a112	-0.0060006464
18	0x3d5be637	0.053686347
19	0x3e097a7c	0.1342563
20	0x3d3af023	0.04563917
21	0xbbe43349	-0.0069641215
22	0x3d7b0fc4	0.061294332
23	0x3dc1e66d	0.09467778
24	0x3cf658bb	0.030071607
25	0x3d8b21f7	0.06793588
26	0x3d57f918	0.05272779
27	0x3d899890	0.06718552
28	0x3da8ff07	0.082517676
29	0x3dafd2c2	0.08585121
30	0x3c3d5fb7	0.011558465
31	0x3c8e2081	0.017349483
32	0x3d464334	0.048403934
33	0x3e215646	0.15755567
34	0x3d6ba9a3	0.057534825
35	0x3d88d919	0.06682033
36	0x3e307a95	0.17234261
37	0xbcd36536	-0.025805097
38	0x3deb12e8	0.114782155
39	0x3d837347	0.06418472
40	0x3df5cd32	0.120020285
41	0x3df74a33	0.12074699
42	0x3d0553b2	0.03255052
43	0x3d2bb1ed	0.04191773
44	0x3da43e61	0.0801971
45	0xbd7ee1b8	-0.06222698
46	0x3d4af704	0.04955198
47	0x3d75076f	0.059821542
48	0x3d169361	0.036761645
49	0x3d2f0750	0.042731583
50	0x3d266e2e	0.04063242
51	0x3d75ccb1	0.060009662
52	0x3d950117	0.072755985
53	0x3dadf680	0.08494282
54	0x3d9380a3	0.0720227
55	0x3d68294f	0.05668002
56	0x3de4602e	0.11151157
57	0x3d6850af	0.05671757
58	0x3c2102fe	0.009827374
59	0x3c206d3b	0.009791668
60	0x3db401be	0.08789395
61	0x3de48a17	0.11159151
62	0x3d432776	0.047645055
63	0x3dce5e89	0.10076625
64	0x3d087cdc	0.0333222
65	0x3d752491	0.059849326
66	0x3d511b6a	0.051051535
67	0xbc635084	-0.013874177
68	0x3df49878	0.119431436
69	0x3dad066b	0.0844849
70	0x3d77e1ce	0.06051808
71	0x3d9f1248	0.07767159
72	0x3d9612cd	0.07327805
73	0x3e1c1220	0.15241289
74	0x3cb354f2	0.021891091
75	0x3e108c7b	0.14116089
76	0x3d8e1514	0.06937614
77	0x3dd9ac09	0.10628516
78	0x3da6aab0	0.08138025
79	0x3d16b819	0.036796663
80	0x3c96b5a7	0.018397165
81	0x3cf52fb9	0.029929982
82	0x3d418da6	0.047254227
83	0x3dd10980	0.1020689
84	0xbbd64667	-0.0065391543
85	0x3dc18e76	0.094510004
86	0x3e3a6289	0.1820165
87	0x3d58cdfc	0.052930817
88	0x3c5c5383	0.013447645
89	0x3e1e57d1	0.15463187
90	0x3da43cae	0.08019386
91	0x3e014719	0.12624778
92	0x3d1a2cd7	0.03764042
93	0x3cdfa3b8	0.027299747
94	0x3d884694	0.06654087
95	0x3ddc1e9a	0.10748024
96	0x3dc95aed	0.09831796
97	0x3e0f0235	0.13965686
98	0x3df38bbc	0.118918866
99	0x3d61b172	0.055100866
100	0x3d059d97	0.032620993
101	0x3def2c69	0.116783924
102	0x3dbcfc65	0.09227828
103	0x3dbd3eef	0.09240519
104	0x3e1845bc	0.14870352
105	0x3caa158b	0.020762226
106	0x3c8192cc	0.015817069
107	0x3ddce203	0.10785296
108	0x3e1e663f	0.15468691
109	0x3d79df6a	0.06100408
110	0x3cbadf23	0.022811478
111	0x3d5b6626	0.053564213
112	0x3e1233ee	0.14277622
113	0x3d19c7eb	0.037544172
114	0x3e05aeb9	0.13054933
115	0x3d38e680	0.045141697
116	0x3db39fc7	0.087707095
117	0x3d97fb35	0.07420961
118	0x3e1fba3a	0.15598384
119	0x3d943bf1	0.072379954
120	0x3cb78b52	0.0224053
121	0x3dd926d4	0.10603109
122	0x3e2d7450	0.16938901
123	0x3d9cbd69	0.076533146
124	0x3d7ac990	0.06122738
125	0x3ce75869	0.0282404
126	0x3da3af6d	0.07992444
127	0x3d1b7725	0.037955422
128	0x3d2b4481	0.041813377
129	0x3d174479	0.036930535
130	0x3e223e4b	0.15844075
131	0x3dd4a359	0.103827186
132	0x3d28fc26	0.041256092
133	0x3e70bed7	0.235103
134	0x3d986fb3	0.0744318
135	0x3d87835d	0.066168524
136	0x3dd0a7be	0.10188244
137	0x3c646656	0.013940414
138	0x3c776412	0.015099542
139	0x3d51b9de	0.051202647
140	0x3dd1e938	0.10249561
141	0x3cf726e5	0.030169914
142	0x3c3cc26e	0.011520965
143	0x3a5405b3	0.00080880075
144	0x3db4e55a	0.08832808
145	0x3e06422d	0.13111182
146	0xbb95decf	-0.00457368
147	0x3cb14393	0.021638667
148	0x3d3c0b98	0.045909494
149	0x3e08a66d	0.13344736
150	0x3c7d42ba	0.015457803
151	0x3d52c20f	0.0514546
152	0x3e0c17c8	0.13680947
153	0x3db0cdb8	0.08632988
154	0x3de6a903	0.11262705
155	0x3d0937ae	0.033500366
156	0x3daf21be	0.08551358
157	0x3c3ebc29	0.011641541
158	0x3dca79d7	0.0988652
159	0x3dfc3537	0.123148374
160	0x3d69d7ad	0.05709045
161	0x3dcbdcf0	0.0995425
162	0x3cde09ab	0.02710422
163	0x3d6da841	0.058021788
164	0x3d8826f0	0.06648052
165	0x3d6fd6fc	0.058554634
166	0x3ce0df47	0.027450217
167	0x3e0ebc26	0.1393896
168	0x3d6c8b9e	0.057750337
169	0xbd4f7315	-0.05064686
170	0xbd27bbad	-0.040950466
171	0x3d1e7d55	0.038693745
172	0x3d0bb2f8	0.034106225
173	0x3ce496a5	0.027903864
174	0x3d9fe933	0.07808151
175	0x3db602b4	0.08887234
176	0xbca90c2c	-0.020635687
177	0x3da3e44e	0.0800253
178	0x3ddea280	0.10870838
179	0x3d8cfafe	0.068838105
180	0x3d8179af	0.063220374
181	0x3d93812c	0.07202372
182	0x3da61020	0.08108544
183	0x3c77e9a5	0.015131389
184	0x3cca05d8	0.02466099
185	0x3dc26643	0.09492161
186	0x3da87553	0.08225503
187	0x3dc1d52d	0.09464488
188	0x3d8625b7	0.06550162
189	0x3dd6f4eb	0.10495933
190	0x3d42a739	0.047522757
191	0x3d885376	0.06656544
192	0x3d7551a9	0.05989233
193	0x3e2b84d7	0.16749893
194	0x3d8faead	0.07015739
195	0x3d9b9e5b	0.07598563
196	0x3d77bebb	0.06048463
197	0x3defce98	0.117093265
198	0x3dca7d8a	0.09887226
199	0x3d5f3744	0.054496065
200	0x3dc3efd4	0.09567228
201	0x3d32e31c	0.04367362
202	0x3d3b79fa	0.045770623
203	0x3db7d710	0.08976567
204	0x3c941356	0.018075626
205	0x3d1fe98b	0.039041083
206	0x3da1d6c6	0.07902293
207	0x3d5de18a	0.05417017
208	0xbc9865c5	-0.018603215
209	0x3d8fd7bd	0.07023571
210	0x3dd91978	0.10600561
211	0x3beebe96	0.007285903
212	0xbd4cf0e1	-0.050034408
213	0xbbbb453c	-0.0057150405
214	0x3e03360d	0.12813587
215	0x3dbdc5b7	0.09266227
216	0x3da06431	0.0783161
217	0x3d589fd7	0.05288681
218	0x3d7abae4	0.06121339
219	0x3d78bc74	0.060726598
220	0x3cace292	0.02110413
221	0x3d937f07	0.07201963
222	0x3dcbc257	0.09949177
223	0x3ca3df2d	0.02000388
224	0x3d32be5f	0.043638583
225	0x3d24555a	0.04012046
226	0x3e04633c	0.1292848
227	0x3d278af6	0.040904008
228	0x3e287672	0.16451433
229	0x3d4a6438	0.049411982
230	0x3dcccaba	0.099996045
231	0x3d9536d7	0.072858505
232	0x3cce2eec	0.025168858
233	0x3da1375e	0.078718886
234	0xbbbee406	-0.0058255224
235	0x3cf903c8	0.03039731
236	0x3d99eefe	0.07516287
237	0x3dc73764	0.09727362
238	0x3dae19cd	0.08501015
239	0x3d928ffb	0.07156368
240	0x3e067618	0.13130987
241	0x3d305be9	0.043056402
242	0x3dbdeaba	0.09273286
243	0x3cd36197	0.02580337
244	0x3d8c36a9	0.06846363
245	0x3de3c192	0.11120905
246	0x3d97e41f	0.074165575
247	0xbbc04345	-0.005867394
248	0x3e1ea524	0.15492684
249	0x3dc45dbf	0.09588193
250	0xbb77d933	-0.003781867
251	0x3d26e2e3	0.04074372
252	0x3de2cbd9	0.11074037
253	0x3da662a2	0.081242815
254	0x3d1770d2	0.03697283
255	0x3c9c1a43	0.019055491

network_body._body_endoder.seq_layers.2.weight f4 [256, 256]
0	0x3d365d4e	0.044522576
1	0x3d9e3f8d	0.07726965
2	0x3e5ede2f	0.21764444
3	0xbe008b1e	-0.12553069
4	0xbdab5fae	-0.08367859
5	0xbd4b7a01	-0.0496769
6	0x3d09cbed	0.033641744
7	0xbe143fd0	-0.14477468
8	0x3d9a03a6	0.07520227
9	0xbd89389f	-0.06700253
10	0xbdc89887	-0.09794717
11	0x3c16b9c0	0.00919956
12	0x3d2b09c4	0.04175736
13	0xbe038660	-0.12844229
14	0xbd3f4f8a	-0.046706714
15	0x3e18700c	0.14886492
16	0x3db77a40	0.08958864
17	0xbdb3ad18	-0.087732494
18	0x3cabb3b2	0.020959709
19	0x3cf4566e	0.02982637
20	0xbd2afdf3	-0.04174609
21	0xba6e6f84	-0.00090955966
22	0x3cfd322b	0.030907711
23	0x3d17d338	0.03706667
24	0x3cb2b436	0.021814447
25	0x3c9067a4	0.017627545
26	0xbe1ba68c	-0.15200251
27	0x3ca0a722	0.019610945
28	0xbde979df	-0.11400198
29	0xbdf78e21	-0.12087656
30	0xbdfacf3f	-0.1224656
31	0xbc7942a7	-0.015213645
32	0xbcc08b9e	-0.023504075
33	0xbbfe24a1	-0.0077558313
34	0xbe5cf295	-0.21576913
35	0xbd7f3d91	-0.062314574
36	0x3e3015fd	0.17195888
37	0xbd5c6d2c	-0.053815052
38	0xbdec5821	-0.11540247
39	0xbdf6b604	-0.120464355
40	0xbdd65a49	-0.10466439
41	0xbd0b18ff	-0.033959385
42	0xbe0420b4	-0.129031
43	0xbd8bb14e	-0.068209276
44	0xbdda64fc	-0.106637925
45	0xbd3ba9ed	-0.04581635
46	0xbd55e5e8	-0.05222121
47	0xbd00da39	-0.031458113
48	0xbe04efbf	-0.12982081
49	0x3c85352d	0.016260708
50	0xbe07eb9c	-0.13273472
51	0xbe1f884b	-0.15579335
52	0xbde0a965	-0.109698094
53	0xbdea9b3c	-0.1145539
54	0x3d203aa1	0.039118413
55	0xba0aeef1	-0.0005299887
56	0xbdb1f747	-0.086897425
57	0x3c8eaebf	0.01741731
58	0xbd89dcc0	-0.06731558
59	0xbdc7efd6	-0.09762542
60	0xbdcbe284	-0.09955314
61	0x3c15f1be	0.009151874
62	0x3c487ee5	0.012237285
63	0xbd7cba09	-0.061700854
64	0xbe71120f	-0.23542045
65	0xbe0e4150	-0.13892102
66	0x3bf3a8e7	0.007435906
67	0x3d0d196b	0.03444807
68	0xbe033ee6	-0.12816963
69	0x3d20fb12	0.03930194
70	0x3dc1c169	0.09460718
71	0xbd198057	-0.03747591
72	0x3c206ceb	0.009791593
73	0xbda08453	-0.07837739
74	0xbd3a125c	-0.045427665
75	0xbdfb9d43	-0.12285855
76	0xbe046a39	-0.12931146
77	0x3cacbde2	0.021086637
78	0xbd0f3d3e	-0.034970514
79	0x3d7bab44	0.06144263
80	0x3d0c54f6	0.034260713
81	0xbde03d50	-0.109491944
82	0xbd952267	-0.07281952
83	0xbe4685cc	-0.19386977
84	0xbd1772ec	-0.036974832
85	0xbcfec14b	-0.031098029
86	0xbe0d1768	-0.1377846
87	0xbca6f1f4	-0.020379044
88	0x3da1de39	0.07903714
89	0xbd1b2bc0	-0.03788352
90	0x3e67a578	0.22621715
91	0x3db68c85	0.08913521
92	0x3df42ce6	0.11922626
93	0xbe4278e5	-0.1899143
94	0xbe18dfca	-0.14929119
95	0xbe17a29f	-0.14808129
96	0xbda7e75b	-0.081984244
97	0xbc62b930	-0.013838097
98	0xbd05f8a8	-0.03270784
99	0xbd110e45	-0.035414
100	0xbe57cabc	-0.21073431
101	0x3dd06670	0.101757884
102	0xbd950973	-0.07277193
103	0x3d44ac68	0.048015982
104	0x3cbbfc98	0.022947595
105	0xbe3bd371	-0.18342377
106	0xbec80fd0	-0.39074564
107	0xbd45e2a9	-0.048311863
108	0xbb03f612	-0.0020135683
109	0x3e7c1bc4	0.24619967
110	0xbdd15d23	-0.102228425
111	0xbd691ca5	-0.056912083
112	0xbd228cb5	-0.03968497
113	0xbcea6f3f	-0.0286175
114	0xbda4ec4c	-0.080528826
115	0xbc826a57	-0.015919847
116	0x3e00fe65	0.12597044
117	0x3dbe7480	0.09299564
118	0xbd1719c1	-0.036889795
119	0xbdbbd2a6	-0.091710374
120	0xbcaf1856	-0.021373909
121	0xbd733828	-0.059379727
122	0xbd1f406f	-0.038879808
123	0x3e0a7ca3	0.13524108
124	0x3da2c897	0.07948416
125	0xbd55708f	-0.052109297
126	0xbdb3173b	-0.08744665
127	0xbcfbb373	-0.030725216
128	0xbd1c2101	-0.038117412
129	0xbd1aadf5	-0.037763555
130	0xbd431ab3	-0.047632884
131	0x3d49be30	0.049253643
132	0x3b82a3a0	0.003986791
133	0xbe2ca844	-0.16861063
134	0xbcdd1b77	-0.026990635
135	0x3dab0213	0.08350005
136	0xbd9f0238	-0.07764095
137	0xbe032059	-0.12805308
138	0xbd26d011	-0.04072577
139	0xbd0c8f25	-0.0343162
140	0xbd2e2353	-0.042514157
141	0xbe0b35f5	-0.13594802
142	0x3de0a3c5	0.109687366
143	0xbce0bb4c	-0.02743306
144	0x3ccb36d5	0.02480642
145	0xbd5ad7ed	-0.05342858
146	0x3e0885bd	0.13332267
147	0x3dfc355d	0.12314866
148	0xbe385e2f	-0.18004678
149	0xbdb2c76d	-0.08729444
150	0xbdf12612	-0.117748395
151	0xba7a7d6a	-0.00095554313
152	0x3d9c120a	0.07620628
153	0x3c3f0365	0.011658524
154	0x3c7e1591	0.0155080715
155	0x3d3ccce8	0.04609385
156	0xbc2bd994	-0.010488886
157	0xbd2b265b	-0.041784626
158	0xbdb2fd22	-0.087396875
159	0xbd3787c6	-0.044807218
160	0x3d967438	0.07346386
161	0xbc8b8af3	-0.01703403
162	0xbd320c90	-0.04346901
163	0xbbc532df	-0.006018027
164	0xbde4eae9	-0.11177618
165	0xbe14ef53	-0.1454442
166	0x3ca21ffc	0.019790642
167	0xbdcb63a0	-0.09931111
168	0xbdcd0354	-0.100104004
169	0xbdf4ceec	-0.1195353
170	0xbbdbb54e	-0.006704963
171	0x3da655a1	0.08121801
172	0xbd92256f	-0.07136046
173	0xbda071a2	-0.07834174
174	0x3d617f32	0.055052944
175	0xbe4d084c	-0.20022696
176	0x3db5b8e6	0.08873157
177	0xbdd9874f	-0.10621511
178	0xbcb31c2a	-0.021864016
179	0x3df18518	0.11792964
180	0x3d195885	0.037437934
181	0x3d8bfaae	0.06834923
182	0x3d8c578e	0.06852637
183	0xbc8b586b	-0.017009934
184	0xbd514288	-0.05108884
185	0xbd8694fc	-0.06571385
186	0x3e208d57	0.15678917
187	0xbd2eb8d3	-0.04265673
188	0xbc288adf	-0.010287016
189	0x3df86040	0.12127733
190	0xbe5c7489	-0.2152883
191	0x3c3fadb3	0.011699128
192	0xbd3d8456	-0.046268784
193	0x3d9a2fc1	0.075286396
194	0xbdb153db	-0.08658572
195	0xbe67fa0e	-0.22653982
196	0xbd699416	-0.05702599
197	0x3d8a7350	0.06760275
198	0xbd7376b3	-0.059439372
199	0x3bb6974d	0.0055722357
200	0x3de0fb17	0.109853916
201	0x3dbfe065	0.09368972
202	0x3dabe321	0.08392931
203	0xbe6e75a4	-0.23287064
204	0xbda1d237	-0.079014234
205	0xbdd42c7f	-0.103600495
206	0x3c64c6cb	0.013963412
207	0xbe575f4f	-0.21032451
208	0xbe049b57	-0.12949882
209	0xbe167e88	-0.14696705
210	0x3b95d15a	0.004572076
211	0x3ddb877c	0.10719201
212	0xbdf859f4	-0.12126532
213	0x3d41562c	0.04720132
214	0x3d328e0a	0.04359249
215	0xbbf2088e	-0.0073862737
216	0xbe6626d6	-0.22475752
217	0xbdbcbe0a	-0.092159346
218	0xbd9b03b3	-0.07569065
219	0xbbf85a20	-0.007579103
220	0x3e6aa39a	0.22913972
221	0x3d90f55f	0.07078051
222	0x3dc754d1	0.09732974
223	0xbdf46795	-0.11933819
224	0x3dda3ecd	0.106565095
225	0xbde8f181	-0.11374188
226	0x3cb8e8e9	0.022571998
227	0xbddbb5d5	-0.10728041
228	0x3dfc8425	0.12329892
229	0x3d4107d9	0.047126625
230	0xbd2eed5b	-0.04270683
231	0x3dbdd1b5	0.09268514
232	0xbd76521b	-0.060136896
233	0x3c32a447	0.010903425
234	0x3e442389	0.1915418
235	0xbdae3da7	-0.08507853
236	0xbe4e4c73	-0.2014635
237	0x3ccb4216	0.024811786
238	0xbc476dbc	-0.012172159
239	0x3dee2943	0.11628964
240	0xbd5c039f	-0.05371439
241	0xbd222dad	-0.03959434
242	0xb9b9c08f	-0.00035429417
243	0x3d230f77	0.03980967
244	0xbe0d97f6	-0.138275
245	0xbca4566a	-0.020060737
246	0x3cc1ab07	0.023641123
247	0xbd9e4cfe	-0.07729529
248	0xbd2dc8d7	-0.042427864
249	0xbd21b479	-0.039478753
250	0xbdda14fb	-0.10648533
251	0xbbdbad4f	-0.0067040096
252	0xbd961ecd	-0.073300935
253	0x3e12b76c	0.14327782
254	0xbd953cf1	-0.07287014
255	0xbc5a2ec3	-0.013316813

network_body._body_endoder.seq_layers.2.bias f4 [256]
0	0x3c5cfbc8	0.013487764
1	0x3b8aa775	0.004231388
2	0x3cf29777	0.02961324
3	0x3ca7a797	0.020465655
4	0xbcb3bc90	-0.0219405
5	0x3dae46d9	0.08509607
6	0x3c1d3fe5	0.009597753
7	0x3d191da3	0.03738178
8	0x3baa7cee	0.005202881
9	0xbbe1c9c6	-0.0068905083
10	0x3c9b79c1	0.018978955
11	0x3ce38c8a	0.027776975
12	0x3c67bf59	0.014144742
13	0xbc62fc07	-0.013854033
14	0x3d0ccb9b	0.03437386
15	0xbceba2ed	-0.028764213
16	0x3c69141d	0.014225987
17	0x3cc4bdcb	0.024016282
18	0x3cf59864	0.029979892
19	0x3d05d028	0.032669216
20	0xbd2c8886	-0.042122386
21	0xbc520501	-0.012818576
22	0x3d269a76	0.04067465
23	0x3d4ec497	0.05048045
24	0xbcc11c82	-0.023573164
25	0x3cb062e9	0.021531539
26	0x3a2c4ddf	0.0006572883
27	0x3cc3551c	0.023844294
28	0x3d25ae71	0.040449563
29	0x3c8ee187	0.017441524
30	0x3d0b6ed3	0.034041237
31	0x3cf51f4d	0.029922152
32	0x3d1dd714	0.038535193
33	0x3c680ce5	0.014163231
34	0x3c67cd67	0.014148093
35	0xbd0066e1	-0.031348113
36	0x3d3ce73a	0.046118952
37	0xbcc871a3	-0.024468249
38	0xba3df369	-0.0007246049
39	0x3d52446b	0.05133478
40	0xbc2b8f70	-0.01047121
41	0x3d56fd15	0.05248745
42	0x3c2f32e0	0.010693282
43	0xbd9821e9	-0.07428343
44	0x3d673789	0.056449447
45	0x3beae31f	0.007168188
46	0xbc7eaa05	-0.0155434655
47	0xbd198aa2	-0.037485726
48	0x3cecfd40	0.028929353
49	0x3c0f84b8	0.00875967
50	0x3bbf916a	0.005846192
51	0xbda6bce2	-0.08141495
52	0x3a9f05ce	0.0012132467
53	0x3ca0a851	0.01961151
54	0x3d2174d6	0.039418064
55	0x3d1885c1	0.037236933
56	0xbd2cbe36	-0.042173587
57	0x3dc04991	0.09389032
58	0xbb5f0309	-0.0034028909
59	0xbcf9ebe6	-0.030507993
60	0xbd834a35	-0.06410638
61	0x3caea29e	0.021317776
62	0x3d31e25e	0.04342877
63	0xbc4f0638	-0.01263576
64	0x3ccceaf4	0.025014378
65	0xbd29ac22	-0.041423924
66	0xbdbb70e7	-0.09152394
67	0xbd0af7c0	-0.03392768
68	0xbd8ac39b	-0.0677559
69	0xbca8be80	-0.02059865
70	0x3ced5021	0.028968873
71	0xbd3fab28	-0.046794087
72	0x3cd3e9c4	0.025868304
73	0x3c8c022e	0.017090883
74	0xbc35c4b8	-0.011094265
75	0x3d553069	0.05204812
76	0x3cc38f26	0.02387197
77	0xbc796ff6	-0.0152244475
78	0xbc3b2480	-0.0114222765
79	0x3c42581c	0.011861827
80	0x3c6cf2f2	0.01446222
81	0xbd22a364	-0.039706603
82	0xbc6212c8	-0.013798423
83	0xbd258d97	-0.040418234
84	0x3b027fe4	0.0019912655
85	0xbd0d0133	-0.03442497
86	0x3ba74007	0.005104068
87	0x3d4a3bc0	0.04937339
88	0xbd74e9ec	-0.059793398
89	0x3ca83c2c	0.020536505
90	0x3aa812b9	0.0012822963
91	0x3ce82e57	0.028342409
92	0xbcb2436b	-0.021760663
93	0x3c32dffc	0.01091766
94	0xbd9e70c9	-0.07736356
95	0xbcc64c01	-0.024206163
96	0x3bd0058e	0.0063483184
97	0xbc5314c4	-0.012883369
98	0xbc9891b4	-0.018624164
99	0x3d3c82bf	0.046023127
100	0xbcd63fb8	-0.02615343
101	0x3c32c449	0.010911056
102	0x3d825ba3	0.063651346
103	0x3d1bde66	0.038053893
104	0x3c68b4dd	0.014203277
105	0xbcc15369	-0.023599343
106	0x3cd503c2	0.026002768
107	0xbd16a8f2	-0.036782213
108	0x3cbe7f9b	0.023254206
109	0xbcd9fff1	-0.0266113
110	0x3b81181f	0.003939643
111	0xbc929b93	-0.01789645
112	0xbc63d72b	-0.0139062805
113	0xbd9895be	-0.07450436
114	0x3d0caaeb	0.034342688
115	0x3d1e7c01	0.038692478
116	0x3b26ed2c	0.0025470955
117	0x3c6883f9	0.014191621
118	0x3d09748b	0.03355841
119	0x3d096bed	0.03355019
120	0xbc86d896	-0.016460698
121	0x3d3c8ef9	0.046034787
122	0xbd3669ce	-0.044534497
123	0x3c012db3	0.007884431
124	0xbd38a907	-0.045083072
125	0x3cfab5d7	0.030604286
126	0x3c73b140	0.014873803
127	0x3d1ae28f	0.03781372
128	0xbcb6ef9a	-0.022331048
129	0x3d0f6c0b	0.035015147
130	0xbd4bbf90	-0.049743235
131	0x3d89dfc4	0.06732133
132	0x3b06f5b2	0.0020593223
133	0xbb8aba9c	-0.0042336714
134	0xbdb79763	-0.089644216
135	0xbccc3053	-0.024925387
136	0xbd81a08e	-0.063294515
137	0x3d11138e	0.03541904
138	0x3d38a134	0.04507561
139	0xbb30c152	-0.0026970697
140	0xbd3bd55d	-0.045857776
141	0xbd28be39	-0.041197035
142	0xbcf47f07	-0.029845728
143	0x3d3cb070	0.0460667
144	0xbb333404	-0.0027344236
145	0x3d377599	0.044789884
146	0x3a5e0666	0.00084695814
147	0x3aaff140	0.0013423339
148	0xbc9ffe28	-0.01953037
149	0x3b82cced	0.003991714
150	0x3cc9c7a5	0.02463133
151	0xbd33576b	-0.04378454
152	0xbb829e8b	-0.003986185
153	0xbbcbcbcd	-0.0062193633
154	0x3cfdb4e6	0.030970048
155	0xbb2ebc83	-0.0026662655
156	0xbdb00a4f	-0.08595716
157	0x3d001408	0.031269103
158	0xbd4ef818	-0.05052957
159	0xbbf4d01e	-0.0074710986
160	0xbcde60e0	-0.027145803
161	0xbd7d62dd	-0.06186186
162	0xbd5c245b	-0.05374561
163	0xbad08e90	-0.0015911628
164	0x3bc6191a	0.006045473
165	0xbd25bcd2	-0.040463276
166	0xbcbd3de9	-0.02310081
167	0x3cb6af5f	0.02230042
168	0xbc034fdd	-0.008014646
169	0x3c2487db	0.010042156
170	0x3c51b3da	0.012799228
171	0x3ca716ec	0.020396672
172	0xbbb95637	-0.0056560296
173	0x3c3be79a	0.011468792
174	0x3c070bf5	0.008242597
175	0x3c9fe141	0.01951659
176	0x3c4d4808	0.012529381
177	0xbc9f1241	-0.019417884
178	0x3a717f71	0.00092124107
179	0x3d848a0e	0.06471644
180	0x3ccc3bf1	0.024930926
181	0x3b67a7fa	0.0035347925
182	0xbca87b0b	-0.020566484
183	0x3b24a372	0.0025121835
184	0x3cc7d978	0.02439569
185	0xbb46f35b	-0.0030357454
186	0x3cd2d618	0.025736853
187	0x3cfdf840	0.031002164
188	0x3c3cdafd	0.01152682
189	0x3cd83dad	0.026396597
190	0x3b05c9dd	0.002041451
191	0x3c70dd14	0.014701147
192	0x3c66c9ca	0.014086196
193	0x3cbcda34	0.023053266
194	0x3a14b879	0.00056732405
195	0xbd000213	-0.031251978
196	0x3b0a48db	0.0021100554
197	0x3c78a0cb	0.015175055
198	0xbd018174	-0.031617597
199	0x3d7bded2	0.061491795
200	0xbba2860d	-0.0049598278
201	0x3d460b96	0.048350893
202	0xbd37062e	-0.044683628
203	0xbc62beed	-0.013839466
204	0x3c385476	0.011250606
205	0x3ca90dc7	0.020636452
206	0x3ce85bef	0.02836415
207	0xbc9dac04	-0.019247063
208	0x3d11a8ec	0.035561487
209	0x3c236de7	0.009974933
210	0x3d464220	0.048402905
211	0x3d79f581	0.061025146
212	0xbcad74cd	-0.021173859
213	0xbc3d4b55	-0.011553605
214	0x3d8086d8	0.062757194
215	0xbb087500	-0.002082169
216	0xbc8050aa	-0.015663464
217	0x3c9e0837	0.019291027
218	0xbd512a61	-0.051065806
219	0x3cfcce81	0.030860187
220	0x3d3c6df7	0.04600331
221	0xbcb7eb20	-0.022450984
222	0x3d3543a7	0.04425397
223	0x3ad0273f	0.0015880837
224	0x3d1d0104	0.038331047
225	0x3d4a77f2	0.049430795
226	0xbd5142eb	-0.05108921
227	0x3c21b3c9	0.009869524
228	0xbd07c830	-0.033149898
229	0xbc6c967c	-0.014440175
230	0x3c3e61c3	0.011619988
231	0xbd332eef	-0.04374593
232	0x3c51d183	0.012806299
233	0xbd1cf1f2	-0.038316675
234	0x3d0a1bee	0.033718042
235	0x3d35197f	0.044213768
236	0xbb16c698	-0.0023006555
237	0x3ceb413c	0.02871763
238	0xbd16a729	-0.03678051
239	0xbc1d24ee	-0.009591324
240	0xba45811b	-0.0007534192
241	0x3cba9530	0.022776216
242	0x3cc3396e	0.023831096
243	0x3ce07b35	0.0274025
244	0x3c7ec010	0.015548721
245	0xba507990	-0.00079526845
246	0xbc6f7fba	-0.014617855
247	0x3cffc5fd	0.031222338
248	0x3cde1935	0.027111629
249	0xba63d45e	-0.0008691008
250	0xbcd811cd	-0.026375676
251	0x3c829916	0.015942138
252	0x3d0e05dd	0.03467356
253	0x3cb1cd7c	0.021704428
254	0x3cf7f653	0.030268824
255	0x3d91d5c7	0.07120853

action_model._discrete_distribution.branches.0.weight f4 [3, 256]
0	0xbc1a3137	-0.009411148
1	0x3a8e68b0	0.001086494
2	0xbaf5c7cb	-0.001875156
3	0x3e4ea082	0.20178416
4	0x3cb4d02b	0.022071918
5	0xbcd45f62	-0.025924388
6	0x3c554b08	0.013018377
7	0x3b787cc4	0.0037916163
8	0xbd1f3d96	-0.038877092
9	0x3ca42a00	0.020039558
10	0x3c9354b5	0.017984727
11	0x3ca5d777	0.020244343
12	0x3d6ef880	0.058342457
13	0x3b866e2b	0.0041024885
14	0x3d6c7512	0.057728834
15	0xbc872b1b	-0.016500046
16	0x3e2b9eee	0.16759846
17	0xbea2e851	-0.31817868
18	0x3d0b94e1	0.03407753
19	0x3e75edc1	0.24016477
20	0x3d2d68c1	0.04233623
21	0xbc5b25ff	-0.013375758
22	0x3d2ce485	0.04221012
23	0x3c2f0ece	0.010684682
24	0xbd2d7088	-0.042343646
25	0x3ccf04f1	0.025270911
26	0x3ddcd565	0.10782889
27	0x3d4dfdc9	0.050290857
28	0x3d6ff2ea	0.05858127
29	0x3c6d065e	0.01446685
30	0xbd3baaee	-0.045817308
31	0x3ca94553	0.02066294
32	0x3d0001b3	0.03125162
33	0xbd65896c	-0.05603926
34	0x3b000526	0.0019534319
35	0x3b8b7734	0.0042561535
36	0x3da64254	0.0811812
37	0x3dc9a449	0.09845788
38	0x3e19ee95	0.15032418
39	0x3daa8d3c	0.083277196
40	0x3c0ac304	0.008469347
41	0xbf02d26a	-0.51102316
42	0x3dee62f4	0.116399676
43	0x3d669668	0.056295782
44	0xbd13cff7	-0.036087003
45	0x3be182fb	0.006882069
46	0xbc90c5dc	-0.017672472
47	0xbda854e9	-0.0821932
48	0x3c524dfa	0.012835974
49	0x3c1d46d9	0.009599411
50	0xbb1e9bc9	-0.0024201742
51	0x3e5a1b2c	0.21299428
52	0x3c9e5cba	0.019331325
53	0x3d38f802	0.045158394
54	0xbe40c444	-0.1882487
55	0xbc204302	-0.009781601
56	0x3dafcbd5	0.085838
57	0x3d3e7a13	0.046503138
58	0x3c20522d	0.009785217
59	0x3e91f7af	0.2850928
60	0x3e1b6087	0.15173541
61	0x3c822182	0.015885118
62	0x3dde6582	0.10859205
63	0x3d0da4e1	0.03458107
64	0x3c8bf45d	0.017084295
65	0x3dc8be78	0.09801954
66	0x3cfae573	0.030626988
67	0x3dda7adf	0.10667967
68	0xbe579cfb	-0.21055977
69	0x3e5f6962	0.21817544
70	0x3c5340d7	0.012893877
71	0xbdbee6f4	-0.093213946
72	0x3e28da67	0.16489564
73	0x3ccc769c	0.024958901
74	0x3e1340b0	0.14380145
75	0xbd06585c	-0.03279911
76	0x3cb22316	0.021745246
77	0xbe56de92	-0.20983341
78	0xbdb5de91	-0.08880342
79	0x3e22d77c	0.15902513
80	0xbcf54a27	-0.029942585
81	0x3c805428	0.015665129
82	0x3cbeea55	0.023305098
83	0x3d0739e7	0.033014204
84	0xbc27dd3a	-0.010245616
85	0x3df0984c	0.11747798
86	0xbbd9e4aa	-0.0066495733
87	0x3cc46236	0.023972612
88	0x3e547637	0.2074822
89	0xbd7ba5ee	-0.06143754
90	0xbabc9d44	-0.001439013
91	0xbcec261f	-0.028826771
92	0xbdbebea5	-0.09313706
93	0xbd8ecfbf	-0.06973218
94	0x3e5a42bd	0.21314521
95	0xbeb1f60a	-0.34758025
96	0xbd0ca69f	-0.03433859
97	0xbd1bc575	-0.038030107
98	0xbb7b3123	-0.0038328848
99	0x3cdc69ce	0.02690592
100	0x3e7ecd28	0.24882948
101	0x3e40b003	0.18817143
102	0x3d2b8d0a	0.041882552
103	0x3d0ec5b0	0.0348565
104	0x3d1ab83a	0.03777335
105	0xbd7074e8	-0.05870524
106	0x3d492535	0.04910775
107	0x3e359c8a	0.17735496
108	0xbb23462c	-0.0024913652
109	0x3e55f985	0.20895965
110	0x3ca697ca	0.02033605
111	0x3c6966b5	0.014245679
112	0x3d9a97de	0.075484976
113	0x3e4c40b4	0.19946557
114	0xbe4f2457	-0.20228706
115	0xbd171095	-0.03688105
116	0xbe222ae2	-0.15836671
117	0xbcd26853	-0.025684511
118	0xbe6570bd	-0.22406287
119	0x3caca411	0.021074327
120	0x3c991493	0.018686568
121	0x3d564616	0.052312933
122	0xbcb469b1	-0.022023054
123	0x3d55d907	0.052208927
124	0xbcc8e38c	-0.024522565
125	0xbb4fcd8e	-0.0031708214
126	0xbb9a53af	-0.004709683
127	0x3de2cc35	0.11074106
128	0x3d22b6b4	0.03972502
129	0xbcbec007	-0.023284925
130	0x3e2bb8d9	0.16769733
131	0x3d0aea6e	0.033914976
132	0x3da96503	0.082712196
133	0xbc9deef3	-0.019278979
134	0x3e3265e5	0.17421682
135	0xbd73c2a8	-0.05951181
136	0x3e54dfa6	0.2078844
137	0x3cf76c7b	0.030203095
138	0x3e7da251	0.2476895
139	0xbd606631	-0.054784957
140	0x3e69597a	0.22788039
141	0x3e82227c	0.25416934
142	0x3d87fdf9	0.06640238
143	0xbd98a68f	-0.074536435
144	0xbcacb18e	-0.021080758
145	0xbbf8571d	-0.007578744
146	0x3ca5bae9	0.020230727
147	0x3c1ab1eb	0.009441833
148	0x3cfbbcbc	0.030729644
149	0xbcbbe33f	-0.022935508
150	0x3c594b27	0.013262547
151	0x3cf82c72	0.03029463
152	0x3c9feb62	0.019521419
153	0x3e205925	0.15659006
154	0xbd00bbf5	-0.03142925
155	0x3caa013d	0.020752544
156	0x3dcadb60	0.09905124
157	0xbc4ba7a2	-0.0124301035
158	0xbc5dc6cb	-0.0135361655
159	0x3dc7aca5	0.09749726
160	0x3dc3124b	0.095249735
161	0x3d20bc49	0.039242063
162	0x3e8c2c40	0.2737751
163	0xba007936	-0.00049008743
164	0x3b952902	0.0045520077
165	0xbd890d38	-0.066919744
166	0x3daa37dd	0.08311436
167	0x3c2a7bdc	0.010405507
168	0x3d4eaee6	0.050459765
169	0x3cb298c9	0.02180137
170	0xbd2d294c	-0.042275712
171	0xbc808f75	-0.015693406
172	0x3e0a74bf	0.13521098
173	0xbcfba59e	-0.03071862
174	0x3c880822	0.01660544
175	0x3d124ecd	0.03571968
176	0x3ddc023b	0.10742613
177	0xbed338ff	-0.41254422
178	0xba0ba84e	-0.00053275086
179	0xbb88d0f2	-0.004175299
180	0xbb69ff98	-0.0035705324
181	0x3db17935	0.086656965
182	0xbd4473e4	-0.047962084
183	0xbd82de41	-0.06390048
184	0xbd2c9907	-0.042138126
185	0x3e56d03a	0.2097787
186	0xbd8a8e0d	-0.06765375
187	0x3c0d25c4	0.008614961
188	0xbc39194f	-0.011297538
189	0x3c534cfd	0.012896773
190	0xbcf49878	-0.029857859
191	0x3cbe4758	0.023227379
192	0x3e1c1077	0.15240656
193	0xbd8ba1fb	-0.06818005
194	0xbe47657d	-0.19472308
195	0x3ec59680	0.38591385
196	0x392b21e4	0.00016320456
197	0x3d7c2ded	0.061567236
198	0xbe8ec32b	-0.27883276
199	0xbcf1106a	-0.029426772
200	0x3be05c1a	0.006846917
201	0xbeb0c384	-0.34524167
202	0x3d906fb3	0.07052555
203	0x3c8ae031	0.016952606
204	0x3d87839a	0.06616898
205	0xbe3bcaa0	-0.18339014
206	0x3cc0e1a5	0.023545096
207	0x3cf01b56	0.02930991
208	0x3cf90197	0.030396266
209	0x3ca59dbd	0.020216817
210	0xbc9bd456	-0.019022148
211	0xbecf3317	-0.40468666
212	0xbd59f900	-0.05321598
213	0xbcaf1ef7	-0.02137707
214	0xbd3f3c21	-0.046688203
215	0x3c28b7fd	0.0102977725
216	0x3dc79e9d	0.0974705
217	0x3a00b0a6	0.0004909135
218	0x3e4707a1	0.19436504
219	0x3d119e31	0.035551254
220	0xbd11426e	-0.035463743
221	0x3ddcd615	0.107830204
222	0xbd975ddb	-0.073909484
223	0xbb060f82	-0.002045602
224	0x3d21421a	0.03936968
225	0x3ca14f15	0.01969103
226	0xbe07046e	-0.13185284
227	0x3e032e0e	0.12810537
228	0xbce219b4	-0.027600147
229	0xbc95f106	-0.018303405
230	0x3d454efb	0.048171025
231	0x3d1bc9e6	0.038034342
232	0x3cb1c3a9	0.021699743
233	0x3da802fc	0.08203694
234	0x3bc4fbd9	0.006011468
235	0x3d87cdd5	0.06631056
236	0x3d0f0fc8	0.03492716
237	0x3cc8eed7	0.02452795
238	0x3d9b566f	0.07584845
239	0x3c08d192	0.008350747
240	0x3dcf0190	0.1010772
241	0x3c49d639	0.012319141
242	0x3c729848	0.0148068145
243	0x3db30504	0.08741191
244	0x39ada77e	0.00033121923
245	0x3c9dbcaa	0.019255001
246	0xbd874b9f	-0.066062205
247	0x3c7e0e21	0.015506298
248	0xbe48b894	-0.19601661
249	0x3e0548c9	0.13016047
250	0xbe14fe0e	-0.14550039
251	0x3d571b19	0.052516077
252	0xbbdbf93f	-0.006713062
253	0xbe1c1b9b	-0.15244906
254	0x3d457f85	0.048217315
255	0x3cf01609	0.029307382

action_model._discrete_distribution.branches.0.bias f4 [3]
0	0xbb17167a	-0.0023054169
1	0x3cb2c034	0.021820165
2	0xbcfb789a	-0.030697156

action_model._discrete_distribution.branches.1.weight f4 [3, 256]
0	0xbe17a0c4	-0.14807421
1	0x3a27fd25	0.0006408266
2	0x3b99c1a9	0.0046922755
3	0x3d829d2f	0.06377637
4	0x3d96ec1a	0.073692515
5	0x3da966e9	0.08271582
6	0xbc638fb3	-0.013889241
7	0xbc9e3494	-0.01931218
8	0x3dba832c	0.0910705
9	0xbde02caa	-0.10946019
10	0xbc114cd2	-0.008868413
11	0x3d2686bf	0.040655848
12	0xbca4c6a0	-0.020114243
13	0xbb90bebe	-0.0044172695
14	0x3e131f2b	0.14367358
15	0x3b4212e1	0.0029613303
16	0xbd691fc0	-0.056915045
17	0xbe2963a8	-0.16541922
18	0x3c59c457	0.01329144
19	0xbde0c195	-0.10974423
20	0xbb5bac84	-0.0033519575
21	0xbe1e411e	-0.15454528
22	0x3d05ca70	0.032663763
23	0x3cdb4ec5	0.026770959
24	0xbe150fda	-0.14556828
25	0x3d2abfd4	0.041686848
26	0x3d59ef5e	0.053206794
27	0xbcc0d971	-0.023541184
28	0x3c4fa836	0.012674382
29	0x3d26a057	0.040680256
30	0x3c766507	0.015038735
31	0x3cdcf17c	0.026970617
32	0x3c019e75	0.007911314
33	0x3c74452b	0.014909069
34	0x3c1e560c	0.00966407
35	0xbdf203d5	-0.11817137
36	0xbcc27210	-0.02373603
37	0x3a5dfec4	0.0008468444
38	0xbc13e866	-0.009027576
39	0x3dc3272b	0.09528955
40	0xbdcea400	-0.10089874
41	0xbdcce580	-0.10004711
42	0x3dc77ff5	0.09741203
43	0xbe10a07e	-0.14123723
44	0xbca593ef	-0.020212142
45	0x3c87017d	0.016480202
46	0x3ddd415e	0.108034834
47	0x3b9b8271	0.0047457744
48	0x3cdb6d3e	0.02678549
49	0x3c030e31	0.007998989
50	0x3d8b31a7	0.0679658
51	0xbe587474	-0.21138173
52	0x3c7ec0fc	0.015548941
53	0x3cc34e61	0.023841085
54	0xbce9798a	-0.028500337
55	0x3ce651b9	0.02811514
56	0xbdd34374	-0.103156
57	0x3ce12499	0.027483271
58	0x3c66c00f	0.014083876
59	0x3dbe7ced	0.093011715
60	0xbd3161b9	-0.043306086
61	0x3ccb4774	0.024814345
62	0x3c9df173	0.019280171
63	0x3d49c30f	0.049258288
64	0x3cd05180	0.025429487
65	0x3bbf2ae0	0.0058339685
66	0xbd86cac9	-0.06581647
67	0xbd6dd1a2	-0.05806125
68	0xbe934cf4	-0.28769648
69	0xbe2b4cae	-0.1672847
70	0x3ca14c5a	0.019689728
71	0x3d081243	0.03322054
72	0x3dc80eae	0.09768425
73	0x3ca76d56	0.020437878
74	0xbc16aee6	-0.0091969725
75	0x3dc51b48	0.09624344
76	0x3c926ac0	0.017873168
77	0xbdbfca34	-0.09364739
78	0x3cf1ce5b	0.029517343
79	0x3c9b4b84	0.018956907
80	0x3d2c2011	0.04202277
81	0xbdf3efe1	-0.11910988
82	0xbc12afb2	-0.008953022
83	0x3db862eb	0.09003242
84	0xbbdcbd53	-0.0067364364
85	0xbe19fb98	-0.15037382
86	0x3cf11276	0.029427748
87	0x3d4d6afb	0.050150853
88	0xbde59f20	-0.11211991
89	0x3d36cf53	0.044631314
90	0x3cbc31ab	0.022972902
91	0x3c389dd6	0.0112681
92	0xbe189966	-0.14902267
93	0xbe784355	-0.24244435
94	0xbe041240	-0.12897587
95	0xbd5e2d16	-0.054242216
96	0xbc4f6b3d	-0.012659845
97	0xbe04e91c	-0.12979549
98	0xbb4801c1	-0.0030518624
99	0x3b2e2a29	0.0026575422
100	0xbe10da27	-0.14145719
101	0xbe332e78	-0.17498195
102	0x3c51aeab	0.012797992
103	0x3d836a59	0.064167686
104	0x3bacd496	0.0052743657
105	0xbe9ef9c0	-0.3104992
106	0x3ca57581	0.020197632
107	0xbd8543d2	-0.06507076
108	0x3cba00b2	0.02270541
109	0xbda33c85	-0.079705276
110	0xbe119be5	-0.14219625
111	0x3a8034de	0.0009781381
112	0xbcfdb004	-0.03096772
113	0xbe4c4433	-0.19947891
114	0xbe8671d8	-0.2625873
115	0x3cf0323a	0.029320825
116	0xbe0f02fd	-0.13965984
117	0x3c1cb11f	0.009563713
118	0x3de1cf45	0.11025862
119	0x3c17eb7f	0.009272455
120	0xbdb5d547	-0.0887857
121	0x3c8c1d83	0.017103916
122	0xbe1b3ffd	-0.15161128
123	0xbc88a653	-0.016680872
124	0xbc50ef9a	-0.012752438
125	0x3bd6b879	0.0065527526
126	0x3d1e3b7f	0.03863096
127	0x3cfd8d91	0.030951293
128	0xbc34640e	-0.011010183
129	0x3b2c6e3f	0.002631083
130	0xbd2cdc82	-0.04220248
131	0x3d227570	0.03966278
132	0xbd71a36e	-0.05899375
133	0x3d0b0c6f	0.033947404
134	0xbde41ad9	-0.11137933
135	0x3ccc3b33	0.024930572
136	0xbdfbbd3e	-0.122919545
137	0x3d179a07	0.037012126
138	0xbda7d07c	-0.08194062
139	0x3c0317c9	0.008001276
140	0xbddec0b3	-0.10876598
141	0xbdd93e52	-0.1060759
142	0xbdd4e3e2	-0.10395028
143	0x3c8ceed1	0.01720372
144	0x3cf76097	0.030197425
145	0x3d23b033	0.03996296
146	0x3c875d19	0.016523885
147	0x3bc5bbb8	0.0060343407
148	0xbd66161a	-0.05617342
149	0x3ca4c6dd	0.020114357
150	0x3d447d31	0.047970954
151	0xbcfa5db4	-0.03056226
152	0xbb6f2a26	-0.0036493628
153	0xbc05dc30	-0.008170173
154	0x3d0c4456	0.034244858
155	0xbb019108	-0.0019770283
156	0xbdf3b80e	-0.1190034
157	0x3d362725	0.044470925
158	0x3dab8b84	0.0837622
159	0x3dc3dba4	0.095633775
160	0xbe30c44c	-0.17262381
161	0x3d392bd7	0.045207825
162	0xbd9e9a7d	-0.0774431
163	0x3d0d5d05	0.03451254
164	0x3cab8830	0.020938963
165	0xbc77287e	-0.015085338
166	0xbcb9139c	-0.022592358
167	0x3ba89c8c	0.005145615
168	0x3ceb0edf	0.028693615
169	0x3d0e7d25	0.034787316
170	0xbdd281b4	-0.10278645
171	0x3d1de7e5	0.03855123
172	0xbdeafa20	-0.11473489
173	0xbd09a16b	-0.033601206
174	0x3c487ecd	0.012237263
175	0x3c6511e4	0.013981316
176	0xbc556b4d	-0.013026071
177	0xbb6485e6	-0.0034869849
178	0x3c6d09c2	0.0144676585
179	0x3d6046f1	0.054755155
180	0x3cdadfe0	0.02671808
181	0x3db112b7	0.08646148
182	0x3c7d0b69	0.015444615
183	0x3b8a9caf	0.004230104
184	0xbc687957	-0.014189086
185	0xba4670ae	-0.0007569891
186	0xbced2aed	-0.028951133
187	0x3d09aa34	0.033609584
188	0x3ca12ff9	0.019676195
189	0x3c88420d	0.016633058
190	0xbda12f58	-0.07870358
191	0x3becbfd7	0.0072250175
192	0xbdea1f9d	-0.11431811
193	0xbca008c0	-0.019535422
194	0xbd85f753	-0.06541314
195	0x3c42c9e7	0.011888958
196	0xbc51dbd7	-0.012808762
197	0xbdbd43bf	-0.09241437
198	0xbcfe1a76	-0.031018477
199	0x3d3af40c	0.045642897
200	0x3ce2adc7	0.027670754
201	0xbe0c6e87	-0.13714038
202	0xbcccfa94	-0.025021829
203	0x3c8ec266	0.01742668
204	0x3d21afd3	0.03947432
205	0x3ac32160	0.0014887266
206	0x3cb5760b	0.022151014
207	0x3d29974d	0.041404057
208	0xbc538f62	-0.012912603
209	0x3d135fb2	0.035979934
210	0x3cb97082	0.022636656
211	0xbe57068a	-0.20998588
212	0x3ae2c10e	0.0017299966
213	0x3cea4d33	0.028601265
214	0x3db822e1	0.089910276
215	0x3d076abf	0.033060785
216	0x3b0ae2e8	0.0021192376
217	0x3cba7762	0.022762004
218	0xbda306ce	-0.07960282
219	0x3ca9fb8a	0.020749826
220	0x3ce4938a	0.027902383
221	0xbdafd1f8	-0.0858497
222	0xbe5df508	-0.21675503
223	0x3cbd2513	0.023088967
224	0x3cecfb7a	0.028928507
225	0x3cabc132	0.020966146
226	0x3d9719ac	0.073779434
227	0xbe61b4ae	-0.2204158
228	0xbbdf71f0	-0.0068190023
229	0x3dae62a0	0.08514905
230	0x3b8fddf5	0.004390473
231	0xbda44692	-0.08021273
232	0x3af49b9f	0.0018662101
233	0xbcfd3362	-0.03090829
234	0x3bc6034f	0.006042875
235	0x3d14f4cd	0.036366273
236	0xbccca591	-0.024981292
237	0xbb4d947e	-0.0031369026
238	0x3c5946a7	0.013261474
239	0x3c19e1e8	0.009392239
240	0x3c89483d	0.016758079
241	0x3b90db37	0.0044206637
242	0x3c6269eb	0.013819198
243	0xbc12a657	-0.008950791
244	0x3baed795	0.005335758
245	0xbe08dc4f	-0.13365291
246	0x3cf33213	0.029686963
247	0x3d0b6dca	0.03404025
248	0xbb17734d	-0.0023109496
249	0xbdd12b6e	-0.10213362
250	0xbe33d500	-0.17561722
251	0x3cdfa67c	0.027301066
252	0x3d47292b	0.048623245
253	0xbc7de442	-0.015496315
254	0x3c6cf8ea	0.014463643
255	0x3d8be048	0.06829888

action_model._discrete_distribution.branches.1.bias f4 [3]
0	0x3d36d1b3	0.04463358
1	0xbd2b3db8	-0.041806906
2	0xbd515e86	-0.051115535

onnx::Div_78 f4 [28]
0	0x3ea9bd2b	0.33152136
1	0x3eaa0633	0.33207855
2	0x3cb611b7	0.022225244
3	0x3e3273a4	0.17426926
4	0x3eb3e7da	0.35137826
5	0x3eb426cc	0.3518585
6	0x3cb27926	0.021786284
7	0x3e32d582	0.1746426
8	0x3ebcc580	0.3686943
9	0x3ebd02d6	0.36916226
10	0x3cb93504	0.022608288
11	0x3e48beb3	0.19603996
12	0x3ef5e407	0.48025534
13	0x3ef5f73c	0.48040187
14	0x3cb86d80	0.022513151
15	0x3e26f2ad	0.16303511
16	0x3efdb624	0.49553025
17	0x3efdbed2	0.49559647
18	0x3cb611b7	0.022225244
19	0x3e48e85d	0.1961989
20	0x3ef7b75f	0.4838209
21	0x3ef790d9	0.48352697
22	0x3d091a32	0.033472247
23	0x3e1e78ee	0.15475819
24	0x3ee6386f	0.4496493
25	0x3ee61943	0.44941148
26	0x3cb4e0e7	0.022079898
27	0x3e37e32e	0.17957756
