results/Racing_Imitation5/Driver/Driver-75025.onnx (onnx, 305142 bytes, 11 tensors)

discrete_act_size_vector f4 [1, 2]
00000000: 0000 4040 0000 4040
3.0 3.0

network_body.observation_encoder.processors.0.normalizer.running_mean f4 [28]
00000000: 97a9 533e bb14 4b3f 0000 0000 b8a2 853e
00000010: b3b8 b23e c8a2 263f 0000 0000 6130 773e
00000020: 9f4c 593e f7a4 493f 5b9e df38 c77e 933e
00000030: 27bd 073f 2245 f03e 2b92 fb39 8bd0 753e
00000040: 73b4 b13e ee24 273f 0000 0000 d1aa aa3e
00000050: 4764 4a3f c88b 553e 5c9e 5f3a d2a6 863e
00000060: 2f32 163f e899 d33e 0000 0000 2789 b83e
0.20670162 0.7932851 0.0 0.26100707 0.3490654 0.65092134 0.0 0.24139549
0.21220635 0.7876734 0.000106629646 0.2880766 0.53023 0.46927744 0.00047983354 0.24005334
0.34707984 0.65290725 0.0 0.33333448 0.7905926 0.20854104 0.0008530372 0.2629915
0.58670324 0.4132836 0.0 0.3604214

network_body._body_endoder.seq_layers.0.weight f4 [256, 29]
00000000: acec 37bd 4342 0cbc ca42 b6bd c3a1 0b3e
00000010: 453a bfbd e59a 7a3e 557c acbd d591 84bd
00000020: c061 e83d 7067 cb3d 7aec 91bc 9aa6 203e
00000030: 19d9 05be 23a2 fa3e c9d2 ea3e e2ec 843e
00000040: 70d7 303d b12a d33d 716f 073e 937f 82be
00000050: 7927 d8bd e38d 873e c8d8 29bd 9fe3 f1be
00000060: 4911 b13e 918f 3e3e fbef 103e 0e2f 813e
00000070: bf90 ce3c d272 62bd 6ce3 22be 1cb0 0cbe
00000080: 5303 9dbe f323 26be 29df 22bd 1c3c 3d3e
00000090: c9a8 6d3e c2c8 e43d 4128 353d 388b a0be
000000a0: ef68 42bd 8298 cabe d38b be3e 76ac 003e
000000b0: de56 b63d ccd0 913e f420 cbbe 9fc2 95be
000000c0: 99d9 03be 5743 76be 9a76 283d 8a80 22bd
000000d0: 81ea 4b3d 0000 7b3e 8506 d0be 54e8 86be
000000e0: 06fd fa3d e76a 223e bb80 ec3d ae0d 10be
000000f0: 5d54 cbbd fbe3 183d 913a 1dbe a134 cabe
00000100: aa3d 5cbe b58e 973e 9a6c 0d3e 69ef ab3d
00000110: 0adb 333d 18a1 eb3d 0cbd 043b 0207 933e
00000120: 7fc6 d93b 1a05 753e 6c6d 4d3e 65c6 2fbd
00000130: c7d0 eb3d 63d3 0bbe 0e34 56be 0218 c63d
00000140: 17bd 29bd bc02 1e3e cc6a aabe b954 243e
00000150: 17c8 b0bb 6402 27be eb13 373e f800 d1bc
00000160: 9415 efbd 4e2b 1abe 6dad b93e d354 f7be
00000170: b877 64be 8f9d 6ebd c085 06be aff4 053f
00000180: 32b9 dd3d 01fc 5ebe 8421 133e 8b78 e93d
00000190: 73dd 383e 0168 633e 0517 a53e 60ca 803e
000001a0: c3c8 01be 1a76 ddbe 0ef5 cf3d e29a 04be
000001b0: f163 8cbe 268f e43d 26cd a0be 9513 803d
000001c0: 1766 66be b46e fbbd 7404 bb3d 057c 6bbe
000001d0: c1b1 dbbd f072 843b 5662 2a3e 06c6 89be
000001e0: 5c18 9cbe 2e75 743e eb85 4dbe 6a6c 0f3d
000001f0: 1357 413e e9c8 4dbd 8d36 c3be 0bce fc3d
00000200: bcc4 f83c 07bf c33d 457d 573d da03 ef3d
00000210: 0df5 b93e ca97 053e f6a9 f53b a914 66be
00000220: 78f7 683e a4dd a63c 7044 3cbe d6d3 69be
00000230: 802b 59be 2428 ab3e d492 473e 038f 153e
00000240: 3567 013d 3f88 103e ef03 96bb 58f5 a8be
00000250: 5605 e03e effe 8fbc 77b5 313e 9a00 0bbd
00000260: 071c e63d d58d aabe 4f0b f8bd 3137 873e
00000270: f807 993e 9cef cb3e 0861 0e3e f619 89bd
00000280: baa3 13bc 46ce 893e 501a 473d 353f b43e
00000290: f64c 53bd 5e07 9b3b 5d22 853d 05ae 003f
000002a0: 6268 69bd c6f5 b83b 9e83 5fbe 0a55 1a3e
000002b0: 841f 80bd 7d48 553b c2a8 61be bddd 303e
000002c0: 6f0e 31be 500e 25be 5483 1fbe 21de 4d3e
000002d0: 503e 2cbe 36c1 893d 569f 94be d0f2 d13d
000002e0: 2fa5 5e3e f826 94bd b93b 903e 0d74 25be
000002f0: f456 eb3e aafd e4bc 54e7 a5be 0778 ca3d
00000300: b031 47bd fcc8 893e e419 c53e 47d0 85bd
00000310: cf92 2f3d 2420 64be c3c1 e43d 3ce7 6dbe
00000320: dc71 6e3e 8818 383e 8c21 36be d745 cdbd
00000330: 30fd b3bd 2235 0f3e 76b9 933d c564 643d
00000340: 833d 573e 0410 b93e 6537 98bd 8e1f 753d
00000350: 0c8f c63e ee50 063e 14f5 c2bd 812c 6cbd
00000360: 5f61 ecbd f0cf 3d3e 1c90 413e 96f0 54be
00000370: 36eb 5b3c 4ed8 b3bd bca4 1f3e 0c2f 1ebc
00000380: c89f 02be 3ef1 34be e078 99be 094a 383d
00000390: 92ca 603e ff32 9d3d fa03 d03d fba4 233e
000003a0: 6ec6 97be 40fb ac3d ed86 183e 89e4 80bd
000003b0: ad5f 043e bed5 13be a874 dabb b741 6b3e
000003c0: 7c38 d5bc 5c2a 2d3e 8d21 813e d350 193e
000003d0: 7a53 013d 2d8d 8a3c b738 6cbe cb21 81bd
000003e0: cb02 b13e 5a21 f2bd 8e0d 443d e1aa 89be
000003f0: 00be 723d a326 003e cebb aa3c f6f1 bfbb
-0.044903442 -0.00856072 -0.08899458 0.13635926 -0.09337286 0.2447315 -0.08422152 -0.06473128
0.11346769 0.099318385 -0.017812956 0.15688553 -0.13071097 0.48951825 0.4586394 0.25961977
0.043174207 0.10310877 0.13226105 -0.25487956 -0.10554404 0.26475438 -0.041466504 -0.47243974
0.345835 0.18609454 0.14154045 0.25231212 0.025215505 -0.055285282 -0.15907067 -0.13739055
-0.306666 -0.16224651 -0.039763603 0.18479961 0.23208918 0.11171104 0.044227842 -0.31356215
-0.047463354 -0.3956948 0.37216052 0.12565789 0.08903287 0.28479612 -0.3967358 -0.29250047
-0.12875976 -0.24049126 0.041128732 -0.039673366 0.049784187 0.24511719 -0.40629974 -0.26349127
0.12255292 0.15861093 0.11547991 -0.14067718 -0.099282004 0.037326794 -0.15354373 -0.39493278
-0.21507898 0.29601064 0.1381096 0.08395273 0.043910064 0.115053356 0.0020254282 0.28716284
0.006645977 0.23927727 0.20061272 -0.042913813 0.115144305 -0.13654856 -0.20918295 0.09672548
-0.041440096 0.1543073 -0.33284605 0.16047944 -0.0053949463 -0.16309506 0.17878692 -0.025513157
-0.116740376 -0.15055582 0.36265126 -0.48306903 -0.22311294 -0.05825573 -0.13136959 0.5232648
0.10826339 -0.2177582 0.14368254 0.11399945 0.18053226 0.22207643 0.32244125 0.251544
-0.12674241 -0.43254167 0.10154162 -0.12949708 -0.2742 0.11160116 -0.31406516 0.06253735
-0.22499882 -0.12276974 0.09131709 -0.22996528 -0.10727263 0.004042022 0.16639075 -0.26908892
-0.30487335 0.23872826 -0.20070617 0.0350155 0.18880872 -0.05024043 -0.38127556 0.12343987
0.030367248 0.0955792 0.0526097 0.116706565 0.3631977 0.13046184 0.0074970676 -0.22468819
0.22750652 0.020369358 -0.18385482 -0.22834715 -0.21208 0.33429062 0.19489604 0.14605336
0.031592567 0.14114474 -0.0045781056 -0.32999682 0.4375407 -0.017577616 0.1735438 -0.03393612
0.112358145 -0.33311334 -0.12111532 0.26409295 0.29888892 0.39831245 0.13904202 -0.06694405
-0.009011203 0.26915187 0.048609078 0.35204473 -0.051587068 0.004731103 0.06500695 0.5026553
-0.056984313 0.005644533 -0.21827552 0.15071502 -0.06256011 0.0032544427 -0.22037032 0.17272086
-0.17290662 -0.16118741 -0.15577441 0.20104267 -0.16820645 0.06726305 -0.29027814 0.10251391
0.217427 -0.07233995 0.28170565 -0.16157551 0.45964777 -0.027952988 -0.32403052 0.09886175
-0.04863137 0.2691115 0.38496315 -0.065338664 0.042864617 -0.22277886 0.111697696 -0.2323274
0.23285621 0.17978108 -0.17786235 -0.100230865 -0.08788526 0.13985112 0.07213108 0.055760164
0.21019559 0.3614503 -0.07432441 0.059844546 0.3878101 0.1311681 -0.09519401 -0.05765963
-0.115420096 0.18536353 0.1890263 -0.20794901 0.013422778 -0.08781491 0.15590185 -0.009654772
-0.12756264 -0.17670152 -0.29975033 0.04499248 0.21952274 0.07675742 0.101570085 0.15980904
-0.29643577 0.0844636 0.1489522 -0.062935896 0.12927122 -0.14437005 -0.0066667385 0.22974287
-0.02602791 0.1691069 0.2522091 0.14972238 0.03157375 0.016913021 -0.2306851 -0.063052736
0.34572443 -0.118227676 0.04786449 -0.26888183 0.05926323 0.12514739 0.020841505 -0.0058577014

network_body._body_endoder.seq_layers.0.bias f4 [256]
00000000: 3f5f 8c3d 73cf b33d c257 9dbc d3dd 9f3d
00000010: af02 553d 591c 683d ce73 663d d846 a53d
00000020: 098a b23c b846 b0bb c8a8 4d3d 99c5 dd3c
00000030: 8575 a93c c031 643d 07c9 803c 5229 053d
00000040: 1049 8f3d c14b 513d 38ab 503d bf62 013e
00000050: 7c84 df3d 455b b53d cf20 a43d 2d73 a83d
00000060: 2c40 883d d5ad 13bd 2ee4 b23c b658 743d
00000070: 18e6 09bd 8d90 b23c a4a7 973d a25f 583c
00000080: 9c29 e93c 2823 e2bc c0df cd3d 335c d9bb
00000090: 9372 7d3d b0e8 a03d 1551 b03d e9c2 6c3d
000000a0: e764 5c3d 9ff9 863d c1a8 133d 0beb 813d
000000b0: d748 c63d c1b4 bf3d 65b8 1c3d 52b0 853d
000000c0: 53fb 533d 627d ba3d 50aa 743d 1338 193d
000000d0: 26fb b83d 8e2a 10bd b2fb 583d 15c3 983d
000000e0: 2c6f ca3d cd10 943d 04dd 7e3d 179c 7c3d
000000f0: c139 8a3d bdeb c13d d39d 82bd 9a5a 453d
00000100: 0da8 a83d 6745 b33d d10d 8d3d 33ca a93d
00000110: 5f6a a33b f694 943d 9219 be3c 2053 4a3d
00000120: b8e1 8f3d ba00 033d fd7a 753d 320e d93d
00000130: 2e11 28bc f6b1 713d c19a 803d 1ec5 3d3d
00000140: 8a78 933d a55c 883d 52cf febc 4f29 173d
00000150: 7333 633d c78e 5c3d 64ee 8d3d 3116 8a3d
00000160: 2442 a4bd 75d8 b4bc 086e b93d 0caf a73d
00000170: 36c3 683d 57f3 273d bd75 9f3b 83e7 fd3c
00000180: e9a6 a73c c49e b73d 9db7 8c3d 33f9 0a3d
00000190: e7ca a23d b066 563d e40c c83c 6a0b 703d
000001a0: 6de2 6f3d bf97 8c3d 7f47 2a3d 7285 863d
000001b0: e2a2 823d 4a86 bc3c e4e9 15bd c4ce 553d
000001c0: f6c0 0e3d f878 ae3d a2d4 f0bb 75c1 bc3d
000001d0: 4561 22bc 1547 a3bc 83fe 5f3d 7756 a53d
000001e0: df6d 9d3d 7eff 6e3c f835 4c3c 4858 b03d
000001f0: dd75 703d 48b6 57bd c621 973d 354a 65bd
00000200: f221 e73c 70a7 b23d 99b6 4d3d 92ba af3d
00000210: 4dc2 253d 8844 df3d d8a5 583d 09af 943d
00000220: e07b 1d3d a800 07bc 469a 823d df30 f33c
00000230: 805b 913d 09ff 983d ecaa a43d 5add 7d3d
00000240: 9b96 143d 8b73 853d f75b 253d 1ff9 393d
00000250: 2a7a b33d 788c bb3b 12d2 ec3d 2e0b 8d3d
00000260: b1ea af3d 36f5 3b3d 9718 59bd c93b 463d
00000270: 79c6 993c da01 763d 15a1 c13d bc60 8d3d
00000280: 24ec 273d 417f a73d d4bd 813d 80cd 933d
00000290: 27ec 2d3d 3ebc 593d 5360 913d d786 143d
000002a0: ca60 383d 7d06 7f3d 909d 963d 05b4 773d
000002b0: 875b 933d e724 923d eea0 723d ff49 7b3d
000002c0: 641b c93d 699a 443d 59b2 833d a3fc 813d
000002d0: 8a91 533d c096 733d b8c0 6e3d 9dda 873d
000002e0: 9727 943d ba19 c63d 90c6 693d 25aa 563d
000002f0: f16e aabd 0c4c b23d c9c3 893d 8cdd 1cbd
00000300: d6ee 903d 7db8 50bd e822 5c3d b7db c23d
00000310: d32e bb3d a964 783d 7fdf 8c3d 4c66 753d
00000320: ad1b 903d e703 003d 656c 993d a784 893d
00000330: a8d7 803d 44cf d23c 9279 df3d dcc8 5f3d
00000340: 549f 423d 1c3d 9d3d 900e 47bc d82d 9c3d
00000350: 1b1c ab3d 5d79 22bc 14f8 793d daff 7ebc
00000360: 5eb8 913d 450d 903d cf80 8dbd ed79 a33d
00000370: 7456 9f3b f99b 6a3d e0dd 503d 4532 003d
00000380: f83f 26bd 09d3 a63d af9f 6a3d ad7d 973d
00000390: 44c6 3c3d 47c7 1f3d d847 0bbd 924f 953d
000003a0: f820 b03d 2e64 963d bbb2 973d 2bf0 523d
000003b0: 0ec9 f73d dc30 d7bc c026 85bc 8d87 eb3c
000003c0: b9f8 5c3d 4b8f 313d c8a4 d4bc c9e1 803d
000003d0: 008e 823d 4bab 933d aee6 5c3d 730a 833d
000003e0: b017 fc3d fb31 b93d 97ce 47bd 3285 8f3d
000003f0: d9de 713d d465 a53d f105 81bc 6d6a 483d
0.06854104 0.08779802 -0.019206885 0.078059815 0.052004512 0.05666766 0.056262784 0.08070153
0.021794336 -0.005379524 0.05020979 0.027071761 0.02068592 0.055711508 0.015720857 0.03251011
0.069963574 0.051097635 0.050944537 0.12635325 0.10913941 0.08855299 0.0801407 0.08225093
0.06652865 -0.03605445 0.02183732 0.059654914 -0.0336667 0.021797443 0.07405022 0.013206394
0.028462224 -0.027604654 0.100524426 -0.0066333055 0.061876845 0.078568816 0.08609215 0.05780307
0.053807165 0.0659058 0.03604961 0.06343659 0.09681862 0.09360648 0.03826179 0.06527771
0.051753353 0.09105946 0.059732735 0.037406992 0.09032278 -0.035196833 0.05297441 0.07459084
0.098844856 0.07229767 0.062222496 0.061672296 0.06749297 0.09468792 -0.06377759 0.048182108
0.08235178 0.08753472 0.06887401 0.082905196 0.0049870457 0.072549745 0.023205552 0.04939568
0.07025474 0.031983115 0.059931744 0.10598411 -0.010258002 0.059007607 0.06279517 0.046330564
0.072007254 0.066582955 -0.031104717 0.03690463 0.055468988 0.0538471 0.06930235 0.06742514
-0.08020428 -0.022075871 0.0905419 0.081876844 0.056826793 0.04100355 0.0048663304 0.030994182
0.020465331 0.08965829 0.06870959 0.03392906 0.07948857 0.052344024 0.02442021 0.058604635
0.058565546 0.06864881 0.04157209 0.065684214 0.06378724 0.023013253 -0.03660001 0.05219914
0.03485199 0.08519167 -0.0073495666 0.092165865 -0.009910886 -0.019931355 0.05468608 0.080731325
0.07686972 0.014587281 0.012464039 0.08610588 0.058706153 -0.05266407 0.07379489 -0.055978972
0.028214429 0.087233424 0.050222967 0.08580507 0.040468503 0.10901743 0.052892536 0.07259948
0.038448215 -0.008239903 0.063770816 0.02968639 0.0709753 0.07470519 0.08040413 0.061978675
0.03627644 0.06516179 0.040370908 0.045403596 0.08763535 0.0057235323 0.11563505 0.06886898
0.08589686 0.04588815 -0.053001966 0.04839686 0.018771397 0.06006036 0.09454552 0.06903216
0.040996686 0.08178569 0.06335035 0.072169304 0.04246154 0.053158037 0.070984505 0.036261406
0.04501418 0.062262047 0.073542714 0.060474414 0.07195192 0.07135945 0.059235506 0.061349865
0.098196775 0.04799882 0.064305015 0.06347015 0.05165247 0.05946994 0.05828926 0.06633494
0.07234114 0.09672876 0.05707413 0.052408356 -0.08321942 0.08705911 0.06726796 -0.03829722
0.07076804 -0.05095719 0.053744227 0.095145635 0.091397904 0.060642872 0.06878566 0.05991201
0.07036529 0.03125372 0.07491378 0.067147546 0.06291133 0.025733598 0.109118596 0.054634914
0.04751523 0.07677671 -0.012149468 0.076259315 0.0835497 -0.009916631 0.0610276 -0.015563929
0.071152434 0.07033781 -0.06909334 0.0798224 0.004862601 0.057277653 0.050992846 0.03129794
-0.04058835 0.081457205 0.057281192 0.07397018 0.04608752 0.039008405 -0.034004062 0.072905675
0.08600038 0.073433265 0.07407137 0.051498573 0.12098895 -0.026268415 -0.016253829 0.02875116
0.053948138 0.043349545 -0.02595748 0.06293065 0.063747406 0.07210406 0.05393093 0.063984774
0.123092055 0.09042736 -0.048781004 0.07007827 0.059050415 0.08076063 -0.015749903 0.04892962

network_body._body_endoder.seq_layers.2.weight f4 [256, 256]
00000000: 7cdc a3bd ee14 acbc 79b6 68bd 7d35 dabd
00000010: 4604 033a 3638 5bbd 4d3d 623d d458 dfbd
00000020: f1fb 2fbd e1e0 9dbd 9bfa 66bc 42dc a3bd
00000030: 93c0 08bb cd47 703d 1991 2bbd cdd8 703d
00000040: d902 9abd f635 93bd 39a8 d73c 80e6 12bd
00000050: 17f2 1abd 7b73 b1bd 4f57 333d 3c8e 733c
00000060: ec3c 14bd 0e96 853d c048 a3bd 6403 ddbc
00000070: 0b3e c93d 61a6 4ebc 66de c9bd 679b 51bd
00000080: 1257 843d e544 f43c d97b ec3d 7aad 373d
00000090: 5701 89bd 0a7c f8bb 0638 12be 0389 8c3d
000000a0: 7ea9 b0bd 6fa7 debd 327d eabb df56 9abd
000000b0: 5415 1a3b 81c1 2eb8 595d bf3c 7a88 b0bd
000000c0: 0750 a9bd 5d4f 083c c628 5c3d 3c69 1ebe
000000d0: 03c5 b2bb 98ec 793d f465 3d3d 489a 41bd
000000e0: cdba babd d9d6 e7bd b896 57bc 8446 dd3d
000000f0: 7ad5 983b 82f3 c1bd 2712 123c b91b 96bd
00000100: 4516 94bd f08c 11be b748 d7bc cb9c 8abc
00000110: c21e 6e3b 9ad0 3bbd 7a62 d23d fc7b 33bd
00000120: 75f2 98bd be13 243d 514d 87bc 1b41 2ebd
00000130: 1451 03bd 0337 08be 3ad6 e53d ebc2 763d
00000140: 7a58 bdbd 8bd3 023d eb85 013d d0e3 a4bd
00000150: 5560 88bd 61b3 ca3d d93d 213d 309d 4e3d
00000160: 61d5 d9bb e245 683d 30d7 87bd aa2c 74bd
00000170: 7719 9b3c 0321 c43c c73d ea3d 104e 8bbd
00000180: c49f 83bd 0c86 a63d 6d95 c73c 965f 83bd
00000190: d2d1 e9bc 6f2b d6bc 0238 49bc a7a8 f1bd
000001a0: a459 8d3d 757e a0bd 0793 94bd a623 4dbd
000001b0: 5acd 583b 470a 14be 7b32 4f3d 4042 6cbd
000001c0: 7d6c 62bd 7a68 8bbd f8b9 033d 5729 5b3d
000001d0: 1e04 f83a 6955 d23b 88d3 6e3c 589b 06be
000001e0: 97af 03be ebfa 1cbb bb6b 14be e75a 85bd
000001f0: bf20 48bd 6e5b 6f3c 5c38 5fbd c6eb b0bd
00000200: 1fa0 02bd 008d febd de3e 0bbe f618 00be
00000210: 9d38 cbba 9758 84bd 66f1 edbd 653d 0abe
00000220: b734 073e dc30 70bd c1f6 8fbd 5abe c7bb
00000230: b12a b2bc d69d 6abc e87b 80bd 357b 0a3d
00000240: e9aa 2c3c 8c23 8abd d80a 06bc 6c37 a7bd
00000250: 1a47 99bd 338a 9e3d 8bb5 05bd e6ad 82bc
00000260: fc95 2abc 506a fbbd 4c82 32bc 6554 69bd
00000270: 9aa9 803d 357a 563d fdf4 4bbd 34c2 7b3c
00000280: 8d23 0a3d 10e0 3abd a75a 54bd 4a5b 863a
00000290: ba89 b1bd b462 d1bd 50e5 8b3b 74a9 f5bd
000002a0: a333 7abd a9d8 5fbd ab22 a7bd 2b07 03bd
000002b0: e28e dfbc 3067 c43d 1f82 8c3d b4c9 e4bd
000002c0: d22c 2dbd 0e00 d1bd 3ef2 d93c b891 38bd
000002d0: b571 e3bc 0481 0cbe 92c5 cabc 1e14 31bb
000002e0: 224a 8c3c e14c 163d 4b01 fcbd a2ee bc3c
000002f0: 4080 e13d a50e bebd 2d87 23be ee8b 03be
00000300: 20e6 dbbd 1f56 123e 450a 7fbd 38b4 8e3d
00000310: aecd 21bc e39c 58be a41e 3f3d da84 52bd
00000320: 6d08 d0bd 2796 cf3a 7372 83bd eef9 463d
00000330: e2b8 b4bc 16c6 0fbe 73ee c1bc 2fb4 ebbd
00000340: d00e 213c 8afb 763d 64fe 4e3c 4316 fcbd
00000350: c55f f4bd beda cdbc 3bd3 8ebd 05a3 363c
00000360: 1997 543d 67e6 bebb 8c9a c3bc fadc ae3c
00000370: f519 66bc 7da8 52bd 673e 4b3d 40fe f7bb
00000380: 3cb1 29bd e2a8 55bd 8b21 4cbd cb19 1abe
00000390: 1ec4 2e3c bac4 9cbd 11d3 3a3c bc90 2dbd
000003a0: 09ea 9ebc eeef cf3d b5fe 2dbc 369a 033d
000003b0: 4f7a 8cbc 5183 82bc eeb7 633d e61c 04be
000003c0: a991 9fbd e109 8bbd b4bb c83b 735c c8bd
000003d0: 2454 87bc 0c38 2abe f1df ab3c 0ac1 14bd
000003e0: d557 e439 2e26 4f3d 0f35 a6bc 9769 25bd
000003f0: b493 89bd 7a69 b3bd 6e63 4dbb 18b5 55be
-0.080010384 -0.021006074 -0.056814644 -0.10654733 0.000499789 -0.053520404 0.055234242 -0.109056145
-0.04296488 -0.07708908 -0.014097835 -0.08000995 -0.0020866736 0.058662225 -0.041886423 0.058800507
-0.075200744 -0.071880266 0.026325332 -0.035864353 -0.03782853 -0.08664604 0.043784436 0.014865454
-0.036190912 0.06522761 -0.0797286 -0.026979156 0.09826287 -0.01261291 -0.09856872 -0.051173594
0.0646192 0.029818008 0.115470596 0.044843175 -0.06689709 -0.007583146 -0.14279184 0.068620704
-0.08626078 -0.10871779 -0.0071560377 -0.075361006 0.0023511248 -4.1665047e-05 0.023359941 -0.08619781
-0.08267217 0.008319703 0.053749822 -0.15469831 -0.0054556145 0.06101665 0.04623981 -0.047266275
-0.09117661 -0.11320276 -0.013158493 0.108044654 0.0046641203 -0.094702736 0.008915461 -0.073295064
-0.0723081 -0.1421392 -0.02627979 -0.016920468 0.003633425 -0.045853235 0.10272689 -0.043819413
-0.0746812 0.04005789 -0.01651636 -0.04254256 -0.032059744 -0.13302235 0.11222501 0.060244482
-0.09245391 0.031940024 0.031621855 -0.08051264 -0.06658999 0.09897495 0.039365623 0.050442874
-0.006647751 0.05670727 -0.06632841 -0.059612907 0.018933041 0.023941522 0.11437564 -0.068019986
-0.06426957 0.08131036 0.024363244 -0.06414716 -0.028542433 -0.026143758 -0.01228142 -0.11799746
0.06901863 -0.0783662 -0.07254606 -0.050082825 0.0033081383 -0.14457045 0.05058525 -0.05768037
-0.055279244 -0.06807037 0.032159775 0.05350622 0.0018922125 0.006418873 0.0145768 -0.13145196
-0.12859951 -0.002395327 -0.14494221 -0.06511479 -0.048859354 0.014609201 -0.054497108 -0.0863872
-0.031890985 -0.12429237 -0.135982 -0.12509522 -0.0015504543 -0.0646221 -0.11618309 -0.13499983
0.13203703 -0.058640346 -0.070294864 -0.0060956897 -0.021748872 -0.014319858 -0.06273633 0.033808906
0.010538795 -0.06745061 -0.008181296 -0.08164868 -0.07484265 0.07741203 -0.032643836 -0.015952062
-0.010411736 -0.12276137 -0.010895323 -0.05696525 0.06282349 0.05236264 -0.049794186 0.015366126
0.03372531 -0.04562384 -0.051844265 0.0010250595 -0.086688474 -0.10223904 0.0042692795 -0.11995211
-0.0610844 -0.054649983 -0.08160909 -0.031989258 -0.027289812 0.09589994 0.06860756 -0.11171284
-0.042279072 -0.102050886 0.026604768 -0.045060843 -0.02776418 -0.1372109 -0.024752412 -0.0027020047
0.017125193 0.03669441 -0.12304934 0.023063008 0.1101079 -0.09280137 -0.15969534 -0.12846348
-0.10737252 0.14290665 -0.062265653 0.06967968 -0.009875698 -0.21153598 0.04666008 -0.05139623
-0.10157857 0.0015837596 -0.06418314 0.048578195 -0.022060815 -0.14040408 -0.023673272 -0.11508977
0.009830192 0.06029848 0.012633894 -0.123089336 -0.11932329 -0.025128718 -0.06973883 0.011147265
0.05190191 -0.005825806 -0.023877405 0.021345604 -0.014044275 -0.051430214 0.04962006 -0.0075681508
-0.04142879 -0.052163012 -0.049836677 -0.15048902 0.010666875 -0.0765471 0.011402861 -0.042374358
-0.019398706 0.10153185 -0.010619809 0.03212949 -0.017148165 -0.015931757 0.05559533 -0.12901649
-0.07791454 -0.067889936 0.0061258916 -0.09783258 -0.016519614 -0.16622943 0.020980807 -0.03631691
0.0004355299 0.05057352 -0.020288972 -0.0403839 -0.06717625 -0.087603524 -0.0031339782 -0.20869863

network_body._body_endoder.seq_layers.2.bias f4 [256]
00000000: 1fd3 4ebd eec5 7d3d 27e5 6b3d 7881 0c3d
00000010: fdee cf3c 8691 673d 3490 4abd 9afc 8abc
00000020: b02d 53bd 1f84 8ebd 668b a93d 3a45 1c3d
00000030: 0278 163d 2f3b 2d3d 6a06 573d bc39 aebd
00000040: 46a0 603d 5bb5 3d3d 9317 86bd dde5 9f3d
00000050: c64c 3c3d c18d a03d 1e00 bf3c 3e1c 77bd
00000060: 4324 603d 0b9b 303d aaf7 2a3d 5d92 85bd
00000070: a7ae 36bd eeed 0f3d b075 1cbd 2c31 213d
00000080: d051 8f3d 69b2 f93c 2dfb 543d 4b0a 2d3d
00000090: 9614 0b3d 7969 1a3c c57f 133d 6ca0 0f3d
000000a0: 1391 fcbc f608 913d ff99 65bc 955c 35bc
000000b0: 3fbc 203c 0c6f 58bd 79b6 623d 1d21 713d
000000c0: fdc1 ea3c eadc 6ebd bb13 93bc b2c3 d83c
000000d0: fa0a 7d3a 1beb 82bd 2c40 7f3d b718 363d
000000e0: 2532 403d 616e 6f3d d26a 063d ee94 5f3d
000000f0: 06c2 2d3d 4ffe 3b3d c717 8fba a48c fb3b
00000100: 11c5 7d3c 22db 423d 855b 903d 4fd7 cc3b
00000110: 89c8 4bbd 4e56 223d 72fd d03c ed33 85bd
00000120: a438 33bd df4d 203c 6e13 babc 35dc 383d
00000130: 59ff ff3c 7249 5dbd a6c7 3d3c 5d29 44bd
00000140: b150 613d 4d61 293d 0308 ffba 95ae f23c
00000150: fb2b d83c cd35 873d 7be9 42bd d201 883d
00000160: 5244 86bd ffbd 2ebd 5d39 f1bc 2042 133d
00000170: 44b1 a9ba 58b9 8a3c a957 f43c 917e ac3d
00000180: 3ea9 3ebd a4d6 5bbd 1c8e ce3c 4c6e 8b3d
00000190: ff0e 29bd bb3f ef3c 3e3e e53c 9f56 363d
000001a0: 5c11 c2bb 9142 23bc c2c0 0fbd 3de8 3bbc
000001b0: e614 c53c 39c6 6cbd c913 793d 2acc 2f3d
000001c0: ac7c cabd 887d 203d 2503 a13d 32e8 803c
000001d0: 11e4 193d 9a09 143d cc30 a8bc 075e 99bd
000001e0: 3cdd 58bd fa83 b33c 8523 26bd 6513 5d3d
000001f0: b7f6 883b 10a5 6cbd 269f 23bd f533 623d
00000200: b5cf 4f3d 597b 973d 81a3 7b3d 57f1 f6bb
00000210: 9699 853d 9fdf d13c af29 26bd 0565 863d
00000220: 36ee 53bd cddd 493d 4722 573d df4d 83bb
00000230: a6af c23c be33 d9bc f88d 15bd 5484 30bb
00000240: c06e 9f3d cb8e 573d 0693 403d 6d58 583c
00000250: 6963 31bd 1333 88bd 98dd 31bd f412 69bd
00000260: 7378 6a3d c1aa 6e3d 37a0 b0bb 1fa6 35bd
00000270: 7401 bc3a df79 be3c f495 9c3d ab08 5b3d
00000280: 83ab b8bb e4e2 fd3c 3cc1 ec3c 422e 753d
00000290: b6bd 863c 6af5 393d 54b1 963d ea3a 663d
000002a0: afdf 513c 0d0b 5d3d 4bd5 043d 6703 143d
000002b0: 06bc fd3c 9875 493d 1568 96bd 53a0 57bd
000002c0: 8f1a 273d 02d5 0fbd 75e3 67bd de9e 1dbd
000002d0: 80b9 813d 34f1 643d 1e10 f03c f15c b63c
000002e0: 5546 20bc 92a6 0e3d 39d2 a63d b43b 71bd
000002f0: d004 483d 2c16 153d ff75 46bd 67bb 1a3d
00000300: 3c89 b53c fc2a 423c f37a 603d c498 e43c
00000310: 2f38 063d 5209 23bd afb8 0e3d cdd6 2a3d
00000320: d0f7 543d ec76 87bd 2e75 a03d 9515 fe3c
00000330: fbdd 083d d94b 513d 96a7 67bc 2606 4a3d
00000340: a112 babc 2dd2 89bd ff3e 1a3d 202d 373d
00000350: 3b5c 3f3d c554 9d3c c793 af3c 167c 103d
00000360: a4a1 68bd 7f44 38bd 602a 233c ea8d 86bd
00000370: 5c70 6a3c 4cbb 57bd 8bca 293d 8812 5bbd
00000380: 427f 61bd 6799 2f3d 3ea8 7f3c 2680 55bd
00000390: 276f 373d ab42 4f3d fe89 333d fd81 79bd
000003a0: 9319 9d3d e8c7 27bd 2af7 893d 090b 48bd
000003b0: 8087 49bc e11a a5bb daac 1c3d 226f d3ba
000003c0: c8e2 2d3d 72a8 243d e587 7f3d 51bd 853d
000003d0: 7d99 233d 4092 433d d6e4 5a3d 3cf2 603d
000003e0: 3352 5f3d 54e3 1f3d 1407 16bd 893d 22bd
000003f0: aea8 ac3c 1f69 f9bc fc28 a23d 2e2d 5e3d
-0.05049431 0.06195634 0.057591584 0.03430316 0.025382513 0.056535266 -0.04945393 -0.016966153
-0.051557243 -0.06958794 0.08278541 0.038151957 0.036735542 0.04229277 0.05249635 -0.08507106
0.05484035 0.046315532 -0.06547465 0.07807515 0.045971654 0.078395374 0.023315486 -0.06032967
0.054722082 0.04311661 0.041740097 -0.06522057 -0.044600155 0.035139017 -0.038198173 0.039353535
0.06998026 0.03048058 0.051997352 0.042246144 0.03395518 0.009424561 0.036010522 0.0350651
-0.030830896 0.07081787 -0.014013766 -0.011069437 0.009810506 -0.052840278 0.0553498 0.05886947
0.028656954 -0.05831615 -0.017953744 0.026460502 0.000965282 -0.06392499 0.06231706 0.044457164
0.04692282 0.058454875 0.032816716 0.05458539 0.042421363 0.045896824 -0.001091712 0.007676678
0.015488879 0.047572263 0.07048706 0.0062512527 -0.049751792 0.039633088 0.025511477 -0.06504045
-0.04375519 0.009784191 -0.022714343 0.04513188 0.031249689 -0.05402512 0.011583244 -0.04789101
0.055008594 0.04135256 -0.0019457344 0.029624263 0.026388159 0.066020586 -0.047585946 0.06640972
-0.06556 -0.042661663 -0.029446298 0.035951734 -0.0012946506 0.016934082 0.029826956 0.08422578
-0.04654812 -0.053671494 0.025214247 0.06808147 -0.041274067 0.029205194 0.027983781 0.044516202
-0.0059224796 -0.009964601 -0.035095938 -0.011468944 0.024057817 -0.057806227 0.060809884 0.042919315
-0.098870605 0.039182216 0.07861928 0.01573572 0.037571017 0.03614197 -0.02053108 -0.074886374
-0.05294536 0.021913517 -0.040561218 0.053973574 0.0041798013 -0.057774603 -0.039946698 0.05522533
0.050735194 0.073965736 0.061435226 -0.007536094 0.06523435 0.025619326 -0.040567096 0.06562237
-0.051740848 0.04928379 0.052522924 -0.0040070857 0.023765396 -0.02651393 -0.036512345 -0.0026934342
0.07784796 0.052626412 0.047015212 0.013204676 -0.043307696 -0.06650367 -0.04342422 -0.05690284
0.057243776 0.058268312 -0.005390193 -0.04434788 0.0014343695 0.023251472 0.07645789 0.053475063
-0.00563568 0.030991979 0.028900735 0.059858568 0.016447883 0.04540006 0.073580414 0.05620853
0.012809678 0.053965617 0.032429975 0.036136057 0.030973446 0.04918441 -0.07344071 -0.05264313
0.040796813 -0.03511525 -0.056613404 -0.038481586 0.063342094 0.05589409 0.02930456 0.022261115
-0.009782393 0.034826823 0.081455655 -0.058894828 0.048832715 0.036398098 -0.048452374 0.037776377
0.022160165 0.011851069 0.054804754 0.027904876 0.032768425 -0.03980381 0.034844097 0.041708756
0.051994145 -0.066144794 0.0783485 0.03101615 0.033414822 0.051097725 -0.014139077 0.04932227
-0.022713961 -0.06729541 0.037657734 0.04472077 0.046718817 0.01920546 0.02143277 0.035274588
-0.056794778 -0.044987198 0.009958833 -0.06570037 0.014309015 -0.052668855 0.041452926 -0.05348447
-0.055053003 0.042870905 0.015604077 -0.052124165 0.044783738 0.05060069 0.04383277 -0.060914982
0.076708935 -0.04096213 0.06736596 -0.04883865 -0.012300372 -0.0050386046 0.03825078 -0.0016131143
0.042452604 0.040199704 0.06238546 0.0653025 0.0399413 0.047746897 0.05344089 0.054918513
0.05452175 0.039035156 -0.036627844 -0.039609466 0.021076526 -0.030445633 0.079179734 0.054242305

action_model._discrete_distribution.branches.0.weight f4 [3, 256]
00000000: 5705 723c d9dc cc3c ab1c 8bbb 3a48 a4bc
00000010: 4915 25bb 017e dc3b 428c e73b 266e 753c
00000020: 5521 803c a1cd 0d3d be5c b73c 940b 0abc
00000030: f52d 6c3b 6f1c 54bc b249 f6bb 8e27 343e
00000040: bff8 c73c 1fd4 6cbc a95c bc3c c22d bfbc
00000050: a648 d83b 229d d2ba 9b6c be3c 2e3d c03c
00000060: 095c 703c fdda 24bd d0df 6239 a51b bc3c
00000070: 07fd 0d3d a6a8 a8ba 63b0 773d 319e af3c
00000080: 5c19 b63b df19 9c3c f545 cd3c 39f1 24bb
00000090: 3c94 0e3b 80b0 76bc 0ee7 8cbc 755f 553a
000000a0: 3442 0939 bf5e 1bbc 72a8 91bc 7295 abbb
000000b0: df4d 823c 9055 023d 904a aa3c 8a40 48bc
000000c0: 5d2d 81bb a742 06bd d0ca da3b 275b f0bc
000000d0: ac75 0fbc 84cb 163c 817b c13b 9b1b 14bc
000000e0: a38e 8cbc bb7b a7bc 90dd 4d3c 8238 7b3b
000000f0: 1cc3 35bb 629c 3f3c 18f6 153d e249 a1bd
00000100: bf8a 7ebc 3ee1 153b 2ea5 593c a769 20bc
00000110: faa2 8b3c 19d1 3c3b 9ebe 4d3c 6fcc b13c
00000120: 7801 3c3d c076 743b fb7a a53c d90c 39bc
00000130: b74e 08be 6bdc 4c3d 5ebd 0a3c 9a9f a5b9
00000140: 8cc4 5fbb 0f6f 073c 95b6 a33c 6c35 ad3a
00000150: d549 fd3b 1b88 78bb 4c6c c13c c075 c53b
00000160: 1a04 0abc 09f7 983c c8ab c33d 13cc 2f3c
00000170: bc44 a13d 77f5 14bc f208 f33a 0945 2abc
00000180: 8838 a03b aff2 bfbb a195 bd3b 0b80 ad3c
00000190: eff6 06bc 1812 fdbb 373b 893a a06d b53c
000001a0: 5ca2 d83b 9b37 59bc 1766 81bc 170a 113c
000001b0: dcaf 553c ecd8 903c 1561 58bc 415c c03c
000001c0: 686f a33d a419 eb3b c37e cdbc e3b6 f83a
000001d0: bc4f 453c 80a6 8cbc 08c7 f23c 8b47 a43d
000001e0: da81 ab3c e7a0 af3c c167 1e3c 8af9 a4bb
000001f0: e0a6 223c 2b00 263c 72f6 153d 7144 a53c
00000200: 1743 38bb 0238 0d3c bb09 e33c ba1a 9c3d
00000210: 67be 56bc b47a a9bb df0f a43d d6cd 8bbc
00000220: fb26 8b3d bad6 42ba 0469 d7bb ecc7 0f3d
00000230: 32b6 59bc a1d1 143d ef2c e73b cd18 d43c
00000240: 0474 1db7 db62 3e3c d5b9 8abd fd80 8a3c
00000250: 1d28 833c 05bc 813c a0ce b63c e22f ab3c
00000260: 1634 133d d3b9 a8bc 1fa5 583c 908c e23c
00000270: cbfd cf3b be9b bd3c ca1d 02bc d5f7 77bb
00000280: 03d8 d1bb 307e 773b 9312 9dbc 0bb5 bc3c
00000290: 90f8 42bc 0837 0dba d9e2 fbbb f808 073d
000002a0: 1390 20bc 99ce 38bb 203b 12bc d37f ba3c
000002b0: 8d99 0f3b 1f3d 593c aaee 8e3d 43a2 113d
000002c0: 6e16 8e3b fe88 bbbc 13aa 6f3d 852b a53c
000002d0: e433 3d3c 8458 903c 9614 ccbb bbbf ebbb
000002e0: 890d b93d 5ea6 42bb 9b34 97bb 1efe 773c
000002f0: 66d6 6f39 4d96 a3bb aafe 823c aadf 67bb
00000300: 0c26 683a ae56 abbc 8260 20bc 5942 bebb
00000310: 9316 963d 18a7 7d3c 39d4 603c c191 b53c
00000320: 5f2d a33c c9b2 313c 2201 1abd 3897 86bc
00000330: 6b5b cdbb b379 c7bc 39c6 803c 2fde 843b
00000340: 57db 113b f61c 0b3c 5213 d63b f7bd 29bc
00000350: 8bbb 7abc a6e4 b73b efc4 0f3c 117b 06bd
00000360: 6327 573c 32b8 b73c 4954 c0bc 0e06 9d3c
00000370: a6b0 69bd d50e f5ba 63f6 2e3c 6835 c73c
00000380: 1597 b73b 821c d03b 6669 13bd 7be2 183d
00000390: cf46 57bc 4b0b 123d 0d1e 413c 7c2e 353d
000003a0: 085f a7ba 7ef4 e1bc 6b8c 143d 58cb 583d
000003b0: 0659 c4bc f2e4 24bb 35b6 8b3c a6b2 2f3b
000003c0: a778 263c 0337 e4bb f024 253d e943 0fbc
000003d0: b2f3 94bb 9c10 81bb 3960 d23b 596c cd3c
000003e0: eac7 16bd c0e9 163b 2641 b53d 9bda 9aba
000003f0: 02c8 a7bc 0398 de3a 8d8f c5b9 4095 a2ba
0.014771781 0.025007652 -0.004245361 -0.020053972 -0.002518969 0.006728888 0.0070662806 0.014979875
0.015640894 0.03461993 0.02238309 -0.008425612 0.0036038135 -0.012946232 -0.0075161094 0.17593214
0.024410604 -0.0144548705 0.022993403 -0.023337249 0.0066004572 -0.0016068558 0.023245146 0.023466673
0.01467038 -0.040247906 0.00021636416 0.0229624 0.034665134 -0.0012867644 0.06047095 0.021437736
0.0055572223 0.019055305 0.025057772 -0.0025168194 0.0021755835 -0.015056729 -0.01720002 0.00081395294
0.0001309 -0.009483038 -0.017780516 -0.005236321 0.015906272 0.03181988 0.020787507 -0.012222419
-0.0039421753 -0.03277841 0.006677009 -0.02934034 -0.0087560825 0.009203795 0.0059046154 -0.009039785
-0.017157858 -0.020444741 0.012565032 0.0038333242 -0.0027734702 0.011694999 0.036611646 -0.0787542
-0.015536009 0.002286985 0.013284011 -0.0097908145 0.017045487 0.0028811155 0.012557654 0.021703927
0.04589984 0.0037302226 0.020200243 -0.011294567 -0.13311277 0.050014894 0.008468 -0.00031590165
-0.003414425 0.0082662245 0.019984523 0.0013214773 0.0077297487 -0.0037922922 0.02361121 0.006026
-0.008423829 0.018672483 0.09554249 0.010729807 0.07874438 -0.0090917265 0.0018542095 -0.010392436
0.0048895516 -0.0058577876 0.0057856594 0.02117922 -0.0082375845 -0.007723104 0.0010469918 0.022147
0.0066111516 -0.013257886 -0.01579575 0.008852503 0.013042416 0.017681561 -0.01320674 0.02348149
0.079802334 0.0071746875 -0.025084859 0.0018975403 0.012042936 -0.017169237 0.029635921 0.08021458
0.020935941 0.021439029 0.009668292 -0.00503463 0.009927481 0.010131876 0.03661198 0.020174237
-0.002811616 0.00861931 0.0277146 0.07622285 -0.013106919 -0.005172098 0.0801084 -0.017065924
0.06794544 -0.00074325094 -0.006573798 0.03510277 -0.013288068 0.03633273 0.007054917 0.025890732
-9.384941e-06 0.011620249 -0.06773726 0.01690721 0.016010338 0.015836725 0.022315323 0.020896856
0.035938345 -0.02059642 0.013222962 0.027654916 0.006347393 0.023145553 -0.007941673 -0.0037836928
-0.0064039244 0.0037764423 -0.019173896 0.023035547 -0.011900082 -0.00053869234 -0.0076869545 0.032967538
-0.009799975 -0.0028199314 -0.008925229 0.02276603 0.0021911592 0.013259201 0.06979115 0.035555135
0.00433617 -0.022892471 0.058511805 0.020162353 0.011548016 0.017620333 -0.00622804 -0.007194487
0.09035785 -0.0029701213 -0.0046144254 0.01513627 0.00022872686 -0.0049922825 0.015990574 -0.0035381117
0.0008855767 -0.020915356 -0.009788634 -0.005806249 0.073285244 0.015481733 0.013722473 0.022164227
0.019919096 0.010845848 -0.037598737 -0.016429529 -0.0062670014 -0.024350023 0.01571952 0.0040548067
0.002225598 0.008490792 0.006533065 -0.010360233 -0.015303503 0.005611974 0.00877498 -0.03283221
0.013131949 0.022426698 -0.02347769 0.019167926 -0.05705323 -0.0018696437 0.01067886 0.024317458
0.005602727 0.0063510546 -0.035989188 0.037325364 -0.013139441 0.0356553 0.01178695 0.044233784
-0.001276941 -0.027582403 0.036266726 0.0529283 -0.023968231 -0.0025160876 0.017054657 0.0026809364
0.010160602 -0.0069645657 0.04031843 -0.008744218 -0.0045456523 -0.0039387476 0.006420162 0.025076078
-0.036811747 0.002302751 0.08850317 -0.0011814417 -0.020481113 0.0016982559 -0.00037681722 -0.0012404099

action_model._discrete_distribution.branches.0.bias f4 [3]
00000000: 3231 55bc 9935 bb3c e53d 93bc
-0.013012217 0.022852706 -0.01797385

action_model._discrete_distribution.branches.1.weight f4 [3, 256]
00000000: 568c 3fbd 4591 c63c 7176 18bc dd49 433c
00000010: 5244 abbc 1ccc 693c 3a65 6ebd 0844 ae3b
00000020: 42b3 20bd f765 5ebd 00e1 cb3c 48aa 183a
00000030: c878 8e3c 9b8d a43c df58 b53c b4c5 ccbc
00000040: 2c4a 0a3c d2d7 823c 41e7 48bd bca7 fa3c
00000050: 3bbf a4bb 9847 8abb 40e2 92bc d9eb 43bd
00000060: 9f16 d63c 109d 833c 3c55 3a3b 4c96 44bd
00000070: 14e9 54bd e681 503b 789c 0fbc a7a8 85ba
00000080: 13b1 bd3c 1e0c 09bd 91f7 8abb 3af6 a93c
00000090: a67b fa3c 6d66 a23c d7c9 bdbb 655a b13c
000000a0: 3565 6abc 3780 6f3c 537f 88bc c2b1 a4bb
000000b0: 4f39 b3ba 1130 46bd 927b 5c3c 3762 cc3c
000000c0: a052 07bb 12ab 84bd 0986 4b3c 4b15 dfbb
000000d0: 223f 1f3c c7c6 02bd 9790 1c3d 28ed e63a
000000e0: 3b24 7c3c 606c 653c fa69 4f3c 21ec db3a
000000f0: a192 5a3c 2b6b f23b 0dae a53a 5faa a9bc
00000100: 848f d93c 36d6 ea3b 9203 a93c 80cc debb
00000110: 9f8a 3dbd baeb 953c 61ea 3c3c 0a3b ecbc
00000120: 522e 64bc e7a4 ff3b d344 76bc 6287 0a3c
00000130: 6720 0d3b dc89 33bd b50d 9d3b cd3e 4ebd
00000140: fb5a 233c d0f3 0e3c 8ed6 f1bb 8b70 263c
00000150: 47ba 9b3c 2143 263c 4017 40bd 5317 ac3b
00000160: a428 23bd 04c1 08bd 84e1 e5bb 5517 b0bb
00000170: 11ae 9a3c f45f ec3b f3d9 c13c 3a8c 173c
00000180: ff53 77bd f640 64bd cbe9 3ebc ca8c dcbb
00000190: 3df4 3abd e2af fe3b 16fb 853c 7ec0 c2bb
000001a0: e5ad f63b 4997 cdbc ba5d 4cbc c18c 343b
000001b0: 0347 71bc fe8a 8cbd 185e 773c deed 5dbb
000001c0: 94d7 45bd 179f 17bb 01fd 043d b395 88bb
000001d0: 7b00 d13b 0a12 993c 74a7 bbbc 8402 4abd
000001e0: 5fc8 5bbd cd96 013c 1be2 30bd 2837 8b3b
000001f0: 25d1 c3ba 23c2 55bd dbe5 83bb 2df5 72bb
00000200: 842c 383c 5103 ed3c 07b8 e83c f64a a03c
00000210: 4f96 023d 8a5c c83b 788c 23bd ef66 1f3c
00000220: 1a6d b0bb bab0 833c 2eb2 c13c ba43 09bd
00000230: fdd8 2b3c a995 bebd 59c6 68bd f949 843c
00000240: b211 063d 0e24 4c3c 5831 2b3c 5f85 703c
00000250: 75d4 49bd 4595 28bd b52d 86bc 0ac4 80bd
00000260: 3614 e73b 47f0 b73c 8220 bf3b e48a 76bd
00000270: 6dd6 c8bc 2106 6a3c 3351 cb3c fa1e 903c
00000280: 45eb 9ebc ecad b03b 6fdc 633c 0e3b b03c
00000290: ac07 44bb 7aa2 aa3c 3092 3c3c abba ab3c
000002a0: f30a 0bbc 04a7 463c 8158 8a3c 5d33 d13b
000002b0: 4578 a43b 07a5 0bbb a879 febc 1086 2dbd
000002c0: 82fa de3a b484 79bd b8c8 00bd d7ed 35bd
000002d0: 5579 ba3a f678 793c c907 943c c616 973c
000002e0: 803f f3bc 7dfd 1abd 862c 013a 89d6 04bd
000002f0: 0765 093c cf8c 673c 0aa9 53bd 77e1 93bc
00000300: c2ca 1fba 2da1 893c 2ce9 be3b cc5d 37bb
00000310: 8f11 ac3c 4ccb 5ebd 38f6 ba3c 535b 0e3d
00000320: c210 90bb af64 2ebd 040d 163d 2809 c33c
00000330: f2e7 2e3c 1ed2 563c 51ee 3fbc a91e ad3c
00000340: b8e7 63bc c08b 2ebd 5038 903c 238e d6bc
00000350: a322 9eba 2298 733b 189d 87bb c270 5dba
00000360: 7cef 4ebd cca2 2fbd 70ec 17bc ec72 86bd
00000370: 374a 2d3b ffef 09bd b2dd b93c 6704 51bd
00000380: 670c 5ebd ed6a 363c 3930 01bb 071b 4bbd
00000390: 4e22 b93c cfc1 1b3c 079b ceba d740 49bd
000003a0: 092e c33c 737b 52bd a8fe 223c bffa 78bd
000003b0: 794f a9ba 6197 98bb f678 2abc f760 ca3a
000003c0: fd3a 8f3c 87cd 9e3c f969 d93b 2ae6 7c3c
000003d0: 35f8 c43c ebac e03b 2d91 a43c eeee e33c
000003e0: 2fe2 4f3c 0ab3 1d3c bac3 17bd 4fc7 38bd
000003f0: 803b 173c c469 27bd 94fb 2b3d a882 c43c
-0.046764694 0.024239192 -0.009305582 0.011919466 -0.020906601 0.014269855 -0.058202006 0.0053181686
-0.039233454 -0.05429646 0.024887562 0.0005823714 0.017391577 0.020087054 0.022137104 -0.024996616
0.0084405355 0.015972052 -0.049048666 0.03059756 -0.0050276793 -0.0042199604 -0.01793015 -0.047832344
0.026133833 0.016066104 0.0028432151 -0.047994897 -0.051980093 0.0031815707 -0.008765332 -0.0010197357
0.023155725 -0.03345882 -0.004240938 0.020747293 0.030576538 0.019824231 -0.0057918835 0.021649549
-0.014306356 0.014617971 -0.016662275 -0.005026073 -0.0013673696 -0.048385683 0.013457196 0.024949176
-0.0020648614 -0.064779416 0.012422093 -0.0068079582 0.009719642 -0.03192785 0.03822383 0.0017618285
0.015389497 0.014002889 0.012659544 0.0016778746 0.013340623 0.0073980293 0.0012640372 -0.020711122
0.026557691 0.007166649 0.020631585 -0.0067992806 -0.046274778 0.01830088 0.01153049 -0.028836746
-0.013927059 0.0078016403 -0.015031057 0.008455129 0.0021534206 -0.043832645 0.004792894 -0.05035286
0.009970422 0.008725122 -0.0073803132 0.010158668 0.019009722 0.010147841 -0.046897173 0.005251804
-0.03983368 -0.0333872 -0.007015409 -0.005373875 0.01888183 0.007213587 0.023663497 0.009249741
-0.06038284 -0.055726014 -0.01165242 -0.0067306506 -0.04564308 0.0077724317 0.016355079 -0.005943357
0.007528054 -0.025096552 -0.012473518 0.0027549716 -0.014726403 -0.06862448 0.015098117 -0.0033863704
-0.048301294 -0.0023135596 0.032467846 -0.004168236 0.006378231 0.01868536 -0.022906996 -0.049318805
-0.053657886 0.007909489 -0.04318438 0.0042485185 -0.0014939649 -0.052187096 -0.0040252036 -0.0037072406
0.011241082 0.028932245 0.028408064 0.019566994 0.031881627 0.006114547 -0.039928883 0.009729131
-0.0053840997 0.01607548 0.023644533 -0.033511855 0.010488746 -0.09305889 -0.056829784 0.016148554
0.03273172 0.012459768 0.010448776 0.014680236 -0.04927488 -0.04115798 -0.016379217 -0.062873915
0.00705197 0.02245344 0.0058327327 -0.06019105 -0.024516309 0.014283688 0.024818992 0.017592896
-0.019399295 0.005391827 0.013907536 0.021512534 -0.00299118 0.020829428 0.011509463 0.020963034
-0.008486497 0.012124781 0.016887905 0.006384297 0.00501922 -0.002130808 -0.03106387 -0.04236418
0.0017011913 -0.06091757 -0.03144142 -0.044416275 0.0014226834 0.015226593 0.018070119 0.018443476
-0.029693365 -0.0378394 0.0004927594 -0.03243116 0.008385903 0.0141326925 -0.05167488 -0.018051846
-0.0006095582 0.016800487 0.005826136 -0.0027979491 0.021004466 -0.054393098 0.022822484 0.034755062
-0.004396529 -0.042576488 0.036633506 0.023808077 0.010675417 0.013111619 -0.011714534 0.021132784
-0.0139102265 -0.042613745 0.017604977 -0.026190823 -0.0012064766 0.0037169536 -0.0041386 -0.0008447283
-0.05052136 -0.042879865 -0.00927268 -0.06564888 0.002644194 -0.033676144 0.02268872 -0.05102959
-0.054211047 0.0111338915 -0.001971258 -0.049586322 0.022599366 0.009506657 -0.0015762754 -0.0491341
0.023825662 -0.05138726 0.00994841 -0.060786005 -0.0012917361 -0.0046567176 -0.010404816 0.0015440275
0.017484182 0.019385112 0.0066349474 0.015435735 0.024044136 0.006856551 0.020088756 0.027823891
0.012688204 0.009625206 -0.037051894 -0.04511195 0.0092304945 -0.04087235 0.04198797 0.023988083

action_model._discrete_distribution.branches.1.bias f4 [3]
00000000: e473 cd3c 05f5 9bbc 2a2f d7bc
0.025079675 -0.019037733 -0.026267607

onnx::Div_78 f4 [28]
00000000: 6a56 cf3e a957 cf3e 1e43 6f3b dbd6 373e
00000010: 8c10 f43e 1d11 f43e 1e43 6f3b 58ad 2f3e
00000020: 9359 d13e a564 d13e 3170 333c 988b 453e
00000030: dc89 ff3e ec85 ff3e 21e1 b53c b107 2c3e
00000040: 8abd f33e 16be f33e 1e43 6f3b 6c24 573e
00000050: 7555 d03e 3104 d03e dc05 f13c 2bf3 313e
00000060: ec20 fc3e 9e20 fc3e 1e43 6f3b 8a3d 543e
0.40495616 0.40496567 0.003650851 0.17953055 0.47668874 0.47669306 0.003650851 0.17155969
0.40888652 0.40897098 0.0109520415 0.19291532 0.49909866 0.49906862 0.022202076 0.16799809
0.47605544 0.47605962 0.003650851 0.21009988 0.406902 0.40628198 0.02942174 0.17377917
0.49243867 0.49243635 0.003650851 0.207266
