results/Racing_Imitation5/Driver/Driver-79125.onnx (onnx, 305142 bytes, 11 tensors)

discrete_act_size_vector f4 [1, 2]
000000 00 00 40 40 00 00 40 40
       3.0 3.0

network_body.observation_encoder.processors.0.normalizer.running_mean f4 [28]
000000 6d 17 4e 3e 52 79 4c 3f 00 00 00 00 9c 80 8a 3e
       0.20126124 0.7987262 0.0 0.27051246
000010 2b 82 ac 3e 43 bd 29 3f 1b 08 54 37 35 84 81 3e
       0.3369306 0.66304415 1.2638072e-05 0.25296178
000020 df fa 5e 3e d1 39 48 3f 13 08 d4 38 f5 6b 97 3e
       0.21775387 0.7821322 0.00010110452 0.29574552
000030 01 2d 08 3f 72 65 ef 3e 97 c9 fb 39 75 76 7f 3e
       0.5319367 0.46757084 0.00048024647 0.24947532
000040 56 80 bb 3e 07 3f 22 3f 00 00 00 00 65 32 ab 3e
       0.3662135 0.6337742 0.0 0.33436885
000050 fe ea 49 3f ad 7c 57 3e 14 08 54 3a e6 84 89 3e
       0.78874195 0.21043654 0.0008088362 0.26859206
000060 85 70 19 3f 55 1d cd 3e 00 00 00 00 14 07 b7 3e
       0.59937316 0.4006144 0.0 0.35747588

network_body._body_endoder.seq_layers.0.weight f4 [256, 29]
000000 33 c0 37 bd 2e f4 0c bc ca 42 b6 bd 78 3a 0a 3e
       -0.04486103 -0.008603139 -0.08899458 0.13498867
000010 89 46 c1 bd 35 a1 7b 3e 33 38 b1 bd 61 cc 85 bd
       -0.09437282 0.24573214 -0.08653297 -0.06533123
000020 6a 69 e4 3d f5 58 cf 3d 6e 2a 79 bc e2 4b 20 3e
       0.11152919 0.10124389 -0.01520787 0.15653947
000030 3a 5a 07 be 83 5e fb 3e a9 1c ec 3e 49 68 85 3e
       -0.13218012 0.49095544 0.46115616 0.26056126
000040 bb 0f 30 3d 80 8e d3 3d 71 6f 07 3e a0 ce 82 be
       0.04298375 0.10329914 0.13226105 -0.25548267
000050 73 38 d9 bd 23 c1 87 3e 9c a6 1d bd 10 ec f1 be
       -0.1060647 0.2651454 -0.03848897 -0.47250414
000060 10 76 b0 3e 03 c6 3f 3e fb ef 10 3e df 65 80 3e
       0.34465075 0.18727879 0.14154045 0.2507772
000070 8b eb ee 3c fc 83 65 bd 1c 1f 22 be 1c b0 0c be
       0.02916505 -0.056034073 -0.1583218 -0.13739055
000080 61 f4 9c be 6c 1a 29 be bf 07 17 bd 38 2c 46 3e
       -0.30655196 -0.16513985 -0.03687262 0.19352806
000090 ee c8 6c 3e eb b3 e4 3d cb 54 35 3d 76 5d a1 be
       0.23123524 0.11167129 0.044270318 -0.31516618
0000a0 b6 59 3b bd ae 8f cb be b1 7f bf 3e 15 44 01 3e
       -0.045739852 -0.39758056 0.37402108 0.12623627
0000b0 c7 61 b2 3d 73 77 92 3e 9e c7 cb be 9f c2 95 be
       0.08710056 0.28606758 -0.39800733 -0.29250047
0000c0 ab 8b 03 be 14 a0 76 be c3 38 2a 3d be 69 22 bd
       -0.12846248 -0.24084502 0.04155804 -0.039651625
0000d0 cc b4 4b 3d cc fc 7a 3e f5 04 d0 be 54 e8 86 be
       0.04973297 0.24510497 -0.40628782 -0.26349127
0000e0 bb 7b f9 3d 94 a9 27 3e bf 92 ed 3d ab 96 10 be
       0.12181803 0.16373283 0.11600255 -0.14119975
0000f0 5d 54 cb bd 92 00 1f 3d a0 c0 1a be c3 74 cb be
       -0.099282004 0.038818903 -0.15112543 -0.3973752
000100 36 b1 4e be 5a d3 98 3e b3 96 0e 3e c4 9f a9 3d
       -0.20184788 0.29848748 0.13924675 0.08282426
000110 8b 86 2b 3d 2b b7 ec 3d 4e ba 5d 3b 94 55 92 3e
       0.041876357 0.11558374 0.003383297 0.28580916
000120 f0 af ce 3b 97 7d 74 3e 58 20 4d 3e 27 92 2e bd
       0.0063075945 0.23876034 0.2003187 -0.04261985
000130 c7 d0 eb 3d e0 e4 07 be ae fa 56 be d3 b7 c7 3d
       0.115144305 -0.13270903 -0.20994064 0.097518586
000140 10 b0 2c bd fc 70 1d 3e 96 f6 a9 be 52 6c 23 3e
       -0.042160094 0.15375131 -0.33195943 0.1595929
000150 17 c8 b0 bb 9b 30 22 be 30 60 37 3e 5f ff c8 bc
       -0.0053949463 -0.15838854 0.17907786 -0.024535833
000160 f2 15 f1 bd 4e 2b 1a be c8 58 b9 3e 21 80 f7 be
       -0.11771764 -0.15055582 0.36200547 -0.48339942
000170 0a 1f 64 be 09 86 97 bd 05 ab 06 be d1 2f 06 3f
       -0.22277465 -0.07398612 -0.13151176 0.5241671
000180 42 e3 db 3d dc 96 5f be 32 af 14 3e e3 f0 e8 3d
       0.10736705 -0.21834892 0.14519957 0.113740705
000190 12 1e 39 3e 19 e8 65 3e 6e ed a5 3e 8f e7 81 3e
       0.18077877 0.2245182 0.32407707 0.25371978
0001a0 25 03 04 be 1a 76 dd be 7a f7 ce 3d a9 27 04 be
       -0.12891825 -0.43254167 0.10105796 -0.12905754
0001b0 ea b5 8c be 1d ec e6 3d ca a5 9f be 14 ee 78 3d
       -0.2748254 0.11275504 -0.31181175 0.060773924
0001c0 cc 97 64 be b4 6e fb bd 10 21 b3 3d 4f 22 6c be
       -0.22323531 -0.12276974 0.087465405 -0.23059963
0001d0 1f a4 de bd 9a 99 b3 3b 56 62 2a 3e 43 68 89 be
       -0.10871147 0.005480957 0.16639075 -0.26837358
0001e0 4a 71 9c be fc 26 75 3e 0d 74 52 be 05 3f 12 3d
       -0.30555183 0.23940653 -0.20552082 0.03570463
0001f0 2a 51 41 3e 68 ad 4d bd dc ea c3 be f9 31 ff 3d
       0.18878618 -0.0502142 -0.3826512 0.124607034
000200 61 26 f7 3c c5 1b c4 3d 1f 60 5e 3d b5 98 f5 3d
       0.030169668 0.09575609 0.054290887 0.11992017
000210 e9 4a bb 3e 02 ec 02 3e f6 a9 f5 3b 4f 59 67 be
       0.3658059 0.12785342 0.0074970676 -0.22592662
000220 03 cb 6a 3e 63 df 97 3c bf 33 3b be 8b b5 67 be
       0.22929005 0.018539136 -0.18281458 -0.22627847
000230 c3 68 59 be ca 46 ab 3e d4 92 47 3e 4f ef 11 3e
       -0.2123137 0.33452445 0.19489604 0.14251445
000240 7d 9c f7 3c 38 aa 0f 3e fe 8a 74 bb 58 f5 a8 be
       0.030225987 0.14029777 -0.003731429 -0.32999682
000250 49 dc de 3e ac c3 74 bc b7 fc 2e 3e 20 d1 90 bc
       0.4352744 -0.01493923 0.1708859 -0.017677844
000260 12 70 e2 3d bb d9 aa be 3b b6 f6 bd 4d 4d 86 3e
       0.11056532 -0.3336924 -0.120464765 0.2623085
000270 f3 ea 97 3e 53 27 cb 3e fe f6 0f 3e 65 91 85 bd
       0.2967144 0.3967844 0.14059064 -0.065218724
000280 f5 f7 06 bc e2 cc 8a 3e 5e 25 3f 3d 35 3f b4 3e
       -0.0082378285 0.27109438 0.046666496 0.35204473
000290 9f 3c 62 bd 76 3c 08 3c 1a 74 7a 3d 39 60 01 3f
       -0.055233594 0.008315196 0.06114588 0.5053745
0002a0 8f 80 72 bd 58 cb 04 3c aa 08 62 be 0a 55 1a 3e
       -0.059204634 0.008105122 -0.22073618 0.15071502
0002b0 c7 d6 7d bd 73 a2 19 3b 4f 5d 61 be 49 92 30 3e
       -0.061972406 0.0023442775 -0.2200825 0.17243303
0002c0 6f 0e 31 be 01 93 26 be f4 6e 1f be 95 c9 4d 3e
       -0.17290662 -0.16267015 -0.15569669 0.20096429
0002d0 40 18 26 be 95 85 86 3d 93 f8 93 be 4b 47 cf 3d
       -0.16220188 0.065684475 -0.28900585 0.1012102
0002e0 47 37 63 3e cb 88 95 bd 7f 23 90 3e 01 4c 25 be
       0.22189055 -0.07301482 0.2815208 -0.16142274
0002f0 41 a6 ec 3e 68 0a f6 bc c2 6f a5 be d5 99 c8 3d
       0.46220592 -0.030034259 -0.32311827 0.09794966
000300 b0 31 47 bd 51 d1 88 3e aa 87 c4 3e d1 c0 83 bd
       -0.04863137 0.26722196 0.38384753 -0.06433261
000310 81 a4 3a 3d 5e 90 64 be e3 67 e1 3d 50 3a 6c be
       0.04556704 -0.22320697 0.11006143 -0.2306912
000320 dc 71 6e 3e 50 43 38 3e 2e 53 32 be 96 d7 cc bd
       0.23285621 0.17994428 -0.17414543 -0.10002057
000330 69 6b b4 bd 22 35 0f 3e 79 56 8f 3d 7c 09 64 3d
       -0.08809549 0.13985112 0.06998915 0.055673108
000340 39 56 57 3e d5 96 b2 3e c6 5c 9a bd 95 23 6e 3d
       0.21028985 0.348807 -0.075372264 0.058139402
000350 e2 6a c7 3e 44 54 0a 3e c7 f1 c3 bd 73 21 73 bd
       0.38948733 0.13508707 -0.095676 -0.05935807
000360 51 f5 e8 bd 70 a9 3f 3e e3 93 3f 3e 2e 5b 54 be
       -0.113749154 0.18716979 0.18708758 -0.20737907
000370 e8 94 52 3c 4e d8 b3 bd 1a 99 1d 3e d1 2b 26 bc
       0.012852885 -0.08781491 0.15390435 -0.010142283
000380 0b 28 02 be 8f a7 33 be fc 44 9a be 00 bb 31 3d
       -0.12710588 -0.17544387 -0.30130756 0.043391228
000390 4d 6e 62 3e ff 32 9d 3d b3 69 cc 3d 71 c5 25 3e
       0.22112389 0.07675742 0.09981098 0.16188599
0003a0 12 51 98 be d4 25 af 3d ed 86 18 3e 85 29 7a bd
       -0.29749352 0.08552137 0.1489522 -0.061074752
0003b0 dc 62 05 3e 5f de 14 be 68 ca ea 3b 90 48 6e 3e
       0.13025993 -0.14537953 0.007165242 0.23269868
0003c0 de 06 d1 bc be a1 2c 3e bb d1 81 3e 83 09 1b 3e
       -0.02551597 0.16858575 0.25355324 0.15140347
0003d0 6e 47 fa 3c dd 00 93 3c d3 85 6d be 20 7c 83 bd
       0.030551638 0.017944748 -0.23195581 -0.06420159
0003e0 7d eb b0 3e 2b c4 f1 bd 8e 0d 44 3d 3a c2 88 be
       0.34554663 -0.11804994 0.04786449 -0.26710683
0003f0 00 15 77 3d 1b 9b fd 3d d1 fb c7 3c 52 62 97 bb
       0.06032276 0.123831 0.024412068 -0.004619875

network_body._body_endoder.seq_layers.0.bias f4 [256]
000000 41 5e 8c 3d f7 54 b6 3d 40 95 99 bc 7b 77 a3 3d
       0.06853915 0.089029245 -0.018747926 0.079817735
000010 c3 83 59 3d b9 40 5f 3d 52 28 61 3d 93 8a a4 3d
       0.053104173 0.054505084 0.054970093 0.080342434
000020 9c 25 b8 3c 10 55 ac bb 30 5d 4e 3d c8 b9 e8 3c
       0.022478871 -0.0052591637 0.05038184 0.0284089
000030 93 0a a9 3c 89 9b 5b 3d fa a0 78 3c 8a 16 04 3d
       0.020634925 0.053615127 0.015175099 0.032248057
000040 92 ee 8d 3d d6 b1 4d 3d 5d 62 57 3d 3a cf 01 3e
       0.06930269 0.050218426 0.05258404 0.12676707
000050 2d b0 df 3d d6 cd b9 3d 87 ad a2 3d 4f 04 ac 3d
       0.10922275 0.09072463 0.07943254 0.08399259
000060 c3 36 88 3d 86 24 15 bd f2 ce ab 3c 29 a3 7e 3d
       0.0665107 -0.036411785 0.020972703 0.06216732
000070 d3 20 08 bd f1 fd ae 3c 5e 20 95 3d 05 6e 69 3c
       -0.03323443 0.021361323 0.07281564 0.014247422
000080 27 48 e9 3c f2 6b f7 bc 0c 9e cc 3d 8c 42 e0 bb
       0.028476788 -0.03020284 0.099910825 -0.0068438705
000090 ff f3 7c 3d 83 1c 9f 3d a1 0d b0 3d e0 99 69 3d
       0.06175613 0.0776911 0.085963495 0.057031512
0000a0 c4 cd 5b 3d 03 23 87 3d 95 4d 11 3d 0c 89 7e 3d
       0.05366303 0.06598475 0.03547438 0.062142417
0000b0 16 a3 c5 3d 98 e9 bf 3d 7a e4 1d 3d 3e 63 84 3d
       0.09650247 0.09370726 0.03854797 0.064642414
0000c0 98 c4 56 3d 80 78 bb 3d bb 56 79 3d c9 62 1e 3d
       0.05243358 0.09153843 0.06087373 0.038668428
0000d0 58 41 b6 3d c1 13 0f bd 69 f4 54 3d e3 88 95 3d
       0.08899182 -0.03493095 0.0519909 0.073015
0000e0 3d cb ca 3d 6c 3b 92 3d 94 5f 79 3d 8a 1d 80 3d
       0.09902046 0.0714024 0.060882166 0.06255634
0000f0 b1 a8 87 3d 2d 40 c2 3d 5a 2a 7f bd 39 59 4a 3d
       0.06623972 0.09484897 -0.06229625 0.049401496
000100 6f c9 ab 3d 44 2f b1 3d 99 4a 8c 3d 0e 41 a9 3d
       0.0838803 0.08651593 0.06850166 0.08264361
000110 e5 35 af 3b 4d 84 92 3d 2b ce c1 3c 35 00 48 3d
       0.005347001 0.071541406 0.023657879 0.048828322
000120 30 c1 92 3d da 76 08 3d af e2 76 3d fa 67 db 3d
       0.07165754 0.03331647 0.060274776 0.10713191
000130 54 12 12 bc 99 4d 6f 3d 23 6a 81 3d b9 58 3b 3d
       -0.008915503 0.058423612 0.06319072 0.04573891
000140 ac 6d 90 3d 3c ef 87 3d cd e6 f6 bc 38 0e 11 3d
       0.07052168 0.06637427 -0.030139351 0.03541395
000150 e7 ac 65 3d 9e 7c 5b 3d 91 65 8d 3d e4 c4 8a 3d
       0.056073096 0.05358564 0.06904138 0.06775835
000160 f8 1b a1 bd 7f dd b4 bc 5c 78 b8 3d c4 e6 a4 3d
       -0.07866663 -0.022078274 0.09007332 0.080518275
000170 b1 5d 66 3d bb 06 22 3d b9 4e 86 3b a1 14 02 3d
       0.056241695 0.0395572 0.00409874 0.031757955
000180 dc af a3 3c 96 c1 b6 3d c0 d4 8a 3d c6 59 04 3d
       0.019981317 0.08923642 0.0677886 0.032312177
000190 da 2a a4 3d b2 7a 52 3d 5f 23 ca 3c d0 a9 6a 3d
       0.08015986 0.051386543 0.02467507 0.057290852
0001a0 57 5b 6c 3d 74 1b 88 3d 03 6e 21 3d 74 09 88 3d
       0.057704296 0.06645861 0.039411556 0.06642428
0001b0 7b 8c 80 3d cb 6e b5 3c 67 b4 0e bd 48 2d 51 3d
       0.062767945 0.022147557 -0.034840014 0.051068574
0001c0 fa ba 05 3d 08 34 b1 3d d9 19 92 bb 40 57 ba 3d
       0.032649018 0.08652502 -0.0044586477 0.09098673
0001d0 1d 8a 16 bc ac 4b ac bc 17 b2 63 3d ae 8d a4 3d
       -0.009188202 -0.021032177 0.05558976 0.08034836
0001e0 fe 1c a0 3d 51 50 51 3c 17 a2 63 3c 5b e7 b0 3d
       0.0781803 0.012775497 0.013893626 0.086378776
0001f0 e8 87 64 3d 59 aa 56 bd 17 b7 96 3d 32 8e 62 bd
       0.055793673 -0.05240855 0.0735914 -0.05531139
000200 65 0c e4 3c d5 f4 b3 3d b0 8b 49 3d a4 cc ac 3d
       0.027837941 0.087869324 0.049205482 0.084374696
000210 66 bf 24 3d 39 61 e2 3d 85 e1 5a 3d 82 25 95 3d
       0.040221594 0.110537 0.05343773 0.07282545
000220 9a bf 1a 3d d8 e4 f9 bb 16 71 85 3d ff 4b f0 3c
       0.03778038 -0.0076261573 0.0651571 0.029333113
000230 97 2e 90 3d 13 51 96 3d ef 72 a3 3d 12 7b 78 3d
       0.07040136 0.073396824 0.07980906 0.060664244
000240 9a 6b 19 3d be 10 81 3d f5 06 27 3d 79 bc 37 3d
       0.037456132 0.063020214 0.04077812 0.044857476
000250 5f 3c b4 3d 8a 28 d9 3b a1 57 ec 3d fc dc 8d 3d
       0.08800577 0.006627147 0.115401514 0.06926915
000260 f5 13 b2 3d e9 38 30 3d 6a 58 5c bd 5e ab 40 3d
       0.08695213 0.043023024 -0.053795256 0.04703843
000270 84 85 a0 3c 59 6e 78 3d 6f 88 c3 3d 23 27 8f 3d
       0.019594915 0.06065211 0.09547507 0.069898866
000280 4e 4e 21 3d c9 a6 a6 3d c0 67 82 3d d4 c5 93 3d
       0.039381318 0.081372805 0.06367445 0.07215467
000290 67 06 2f 3d b9 5c 59 3d d9 8c 90 3d 4b 2f 14 3d
       0.042730715 0.053066943 0.070581146 0.036177915
0002a0 52 4b 39 3d ca b3 7d 3d 02 6a 98 3d f4 e0 78 3d
       0.045237847 0.06193904 0.074420944 0.060761407
0002b0 e6 57 92 3d 2f b1 91 3d 9b dc 6e 3d f9 f1 79 3d
       0.071456715 0.07113873 0.058315855 0.06102178
0002c0 ea 18 c9 3d 8b a0 3e 3d 45 fa 7c 3d 43 e1 80 3d
       0.09819205 0.046539824 0.061762113 0.06292965
0002d0 41 7c 4d 3d 6a 2f 76 3d af d8 6a 3d 78 e4 89 3d
       0.050167326 0.06010381 0.05733555 0.0673303
0002e0 d1 a2 8f 3d 62 ea c7 3d e6 f7 68 3d 07 a2 57 3d
       0.07013477 0.09761502 0.05687704 0.052644756
0002f0 7f 9e a7 bd a7 93 b3 3d 19 c6 87 3d 25 f5 16 bd
       -0.081845276 0.08768397 0.06629581 -0.03685488
000300 d3 3c 91 3d ff 74 4d bd 79 44 5a 3d af 55 c1 3d
       0.070916794 -0.050160404 0.053287957 0.09440171
000310 c2 cf bb 3d 14 c0 7a 3d a6 9f 8c 3d e1 f2 6c 3d
       0.09170486 0.061218336 0.06866388 0.057848815
000320 68 97 90 3d a5 aa ff 3c 29 fa 96 3d 08 6c 85 3d
       0.070601285 0.0312093 0.07371933 0.06514746
000330 99 29 7e 3d 87 99 d7 3c 37 d7 dd 3d 7b 48 5b 3d
       0.06205139 0.026318325 0.108320646 0.05353592
000340 e8 a6 3d 3d 44 3c 9f 3d 42 26 3f bc d6 5b 9c 3d
       0.046301752 0.07775167 -0.011666836 0.07634704
000350 d5 63 ab 3d 0c 2c 16 bc 62 70 7b 3d fd 41 77 bc
       0.08368651 -0.009165775 0.061386473 -0.015091416
000360 72 e4 90 3d 36 5b 91 3d 93 d2 8a bd 31 25 a2 3d
       0.070748225 0.07097475 -0.06778445 0.0791725
000370 14 29 9a 3b 37 aa 67 3d df 5f 54 3d 6d 48 00 3d
       0.004704604 0.056558814 0.051849242 0.03131907
000380 88 08 26 bd 8e d3 aa 3d f0 52 69 3d fe 25 95 3d
       -0.04053548 0.08341132 0.05696386 0.07282637
000390 ec 4c 3c 3d 9f 5a 19 3d fb d3 0a bd 22 91 96 3d
       0.045971796 0.03743994 -0.033893567 0.07351901
0003a0 33 dc ac 3d ee e6 97 3d fc 68 98 3d cf c0 56 3d
       0.08440437 0.07417093 0.07441899 0.05242997
0003b0 02 5e f8 3d 8f 1f cd bc 0f 86 83 bc ae 9f de 3c
       0.121273056 -0.025039462 -0.016055135 0.02717575
0003c0 7f 15 5d 3d d0 2c 2d 3d 69 77 d8 bc 4f 6a 7a 3d
       0.05397558 0.042279065 -0.026424127 0.06113654
0003d0 97 08 81 3d 38 d6 8f 3d df d8 5a 3d 15 74 82 3d
       0.063004665 0.07023281 0.05342948 0.06369797
0003e0 e4 f5 fc 3d c4 cc b8 3d 14 f0 47 bd 9b fb 8d 3d
       0.123515874 0.09023431 -0.04881294 0.069327556
0003f0 f0 9e 6c 3d 30 ac a3 3d b3 a3 92 bc 9c 80 49 3d
       0.057768762 0.079918265 -0.017900323 0.049194917

network_body._body_endoder.seq_layers.2.weight f4 [256, 256]
000000 34 a2 9d bd 8f 97 ac bc f0 e4 5b bd f6 e3 d6 bd
       -0.076969534 -0.021068363 -0.05368513 -0.10492699
000010 48 13 3d 3b 90 81 56 bd 21 2c 5b 3d 6b 57 e0 bd
       0.0028850604 -0.052369654 0.05350888 -0.10954174
000020 e0 b2 33 bd 92 71 9a bd f9 ab 79 bc 35 85 9d bd
       -0.04387176 -0.07541193 -0.015238755 -0.07691423
000030 de 1f 30 3b 0f 7e 75 3d ad 43 1f bd 78 93 70 3d
       0.0026874463 0.059934672 -0.0388829 0.058734387
000040 0e ca 94 bd 3d 3d 98 bd c3 e4 f0 3c 50 af 1a bd
       -0.072651014 -0.07433555 0.029405957 -0.037764847
000050 68 1a 1b bd ad 3f b0 bd fe d7 3a 3d bc 2d 80 3c
       -0.03786698 -0.08605895 0.045616142 0.015646808
000060 24 64 08 bd 86 09 8e 3d 91 0b 9e bd 38 f7 e7 bc
       -0.033298627 0.0693541 -0.0771705 -0.028316125
000070 67 77 cd 3d c7 74 48 bc 5c 2c cd bd c0 8e 50 bd
       0.1003254 -0.012234873 -0.100182265 -0.050917387
000080 5b 3a 84 3d d7 ee fa 3c 8e 8e eb 3d 70 9a 3d 3d
       0.06456443 0.030631466 0.115017995 0.04628986
000090 85 11 89 bd e7 a7 f5 bb a9 5f 12 be 84 13 8d 3d
       -0.06692795 -0.007496822 -0.14294304 0.06888488
0000a0 fb 50 ae bd b8 46 d9 bd e7 4f c4 bb 73 11 99 bd
       -0.085115395 -0.10609192 -0.0059909704 -0.07474031
0000b0 5f 90 53 3a 87 48 dc ba d5 80 b5 3c 75 4a b1 bd
       0.0008070524 -0.0016806283 0.022156158 -0.0865678
0000c0 aa 42 9f bd 3b 31 1c 3c 6a 56 64 3d 3b 23 20 be
       -0.07776387 0.009533222 0.055746473 -0.1563844
0000d0 fa 69 f8 bb 30 95 75 3d c0 8c 3e 3d a1 36 48 bd
       -0.0075809928 0.05995673 0.04652095 -0.048880223
0000e0 e1 68 bd bd 20 82 ea bd b2 fe 5e bc 28 74 e0 3d
       -0.0924852 -0.114506006 -0.013610529 0.10959655
0000f0 ef 1a 8d 3b f5 10 c1 bd bc 2b 4e 3c d8 52 93 bd
       0.0043061893 -0.094270624 0.012583669 -0.071935356
000100 e2 bc 93 bd 7b 77 0f be cd 95 cf bc b3 da 85 bc
       -0.07213761 -0.14010422 -0.025339985 -0.016339635
000110 85 16 65 3b 5a 63 36 bd b9 fc d2 3d b9 8b 2e bd
       0.003495605 -0.044528343 0.10302109 -0.04261372
000120 9f fa 8d bd ac fc 24 3d ae 5e 84 bc 68 2b 26 bd
       -0.06932568 0.04028003 -0.016158428 -0.04056874
000130 f4 94 01 bd e6 8f 09 be f9 33 e8 3d d9 83 86 3d
       -0.031636193 -0.13433799 0.11338038 0.06568117
000140 94 d3 bc bd 0b 75 06 3d 16 98 03 3d 75 1b a7 bd
       -0.09220043 0.032826465 0.032127462 -0.08159534
000150 4d cf 85 bd a1 7b cf 3d d9 54 34 3d 76 16 5c 3d
       -0.0653368 0.10131002 0.04402623 0.053732358
000160 ba 9a f7 bb cd 20 58 3d c6 47 88 bd 6c 02 7f bd
       -0.0075562866 0.052765656 -0.06654315 -0.06225817
000170 34 b7 9f 3c fd 2b bf 3c 76 d4 ed 3d 44 c0 8d bd
       0.019496538 0.023336405 0.11612789 -0.069214374
000180 41 c2 86 bd ee ae a4 3d b9 d8 cf 3c f7 5c 86 bd
       -0.0658002 0.08041178 0.025371896 -0.065607004
000190 c1 ee db bc 3a a5 c9 bc e9 e1 3f bc 84 24 f1 bd
       -0.026847245 -0.024614919 -0.011711576 -0.11774543
0001a0 53 60 8c 3d 1b f3 a0 bd 6d 3b 92 bd 0d 19 52 bd
       0.0685431 -0.07858869 -0.07140241 -0.05129342
0001b0 b7 f2 b5 3b ed de 16 be 9e 69 5c 3d 64 c7 78 bd
       0.0055526155 -0.14733477 0.053811662 -0.06073703
0001c0 a5 eb 66 bd b6 91 83 bd 50 87 13 3d 02 ec 57 3d
       -0.056377072 -0.064242765 0.036017716 0.05271531
0001d0 89 1e de 38 f5 ef 1c 3c 0e e9 88 3c e0 d2 09 be
       0.000105914725 0.009578695 0.016712692 -0.13459349
0001e0 47 0e 01 be 61 31 34 bb b0 0b 14 be 61 3e 82 bd
       -0.12603103 -0.0027495252 -0.14457583 -0.06359554
0001f0 b5 28 4a bd 51 15 59 3c 1b fb 62 bd 61 42 b1 bd
       -0.049355228 0.013249711 -0.055415254 -0.08655239
000200 27 d6 04 bd ca a1 fa bd bb a2 07 be 12 4e 03 be
       -0.032430794 -0.1223789 -0.1324567 -0.1282275
000210 85 ae 80 ba 24 cc 89 bd ad ce e9 bd 59 6e 0c be
       -0.0009817636 -0.0672839 -0.114163734 -0.1371397
000220 0b e3 0a 3e 29 8d 68 bd 4b 6e 8e bd 86 60 bb bb
       0.13563173 -0.056775246 -0.069546305 -0.0057182936
000230 8f 05 ca bc 80 e2 6f bc f1 5a 80 bd fe 94 0d 3d
       -0.024660854 -0.014641404 -0.06267346 0.03456592
000240 a8 da 65 3c 06 df 8c bd c5 24 29 bb aa a5 ab bd
       0.0140291825 -0.06878476 -0.002580927 -0.08381207
000250 c0 6a 9a bd d2 de a3 3d 13 3d 13 bd a4 b8 5a bc
       -0.07539892 0.08001484 -0.035946917 -0.013349686
000260 30 9c 04 bc 5f 04 fb bd 4d 7e 28 bc 18 ee 6d bd
       -0.008093879 -0.12256693 -0.010284019 -0.058088392
000270 7b 02 89 3d 76 0d 64 3d a4 eb 3d bd 6f c9 55 3c
       0.06689926 0.0556769 -0.046367303 0.013048514
000280 d5 e1 03 3d b4 06 34 bd 99 be 42 bd e7 fe 92 3a
       0.032197792 -0.043951705 -0.04754505 0.0011214883
000290 3c e8 af bd fe 4f d1 bd 27 1c ad 3b 80 ad f1 bd
       -0.08589217 -0.102203354 0.005282897 -0.118006706
0002a0 d6 ec 77 bd 09 fa 6c bd 83 3b a5 bd 30 b0 04 bd
       -0.0605286 -0.05785564 -0.080679916 -0.032394588
0002b0 b7 88 dc bc 23 ee bf 3d e6 7c 96 3d cb 6e e3 bd
       -0.02692066 0.09371593 0.07348041 -0.111051165
0002c0 fa 9f 2d bd 8d b0 d3 bd d6 89 d8 3c a9 f9 31 bd
       -0.042388894 -0.10336409 0.026432913 -0.043450985
0002d0 6a 54 e0 bc 0e 9a 09 be 20 56 b1 bc 84 d6 db ba
       -0.027384002 -0.13437673 -0.021647513 -0.0016772305
0002e0 3c 38 77 3c 50 55 0c 3d 0f 26 ff bd 44 bc c6 3c
       0.015089091 0.034261048 -0.12458431 0.024259694
0002f0 a9 21 e0 3d bc e9 c0 bd ee 91 24 be 63 ec 03 be
       0.1094392 -0.09419581 -0.16071293 -0.12883143
000300 46 1d d9 bd ee bb 15 3e 42 14 80 bd a1 f1 8f 3d
       -0.106012866 0.1462247 -0.06253864 0.07028509
000310 61 ba 44 bc 9d 97 56 be 77 8c 44 3d 2d 86 3f bd
       -0.012007327 -0.20956273 0.04798552 -0.04675882
000320 f6 3e cf bd b2 ed 5e ba ae b7 85 bd fc fc 52 3d
       -0.10119431 -0.00085040473 -0.06529175 0.051510796
000330 7a 8d a6 bc 60 ae 0f be cd 48 ca bc e6 9f ee bd
       -0.020331133 -0.14031363 -0.024692917 -0.11651592
000340 c2 04 05 3c ae 2d 80 3d b2 08 fd 3b d2 6c 01 be
       0.00811881 0.06258713 0.007721984 -0.12639168
000350 4d 6d f0 bd 5a 8f cf bc b7 bb 90 bd a1 59 20 3c
       -0.117395975 -0.02533691 -0.07067054 0.009786994
000360 0e 4a 49 3d 38 1d 9c bb 2c 13 c1 bc b5 7a 99 3c
       0.04914289 -0.0047642253 -0.023568712 0.01873527
000370 15 8e 27 bc cc 6b 4d bd 16 d9 49 3d 11 0e 20 bc
       -0.010226746 -0.05015163 0.049279295 -0.009768979
000380 ec e8 30 bd 6b bb 44 bd 0f 1c 54 bd 5c cc 1c be
       -0.04319088 -0.0480303 -0.05178457 -0.15312332
000390 87 e5 2d 3c ff 7d 94 bd 0c 88 66 3c f3 b7 30 bd
       0.010613806 -0.07250594 0.014070522 -0.043144178
0003a0 54 68 a6 bc fe 6f db 3d 7e ec de bb 0d 5a f1 3c
       -0.02031342 0.1071472 -0.0068030944 0.029461885
0003b0 90 17 8b bc 27 b3 4d bc ae 8e 5d 3d cb 6d 01 be
       -0.016979009 -0.01255492 0.054091148 -0.12639539
0003c0 56 d5 9a bd 8b 6f 85 bd 06 8f 98 3b f4 f4 c5 bd
       -0.07560222 -0.06515416 0.0046557216 -0.09665862
0003d0 8f c6 8f bc bc 95 2b be 18 65 8f 3c 69 c6 10 bd
       -0.017550735 -0.16756338 0.01750426 -0.03534547
0003e0 eb 13 89 3b 12 78 52 3d 91 6b bf bc 49 e3 31 bd
       0.0041832826 0.05138404 -0.023366721 -0.043429647
0003f0 6a 48 88 bd 1a c7 b6 bd 5b 12 94 3a 35 b1 54 be
       -0.06654437 -0.08924694 0.0011296974 -0.20770724

network_body._body_endoder.seq_layers.2.bias f4 [256]
000000 97 51 4d bd 10 9c 7b 3d cd 60 69 3d cb a0 0a 3d
       -0.05012664 0.06142813 0.056977082 0.03384475
000010 73 31 cc 3c 7b 5a 66 3d 20 ff 4a bd ed 00 91 bc
       0.024925923 0.056238633 -0.049559712 -0.017700637
000020 2f 0d 56 bd a3 bd 8f bd 22 ae a9 3d 94 12 1a 3d
       -0.052258667 -0.07018592 0.08285166 0.037615374
000030 b4 12 13 3d d5 7b 28 3d 46 d4 53 3d f6 90 b1 bd
       0.03590651 0.04113372 0.05171611 -0.08670227
000040 92 f4 5a 3d 6f 45 3c 3d ab 86 87 bd d6 b0 9e 3d
       0.053455897 0.045964655 -0.06617483 0.077485725
000050 a5 b7 39 3d 0d 5c 9f 3d 2d 1c b9 3c 22 ec 7a bd
       0.045341153 0.07781229 0.022596443 -0.06126035
000060 3a 7c 5d 3d 52 2b 2e 3d 4d 6e 27 3d 87 48 84 bd
       0.05407355 0.042521782 0.040876675 -0.06459146
000070 9d 15 33 bd c8 9e 0d 3d 9b 29 22 bd 69 16 1c 3d
       -0.043721784 0.034575254 -0.03959046 0.03810731
000080 35 8e 8e 3d dc 38 f9 3c 32 3e 55 3d 7b 64 2b 3d
       0.069607176 0.03042262 0.052061267 0.041843873
000090 09 ef 08 3d 02 fa 12 3c 0c ff 17 3d c5 e1 0e 3d
       0.033431087 0.008970739 0.037108466 0.03488328
0000a0 b1 18 fd bc 28 08 91 3d b8 8d 4b bc 10 7c 23 bc
       -0.030895563 0.07081634 -0.012423925 -0.009978309
0000b0 d9 14 f2 3b ab 2c 5d bd b7 63 60 3d 8f ad 71 3d
       0.007387739 -0.053997677 0.054782595 0.05900341
0000c0 e5 db ea 3c 35 43 6e bd 04 d7 9c bc 74 44 d1 3c
       0.028669307 -0.058169562 -0.019145496 0.025545336
0000d0 2d e3 b4 3a 5b ca 81 bd f6 05 82 3d d4 81 34 3d
       0.0013800614 -0.06337424 0.06348793 0.044069126
0000e0 69 e6 3b 3d cd e9 6e 3d d8 f4 04 3d 1c da 5f 3d
       0.045874033 0.05832844 0.032460064 0.054651365
0000f0 b6 27 2e 3d 58 5d 38 3d da f5 f3 ba b0 23 19 3c
       0.04251834 0.045010895 -0.0018612698 0.0093468875
000100 10 1b 85 3c 57 01 43 3d 13 65 8f 3d 21 8a e2 3b
       0.016248256 0.0476087 0.070017 0.006913439
000110 67 de 51 bd ad 89 21 3d ca b9 cf 3c 0f 50 87 bd
       -0.05123749 0.03943794 0.025357146 -0.06607067
000120 aa 00 35 bd b5 86 3c 3c 83 99 c0 bc ee 9d 34 3d
       -0.044190086 0.011506726 -0.0235107 0.044095926
000130 ef 8b 03 3d fe c1 5f bd f1 f8 30 3c 3b 99 41 bd
       0.032115873 -0.054628365 0.01080154 -0.047265273
000140 08 20 5d 3d a4 12 25 3d b0 12 05 bb ca cc ed 3c
       0.053985626 0.04030098 -0.0020305328 0.029028315
000150 40 26 ce 3c 73 4c 84 3d 42 08 40 bd 27 68 86 3d
       0.025164723 0.06459894 -0.046882875 0.06562834
000160 cb 53 87 bd 67 48 2d bd a0 71 f6 bc 2e f9 10 3d
       -0.06607779 -0.042305376 -0.030083477 0.035393886
000170 f5 a7 df b9 19 62 88 3c ce 06 ed 3c cc 37 ac 3d
       -0.00042659012 0.01664834 0.028933909 0.0840908
000180 4c 28 45 bd 56 60 5d bd 1f 0a cc 3c ed 22 8a 3d
       -0.048134133 -0.05404695 0.02490717 0.06744943
000190 9f c7 25 bd 7b bf f5 3c 60 df ea 3c d6 52 34 3d
       -0.040473577 0.029998532 0.028670967 0.04402431
0001a0 d9 0f 07 bc 92 06 3e bc 19 6f 12 bd 70 19 33 bc
       -0.0082435245 -0.011598246 -0.035750482 -0.010931358
0001b0 22 20 c2 3c 39 50 71 bd 9a 5f 79 3d 7c 30 2e 3d
       0.023696963 -0.058914397 0.06088219 0.042526707
0001c0 af e7 ce bd 47 3c 1d 3d 84 52 a1 3d f1 c7 70 3c
       -0.10102784 0.038387563 0.07877067 0.014696107
0001d0 36 74 16 3d 1a 3b 13 3d 55 84 ae bc 29 fe 98 bd
       0.03673192 0.035945036 -0.021303335 -0.07470352
0001e0 cd d4 5b bd de 14 ab 3c 3d 64 23 bd 3e a4 5a 3d
       -0.05366974 0.020883974 -0.039890517 0.05337929
0001f0 c3 3e 4a 3b c1 27 6e bd 76 80 2b bd 44 02 60 3d
       0.0030860163 -0.05814338 -0.041870557 0.05468966
000200 72 fb 4d 3d 42 86 96 3d dd 1b 7d 3d 59 fa ee bb
       0.050288625 0.073498264 0.06179415 -0.0072930274
000210 84 11 84 3d 27 95 cc 3c d6 b8 27 bd 46 28 85 3d
       0.06448653 0.024973465 -0.040947758 0.06501822
000220 83 09 54 bd a4 09 47 3d 52 2d 55 3d 24 4a 9d bb
       -0.051766884 0.04859318 0.052045174 -0.004800098
000230 5a 54 bc 3c 8e 8e c6 bc 0d aa 13 bd 4d 80 7c bb
       0.02298944 -0.024237897 -0.036050845 -0.0038528622
000240 36 6a a0 3d d0 85 52 3d 4c 0a 43 3d f8 c8 4a 3c
       0.07832758 0.051397145 0.04761724 0.012377016
000250 c6 5b 31 bd 7d b5 89 bd 99 f3 35 bd 6d c0 6c bd
       -0.043300413 -0.06724069 -0.044421766 -0.0578007
000260 60 33 68 3d eb 20 6c 3d 59 71 cb bb 18 75 37 bd
       0.05668962 0.05764858 -0.0062085805 -0.044789404
000270 7e ac ca 3a f3 ec ae 3c 46 25 9d 3d d7 8a 5b 3d
       0.0015462784 0.02135322 0.07673125 0.053599205
000280 c5 8d de bb 57 7d f7 3c c6 75 e9 3c d6 53 77 3d
       -0.0067918026 0.030211134 0.028498542 0.060382687
000290 ac 17 7b 3c 3a a4 35 3d 19 f3 95 3d a5 49 65 3d
       0.015325468 0.04434607 0.07321758 0.055978436
0002a0 47 b1 5c 3c 1a c5 59 3d 58 0c 03 3d 97 f2 0f 3d
       0.013470001 0.053166486 0.031994194 0.03514346
0002b0 71 eb fb 3c 69 86 47 3d f9 50 96 bd 22 80 56 bd
       0.030751916 0.048712168 -0.07339663 -0.05236829
0002c0 f9 11 25 3d f5 7f 0b bd af 9c 61 bd 15 17 1c bd
       0.040300343 -0.034057576 -0.055081066 -0.03810795
0002d0 9c 53 80 3d b2 98 62 3d 7e c6 e7 3c e2 6f b1 3c
       0.06265947 0.055321403 0.02829289 0.021659795
0002e0 61 6a 22 bc 10 71 0d 3d ff 2f a7 3d ee 9a 6d bd
       -0.009913058 0.034531653 0.081634514 -0.05800908
0002f0 0e 0f 43 3d 02 45 13 3d 30 6f 3f bd 7e ea 18 3d
       0.04762178 0.035954483 -0.046736896 0.037333004
000300 94 33 a8 3c 48 e9 3c 3c a7 78 60 3d 32 6d da 3c
       0.020532407 0.011530228 0.054802563 0.026663397
000310 f2 a7 07 3d f5 74 22 bd 27 08 0b 3d 31 5c 2a 3d
       0.03311915 -0.03966232 0.03394332 0.041591827
000320 fa 98 54 3d 0c 19 88 bd d8 11 9e 3d d5 f3 fc 3c
       0.051903702 -0.06645402 0.07718247 0.030877987
000330 a5 3b 0a 3d d3 70 52 3d 96 e4 78 bc 47 d4 47 3d
       0.033748288 0.05137713 -0.015191218 0.048786428
000340 cb 56 af bc 79 87 88 bd 35 5b 16 3d d2 34 39 3d
       -0.02140369 -0.06666464 0.036708076 0.04521639
000350 86 9f 3b 3d b9 ea 9d 3c 45 9f a7 3c a8 b8 0f 3d
       0.04580643 0.019276964 0.020461688 0.03508821
000360 82 15 6d bd e3 2b 37 bd 01 14 24 3c 6e 67 86 bd
       -0.05788184 -0.044719588 0.010014535 -0.065626964
000370 de 1b 67 3c 3c 9d 4f bd ea 62 27 3d 11 2f 5d bd
       0.014105765 -0.05068706 0.040865816 -0.053999964
000380 e9 0d 60 bd 67 1c 30 3d 9b e7 66 3c ce 61 54 bd
       -0.054700766 0.042995837 0.014093305 -0.051851086
000390 96 ea 35 3d 7a 3e 4b 3d 87 18 2f 3d 3d 13 76 bd
       0.04441317 0.04962013 0.042748 -0.06007694
0003a0 36 9b 9c 3d 31 42 24 bd 3e f2 89 3d 35 6f 4b bd
       0.07646792 -0.040102188 0.06735657 -0.049666602
0003b0 30 9c 59 bc 9d 75 d6 bb 29 1e 1b 3d 3f c1 35 bb
       -0.013281867 -0.0065447823 0.03787056 -0.0027733592
0003c0 98 e1 2d 3d e9 12 22 3d 15 5f 7d 3d eb 96 84 3d
       0.04245147 0.039568815 0.061858255 0.06474098
0003d0 0a 00 22 3d 96 ba 43 3d 9c cb 54 3d e8 c6 5a 3d
       0.03955082 0.047785364 0.05195199 0.053412348
0003e0 d7 6b 61 3d 03 7c 1e 3d 3f e8 0f bd cb 46 25 bd
       0.055034485 0.038692486 -0.035133597 -0.040350717
0003f0 ed a5 a9 3c 22 0e f7 bc 40 3d a3 3d f0 d0 5c 3d
       0.020709002 -0.030158106 0.07970667 0.053910196

action_model._discrete_distribution.branches.0.weight f4 [3, 256]
000000 cd cd 6d 3c 30 d8 cc 3c 7a 42 9a bb a7 80 92 bc
       0.014514399 0.02500543 -0.0047076317 -0.017883612
000010 1c 8d 56 bb 60 89 df 3b dc 49 d8 3b f2 85 68 3c
       -0.0032737916 0.0068217963 0.0066006016 0.014192091
000020 db e6 77 3c 8c 48 0b 3d 20 b1 b8 3c 9c 9f f8 bb
       0.015130724 0.034004733 0.022545397 -0.0075873863
000030 25 9b 7d 3b e4 c7 4b bc 01 43 ee bb a3 91 38 3e
       0.003869721 -0.012437794 -0.007271171 0.18024306
000040 11 21 c2 3c 8c e2 5e bc ba 95 b6 3c c8 d1 bc bc
       0.023697408 -0.013603818 0.022288192 -0.02304925
000050 b4 b1 c3 3b ff e2 0c bb ac f0 b9 3c 48 65 bc 3c
       0.0059721116 -0.0021497605 0.02269777 0.022997513
000060 c8 f5 61 3c 7c 82 2a bd c6 9d 44 ba 0a dd ba 3c
       0.013791509 -0.041628346 -0.0007500317 0.022810478
000070 d7 d4 0d 3d 72 b8 6e ba ee 91 75 3d ab a4 ac 3c
       0.034626808 -0.0009106464 0.059953623 0.021074614
000080 57 fb bc 3b 24 da 8d 3c b1 e4 bc 3c 08 0e 97 ba
       0.0057672667 0.017315932 0.023058267 -0.0011524567
000090 20 78 11 3b ca e8 84 bc 07 03 98 bc ba 42 30 3a
       0.0022196844 -0.016224284 -0.018556131 0.000672381
0000a0 9c 32 8b ba 48 26 1a bc b8 10 8f bc c9 47 a9 bb
       -0.0010619941 -0.009408541 -0.017464027 -0.005166028
0000b0 e6 ac 51 3c 05 a5 09 3d 58 70 a7 3c 96 c5 38 bc
       0.01279757 0.03360464 0.020439312 -0.011277577
0000c0 76 29 88 bb 12 e7 09 bd 6b ee ad 3b 4e 82 e5 bc
       -0.004155333 -0.03366763 0.0053079627 -0.028016236
0000d0 82 4a 09 bc a0 73 0f 3c 0f ff d7 3b e4 26 18 bc
       -0.00837958 0.0087555945 0.0065916847 -0.009286616
0000e0 e4 0e a1 bc f9 69 a6 bc 9b b2 43 3c ff 84 3d 3b
       -0.01966042 -0.020314204 0.011944438 0.0028918383
0000f0 38 5a 70 bb 7b e6 3a 3c 90 40 16 3d 54 da a8 bd
       -0.0036674868 0.01140749 0.036682665 -0.08244768
000100 3b 7b 88 bc eb fc c3 3a 91 88 56 3c e9 90 2b bc
       -0.016660323 0.0014952695 0.013094083 -0.010471561
000110 ad 77 87 3c 44 9b 2c 3b ed 1f 48 3c 96 49 ae 3c
       0.016536558 0.0026337663 0.012214643 0.021275323
000120 f1 d4 3c 3d b4 39 9c 3b 11 4b a4 3c 5d c9 21 bc
       0.046101514 0.004767621 0.020055326 -0.009874669
000130 d2 fc 0c be dc 43 66 3d 51 f7 02 3c 71 ef 7e ba
       -0.13768318 0.05621706 0.007993535 -0.00097250106
000140 02 15 55 bb 4f ca f3 3b d2 40 b9 3c 47 8e 82 39
       -0.0032513742 0.0074398885 0.022613917 0.00024901537
000150 cf 96 e4 3b ab dc 98 bb 61 a0 ba 3c dd b6 90 3b
       0.0069759856 -0.0046649775 0.022781553 0.0044163303
000160 22 00 07 bc 47 57 9b 3c 56 1a c8 3d b2 1e 2e 3c
       -0.008239778 0.018962516 0.09770648 0.0106274355
000170 3f 1f a2 3d 97 fb 0a bc 64 3d 14 3b f0 65 36 bc
       0.07916116 -0.008482835 0.00226196 -0.011132702
000180 35 6c 9b 3b 3d e4 01 bc 21 9d be 3b ed ff a8 3c
       0.004743124 -0.007927951 0.005817071 0.020629847
000190 04 f5 0e bc 77 d7 01 bc 8a bb 7e 3a 54 65 ac 3c
       -0.008725408 -0.007924906 0.00097172766 0.02104441
0001a0 b7 79 25 3b 97 42 73 bc ad f3 81 bc 6b ac 07 3c
       0.002524955 -0.014847419 -0.015863264 0.008280854
0001b0 bc 93 4e 3c 08 69 8c 3c 00 73 60 bc 1c 9d b5 3c
       0.012608465 0.017139927 -0.013699293 0.022169642
0001c0 b7 a1 ad 3d 32 e6 eb 3b a3 25 ca bc 44 1c 42 3a
       0.0847811 0.0071990723 -0.02467615 0.00074047246
0001d0 c1 ce 33 3c e5 3c 8c bc 35 4a f3 3c 19 b5 a8 3d
       0.010974587 -0.01711888 0.02969847 0.08237667
0001e0 4c f5 b1 3c 7a 43 aa 3c 13 0c 19 3c 51 14 a3 bb
       0.021723412 0.020784128 0.009341258 -0.004976787
0001f0 be cb 10 3c be 70 26 3c dc 87 18 3d 0e 6a 9e 3c
       0.008837638 0.010158716 0.03723894 0.01933768
000200 e8 84 2c bb bf 7f 0c 3c 4e 15 e4 3c b7 ef 9e 3d
       -0.0026324335 0.008575379 0.02784219 0.07760566
000210 ff 6e 5f bc 60 97 0a bc fd fb ad 3d 0d 33 8c bc
       -0.013637303 -0.008458942 0.084953286 -0.017114187
000220 7b 1e 8d 3d b0 25 00 ba 94 b0 d4 bb c2 5f 0f 3d
       0.06890579 -0.00048884284 -0.0064907763 0.03500343
000230 74 50 4c bc 97 b6 14 3d 94 be fd 3b ca 51 cf 3c
       -0.012470353 0.036306944 0.007743666 0.025307555
000240 dc 12 d5 b9 5d a1 2d 3c 9a 18 91 bd bf 51 86 3c
       -0.00040640577 0.010597554 -0.070847705 0.016396401
000250 be 63 8a 3c 50 a2 80 3c e9 29 bf 3c 40 32 b1 3c
       0.016893264 0.015702397 0.023335414 0.021630406
000260 e2 d2 0e 3d 8f 86 a3 bc 1d db 58 3c bc f2 f2 3c
       0.034869082 -0.019961623 0.013235834 0.02965676
000270 c0 ff b0 3b 54 6d c1 3c 18 2f 01 bc aa fc 86 bb
       0.0054015815 0.023611702 -0.007884763 -0.0041194754
000280 13 93 e7 bb 7e 5c 83 3b ed ff a9 bc 69 b3 b7 3c
       -0.007067093 0.0040088287 -0.020751918 0.022424417
000290 8a 73 3f bc eb 82 91 ba ea f1 19 bc e7 08 04 3d
       -0.0116852615 -0.0011101639 -0.009396056 0.032235052
0002a0 35 6b 21 bc 02 4f 23 bb 79 bb 0f bc 1e f3 b3 3c
       -0.00985222 -0.0024918918 -0.008772724 0.021966513
0002b0 58 c6 04 3b c1 53 4b 3c 76 0a 94 3d cd 9f 16 3d
       0.0020259824 0.012410105 0.07228558 0.03677349
0002c0 14 26 96 3b b5 74 bb bc f9 f3 7b 3d 07 f6 b0 3c
       0.004582176 -0.022882799 0.061511967 0.02160169
0002d0 14 58 2e 3c b8 bc 8e 3c b2 f9 d9 bb 92 84 d1 bb
       0.010641117 0.017423972 -0.0066520805 -0.0063939774
0002e0 7b c0 b8 3d 60 63 6c bb 30 79 b4 bb 48 40 6b 3c
       0.09021088 -0.0036069974 -0.0055076107 0.014358588
0002f0 ca 93 73 39 e0 a7 9a bb eb e8 8d 3c c9 fb 38 bb
       0.00023229342 -0.0047197193 0.017322978 -0.0028226248
000300 9d 3c f4 39 f0 22 93 bc 5c b3 23 bc 6e 2c b7 bb
       0.00046584467 -0.017960995 -0.009991493 -0.005590013
000310 e0 12 96 3d 64 06 87 3c f3 ea 56 3c 52 ee b5 3c
       0.07327819 0.01648254 0.01311754 0.022208367
000320 b7 02 a3 3c 17 51 23 3c a2 06 19 bd 6f 45 95 bc
       0.019898755 0.009968064 -0.03735984 -0.018221585
000330 3f ee e1 bb 76 04 be bc fc 48 7c 3c fe 10 78 3b
       -0.006894856 -0.023195487 0.01539826 0.0037851925
000340 9d 26 0d 3b ef f0 00 3c cf f7 cf 3b 67 e8 3b bc
       0.0021537908 0.007869943 0.0063466798 -0.011468983
000350 e4 41 80 bc 35 c6 a4 3b 51 1b f7 3b 81 ac 07 bd
       -0.01565642 0.005028511 0.007541098 -0.033123497
000360 7f 41 4f 3c 6a 55 bf 3c 43 60 c8 bc b0 03 9b 3c
       0.012649893 0.023356158 -0.024459964 0.018922657
000370 55 c0 67 bd 67 e5 59 bb 85 4c 32 3c 15 9f c5 3c
       -0.056579906 -0.0033248307 0.0108825015 0.024123708
000380 a5 37 b7 3b 34 c5 f9 3b 42 b9 10 bd 51 e3 1b 3d
       0.00559135 0.0076223854 -0.035332926 0.038058583
000390 86 2c 5e bc 81 76 0e 3d 07 6f 3a 3c 3f fe 39 3d
       -0.01356042 0.034780983 0.01137901 0.045408484
0003a0 0a 06 24 ba ba e1 da bc f3 2b 12 3d 55 7f 5b 3d
       -0.00062570034 -0.026718963 0.035686444 0.05358823
0003b0 a7 11 cc bc 17 41 04 bb aa 4d 86 3c d3 73 79 3b
       -0.024910761 -0.0020180398 0.016394455 0.0038063421
0003c0 37 c5 23 3c de 29 06 bc 65 5d 1f 3d 6b 62 fe bb
       0.00999575 -0.008188693 0.038907427 -0.007763197
0003d0 02 70 6b bb bc 6a 80 bb 22 e8 b1 3b 03 1b cc 3c
       -0.0035924916 -0.0039189737 0.0054292837 0.024915224
0003e0 13 9e 19 bd fd 25 1d 3b 36 1b c2 3d 41 ca d0 ba
       -0.037504267 0.0023978942 0.09477846 -0.0015929417
0003f0 3a 94 b1 bc 2f e1 12 3b 50 42 44 b9 f0 23 25 bb
       -0.021677125 0.0022412052 -0.0001871672 -0.0025198422

action_model._discrete_distribution.branches.0.bias f4 [3]
000000 b6 0c 58 bc 60 ad bc 3c 3f f3 b3 bc
       -0.013186624 0.02303189 -0.021966575

action_model._discrete_distribution.branches.1.weight f4 [3, 256]
000000 47 00 44 bd de eb d1 3c 76 fa 18 bc 7d 07 2e 3c
       -0.047851827 0.025625166 -0.009337058 0.0106219025
000010 84 88 a7 bc 0c 7f 74 3c c7 fa 72 bd 3a f5 ab 3b
       -0.020450838 0.014922868 -0.05932119 0.005247739
000020 0c 66 24 bd d8 38 65 bd 54 86 bd 3c 2a 57 f6 39
       -0.040136382 -0.055962414 0.023135342 0.0004698572
000030 b9 67 93 3c 27 f3 a2 3c 63 20 bb 3c 42 6c bc bc
       0.017993795 0.019891335 0.022842592 -0.02300084
000040 f4 bf 04 3c bc 42 82 3c 8b fa 4c bd 8b 51 fe 3c
       0.008102406 0.015900962 -0.050043624 0.031044742
000050 82 d9 9e bb 2c b0 cb bb d5 fb 8e bc 28 26 47 bd
       -0.0048477063 -0.0062160697 -0.017454067 -0.048620373
000060 85 6d cc 3c 3b af 54 3c 6e 1b 4a 3b 5d 3a 48 bd
       0.024954567 0.012981231 0.0030839103 -0.048883785
000070 8b de 5d bd 26 73 45 3b f0 4a 2f bc 83 d8 71 ba
       -0.05416731 0.0030128448 -0.010699019 -0.0009225683
000080 12 e0 b9 3c e8 e8 09 bd f6 74 8c bb 55 2c ac 3c
       0.022689853 -0.033669382 -0.004286404 0.021017233
000090 8f f9 fa 3c 11 7c 97 3c e7 3a bb bb 65 3b af 3c
       0.030636577 0.018491777 -0.005713809 0.021390626
0000a0 64 eb 5c bc 77 9b 81 3c cb 22 92 bc cd db d3 bb
       -0.013483856 0.015821202 -0.017838856 -0.0064654113
0000b0 72 79 2f bb aa 7b 41 bd cb a7 70 3c 4e 3d c1 3c
       -0.0026775268 -0.047237076 0.014688442 0.023588803
0000c0 ee 02 0f bb a1 34 89 bd 2d df 43 3c a4 30 c6 bb
       -0.0021821815 -0.06699491 0.011955065 -0.006048279
0000d0 b0 e4 19 3c 37 25 0a bd 67 56 1e 3d 37 74 1d 3b
       0.009392902 -0.033726897 0.03865662 0.0024025568
0000e0 4b 5b 84 3c 29 3c 58 3c 90 8b 51 3c 48 66 ce 3a
       0.016156813 0.013197937 0.012789622 0.0015747035
0000f0 28 ec 54 3c 70 68 d5 3b 51 e8 33 3b 37 07 bb bc
       0.012995757 0.006512694 0.0027451704 -0.022830589
000100 e6 79 c7 3c 2e bf a6 3b d1 e8 ab 3c bd d4 d1 bb
       0.024350118 0.0050887084 0.020985039 -0.006403534
000110 6e 0a 40 bd 7f 4c 9b 3c 05 ec 34 3c 91 f4 ef bc
       -0.046884947 0.018957375 0.0110426 -0.029291423
000120 91 7a 6e bc 83 10 15 3c 9b 03 4b bc 4b b0 0a 3c
       -0.014555589 0.009098175 -0.012390996 0.008464883
000130 ec 38 48 3a 66 87 35 bd bc 2a 36 3b b6 4d 53 bd
       0.00076378766 -0.04431858 0.0027796468 -0.051587783
000140 d6 67 16 3c 53 b2 13 3c 8d 44 20 bc d7 31 0b 3c
       0.00918003 0.009014684 -0.009781969 0.008495769
000150 c1 b0 9a 3c 60 3c 11 3c c8 1c 43 bd 65 1d ba 3b
       0.018883111 0.008864492 -0.04763487 0.0056797736
000160 f5 f4 24 bd 1f c5 07 bd c9 ed 9d bb e4 50 a2 bb
       -0.04027267 -0.033146974 -0.004819606 -0.0049534906
000170 97 0a a9 3c 42 ec 02 3c 4a ca c8 3c 30 cf 08 3c
       0.020634932 0.007990899 0.024510521 0.008350179
000180 f2 77 7b bd bf 69 6b bd 6a d7 41 bc b5 aa e1 bb
       -0.061393686 -0.057473894 -0.011831144 -0.006886805
000190 d7 e5 40 bd b5 cc d8 3b 39 71 8c 3c 39 1f db bb
       -0.047094192 0.0066162 0.017143833 -0.0066870716
0001a0 97 58 82 3b 5a e9 c9 bc c9 2b 4b bc 1b 13 0b 3b
       0.003977846 -0.024647404 -0.012400576 0.0021221105
0001b0 7b c4 69 bc 29 17 8e bd e5 96 70 3c 55 26 2a bb
       -0.014268036 -0.06938011 0.014684414 -0.002596279
0001c0 2e 8c 3f bd dd 19 15 bb ba 43 00 3d 5f 5b 83 bb
       -0.046764545 -0.0022751011 0.03131459 -0.004008695
0001d0 1e 47 e2 3b 32 6b 98 3c 7a d3 b5 bc 19 35 52 bd
       0.0069054505 0.018605802 -0.022195566 -0.05132017
0001e0 44 bc 64 bd ac d6 f1 3b 93 b3 31 bd c9 46 71 3b
       -0.055843607 0.007380327 -0.043384146 0.0036815873
0001f0 55 a8 94 ba 1e c9 5a bd 42 b8 a2 bb 8b cc 51 bb
       -0.0011341671 -0.053414457 -0.004965813 -0.0032012786
000200 14 3e 35 3c b0 70 dc 3c 40 80 ef 3c 29 d3 95 3c
       0.011062164 0.026909202 0.029235959 0.018289166
000210 f8 77 fd 3c 24 99 01 3c a8 49 1c bd 3f d4 f6 3b
       0.030940995 0.007910047 -0.03815618 0.007532626
000220 7e 77 85 bb ba ea 70 3c 42 56 be 3c cf ba 07 bd
       -0.0040730825 0.014704401 0.02323449 -0.03313714
000230 06 f2 28 3c f0 cc c3 bd 47 3e 71 bd 1a 7c 85 3c
       0.010311609 -0.09560573 -0.058897283 0.016294528
000240 4d a9 06 3d 19 ea 44 3c c6 56 20 3c 62 10 81 3c
       0.0328763 0.012018704 0.009786313 0.015754882
000250 3d 39 46 bd ab f2 2c bd 4d 9a 8c bc ae 47 83 bd
       -0.04839443 -0.042223614 -0.01716342 -0.06410156
000260 b0 8f d7 3b 2f 94 bb 3c ff 2f db 3b 6c d6 7a bd
       0.006578408 0.022897808 0.006689071 -0.061239645
000270 bd 61 ca bc 40 9a 69 3c a1 55 ce 3c dd 03 8e 3c
       -0.024704808 0.0142579675 0.025187315 0.017335827
000280 31 0b 90 bc 96 94 91 3b 1d 7b 4d 3c 79 0f b3 3c
       -0.017583461 0.0044427617 0.0125415595 0.021857964
000290 b2 93 34 bb 05 42 a7 3c fe c8 3e 3c cb 7f aa 3c
       -0.0027553854 0.020417223 0.0116446 0.02081289
0002a0 5a e7 19 bc 19 eb 2a 3c 56 0c 87 3c bf 28 d6 3b
       -0.009393537 0.010432028 0.016485374 0.006535619
0002b0 7f 62 aa 3b 69 a7 0b bb 31 95 02 bd 36 27 2b bd
       0.00519973 -0.00213095 -0.03188056 -0.04178544
0002c0 7b 19 d8 3a fd 1b 7e bd 43 b0 f9 bc 90 d8 3e bd
       0.0016487086 -0.06203841 -0.030479556 -0.04659325
0002d0 cd 83 cd 3a f0 67 6b 3c 1d 2d 85 3c 7a 5e 94 3c
       0.0015679538 0.014368042 0.016256863 0.018111456
0002e0 0a 76 f0 bc 6b 1f 1c bd 74 5e e4 b7 68 ba 07 bd
       -0.02935316 -0.0381159 -2.7223701e-05 -0.033136755
0002f0 fd 66 f6 3b f3 f7 67 3c ac 92 58 bd b4 ee 9d bc
       0.0075196014 0.014158237 -0.052874252 -0.019278862
000300 40 e0 e1 ba 28 cf 93 3c 51 60 b8 3b 62 eb 17 bb
       -0.0017232969 0.018043116 0.005626716 -0.002318107
000310 21 ff bd 3c 6f fd 65 bd 9b ae b7 3c 5f b1 1c 3d
       0.023192944 -0.056149896 0.022422126 0.03825509
000320 c3 57 b1 bb 70 a2 2f bd 65 91 0e 3d 9c 85 bd 3c
       -0.0054120733 -0.04287952 0.034806628 0.023134999
000330 c3 5e 29 3c 22 fd 58 3c 68 3f 2f bc f8 e2 aa 3c
       0.010337534 0.013243945 -0.01069627 0.02086018
000340 32 41 6b bc c2 68 31 bd 7b f3 8f 3c 21 d3 d5 bc
       -0.0143588055 -0.043312795 0.017572155 -0.02610165
000350 54 bc 79 3a ba d6 ac 3b bb 4f 8c bb 3d 9e f6 ba
       0.0009526659 0.005274621 -0.0042819656 -0.0018815469
000360 c1 51 54 bd c6 20 2e bd 6f 85 bf bb 07 b1 88 bd
       -0.05183578 -0.042511724 -0.005844764 -0.0667439
000370 63 f6 8c 3b bd b7 11 bd 5a 6f ba 3c ec 4c 54 bd
       0.0043018325 -0.035575617 0.022758175 -0.05183117
000380 a8 fa 60 bd 38 a7 4b 3c a8 a0 df ba 5b a4 4d bd
       -0.054926544 0.012430005 -0.0017061429 -0.05020557
000390 97 58 b9 3c 5a 9a 3b 3c d1 be c2 ba 3b d3 49 bd
       0.02262525 0.0114503745 -0.0014857893 -0.04927371
0003a0 09 c9 c2 3c 9e b4 56 bd 9a ec 26 3c e0 0d 80 bd
       0.023777502 -0.052418344 0.010188246 -0.062526464
0003b0 89 5d 0c bb e1 ae 6d bb 07 52 22 bc b7 48 57 3b
       -0.0021418056 -0.0036267566 -0.009907252 0.0032849738
0003c0 04 ec 95 3c 28 3f 91 3c 34 05 cf 3b 31 59 66 3c
       0.018301018 0.01773031 0.006317759 0.014059351
0003d0 8c 7a c7 3c 2e 29 be 3b ee c8 a4 3c a5 b7 df 3c
       0.024350427 0.005803249 0.020115342 0.027309248
0003e0 54 bf 1b 3c b9 fc 18 3c 4f 90 1c bd b6 e7 39 bd
       0.009506065 0.0093375975 -0.03822356 -0.045386992
0003f0 bc 6a 09 3c c3 ea 28 bd 89 2f 2e 3d a5 cb c2 3c
       0.008387264 -0.04123951 0.0425258 0.023778746

action_model._discrete_distribution.branches.1.bias f4 [3]
000000 41 0b cf 3c cb cc 9b bc c9 16 da bc
       0.025273921 -0.019018551 -0.026622193

onnx::Div_78 f4 [28]
000000 77 4a cd 3e ac 4b cd 3e 1d fb 68 3b de e6 3e 3e
       0.40095875 0.40096796 0.0035550066 0.18642756
000010 63 02 f2 3e 89 03 f2 3e e9 bd a4 3b c5 60 3a 3e
       0.47267446 0.47268322 0.005027522 0.18200977
000020 f1 51 d3 3e 26 5c d3 3e 53 ba 2e 3c 66 eb 48 3e
       0.41273454 0.4128124 0.01066454 0.19621047
000030 d7 7b ff 3e ac 77 ff 3e 00 d4 b5 3c b0 2c 31 3e
       0.4989917 0.4989599 0.022195816 0.17302203
000040 22 ac f6 3e 8f ac f6 3e 1d fb 68 3b 07 25 54 3e
       0.48178202 0.48178527 0.0035550066 0.2071725
000050 bd 01 d1 3e 6e b5 d0 3e 54 b3 ea 3c b5 f7 31 3e
       0.4082164 0.4076342 0.028649963 0.17379649
000060 4b e6 fa 3e fc e5 fa 3e 1d fb 68 3b 0d d2 50 3e
       0.49003825 0.4900359 0.0035550066 0.20392628
