results/Racing_Imitation5/Driver.onnx (onnx, 305142 bytes, 11 tensors)

discrete_act_size_vector f4 [1, 2]
3.0 3.0
00000000: 0000 4040 0000 4040

network_body.observation_encoder.processors.0.normalizer.running_mean f4 [28]
0.15939422 0.84059584 0.0 0.26482233 0.28953257 0.71044767 9.950949e-06 0.2530735
0.17242979 0.8274804 7.960755e-05 0.2888816 0.51648396 0.48312828 0.00037813565 0.25654578
0.3352175 0.6647732 0.0 0.32970068 0.7981749 0.20117815 0.00063686044 0.2736479
0.61278903 0.38720122 0.0 0.3590917
00000000: 3d38 233e 4a31 573f 0000 0000 cb96 873e
00000010: 9d3d 943e e6df 353f 00f3 2637 da92 813e
00000020: 6f91 303e c1d5 533f faf2 a638 4ae8 933e
00000030: 4b38 043f 975c f73e 8240 c639 f859 833e
00000040: a1a1 ab3e 942e 2a3f 0000 0000 87ce a83e
00000050: 3155 4c3f a501 4e3e fbf2 263a 941b 8c3e
00000060: bedf 1c3f 3d3f c63e 0000 0000 deda b73e

network_body._body_endoder.seq_layers.0.weight f4 [256, 29]
-0.035621107 -0.017842645 -0.08899458 0.13830929 -0.103126325 0.2544852 -0.086916484 -0.06726256
0.109502725 0.10322107 -0.008615213 0.16448414 -0.13678114 0.49546185 0.46907383 0.25636935
0.04472289 0.10156011 0.13226105 -0.24499598 -0.11255393 0.27098835 -0.022769734 -0.47708717
0.34780148 0.1841284 0.14154045 0.2646086 0.040748123 -0.04606099 -0.1682943 -0.13739055
-0.30991727 -0.17058474 -0.031428847 0.1961734 0.21851128 0.11059695 0.045356177 -0.31795818
-0.03790686 -0.4085882 0.38495746 0.13207148 0.07611662 0.28524628 -0.39718577 -0.29250047
-0.12569042 -0.24528207 0.04790147 -0.049236592 0.045426484 0.24797651 -0.40915972 -0.26349127
0.12813143 0.19024324 0.11045679 -0.13565405 -0.099282004 0.032881226 -0.13823427 -0.41027585
-0.20159724 0.30245718 0.13875745 0.08334184 0.03133276 0.11624379 0.0008673701 0.28838703
-0.0036776308 0.2389606 0.19893931 -0.041240312 0.115144305 -0.13659137 -0.21164814 0.098609075
-0.038092203 0.15510407 -0.3318414 0.15947507 -0.0053949463 -0.1582899 0.18456475 -0.022530207
-0.11972325 -0.15055582 0.36613357 -0.47804356 -0.22812735 -0.07573804 -0.12940682 0.52128756
0.11025042 -0.21614268 0.14853814 0.115625866 0.17883946 0.23294105 0.32699126 0.25504458
-0.13024308 -0.43254167 0.10346635 -0.124942295 -0.28001833 0.1164467 -0.31072316 0.0595088
-0.22197008 -0.12276974 0.083346695 -0.23621674 -0.105671614 0.0024412044 0.16639075 -0.26059368
-0.31055477 0.24440938 -0.20528282 0.037987374 0.1923993 -0.053817526 -0.38481355 0.13029791
0.029648552 0.09615441 0.06731867 0.12474215 0.37362656 0.12003288 0.0074970676 -0.22513025
0.22665697 0.02074343 -0.16619913 -0.22606735 -0.21121195 0.33342245 0.19489604 0.13333909
0.026861085 0.13783604 -0.0012706809 -0.32999682 0.43627566 0.0048856507 0.15105268 0.0030819564
0.11129163 -0.33118424 -0.12285874 0.26157698 0.29587588 0.3835123 0.15393879 -0.058325086
-0.0104253 0.26651785 0.051242694 0.35204473 -0.06178325 0.008073331 0.05695123 0.52764606
-0.076800786 0.0056195157 -0.21825103 0.15071502 -0.05316059 0.0009803612 -0.21923415 0.17158449
-0.17290662 -0.16703379 -0.1550561 0.20032315 -0.1576714 0.05722021 -0.28700477 0.09908305
0.23579776 -0.07522015 0.28395054 -0.16398378 0.47771037 -0.036677253 -0.32643518 0.10126646
-0.04863137 0.26332664 0.39057276 -0.07121741 0.051559184 -0.22150147 0.10844832 -0.2290782
0.23285621 0.18179935 -0.15633425 -0.09320717 -0.09490823 0.13985112 0.0684846 0.054026067
0.21194044 0.34221408 -0.07697484 0.054224595 0.39329296 0.1427529 -0.09385057 -0.062387057
-0.11082396 0.19493537 0.18339519 -0.21159564 0.017069548 -0.08781491 0.14734465 -0.014335479
-0.123143375 -0.16666076 -0.30300474 0.041248985 0.22326611 0.07675742 0.08821102 0.17298467
-0.29560387 0.08363165 0.1489522 -0.06456428 0.13484907 -0.14997691 0.009756918 0.23245889
-0.028171752 0.17118363 0.26009226 0.15565653 0.019928006 0.02861441 -0.23880129 -0.06727251
0.34306622 -0.11556933 0.04786449 -0.27269724 0.056291435 0.1260643 0.04856745 -0.0023894329
00000000: 70e7 11bd bd2a 92bc ca42 b6bd f3a0 0d3e
00000010: e533 d3bd e24b 823e 4501 b2bd f4c0 89bd
00000020: f742 e03d 9165 d33d d326 0dbc 886e 283e
00000030: 5b10 0cbe 2dad fd3e 722a f03e d842 833e
00000040: 592f 373d bffe cf3d 716f 073e 3ae0 7abe
00000050: ad82 e6bd fcbe 8a3e 9887 babc c544 f4be
00000060: 0913 b23e 288c 3c3e fbef 103e c77a 873e
00000070: 81e7 263d 73aa 3cbd 5755 2cbe 1cb0 0cbe
00000080: 7aad 9ebe c4ad 2ebe 89bb 00bd aee1 483e
00000090: 6cc1 5f3e a780 e23d 66c7 393d 6acb a2be
000000a0: 3944 1bbd 7932 d1be 2519 c53e bf3d 073e
000000b0: 08e3 9b3d cd0b 923e ef5b cbbe 9fc2 95be
000000c0: fdb4 00be 392b 7bbe 5534 443d 4fac 49bd
000000d0: 1f11 3a3d 8eed 7d3e 627d d1be 54e8 86be
000000e0: e334 033e 20cf 423e 2b37 e23d e5e8 0abe
000000f0: 5d54 cbbd 77ae 063d 498d 0dbe ad0f d2be
00000100: 826f 4ebe abdb 9a3e 6f16 0e3e 20af aa3d
00000110: c856 003d 3911 ee3d 3960 633a 77a7 933e
00000120: 6804 71bb 16b2 743e bfb6 4b3e 9aeb 28bd
00000130: c7d0 eb3d 9cde 0bbe 4aba 58be 8ef3 c93d
00000140: 9206 1cbd 9ad3 1e3e 1ee7 a9be 6f4d 233e
00000150: 17c8 b0bb bf16 22be 8bfe 3c3e 4591 b8bc
00000160: 7731 f5bd 4e2b 1abe dc75 bb3e 20c2 f4be
00000170: 379a 69be 8c1c 9bbd 3983 04be 1a73 053f
00000180: f9ca e13d 8254 5dbe 621a 183e 41cd ec3d
00000190: b121 373e 1988 6e3e 666b a73e 3495 823e
000001a0: 715e 05be 1a76 ddbe 2ae6 d33d bfe1 ffbd
000001b0: 905e 8fbe 9c7b ee3d 1b17 9fbe 80bf 733d
000001c0: 204c 63be b46e fbbd acb1 aa3d cde2 71be
000001d0: 5c6a d8bd 9dfc 1f3b 5662 2a3e 896c 85be
000001e0: 0901 9fbe 7446 7a3e a935 52be a698 1b3d
000001f0: 5204 453e c46f 5cbd 4806 c5be d16c 053e
00000200: 85e1 f23c 9aec c43d 5fde 893d d078 ff3d
00000210: fb4b bf3e ccd3 f53d f6a9 f53b 8b88 66be
00000220: c418 683e 20ee a93c 1b30 2abe 337e 67be
00000230: f247 58be 59b6 aa3e d492 473e 0b8a 083e
00000240: c70b dc3c e424 0d3e fa8c a6ba 58f5 a8be
00000250: 865f df3e cf17 a03b 8ead 1a3e a6fa 493b
00000260: deec e33d fb90 a9be 5d9d fbbd 6bed 853e
00000270: 0b7d 973e b95b c43e 21a2 1d3e 49e6 6ebd
00000280: e1ce 2abc 0775 883e dce3 513d 353f b43e
00000290: 6f10 7dbd 0146 043c b145 693d d013 073f
000002a0: bb49 9dbd ea23 b83b 337d 5fbe 0a55 1a3e
000002b0: ebbe 59bd 777f 803a eb7e 60be d8b3 2f3e
000002c0: 6f0e 31be e80a 2bbe 07c7 1ebe 8321 4d3e
000002d0: 9d74 21be bd5f 6a3d 4af2 92be 0eec ca3d
000002e0: f874 713e 060d 9abd f761 913e 5deb 27be
000002f0: 7496 f43e e33a 16bd 8322 a7be ca64 cf3d
00000300: b031 47bd c0d2 863e 27f9 c73e 6fda 91bd
00000310: b92f 533d 48d1 62be 271a de3d 7a93 6abe
00000320: dc71 6e3e 9c29 3a3e 1616 20be 67e3 bebd
00000330: 3f5f c2bd 2235 0f3e a741 8c3d 704a 5d3d
00000340: ea06 593e af36 af3e fca4 9dbd 9c1a 5e3d
00000350: b25d c93e d12d 123e ba34 c0bd 9289 7fbd
00000360: acf7 e2bd 239d 473e f3cb 3b3e 87ac 58be
00000370: 70d5 8b3c 4ed8 b3bd 84e1 163e 5bdf 6abc
00000380: 9832 fcbd 1ea9 2abe 7023 9bbe b2f4 283d
00000390: df9f 643e ff32 9d3d fba7 b43d e522 313e
000003a0: 6459 97be 1247 ab3d ed86 183e 473a 84bd
000003b0: e015 0a3e 8c93 19be 7bdb 1f3c b409 6e3e
000003c0: 72c8 e6bc c34a 2f3e d02a 853e 6d64 1f3e
000003d0: 0f40 a33c c468 ea3c 5388 74be 2bc6 89bd
000003e0: 60a6 af3e 9daf ecbd 8e0d 443d f99e 8bbe
000003f0: d991 663d 0017 013e aaee 463d 0898 1cbb

network_body._body_endoder.seq_layers.0.bias f4 [256]
0.06958828 0.08992031 -0.01590597 0.07823834 0.053075314 0.03703753 0.051078815 0.08351375
0.02147918 -0.013237936 0.049787495 0.037191954 0.02334199 0.049936667 0.017431678 0.03297989
0.06821625 0.049920164 0.055665463 0.12976336 0.11182253 0.0929783 0.07921061 0.090926595
0.067724556 -0.033990778 0.022606604 0.060242128 -0.029411081 0.028810464 0.06852176 0.011615991
0.025142176 -0.037144274 0.10269919 -0.0021049192 0.061652932 0.077311434 0.08453528 0.057487722
0.05487189 0.06821609 0.03517779 0.058444746 0.09896996 0.094175026 0.042453256 0.06707542
0.050912786 0.093762346 0.062499154 0.0354544 0.09022372 -0.032083247 0.05077996 0.07011468
0.10395304 0.07182824 0.061082043 0.060899153 0.06625384 0.09623629 -0.061189454 0.052902948
0.09089767 0.079732716 0.068894975 0.08280972 0.0065801865 0.07368521 0.02797522 0.04959848
0.0712505 0.032440595 0.058943115 0.109888874 -0.0065100905 0.057420384 0.06591 0.04834621
0.064645685 0.06797323 -0.02492027 0.037550017 0.056912456 0.050600357 0.06722386 0.06957096
-0.07992957 -0.018735968 0.089176245 0.0808489 0.05601262 0.03303431 0.0058022607 0.029557304
0.017168926 0.09241124 0.07062838 0.03005572 0.07962751 0.04994353 0.027700434 0.052752126
0.05460667 0.0622812 0.041685253 0.06857101 0.056570727 0.021338267 -0.034555748 0.049150802
0.029526679 0.08719694 -0.0018205054 0.09115315 -0.011260682 -0.023027418 0.060721707 0.07834717
0.08229168 0.010628243 0.014282404 0.08617292 0.0471711 -0.054537762 0.07207057 -0.05602287
0.024046062 0.08648978 0.04845659 0.08213001 0.040774275 0.12143826 0.053863797 0.071044415
0.04040171 -0.010495163 0.066911586 0.028572168 0.06465712 0.07167353 0.077225775 0.056809217
0.039806295 0.056974813 0.04667202 0.04467564 0.08663799 0.01166691 0.11212603 0.069137104
0.09439562 0.033599064 -0.05401939 0.05205166 0.022089845 0.063465476 0.09728514 0.071795985
0.037193626 0.080063805 0.06737062 0.07092752 0.04784652 0.055652395 0.06692767 0.034982458
0.048259363 0.059754323 0.07456621 0.062299196 0.071073815 0.07061648 0.057273436 0.06550493
0.10265317 0.042492203 0.05655643 0.06409191 0.048782267 0.062410124 0.05279752 0.06681576
0.067017555 0.10029088 0.05376737 0.05476355 -0.07355736 0.09025356 0.06599801 -0.04011706
0.072004095 -0.046261184 0.053952202 0.09629702 0.089668155 0.06104211 0.07081297 0.05744357
0.06977862 0.02952046 0.07355684 0.067973405 0.061587542 0.027556447 0.11687436 0.050989628
0.04262171 0.0820762 -0.00890505 0.07557234 0.08467627 -0.006791531 0.062683865 -0.008647095
0.069957994 0.07465499 -0.065239124 0.08047109 0.0064928806 0.057722148 0.057145163 0.027642157
-0.03803802 0.08814395 0.05638046 0.06950883 0.048744522 0.039033093 -0.03213289 0.07485789
0.08417644 0.0745021 0.077825606 0.052812986 0.1219382 -0.024256919 -0.014497508 0.022511967
0.050108526 0.040198375 -0.025072057 0.055643573 0.06323239 0.068648666 0.054581337 0.062215064
0.12861736 0.09017536 -0.047030587 0.07084044 0.056507923 0.07070169 -0.016468942 0.048555706
00000000: 4d84 8e3d 2428 b83d 3d4d 82bc 6c3b a03d
00000010: 8065 593d aab4 173d 0538 513d 4209 ab3d
00000020: 1bf5 af3c eee3 58bc f9ed 4b3d 9756 183d
00000030: b337 bf3c 648a 4c3d e1cc 8e3c ec15 073d
00000040: f6b4 8b3d 1679 4c3d 7801 643d b0e0 043e
00000050: 3603 e53d 686b be3d 2c39 a23d b937 ba3d
00000060: 2cb3 8a3d ea39 0bbd 7c31 b93c 73c0 763d
00000070: 82ef f0bc ec03 ec3c 2355 8c3d ff50 3e3c
00000080: f7f6 cd3c 9824 18bd f453 d23d aff2 09bb
00000090: c987 7c3d 7555 9e3d d520 ad3d 3f78 6b3d
000000a0: 59c1 603d e1b4 8b3d 9616 103d c263 6f3d
000000b0: c3b0 ca3d d6de c03d 77e3 2d3d d65e 893d
000000c0: ed89 503d 7906 c03d 1dff 7f3d a238 113d
000000d0: 37c7 b83d b969 03bd a6fe 4f3d 4998 8f3d
000000e0: 55e5 d43d af1a 933d 2a31 7a3d 6471 793d
000000f0: 18b0 873d 8817 c53d cba1 7abd c3b0 583d
00000100: 8f28 ba3d e84a a33d cf18 8d3d 2498 a93d
00000110: 9b9e d73b 45e8 963d 4a2c e53c c727 4b3d
00000120: c8eb 913d 6ee0 043d 566e 713d 6b0d e13d
00000130: 9952 d5bb a331 6b3d d2fb 863d ad06 463d
00000140: f564 843d 8c35 8b3d 9825 ccbc 0cce 193d
00000150: 091d 693d 5242 4f3d aaac 893d 387b 8e3d
00000160: 1db2 a3bd 2c7c 99bc 09a2 b63d 1c94 a53d
00000170: 7d6d 653d fc4e 073d e420 be3b 2922 f23c
00000180: d9a5 8c3c 1b42 bd3d 9da5 903d 6a37 f63c
00000190: bf13 a33d 9691 4c3d 05ec e23c 9d12 583d
000001a0: 3eab 5f3d 921a 7f3d 28be 2a3d f56e 8c3d
000001b0: b5b6 673d 97cd ae3c 548a 0dbd 5a52 493d
000001c0: efe1 f13c 4f94 b23d 069e eeba 81ae ba3d
000001d0: b97e 38bc ffa3 bcbc 53b7 783d 7b74 a03d
000001e0: 8a88 a83d 1522 2e3c bf00 6a3c 6e7b b03d
000001f0: 7c36 413d fd62 5fbd bc99 933d 3d78 65bd
00000200: 3ffc c43c 8e21 b13d 6b7a 463d c733 a83d
00000210: ed02 273d 9fb4 f83d 49a0 5c3d bc7f 913d
00000220: 437c 253d e7f3 2bbc f108 893d 2e10 ea3c
00000230: f46a 843d 92c9 923d 8c28 9e3d c8b0 683d
00000240: ed0b 233d 6c5e 693d 292b 3f3d cefd 363d
00000250: 426f b13d 9126 3f3c 55a2 e53d c197 8d3d
00000260: 7e52 c13d 2c9f 093d 7043 5dbd 1f34 553d
00000270: c3f5 b43c 30fa 813d 6e3d c73d c609 933d
00000280: 5858 183d 7ef8 a33d 9cf9 893d 7342 913d
00000290: b6fa 433d c4f3 633d 6011 893d c449 0f3d
000002a0: 9cab 453d f3c0 743d 2bb6 983d 712d 7f3d
000002b0: 268f 913d 609f 903d 8d97 6a3d 7327 863d
000002c0: d33b d23d 4e0c 2e3d b7a7 673d 9f42 833d
000002d0: eacf 473d c2a1 7f3d 3642 583d b4d6 883d
000002e0: 8040 893d 4e65 cd3d 2c3b 5c3d bf4f 603d
000002f0: 3ea5 96bd dcd6 b83d f729 873d c951 24bd
00000300: e276 933d 5e7c 3dbd fcfc 5c3d 5f37 c53d
00000310: f0a3 b73d 4b07 7a3d 6406 913d f349 6b3d
00000320: 18e8 8e3d e4d4 f13c f8a4 963d a435 8b3d
00000330: 3843 7c3d 0fbe e13c d35b ef3d 80da 503d
00000340: 1a94 2e3d 9117 a83d 7de6 11bc acc5 9a3d
00000350: c16a ad3d 7e8b debb 6660 803d 8cac 0dbc
00000360: 2346 8f3d b7e4 983d 179c 85bd 07ce a43d
00000370: 3bc2 d43b 0f6e 6c3d 0c11 6a3d ce71 e23c
00000380: c1cd 1bbd d184 b43d 32ef 663d a55a 8e3d
00000390: 56a8 473d 2ae1 1f3d c79d 03bd 184f 993d
000003a0: b364 ac3d 8f94 983d 0863 9f3d 6e52 583d
000003b0: bcba f93d 72b6 c6bc f586 6dbc 046b b83c
000003c0: 993e 4d3d 0da7 243d ea63 cdbc 84ea 633d
000003d0: fc7f 813d ac97 8c3d ae90 5f3d 39d5 7e3d
000003e0: 45b4 033e dcad b83d 25a3 40bd cb14 913d
000003f0: da74 673d 0ccc 903d e0e9 86bc 59e2 463d

network_body._body_endoder.seq_layers.2.weight f4 [256, 256]
-0.062470414 -0.009582883 -0.050007876 -0.105719045 0.0020456845 -0.054671593 0.05101441 -0.1132661
-0.049581148 -0.08184719 -0.010969664 -0.06438733 0.016842708 0.062139034 -0.039200075 0.060967684
-0.06025074 -0.0710263 0.03696194 -0.033188324 -0.02711688 -0.0861919 0.05002745 0.021234615
-0.03465036 0.08080294 -0.07263437 -0.03611759 0.11239265 -0.015396425 -0.10401614 -0.059022848
0.06214906 0.021668136 0.12181296 0.0501419 -0.07121567 -0.004625705 -0.14598635 0.07045132
-0.08154501 -0.100244634 -0.007750951 -0.059908092 0.0014700429 -0.008212664 0.021128591 -0.09241681
-0.062306143 0.013443721 0.04480267 -0.16041842 -0.012845819 0.065490685 0.047951933 -0.04924406
-0.09332252 -0.11373086 -0.0069136485 0.108922236 -0.0012599116 -0.09581051 0.017348982 -0.073112525
-0.06460743 -0.13775066 -0.02671313 -0.015950186 0.0008202323 -0.042554554 0.1076168 -0.041369688
-0.055024426 0.035423554 -0.02301572 -0.03492518 -0.02724854 -0.13929413 0.111008815 0.073221445
-0.09347989 0.03149917 0.050502434 -0.08701681 -0.0643176 0.09965148 0.058663763 0.062345747
-0.0022726858 0.050044984 -0.059235513 -0.06000978 0.010775805 0.019201545 0.11493528 -0.0672888
-0.07211038 0.0815515 0.03499055 -0.07103451 -0.023726415 -0.021512032 -0.012228898 -0.12444229
0.06451044 -0.07406571 -0.058262456 -0.053289365 0.008225067 -0.14417422 0.06404302 -0.061656363
-0.058906097 -0.060804754 0.059526566 0.059268124 -0.0024309137 0.017864237 0.02047036 -0.14311044
-0.12701052 -0.00624704 -0.14069256 -0.055607155 -0.053945437 0.008175138 -0.06148153 -0.08228332
-0.0368452 -0.12065403 -0.12569574 -0.13276127 -0.0031038723 -0.07134393 -0.1180862 -0.14875817
0.13775752 -0.05775412 -0.07240285 0.0023698665 -0.03427537 -0.012015141 -0.06626918 0.030764354
0.037546236 -0.074539565 0.012580534 -0.08125407 -0.078449756 0.09658476 -0.04158388 -0.020118678
-0.0021517735 -0.12085574 -0.0063668764 -0.058886226 0.0786151 0.070230484 -0.03077153 0.01257332
0.032947738 -0.05038229 -0.041570973 -0.0015530386 -0.08490636 -0.10446564 0.0051248064 -0.10853325
-0.048718516 -0.060236666 -0.08496671 -0.03733221 -0.022636883 0.09319163 0.08941141 -0.109000005
-0.03977177 -0.105643235 0.024050659 -0.04063553 -0.025246862 -0.1276775 -0.011698267 -0.0014278687
0.008937169 0.03546021 -0.13222723 0.030445844 0.10580528 -0.09609241 -0.16507237 -0.12843746
-0.103347234 0.15455994 -0.061347935 0.076043844 -0.01937551 -0.20249836 0.045667324 -0.03453112
-0.0963663 -0.0035672467 -0.063760884 0.061604086 -0.01601002 -0.13302693 -0.015313774 -0.11644885
0.0009856644 0.062659875 -0.006692492 -0.13478671 -0.10790319 -0.021188458 -0.07641406 0.02079716
0.04627295 -0.004183183 -0.02358113 0.02156697 0.006257575 -0.041715812 0.048100088 -0.016830621
-0.035085853 -0.03048469 -0.058103036 -0.15566626 0.016403709 -0.068818405 0.012795079 -0.044641845
-0.015319929 0.1274112 0.0024024625 0.022477726 -0.007957665 0.004151907 0.06061982 -0.12247199
-0.070257545 -0.064030744 0.006756748 -0.099821106 -0.02287588 -0.17433026 0.013085204 -0.037020776
0.03278227 0.06907718 -0.019422458 -0.040527955 -0.06719355 -0.09359375 0.0059755766 -0.20124444
00000000: fae0 7fbd 8601 1dbc 0fd5 4cbd 3a83 d8bd
00000010: e410 063b 52ef 5fbd 7cf4 503d 0ff8 e7bd
00000020: 9a15 4bbd 809f a7bd 1bba 33bc 81dd 83bd
00000030: b8f9 893c 8085 7e3d 4290 20bd 40b9 793d
00000040: 7bc9 76bd 3d76 91bd 6765 173d 7bf0 07bd
00000050: 3824 debc 6185 b0bd 95e9 4c3d 37f4 ad3c
00000060: 89ed 0dbd 037c a53d 54c1 94bd 0af0 13bd
00000070: 1e2e e63d 4941 7cbc 6a06 d5bd f1c1 71bd
00000080: 0390 7e3d 6081 b13c 1379 f93d 9861 4d3d
00000090: 85d9 91bd 3a93 97bb 727d 15be c848 903d
000000a0: 1201 a7bd 0f4d cdbd b1fb fdbb 3062 75bd
000000b0: 74ae c03a 698e 06bc de15 ad3c 0645 bdbd
000000c0: ba34 7fbd 0e43 5c3c 0183 373d ba44 24be
000000d0: 4577 52bc fb1f 863d 3f69 443d 24b4 49bd
000000e0: e11f bfbd baeb e8bd e38b e2bb 9f12 df3d
000000f0: 9e23 a5ba 4d38 c4bd 741f 8e3c 05bc 95bd
00000100: e650 84bd 820e 0dbe 7ed5 dabc f7a9 82bc
00000110: dc04 573a af4d 2ebd 3266 dc3d 4373 29bd
00000120: 4b61 61bd 4a18 113d 778b bcbc b50d 0fbd
00000130: 5538 dfbc 1fa3 0ebe 9758 e33d 20f5 953d
00000140: 6272 bfbd 4605 013d a4db 4e3d df35 b2bd
00000150: f2b8 83bd 1316 cc3d 6a49 703d 415e 7f3d
00000160: 57f1 14bb f8fb 4c3d f0a0 72bd d1cc 75bd
00000170: 018d 303c 8f4c 9d3c 3063 eb3d b6ce 89bd
00000180: 9bae 93bd 7904 a73d 4052 0f3d 8b7a 91bd
00000190: e65d c2bc 003a b0bc b75b 48bc 99db febd
000001a0: 0d1e 843d c3af 97bd 9da4 6ebd f345 5abd
000001b0: 6ec2 063c 68a2 13be fd28 833d 628b 7cbd
000001c0: 8547 71bd 680e 79bd 21d2 733d 22c3 723d
000001d0: f74f 1fbb 0558 923c 75b1 a73c 8b8b 12be
000001e0: 0c0f 02be f8b3 ccbb b611 10be 54c4 63bd
000001f0: e4f5 5cbd 04f1 053c 0fd4 7bbd 2884 a8bd
00000200: feea 16bd 7619 f7bd 62b6 00be 92f2 07be
00000210: 566a 4bbb c41c 92bd 2dd7 f1bd 1054 18be
00000220: 4f10 0d3e 968f 6cbd f247 94bd c34f 1b3b
00000230: 5564 0cbd 27db 44bc 23b8 87bd 8705 fc3c
00000240: 15ca 193d 33a8 98bd 961e 4e3c 8968 a6bd
00000250: 44aa a0bd 3bce c53d dc53 2abd edcf a4bc
00000260: c504 0dbb 3783 f7bd 3ba1 d0bb af32 71bd
00000270: f400 a13d 00d5 8f3d 9314 fcbc 5400 4e3c
00000280: 35f4 063d a95d 4ebd 5346 2abd 548f cbba
00000290: 63e3 adbd 15f2 d5bd feed a73b ae46 debd
000002a0: 118d 47bd b9ba 76bd 0703 aebd a9e9 18bd
000002b0: fc70 b9bc 41db be3d 541d b73d 653b dfbd
000002c0: b9e7 22bd 7b5b d8bd e305 c53c 7171 26bd
000002d0: 82d2 cebc e4bd 02be 17aa 3fbc 5327 bbba
000002e0: 346d 123c ba3e 113d 9366 07be 9069 f93c
000002f0: 70b0 d83d 19cc c4bd bb08 29be 1c85 03be
00000300: b7a7 d3bd f644 1e3e f947 7bbd e0bc 9b3d
00000310: 64b9 9ebc bb5b 4fbe a90d 3b3d 8170 0dbd
00000320: b25b c5bd 78c8 69bb 1195 82bd 9154 7c3d
00000330: 7227 83bc 3638 08be a0e6 7abc bc7c eebd
00000340: 6931 813a d253 803d b14c dbbb 8705 0abe
00000350: 59fc dcbd 6b93 adbc fa7e 9cbd ce5e aa3c
00000360: b488 3d3d 1513 89bb 372d c1bc 37ad b03c
00000370: 580c cd3b 33de 2abd 9904 453d 5fe0 89bc
00000380: 2fb6 0fbd 07bb f9bc 73fd 6dbd fa66 1fbe
00000390: 1261 863c aaf0 8cbd 73a2 513c 5eda 36bd
000003a0: 7100 7bbc 1578 023e a272 1d3b 3523 b83c
000003b0: de60 02bc b80c 883b 7d4c 783d 98d2 fabd
000003c0: 30e3 8fbd 8d22 83bd b667 dd3b 026f ccbd
000003d0: 3366 bbbc a283 32be 5363 563c 19a3 17bd
000003e0: b446 063d 5678 8d3d d91b 9fbc a400 26bd
000003f0: c69c 89bd 14ae bfbd c5ce c33b 0613 4ebe

network_body._body_endoder.seq_layers.2.bias f4 [256]
-0.04510967 0.06233635 0.054874662 0.030600283 0.022135753 0.056068227 -0.051428936 -0.020924043
-0.047774374 -0.06688204 0.08501683 0.034574535 0.031809434 0.0399461 0.050022736 -0.090698935
0.05292013 0.044769976 -0.059527732 0.07913427 0.04403971 0.07704995 0.020096127 -0.057400174
0.05335972 0.041254424 0.03747512 -0.060427215 -0.043063506 0.03224835 -0.041566078 0.040334623
0.06983315 0.028595872 0.054846607 0.040921833 0.032799236 0.007473871 0.036792368 0.03405612
-0.030026382 0.07119634 -0.005463034 -0.0091668395 0.006654197 -0.05329918 0.05294815 0.058800247
0.027668335 -0.056161538 -0.02047186 0.023155192 -0.000118982665 -0.060431708 0.06575937 0.042252902
0.045903772 0.056842208 0.032383963 0.053780798 0.04158502 0.043667972 -0.003589851 0.013522173
0.014863814 0.047929943 0.07064447 0.0071434425 -0.04356043 0.038044162 0.023915177 -0.06328291
-0.04593933 0.011061529 -0.02121262 0.041614816 0.032667797 -0.056476526 0.009858685 -0.040910166
0.052630972 0.037862245 -0.0018362389 0.02663651 0.023035621 0.062282667 -0.05077464 0.062369734
-0.058202557 -0.038399283 -0.030032074 0.034006625 -0.0031603703 0.014215427 0.026847886 0.08352697
-0.046314873 -0.050556865 0.023615276 0.06587308 -0.035998117 0.030918693 0.029432544 0.041597594
-0.007401833 -0.016882753 -0.03814059 -0.008361743 0.02204079 -0.055262208 0.060207766 0.040018823
-0.10578133 0.035079867 0.07844855 0.010511923 0.033442397 0.033740655 -0.023549639 -0.06737772
-0.04822849 0.020478006 -0.03522783 0.052738886 0.00047224242 -0.05779392 -0.047731612 0.053455885
0.048103843 0.07371108 0.063562684 -0.011151458 0.063601814 0.022170853 -0.0417799 0.065761045
-0.05443482 0.047556054 0.050054893 -0.007248111 0.022597179 -0.024580274 -0.03472526 -0.0046720775
0.07887638 0.049442675 0.05432941 0.014683149 -0.042321432 -0.06631429 -0.04941239 -0.05903144
0.054805797 0.05658289 -0.0070732683 -0.046584327 -0.00014935032 0.022405831 0.07813333 0.054391753
-0.010218425 0.023753367 0.027688732 0.06224485 0.010232769 0.045036096 0.07059864 0.055438697
0.0153335035 0.053604454 0.0298725 0.033123348 0.030642768 0.0504535 -0.07905675 -0.053273227
0.040806122 -0.029544594 -0.04968346 -0.035334945 0.06474378 0.05541641 0.027230866 0.020962454
-0.00931621 0.03246941 0.08226266 -0.05373305 0.04462688 0.033706352 -0.040106956 0.035235453
0.015271251 0.00836648 0.053210177 0.022833854 0.037357736 -0.0367076 0.03483733 0.048689507
0.052256543 -0.057802558 0.076054595 0.0311268 0.031255994 0.05139966 -0.015787145 0.049692865
-0.008949847 -0.06398625 0.036109228 0.044497047 0.046287294 0.022740893 0.018382836 0.032751292
-0.055336326 -0.043196544 0.007961539 -0.06328801 0.015709298 -0.048194375 0.041919902 -0.05017875
-0.04712647 0.04351582 0.011890938 -0.050474044 0.043693457 0.052526932 0.041096196 -0.052172314
0.07955383 -0.03702234 0.06925525 -0.051257934 -0.016928757 -0.010936754 0.036030065 -0.0031403215
0.041845154 0.040054608 0.062626556 0.065259464 0.040049694 0.045248065 0.048073642 0.051457416
0.05578893 0.03560741 -0.031861234 -0.038383625 0.020151474 -0.0248646 0.08282276 0.052390423
00000000: ebc4 38bd 6754 7f3d 41c4 603d 72ad fa3c
00000010: 0a56 b53c cca7 653d 26a7 52bd e668 abbc
00000020: 10af 43bd 73f9 88bd 4e1d ae3d 079e 0d3d
00000030: 9c4a 023d 869e 233d a4e4 4c3d 5dc0 b9bd
00000040: c7c2 583d b960 373d 5ad3 73bd 2611 a23d
00000050: fc62 343d 5dcc 9d3d a2a0 a43c 721c 6bbd
00000060: b98f 5a3d 66fa 283d 837f 193d 8782 77bd
00000070: 5c63 30bd d916 043d 3141 2abd eb35 253d
00000080: af04 8f3d e441 ea3c d6a6 603d a79d 273d
00000090: 7e58 063d 60e7 f43b 98b3 163d 6e7e 0b3d
000000a0: e3f9 f5bc 63cf 913d 4003 b3bb 8330 16bc
000000b0: 730b da3b 3e50 5abd 29e0 583d 87d8 703d
000000c0: b4a8 e23c a409 66bd 9ab4 a7bc f5af bd3c
000000d0: 5586 f9b8 3d87 77bd d9ac 863d 6111 2d3d
000000e0: 9805 3c3d 60d3 683d 0ca5 043d 4149 5c3d
000000f0: 0e55 2a3d 30dd 323d b543 6bbb 1b8c 5d3c
00000100: 5b87 733c 3052 443d 0cae 903d 8a13 ea3b
00000110: 6c6c 32bd 32d4 1b3d c3e9 c33c 789a 81bd
00000120: e12a 3cbd 6a3b 353c 17c6 adbc 4c74 2a3d
00000130: abce 053d ee53 67bd 5286 213c 6b91 27bd
00000140: 9393 573d 7115 1b3d f4ad f0ba cf34 da3c
00000150: 33b5 bc3c 1c1c 7f3d 12f9 4fbd 6877 7f3d
00000160: ce65 6ebd 9148 1dbd d305 f6bc 884a 0b3d
00000170: 371e 4fbb d3e7 683c 19f0 db3c 3010 ab3d
00000180: aab4 3dbd b714 4fbd d374 c13c 77e8 863d
00000190: c372 13bd 3349 fd3c 851c f13c 3d62 2a3d
000001a0: 138b f2bb b34d 8abc 4f39 1cbd b1ff 08bc
000001b0: e38e b43c a05a 62bd 6b9c 763d c7ea 233d
000001c0: e2a3 d8bd e8af 0f3d a2a9 a03d 333a 2c3c
000001d0: e5fa 083d a433 0a3d 2ceb c0bc 54fd 89bd
000001e0: 3d8b 45bd 7ec1 a73c 0f4b 10bd bb04 583d
000001f0: 4e97 f739 51b9 6cbd 3982 43bd 8ff4 5a3d
00000200: 8908 453d d6f5 963d 272d 823d 9bb4 36bc
00000210: ab41 823d a69f b53c 6721 2bbd baad 863d
00000220: 0cf7 5ebd 23ca 423d 5c06 4d3d 9081 edbb
00000230: b81d b93c 925c c9bc 133c 0ebd 3a18 99bb
00000240: f189 a13d 6784 4a3d 8488 5e3d 9791 703c
00000250: 3d59 2dbd c9cf 87bd a564 4abd f4ca 71bd
00000260: 0b7c 603d 76c3 673d e0c6 e7bb 35cf 3ebd
00000270: ec9a 1cb9 6f8c b73c 5e04 a03d e3c9 5e3d
00000280: 2e6b 27bc 6c96 c23c 7bd3 e23c 75f4 7e3d
00000290: 58a7 273c c577 383d 0596 903d b013 633d
000002a0: 6039 7b3c 5890 5b3d 2cb7 f43c 59ac 073d
000002b0: 8b06 fb3c 54a8 4e3d 81e8 a1bd 0735 5abd
000002c0: 5224 273d 8107 f2bc e280 4bbd 60bb 10bd
000002d0: 6398 843d 51fc 623d 4413 df3c 74b9 ab3c
000002e0: 04a3 18bc a5fe 043d 5379 a83d 3017 5cbd
000002f0: adca 363d ac0f 0a3d 3147 24bd 0d53 103d
00000300: 4534 7a3c 8f13 093c eaf2 593d 100e bb3c
00000310: 6d04 193d b55a 16bd 97b1 0e3d a66e 473d
00000320: f50a 563d 60c2 6cbd 83c2 9b3d a2fd fe3c
00000330: 4906 003d 7388 523d 0b54 81bc bf8a 4b3d
00000340: 61a2 12bc 390b 83bd 45e7 133d 8942 363d
00000350: bf97 3d3d 1c4b ba3c 9a97 963c 3826 063d
00000360: 58a8 62bd dcee 30bd 1d71 023c 259d 81bd
00000370: c9b0 803c 7767 45bd 34b4 2b3d 3c88 4dbd
00000380: af07 41bd a53d 323d 35d2 423c dfbd 4ebd
00000390: e9f7 323d 7b26 573d 7c54 283d a3b2 55bd
000003a0: 1eed a23d bda4 17bd b2d5 8d3d d7f3 51bd
000003b0: 2dae 8abc 1230 33bc 4394 133d dacd 4dbb
000003c0: d365 2b3d 4d10 243d 5a42 803d c1a6 853d
000003d0: 260b 243d 0956 393d dee8 443d 03c5 523d
000003e0: ef82 643d 13d9 113d ed80 02bd 2638 1dbd
000003f0: b414 a53c d8b0 cbbc fb9e a93d 5797 563d

action_model._discrete_distribution.branches.0.weight f4 [3, 256]
0.015858408 0.026590005 -0.0064864885 -0.014468076 -0.0047545745 0.008484844 0.0055255992 0.018022958
0.015415932 0.034661125 0.023787735 -0.0053363824 0.0011504012 -0.011351076 -0.0065939543 0.196017
0.022825977 -0.013237456 0.02541051 -0.024254117 0.007011818 -0.0047421437 0.021836475 0.023828754
0.012223587 -0.045140773 0.0009387865 0.021655032 0.03836237 0.0006442569 0.061520156 0.021871747
0.0075887106 0.013163692 0.022848094 -0.0010863665 0.004450567 -0.018812807 -0.021863729 0.0028855526
-0.0031689901 -0.007920068 -0.022718536 -0.0131727075 0.016984574 0.046692666 0.020663597 -0.007071143
-0.00268342 -0.042159453 0.0061363964 -0.028545905 -0.0059538838 0.007878189 0.0054036193 -0.0073296945
-0.032157883 -0.021976609 0.013235689 0.0029977171 -0.004636084 0.014526327 0.036184035 -0.09998622
-0.016276613 -0.0020933773 0.012867776 -0.020386636 0.01913056 0.0014761585 0.012643028 0.020790128
0.048414458 0.010180349 0.02735876 -0.006431055 -0.146559 0.0885848 0.0037308745 -0.003296489
-0.004220846 0.0064402935 0.036287528 -0.0034562643 0.005673773 -0.0070417384 0.018632812 0.00019543423
-0.0059812297 0.025024923 0.11730918 0.01369107 0.085880995 -0.0026566416 0.0034156407 -0.01246318
0.0042956695 -0.015530542 0.004738026 0.018996812 -0.0092704315 -0.00894635 0.0014625731 0.024861658
0.0057872776 -0.01610931 -0.0189254 0.011489744 0.012614028 0.019370567 -0.011873217 0.020707779
0.10286959 0.006722066 -0.025775636 -0.0019908585 0.011821431 -0.016924033 0.02694678 0.096803695
0.030685425 0.021328451 0.0071371333 -0.001553169 0.010089821 0.010743007 0.03949193 0.019802997
-0.0014708344 0.011231695 0.028666057 0.08392677 -0.014267519 -0.022722993 0.10873684 -0.017718075
0.07209539 0.00215684 -0.0064798063 0.033544175 -0.0138503155 0.040512938 0.012127872 0.022671241
0.0018565622 0.009100034 -0.08829959 0.016575294 0.022475135 0.015872601 0.02680609 0.026918491
0.033470146 -0.022107838 0.017106516 0.03467129 0.008479278 0.029142667 -0.007985307 -0.004224136
-0.008957827 0.0065210047 -0.02233119 0.022574978 -0.01201535 -0.005513325 -0.02111432 0.03228905
-0.011211651 -0.0006979646 -0.0077995234 0.018336525 0.0019046182 0.011749832 0.07901924 0.048289962
0.004949837 -0.030770075 0.077862136 0.030917369 0.009558902 0.018440202 -0.006223568 -0.009478033
0.09319335 -0.009052816 -0.0077398336 0.01433103 -0.0010786551 -0.0058414596 0.024188593 -0.0014350169
-0.0017857549 -0.012646916 -0.009426666 -0.0077546956 0.074805744 0.026813388 0.014947962 0.02482266
0.02217876 0.01184085 -0.03805144 -0.019277902 -0.007589887 -0.020960845 0.021271894 0.003497389
0.0036932586 0.0065485006 0.003180566 -0.01339655 -0.01845017 0.0017682199 0.006059256 -0.033885337
0.011410322 0.032625616 -0.027385475 0.018343374 -0.057582118 -0.003795515 0.011935128 0.025199594
0.005372196 0.008805422 -0.04084062 0.04226324 -0.014385736 0.037109464 0.012671208 0.051277492
0.0020475981 -0.027757201 0.036790706 0.06141224 -0.02909546 -0.0016376534 0.01502249 0.0039927815
0.0099438615 -0.010462312 0.038470104 -0.004259087 -0.0034769766 -0.001182573 0.0040564807 0.024905704
-0.039883897 0.0043231877 0.10954787 -0.0040347246 -0.023535796 0.01325103 0.00021280308 -0.0053398716
00000000: 7ee9 813c 48d3 d93c 9c8c d4bb 820b 6dbc
00000010: 43cc 9bbb 0404 0b3c 1610 b53b e2a4 933c
00000020: 1b93 7c3c d3f8 0d3d 7fde c23c d2dc aebb
00000030: 0fc9 963a ddf9 39bc 1912 d8bb aeb8 483e
00000040: 8bfd ba3c eae1 58bc b429 d03c 92b0 c6bc
00000050: 64c3 e53b fc63 9bbb 68e2 b23c 8534 c33c
00000060: 7145 483c 88e5 38bd e518 763a e565 b13c
00000070: dc21 1d3d 59e3 283a 8ffc 7b3d 612c b33c
00000080: b8aa f83b 87ac 573c ed2b bb3c 6964 8eba
00000090: 10d6 913b 511d 9abc 901b b3bc 8a1b 3d3b
000000a0: d5ae 4fbb 2cc3 01bc 391c babc 57d2 57bc
000000b0: 3c23 8b3c cf40 3f3d b446 a93c 0cb5 e7bb
000000c0: 51dc 2fbb 64af 2cbd d313 c93b 1ad9 e9bc
000000d0: cc18 c3bb 8513 013c d810 b13b ef2d f0bb
000000e0: fcb7 03bd 4a08 b4bc 81da 583c 5975 443b
000000f0: 4bea 97bb d5ff 6d3c b635 143d 93c5 ccbd
00000100: 8856 85bc 0b31 09bb 5dd3 523c e001 a7bc
00000110: b1b7 9c3c a97b c13a b424 4f3c 0f50 aa3c
00000120: 3d4e 463d 7bcb 263c 7a1f e03c 99bb d2bb
00000130: 9013 16be f36b b53d b081 743b e809 58bb
00000140: 064f 8abb 1909 d33b 3ba2 143d 7e82 62bb
00000150: 0feb b93b 62be e6bb d7a3 983c 7aed 4c39
00000160: 31fe c3bb 1101 cd3c cc3f f03d 8250 603c
00000170: 60e2 af3d 0d1b 2ebb f1d8 5f3b 5e32 4cbc
00000180: b0c2 8c3b d073 7ebc 7141 9b3b 349f 9b3c
00000190: 02e3 17bc b693 12bc cfb3 bf3a adaa cb3c
000001a0: 34a3 bd3b acf7 83bc 7109 9bbc 7b3f 3c3c
000001b0: 11ab 4e3c 06af 9e3c e287 42bc 5ca3 a93c
000001c0: 4bad d23d c744 dc3b 6d27 d3bc 1079 02bb
000001d0: adae 413c 45a4 8abc 7ebf dc3c 0441 c63d
000001e0: 0060 fb3c 01b9 ae3c 9dde e93b b493 cbba
000001f0: c74f 253c 7003 303c 4ac2 213d e539 a23c
00000200: 03c9 c0ba 2505 383c 14d5 ea3c cce1 ab3d
00000210: 50c2 69bc 9225 babc 6cb1 de3d 7f25 91bc
00000220: bfa6 933d c559 0d3b 8e54 d4bb 9e65 093d
00000230: 6fec 62bc e5f0 253d fbb3 463c 0ab9 b93c
00000240: e457 f33a 4f18 153c 6ad6 b4bd e9c8 873c
00000250: c61d b83c 4207 823c 7298 db3c 2b84 dc3c
00000260: fe17 093d 7f1b b5bc f722 8c3c 7c03 0e3d
00000270: abec 0a3c 9abc ee3c ced4 02bc 9f6a 8abb
00000280: dac3 12bc 27ae d53b e6ef b6bc 29ef b83c
00000290: 08dc 44bc 1fa9 b4bb f0f7 acbc 8641 043d
000002a0: 13b1 37bc 9df7 36ba 2593 ffbb 7b36 963c
000002b0: 62a4 f93a 5e82 403c d7d4 a13d b2cb 453d
000002c0: 3e32 a23b 8611 fcbc 2f76 9f3d 6c46 fd3c
000002d0: f19c 1c3c e80f 973c 13ef cbbb c049 1bbc
000002e0: 28dc be3d 4352 14bc 6e9e fdbb b2cc 6a3c
000002f0: a961 8dba b769 bfbb 2827 c63c 2d17 bcba
00000300: fe0f eaba 0335 4fbc 4e72 1abc 1a1b febb
00000310: c133 993d c0a7 db3c 4ce8 743c e458 cb3c
00000320: 3bb0 b53c 2000 423c d4db 1bbd b1ec 9dbc
00000330: 96b4 f8bb 14b6 abbc 6542 ae3c 7334 653b
00000340: 990a 723b ce94 d63b 0b71 503b 347d 5bbc
00000350: d024 97bc 9dc3 e73a b98c c63b 5acb 0abd
00000360: 5cf2 3a3c 70a2 053d 8157 e0bc d844 963c
00000370: 3adb 6bbd 2dbe 78bb 8e8b 433c 616f ce3c
00000380: 3f09 b03b 9e44 103c 7e48 27bd 381c 2d3d
00000390: 26b2 6bbc 1800 183d e69a 4f3c 5908 523d
000003a0: ff30 063b 1263 e3bc dab1 163d 678b 7b3d
000003b0: 9a59 eebc 88a6 d6ba e420 763c e1d5 823b
000003c0: 94eb 223c 1e6a 2bbc d492 1d3d d08f 8bbb
000003d0: fddd 63bb 9100 9bba 3aec 843b 0c07 cc3c
000003e0: 4c5d 23bd 87a9 8d3b a25a e03d b935 84bb
000003f0: 24ce c0bc d91a 593c e423 5f39 17fa aebb

action_model._discrete_distribution.branches.0.bias f4 [3]
-0.012193873 0.022731412 -0.028263545
00000000: cfc8 47bc 3a37 ba3c f388 e7bc

action_model._discrete_distribution.branches.1.weight f4 [3, 256]
-0.050344266 0.028879473 -0.008750434 0.0031062101 -0.018174212 0.013317448 -0.060463846 0.0031443876
-0.04406982 -0.06536658 0.023918094 0.0010147021 0.019860962 0.022804078 0.019678302 -0.028380064
0.007957806 0.01669441 -0.05479161 0.031189296 -0.0025393518 -0.0052933157 -0.016438518 -0.05405944
0.026833957 0.015241857 0.005364717 -0.051907603 -0.062154926 0.0047051567 -0.010050003 0.00017512485
0.019301452 -0.029481778 0.0048840567 0.018951245 0.03101433 0.0123255225 -0.0024699264 0.020794787
-0.01606999 0.015078081 -0.025911419 -0.017215144 -0.0020662148 -0.043980688 0.015056005 0.020908393
0.0002666193 -0.07961862 0.011076543 -0.0047844793 0.0039802575 -0.037382483 0.042786542 0.0027743343
0.020257536 0.010017981 0.013642768 0.0032965152 0.010477716 0.005046124 0.005506112 -0.031147145
0.019104423 0.005614447 0.023304842 -0.007006106 -0.051643662 0.017740214 0.01046289 -0.03283027
-0.0108820535 0.01498794 -0.012048178 0.00743649 0.009939205 -0.048035238 -0.0015159748 -0.05639275
0.0087647885 0.010631578 -0.013721813 0.009165064 0.021275505 0.011127652 -0.05115524 0.010684356
-0.044110794 -0.036054917 -0.0038308343 -0.0012507773 0.03121824 0.00781546 0.026791267 0.010829822
-0.06587046 -0.06668086 -0.0077500492 -0.0032986233 -0.052346222 0.0094562555 0.022728847 -0.0005287004
0.0013186747 -0.023387125 -0.013097274 0.0021938565 -0.009188261 -0.07527662 0.016199453 0.0016321919
-0.05664485 -0.0023163187 0.026794285 -0.0020363254 0.012264689 0.018009575 -0.020666987 -0.0687108
-0.06618555 0.0077164224 -0.04676024 0.0037977148 0.0007567418 -0.0560099 -5.8291123e-05 -0.0021958272
0.009994538 0.026718754 0.03023383 0.019863036 0.030956374 0.011965142 -0.028609067 0.0073314826
0.0071552913 0.012594778 0.023869017 -0.03382461 0.010350388 -0.10909905 -0.07655439 0.018088948
0.030690683 0.016583638 0.010265295 0.01722508 -0.054019865 -0.04528978 -0.010690233 -0.07078201
0.009439974 0.02223216 0.0073165526 -0.07402392 -0.020569421 0.018066384 0.026692906 0.015922004
-0.021103704 0.0062185125 0.018909695 0.02323054 -0.00223757 0.020945583 0.013730573 0.022728255
-0.013904491 0.0088148145 0.018796824 0.00809045 0.006721314 -0.0027727715 -0.037340943 -0.043866284
0.0006292679 -0.07485307 -0.03428582 -0.053544722 0.0017112193 0.013729334 0.014388305 0.015561632
-0.02608285 -0.036172967 0.002476015 -0.040713504 0.007398996 0.013816819 -0.06288571 -0.018451778
-0.002124291 0.019633122 0.0073560807 -0.0050166193 0.024584414 -0.061537325 0.02501122 0.044247348
-0.005520262 -0.05345423 0.033681683 0.024358619 0.012339438 0.011201469 -0.0064838068 0.021621078
-0.020516634 -0.049845938 0.020100988 -0.024277857 -0.0007423401 0.008139562 -0.00088467577 -0.0028497912
-0.056871675 -0.044899948 -0.00030404565 -0.069429494 0.0046742316 -0.046284895 0.025234591 -0.055453315
-0.058908544 0.012647957 -0.0006918757 -0.058810662 0.020403452 0.01681291 -0.0006773367 -0.05317214
0.026846707 -0.05738689 0.016121935 -0.06439019 -0.003011433 -0.0025735612 -0.007333881 0.003628923
0.017946847 0.016809823 0.0077079446 0.012548378 0.024936605 0.0045916694 0.024237448 0.028629776
0.007680562 0.009523485 -0.0469358 -0.050808977 0.012586973 -0.048806984 0.044822253 0.02374634
00000000: ca35 4ebd a594 ec3c fb5d 0fbc 8f91 4b3b
00000010: 16e2 94bc 6d31 5a3c f0a8 77bd 1212 4e3b
00000020: 8e82 34bd eade 85bd e1ef c33c c1ff 843a
00000030: 75b3 a23c 9ecf ba3c 6434 a13c 4f7d e8bc
00000040: 7561 023c b7c2 883c 2b6d 60bd b280 ff3c
00000050: 416b 26bb 8d73 adbb 12aa 86bc 6e6d 5dbd
00000060: e3d2 db3c fbb8 793c 82ca af3b 119d 54bd
00000070: 2a96 7ebd b72d 9a3b c5a8 24bc b8a1 3739
00000080: 141e 9e3c c583 f1bc 700a a03b a43f 9b3c
00000090: c411 fe3c fdf0 493c 7dde 21bb d459 aa3c
000000a0: 36a5 83bc 0e0a 773c 2f44 d4bc c606 8dbc
000000b0: 5569 07bb 1825 34bd 76ad 763c 1448 ab3c
000000c0: 09c9 8b39 160f a3bd 637a 353c 1fc7 9cbb
000000d0: d26c 823b 601e 19bd f140 2f3d 9bd1 353b
000000e0: 22f3 a53c 7522 243c eb85 5f3c 590a 583b
000000f0: baaa 2b3c f559 a53b 9d6c b43b 4c28 ffbc
00000100: e180 9c3c 65f9 b73b cce9 be3c 7a93 e5bb
00000110: 4e88 53bd ed53 913c 8b6c 2b3c 0879 06bd
00000120: a44a 32bc fa8f 753c b965 45bc cdad f33b
00000130: 0cd8 223c 99c0 44bd acb3 c6ba 16fc 66bd
00000140: 309a 0f3c 1230 2e3c 75d1 60bc 1129 163c
00000150: f849 ae3c c150 363c 2888 51bd 700d 2f3c
00000160: 85ad 34bd 52ae 13bd bc0e 7bbb 1ff1 a3ba
00000170: 65bd ff3c 6a0c 003c 5c79 db3c 916f 313c
00000180: 17e7 86bd fa8f 88bd 20f4 fdbb b72d 58bb
00000190: fe68 56bd 69ee 1a3c d931 ba3c 7c98 0aba
000001a0: 61d7 ac3a 5b96 bfbc f395 56bc cec6 0f3b
000001b0: 5c8a 16bc a12a 9abd b7b4 843c 46ef d53a
000001c0: 6e04 68bd 61cd 17bb b07f db3c df73 05bb
000001d0: d6f1 483c d188 933c d04d a9bc 3fb8 8cbd
000001e0: 4a8c 87bd 0bda fc3b aa87 3fbd 15e3 783b
000001f0: 1560 463a a36a 65bd 9e7d 74b8 dee7 0fbb
00000200: 21c0 233c 4ae1 da3c f0ac f73c ceb7 a23c
00000210: 3998 fd3c 7109 443c 905d eabc ef3c f03b
00000220: ef76 ea3b 545a 4e3c f588 c33c ad8b 0abd
00000230: ac94 293c 536f dfbd 8cc8 9cbd 462f 943c
00000240: 076b fb3c 69da 873c c52f 283c 9c1b 8d3c
00000250: ef43 5dbd c781 39bd 1626 2fbc 29f6 90bd
00000260: 1faa 1a3c 3820 b63c b1bf ef3b da99 97bd
00000270: 3481 a8bc f4ff 933c 15ab da3c dd6e 823c
00000280: ade1 acbc aac4 cb3b 81e8 9a3c f94d be3c
00000290: 32a4 12bb 1296 ab3c 32f6 603c 9b30 ba3c
000002a0: aacf 63bc 036c 103c ccfb 993c cf8d 043c
000002b0: 783e dc3b 63b7 35bb d1f2 18bd 22ad 33bd
000002c0: 74f5 243a 914c 99bd 4a6f 0cbd b651 5bbd
000002d0: fe4a e03a 00f1 603c edbc 6b3c 37f6 7e3c
000002e0: b3ab d5bc 1b2a 14bd a344 223b 34c3 26bd
000002f0: 4773 f23b f05f 623c 39ca 80bd 2f28 97bc
00000300: b037 0bbb a4d5 a03c 470b f13b 7462 a4bb
00000310: 4165 c93c 900e 7cbd 54e4 cc3c b53c 353d
00000320: 50e3 b4bb d3f2 5abd cef5 093d ba8b c73c
00000330: 5b2b 4a3c 5e86 373c 1d76 d4bb b01e b13c
00000340: 8012 a8bc 412b 4cbd d4aa a43c 5be2 c6bc
00000350: 9a99 42ba cc5b 053c 96e9 67ba 90c3 3abb
00000360: 46f2 68bd 02e9 37bd 5168 9fb9 0d31 8ebd
00000370: 4c2a 993b 3b95 3dbd c6b8 ce3c 0423 63bd
00000380: 164a 71bd 6039 4f3c fe5e 35ba 73e3 70bd
00000390: 2425 a73c 3abb 893c 4c8f 31ba 08cb 59bd
000003a0: a0ed db3c 840e 6bbd 2612 843c 01df 83bd
000003b0: 765b 45bb 31a9 28bb 0e51 f0bb 3ad3 6d3b
000003c0: 4405 933c c1b4 893c ed92 fc3b b697 4d3c
000003d0: da47 cc3c b775 963b 9d8d c63c fe88 ea3c
000003e0: 39ad fb3b 6408 1c3c c13f 40bd 131d 50bd
000003f0: 9739 4e3c d5e9 47bd 8a97 373d af87 c23c

action_model._discrete_distribution.branches.1.bias f4 [3]
0.027278837 -0.020186469 -0.029345056
00000000: de77 df3c 185e a5bc 0b65 f0bc

onnx::Div_78 f4 [28]
0.36605692 0.36606613 0.0031545113 0.17787962 0.4535564 0.45356572 0.004461138 0.17584193
0.37776682 0.37784442 0.009463193 0.18818533 0.49973828 0.4997252 0.019696288 0.17296486
0.47207707 0.47208026 0.0031545113 0.20087224 0.40137455 0.40089333 0.025424505 0.16897951
0.48712263 0.4871205 0.0031545113 0.2004046
00000000: d06b bb3e 056d bb3e ebbb 4e3b 1326 363e
00000010: 8b38 e83e c439 e83e bd2e 923b e80f 343e
00000020: a76a c13e d374 c13e 820b 1b3c a8b3 403e
00000030: b2dd ff3e fbdb ff3e 1c5a a13c b31d 313e
00000040: 16b4 f13e 81b4 f13e ebbb 4e3b 74b1 4d3e
00000050: f780 cd3e e441 cd3e 0d47 d03c f708 2d3e
00000060: 2368 f93e dc67 f93e ebbb 4e3b dd36 4d3e
