results/Driver/Driver.onnx (onnx, 305142 bytes, 11 tensors)

discrete_act_size_vector f4 [1, 2]
000000 00 00 40 40 00 00 40 40
       3.0 3.0

network_body.observation_encoder.processors.0.normalizer.running_mean f4 [28]
000000 d3 70 de 3d be 15 64 3f e7 f2 dd 39 18 b9 8d 3e
       0.10861363 0.89095676 0.0004233338 0.27680278
000010 51 02 07 3e dc 25 5e 3f 0e 2b d7 39 df 08 95 3e
       0.13184477 0.8677652 0.00041040074 0.2910833
000020 23 99 15 3e 4c 7b 5a 3f d6 b2 e5 39 e3 61 99 3e
       0.14609198 0.85344386 0.00043811527 0.29957494
000030 0e 94 bd 3e 7e 16 21 3f 84 bd e4 39 ff 43 98 3e
       0.3702702 0.62924945 0.0004362875 0.29739377
000040 5d 0c db 3e 41 5f 12 3f e7 f2 dd 39 2d 6c a6 3e
       0.4278287 0.57176596 0.0004233338 0.32504407
000050 97 c1 26 3f 87 e8 b1 3e 6a b7 8e 3a ca 85 9d 3e
       0.65139145 0.34747717 0.0010888402 0.30766135
000060 49 43 3a 3f 56 3c 8b 3e 94 0a db 39 15 1a b0 3e
       0.7275892 0.2719447 0.00041778816 0.343949

network_body._body_endoder.seq_layers.0.weight f4 [256, 29]
000000 5f bb a8 be a5 8c 25 3d 88 a1 c0 3e 9c 6b 52 3e
       -0.32955453 0.040417332 0.3762324 0.20548862
000010 cc cd 17 3d 74 bd 8d be c7 2d ab bd 12 e1 cb bd
       0.037061498 -0.27683604 -0.08358341 -0.09955038
000020 cd 99 b2 be b1 0e f4 bd 0e e0 2a be 00 11 28 3e
       -0.34882966 -0.11916865 -0.16687033 0.16412735
000030 16 dc c8 3d f5 d9 1b 3d 4c b1 67 be ea 1e c1 bd
       0.09807603 0.038049657 -0.22626227 -0.094297245
000040 bd 7c db bd 7d 4e 10 3e e1 70 53 be 1c 0b be 3e
       -0.10717151 0.14092441 -0.20648529 0.3711785
000050 71 fd 88 3e c0 6e 55 be 69 ec 49 3d 92 00 85 bd
       0.2675586 -0.20843029 0.049297724 -0.064942494
000060 a5 5b 38 3e 8d bc cb bd 47 ce 1d bd f8 8d 60 3f
       0.1800371 -0.099480726 -0.0385268 0.8771663
000070 38 c5 e1 be bf 17 90 be 75 79 1b 3e 57 4f 35 bc
       -0.44095778 -0.28143117 0.15183051 -0.011066279
000080 91 37 3f be d9 5d 24 be 4f 64 2c 3a 00 cc 98 3e
       -0.1867354 -0.16051425 0.00065762264 0.2984314
000090 c0 89 39 be 1d 9e 01 bf 09 d6 cc 3e 99 11 d6 3d
       -0.18118954 -0.50631887 0.40007046 0.10452575
0000a0 5e 85 84 bd f6 17 53 3e 9e b0 07 3f 8d 6b e2 bd
       -0.0647075 0.20614609 0.5300387 -0.1105567
0000b0 6a df ca bb e6 5f c0 3e d0 50 71 bd 19 26 5f bd
       -0.006191184 0.37573165 -0.05891496 -0.054479692
0000c0 52 66 08 3f 3f ef c0 3d e4 08 ea 3e 9b 00 5d be
       0.5328113 0.094206326 0.45709908 -0.21582262
0000d0 23 64 2f 3e ca 17 96 bd 85 d2 59 be 0d 2c df be
       0.17128043 -0.07328756 -0.21271713 -0.43588296
0000e0 61 c3 34 3e 00 66 2f 3f e4 96 ea bd d4 5f b9 3e
       0.17652656 0.68515015 -0.11454561 0.36205924
0000f0 f5 44 4c 3e 30 55 94 be ec e5 a0 be 6e 0a 91 bc
       0.1994818 -0.28971243 -0.31425416 -0.017705169
000100 e6 22 25 3d f4 f1 54 be 37 12 61 3e f1 63 15 3e
       0.040316485 -0.20795423 0.21979605 0.14588906
000110 32 59 21 3c 11 b7 ee be 18 ea 7c 3d 7a 5c 16 bd
       0.009847926 -0.46624044 0.061746687 -0.036709286
000120 89 70 48 be b6 e6 11 be c8 0c dd 3d 9a 64 30 3b
       -0.19574179 -0.14248165 0.107934535 0.0026915432
000130 2a 7e 19 bd f0 92 10 bd 27 93 36 3e 60 ce 31 3e
       -0.037473835 -0.03529638 0.17829572 0.17363882
000140 6f 62 1e bd fd fd 91 3e 3e b2 14 be da e2 d0 3e
       -0.038668092 0.2851409 -0.14521119 0.40798074
000150 c2 eb a4 3d 48 6b 8a be dc 7a 3c be 7f 1c f8 3d
       0.0805278 -0.27034974 -0.18406242 0.1211481
000160 7e aa 43 be 62 a6 e8 bd cf 1a 5c 3e 69 4e 4f 3e
       -0.19108006 -0.1135986 0.21494602 0.20244755
000170 27 6b 68 be b5 74 77 3e ec 6b 12 3e d0 55 01 be
       -0.22697125 0.24165614 0.14298981 -0.12630391
000180 95 ee 52 3d 55 ef 97 be c3 d9 f5 3c bd ba 38 be
       0.05149706 -0.29674783 0.030011063 -0.18039985
000190 23 49 33 be 44 a6 08 be 95 87 c2 ba 98 57 8e 3e
       -0.17508368 -0.13344675 -0.0014841432 0.27801204
0001a0 f0 88 b5 be 99 a0 1b be 22 0d 5e bf f6 91 81 bd
       -0.35456038 -0.15197982 -0.8673879 -0.06326668
0001b0 7d a2 7c bd 11 42 62 3e 26 fd 95 bd 72 a4 d4 3e
       -0.0616784 0.22095515 -0.07323675 0.41531712
0001c0 e8 60 29 bb 39 79 d4 3d c1 03 9d be 1f 91 9a bd
       -0.0025845114 0.10374684 -0.30666927 -0.07547211
0001d0 58 e0 9e 3d 98 1e cb be 4f fd 2a be 81 f3 43 be
       0.07757634 -0.3967178 -0.16698192 -0.19135858
0001e0 c2 b7 50 3d ce fa d8 bd bc 45 a1 bd 49 a1 17 3e
       0.050956495 -0.10594712 -0.07874629 0.14807619
0001f0 be 1e 57 be 28 d6 a0 3c 0c 53 ef be 26 79 b7 be
       -0.21007821 0.019633368 -0.46743047 -0.35834616
000200 cd 6f 76 3e 55 82 46 be b5 c9 0c 3e 12 60 4d 3e
       0.24066086 -0.19385655 0.1374882 0.20056179
000210 17 c1 34 bc c4 16 7d be 57 2c 96 3d c1 17 e6 be
       -0.011032364 -0.24715716 0.07332676 -0.44939998
000220 9d b4 e1 3d fd 97 52 3d 44 bf 01 3f e4 66 f3 3e
       0.110207774 0.05141448 0.50682473 0.47539437
000230 54 78 fa bd 90 20 73 3e f8 5d 66 bd 78 14 26 bf
       -0.12229982 0.2374289 -0.05624196 -0.6487498
000240 82 43 c4 3d e9 44 90 be 7d 6a 82 be 3f 47 25 be
       0.095831886 -0.28177574 -0.2547187 -0.1614046
000250 45 a0 88 3e 1f 5a 77 be 1d 67 b1 bd ef 33 18 3d
       0.26684776 -0.24155472 -0.086622454 0.037158903
000260 51 b5 97 3c 46 4a 04 3d 28 74 da 3d 09 37 43 be
       0.018519076 0.032297395 0.10666686 -0.19063963
000270 d6 4b bd 3d 3f b6 5a be 2b 08 cf 3c a7 f3 b5 3d
       0.0924298 -0.21358584 0.02527245 0.088843636
000280 c1 62 8d be 17 28 a0 bd d2 f7 be be 23 87 b2 3d
       -0.27614406 -0.078201465 -0.37298447 0.087171815
000290 06 e2 ad 3e 5b 17 44 3e 2f b6 b6 3c b4 a0 a6 bd
       0.33961505 0.19149534 0.022303669 -0.081361204
0002a0 65 1a 54 be 9b 17 77 3d 45 e1 59 be c6 3a 74 3e
       -0.20713194 0.060325246 -0.2127734 0.23850545
0002b0 ba 1d b7 3e dd e1 e3 be 06 21 43 3d 24 d7 9b be
       0.35764867 -0.44508258 0.047638915 -0.30437577
0002c0 7c b3 1e be ea 2f 52 3e 65 f0 06 3e c1 ca 2a be
       -0.15498155 0.2052609 0.1317764 -0.16678907
0002d0 f9 f9 17 3e 9b 3a 83 3e 6d d9 07 3c 6c 4b b6 3d
       0.14841451 0.2563065 0.008291584 0.08901104
0002e0 56 f2 32 3e 72 8c 9b 3d be e2 4b be b4 cf 1a 3e
       0.17475256 0.07595147 -0.19910714 0.15118295
0002f0 1e 94 be 3d 12 c9 b9 3e 00 df 9b 3e 0c 46 58 3c
       0.09305595 0.36286217 0.30443573 0.013200294
000300 66 a7 42 be 38 b3 e6 3e d6 c8 17 3e ae c1 97 be
       -0.1900917 0.45058608 0.14822707 -0.29639953
000310 8f 48 0d 3f 30 e6 07 3e f6 d3 81 be ac 1c 10 3f
       0.5518884 0.13271403 -0.25357026 0.5629375
000320 14 3c aa 3e 7c 3f b7 be f6 15 7c bf fe dd 63 be
       0.3324896 -0.35790622 -0.9847101 -0.22252652
000330 fa 4c b1 3e b0 03 ce bd 0f ca b4 bd fe 7a 32 be
       0.3462904 -0.10059297 -0.08827602 -0.1742973
000340 c0 14 9e 3e 63 b2 be 3d 94 52 56 be 55 68 d0 bd
       0.30875206 0.09311368 -0.20929939 -0.1017615
000350 29 71 94 3e 6f 97 c0 bd 71 44 47 be e9 1f 01 be
       0.28992584 -0.09403884 -0.19459702 -0.12609829
000360 e1 f2 81 3e be c2 4a be 43 47 0e 3f 3b 46 d0 bd
       0.25380614 -0.19800851 0.55577487 -0.101696454
000370 73 44 9b 3d cc 98 95 bd 8c aa ec 3e a8 31 bc 3b
       0.07581415 -0.07304534 0.46223867 0.005743224
000380 a2 d5 e4 bd 62 b7 9e bd 96 b2 4e 3e 4c 34 36 bd
       -0.1117356 -0.07749821 0.20185313 -0.044483468
000390 15 5f 09 3e 26 e3 33 be 4b 5c 77 3e 65 3b 5e bd
       0.13415177 -0.17567119 0.241563 -0.05425586
0003a0 a0 ce 37 bd e9 32 35 3e fc 68 eb be 8e 22 c7 3d
       -0.044874787 0.17695202 -0.45978534 0.09723388
0003b0 0b 97 8f bd 69 13 6e be c0 07 42 be fe 1d be 3d
       -0.07011231 -0.23249592 -0.18948269 0.09283064
0003c0 b8 f6 9f be 4f 29 f7 bd f1 72 6c bd 4e 26 04 3f
       -0.3124292 -0.12068426 -0.057726804 0.5162095
0003d0 e3 07 00 3d 43 d9 d4 bd 98 90 b3 3d 6a c0 97 3e
       0.03125752 -0.10393002 0.087678134 0.29638988
0003e0 07 9d f3 3d f2 20 d4 3e 4f c1 f7 bd 3d 4f 7b 3e
       0.11895185 0.41431385 -0.120974176 0.24541946
0003f0 dc 89 35 bd ef 7e 95 be a3 3a 0f bf 58 64 98 3e
       -0.044320926 -0.29198405 -0.5594885 0.29764056

network_body._body_endoder.seq_layers.0.bias f4 [256]
000000 65 f2 3c 3e 0b 78 90 3d ea ec 52 3d 08 78 d0 3d
       0.18451841 0.070541464 0.05149547 0.10179144
000010 bd 4b 8c 3d cf 7a b9 3d ca 7f fc 3d e0 1d 99 3d
       0.068503834 0.09056627 0.12329061 0.07476401
000020 c6 a1 37 3d 48 6c f3 3d 72 ad 5e 3d 95 e3 38 3c
       0.044832014 0.118858874 0.05436463 0.011284729
000030 9c 99 d7 bc 79 01 5d 3d de 7d c9 3d 6d cb a1 3d
       -0.026318364 0.053956483 0.098384604 0.079001285
000040 70 ec 3f 3d b6 b6 bc bb 5e 47 84 3d 63 3d 12 3e
       0.046856344 -0.0057590855 0.06458925 0.1428123
000050 10 65 5b 3d dd 10 10 bb 92 a9 89 3d e6 51 d5 3d
       0.053563178 -0.0021982708 0.06721796 0.104160115
000060 b1 6d 20 3d c2 1e 8d 3d 91 0f 62 3d 29 27 90 3d
       0.03916711 0.06890632 0.055190627 0.07038719
000070 ee a9 ab 3d a8 27 bf 3d 59 0d 45 3c 73 b8 9c 3c
       0.08382021 0.09333736 0.012027108 0.019130921
000080 cd 82 5d 3d 2f c9 27 3e 0a 7c 7c 3d d7 09 90 3d
       0.05407982 0.16385339 0.06164173 0.07033127
000090 74 eb 3d 3e a4 67 cc bc 25 12 ef 3d 4a f4 86 3d
       0.1854685 -0.024951763 0.11673383 0.06589563
0000a0 5c e0 0e 3e 58 29 04 3e 76 3e 03 3d 9f 64 3a 3d
       0.13952774 0.12906396 0.03204199 0.045506116
0000b0 3d 87 a9 3d 07 40 96 bd 39 15 50 3d f5 dd 8b 3d
       0.08277748 -0.07336431 0.05080149 0.06829444
0000c0 fe ad 0e 3d 3a 05 4c 3d b2 75 2c 3d 04 88 7e 3d
       0.0348339 0.049809672 0.04210443 0.062141433
0000d0 8f a3 a2 3d ec db c6 3d be 22 9e 3d 43 93 72 3d
       0.079413526 0.097099155 0.0772147 0.05922247
0000e0 a8 f5 ee 3d 01 76 72 3d b9 20 c7 3b f6 7c 64 3b
       0.11667949 0.05919457 0.006076899 0.0034864522
0000f0 2f bb ce 3d 52 4c ff 3d 2b 5e 3d 3d 7a b0 ed 3d
       0.10094296 0.12465729 0.046232384 0.11605926
000100 36 4b 24 3d fd 27 9f 3d ba 16 79 3d ec a4 87 bc
       0.04011079 0.07771299 0.06081269 -0.016558133
000110 52 d0 ff 3d b9 2d c2 3d ab ba 8f 3d 50 f8 b0 3d
       0.12490906 0.09481377 0.07018026 0.08641112
000120 37 db 92 3d 4e a8 1b 3e e9 32 ee 3c 7a 3c 1c 3e
       0.07170718 0.15200922 0.02907701 0.15257445
000130 98 5d 93 3d e6 f4 e6 3d f1 8d af 3d e7 db 5d 3d
       0.07195586 0.112771794 0.08571995 0.054164793
000140 42 0c 97 3c b0 4f db 3c 38 46 5e 3d 6d cd e5 3d
       0.018438462 0.026771396 0.054266185 0.112208225
000150 5f b0 26 bc b3 6c ce 3d cc ed 43 3e 47 e6 6d 3d
       -0.010173886 0.100793265 0.19133681 0.058080938
000160 a2 86 99 3c 45 e6 34 3e 0b 5a bd 3d 83 1e 0d 3e
       0.018740956 0.17665966 0.0924569 0.1378117
000170 90 32 57 3d 38 18 de 3c 7c e7 95 3d 9e ab e4 3d
       0.052538455 0.027111158 0.07319543 0.11165546
000180 66 6d cf 3d a2 40 12 3e f5 f7 02 3e e9 45 7a 3d
       0.10128288 0.14282468 0.127899 0.061101828
000190 9c a3 2f 3d 3f 15 0d 3e 32 e0 c0 3d 57 d8 d8 3d
       0.04288064 0.13777636 0.09417762 0.105881386
0001a0 9a 39 23 3e e7 d6 84 3c 10 65 35 3c 96 8d e1 3d
       0.15939942 0.016215755 0.011071458 0.110133335
0001b0 d3 b0 29 3e 4e 63 8b 3d 2d 9e b9 3c 94 76 65 3d
       0.1657136 0.0680605 0.022658432 0.056021288
0001c0 f3 a7 27 3e 38 46 3f 3d 88 66 0b 3e d9 3f 72 3d
       0.16372661 0.046697825 0.13613331 0.05914292
0001d0 11 ae c5 3d d9 de aa 3d 10 de 2b 3e 3c c5 9d 3d
       0.09652341 0.08343286 0.16783929 0.07703635
0001e0 4b ef 7e 3c 35 86 dc 3d 42 37 3d 3e 9c 16 ab 3d
       0.015559982 0.107677855 0.1847811 0.08353922
0001f0 a9 fc 8b 3d 1d f4 ec 3c 6b e5 ac 3d dc 6c 2b 3d
       0.068353005 0.028924996 0.084421955 0.041851863
000200 a3 f4 2d 3d 3e 81 1e 3d d9 3c 32 3e af c9 ec 3d
       0.042469632 0.038697474 0.17406024 0.115619056
000210 83 bc 26 3d ea 27 81 3e e0 b1 aa 3d 22 35 93 3d
       0.040707123 0.25225765 0.08334708 0.07187869
000220 f7 27 d5 3d 15 56 57 3c 29 33 9a 3c 1b 6e 65 3d
       0.10408013 0.013143082 0.018823223 0.056013208
000230 b8 0c e3 3d a3 9d 00 3d 58 e3 8f 3c 13 00 b4 3b
       0.1108641 0.031400334 0.01756446 0.005493173
000240 0a ad cc 3d f3 0d 15 3e d6 4a 1a bc e1 d8 0b 3d
       0.09993942 0.14556102 -0.009417256 0.03414238
000250 96 a1 2e 3d 03 d7 10 3e 56 25 9b 3c a9 86 85 3d
       0.04263457 0.1414452 0.018938702 0.06519825
000260 9a c5 1d 3e 6a 6b ca 3d b7 2d e5 3d fe 4d 14 3d
       0.1540741 0.09883769 0.1119036 0.03620719
000270 40 45 c1 3d 7b 8c b4 3c 6e d5 e9 3d 30 9c 0a 3e
       0.094370365 0.022039643 0.114176616 0.13536143
000280 d5 04 7f 3d 68 a3 db 3d 92 c2 f3 3c 12 a5 6d 3d
       0.062260468 0.10724527 0.029755864 0.05801875
000290 21 c3 8d 3d 11 42 81 3d 92 b1 e6 3c 64 1d 17 3e
       0.069219835 0.06311429 0.028160844 0.14757305
0002a0 32 7a 79 3d 30 9e 62 bd 39 b8 26 bd 80 be 1a 3d
       0.06090755 -0.05532664 -0.040703032 0.03777933
0002b0 bb 1b 0e 3d 42 0f dc 3c d0 3c b4 3d ac f5 b8 3d
       0.034694415 0.026862744 0.088006616 0.09031233
0002c0 c9 bb c8 bc a6 18 b0 3d b6 ab e4 3d 23 8f a1 3d
       -0.024503605 0.08598451 0.11165564 0.07888629
0002d0 52 71 87 3d b4 21 9c 3d 0c c5 ad 3d e6 44 33 3c
       0.06613411 0.07623616 0.08484849 0.01094172
0002e0 2e 7e d2 3c a2 34 e2 3d 2b fc be 3d fe 4a da 3d
       0.025694933 0.11045195 0.09325441 0.10658835
0002f0 47 03 8e 3d 4d 38 ed 3d 4a 3e 39 3d b7 dd 8c 3d
       0.06934219 0.11583004 0.04522542 0.06878226
000300 ec 5c 73 3d 69 1d 45 3e 36 b1 9a 3d 0a 59 98 3d
       0.05941479 0.192495 0.075533316 0.07438858
000310 d2 39 7f 3d 46 a2 05 3e ab cf d7 3d 6e 72 83 3d
       0.062311 0.13050184 0.105376564 0.0641831
000320 26 4f ce 3d 81 83 18 3d a0 b3 68 3d 65 3d bf 3d
       0.1007369 0.037234787 0.05681193 0.09337882
000330 71 f7 cf 3c 9a 60 2d 3d f0 d7 a6 3d 29 7f 7a 3d
       0.025386544 0.042328455 0.081466556 0.061156426
000340 b3 85 be bc 15 e1 8a 3d 65 aa f7 3d c4 3d 3d 3c
       -0.023257112 0.06781212 0.12093047 0.011550371
000350 46 4b 51 bd fa 94 04 ba 84 95 03 3e 6c 4e c8 3d
       -0.051097177 -0.00050575996 0.12850004 0.09780583
000360 1c 53 c1 3d 74 6b 58 3d c9 56 8e 3d e9 e4 6f 3d
       0.0943968 0.05283685 0.06950147 0.058567915
000370 71 d6 ef 3c 10 94 8f 3d e5 c4 d7 3d b9 b6 9b 3c
       0.029277058 0.070106626 0.105356015 0.019008027
000380 54 41 3c 3d c7 26 35 3d 66 bd 18 3e b2 6c 29 3d
       0.04596074 0.044226434 0.14916 0.041363426
000390 43 19 2f 3e b2 a7 74 3d b2 c9 d6 3d 7a 16 b1 3d
       0.1709948 0.05973024 0.10487689 0.08646865
0003a0 d7 1b c7 3c 60 1e a8 3d 77 5d 0c bb 8e 36 27 3d
       0.024305267 0.082089186 -0.0021418014 0.04082351
0003b0 af 00 a6 3d 66 f8 cf 3d a9 d5 c1 3d 50 32 9a 3d
       0.08105599 0.101548 0.094645806 0.075291276
0003c0 27 37 22 3e e5 80 3c 3d 48 74 d4 3d 95 ef f0 3c
       0.15841351 0.04602136 0.103737414 0.029411117
0003d0 7d 01 a2 3d 50 ed 01 3e d2 ca b0 3d d6 2a 11 bc
       0.0791044 0.12688184 0.08632435 -0.008860311
0003e0 fd 8b 27 3e 11 4b b2 3d 2c 34 06 bc 40 33 34 3d
       0.16361995 0.08705724 -0.00819115 0.04399419
0003f0 0a 73 f6 3d 02 9e bb 3d 5d 5a 32 3d f3 12 34 3c
       0.12033661 0.09160997 0.04354321 0.010990846

network_body._body_endoder.seq_layers.2.weight f4 [256, 256]
000000 56 d7 23 3d b5 dd 8d 3d 7c 1c 68 3e 11 0a 11 be
       0.040000282 0.06927053 0.22667116 -0.14163996
000010 aa 32 bd bd e9 5b 45 bd b8 d0 df 3c 5d 9b 1f be
       -0.09238179 -0.048183355 0.027321205 -0.1558661
000020 1b 51 9e 3d 63 52 8c bd b4 e5 d3 bd ce d3 13 3b
       0.077303134 -0.068516515 -0.10346547 0.0022556665
000030 96 83 33 3d 55 97 11 be ad 1d 75 bd c5 11 1a 3e
       0.043826662 -0.14217885 -0.059842754 0.15045841
000040 85 ac d1 3d ed 3d bd bd 39 2b e9 3c b6 07 e6 3c
       0.102379836 -0.09240327 0.028462993 0.028079849
000050 37 67 f4 bc b5 ae d6 bb 96 af e8 3c 2b e8 f5 3c
       -0.029834373 -0.0065515884 0.028404038 0.030017933
000060 42 1a 9f 3c ff 9c 6d 3c 01 98 25 be cb 7c 49 3c
       0.0194217 0.014502763 -0.16171266 0.012297819
000070 30 13 f5 bd fc db 01 be 37 f2 00 be 34 46 79 bc
       -0.1196655 -0.12681574 -0.12592398 -0.015214492
000080 78 d1 06 bd b5 33 59 bc c2 d9 65 be 15 b6 7d bd
       -0.03291461 -0.013256957 -0.2244635 -0.061941225
000090 b1 ca 2a 3e f9 07 4f bd 87 65 ee bd cb 41 f5 bd
       0.16678883 -0.050544713 -0.116404586 -0.1197544
0000a0 21 cb e1 bd 48 e0 0d bd 66 2f 06 be 98 2b a7 bd
       -0.11025072 -0.03463772 -0.13104019 -0.08162612
0000b0 dd 8c db bd fc 69 38 bd 24 fe 45 bd 3f d3 32 bd
       -0.10720227 -0.04502295 -0.04833807 -0.04365849
0000c0 c0 21 0c be 74 9f 97 3c 4e 21 08 be 45 3b 25 be
       -0.1368475 0.01850865 -0.13293955 -0.16135891
0000d0 89 d4 e4 bd 1d 58 02 be 1d 95 09 3d 47 a3 ec bb
       -0.1117335 -0.12728925 0.03358947 -0.0072216126
0000e0 83 f2 ac bd 8e ac 91 3c 32 92 96 bd ea ef de bd
       -0.08444693 0.017782476 -0.07352103 -0.10885604
0000f0 f7 3c d7 bd 30 56 76 3b a9 6a 95 3c 7a c7 84 bd
       -0.10509675 0.0037587993 0.018239336 -0.0648336
000100 92 f1 75 be 06 f6 0a be 5c 4b 9f 3b 02 e8 0f 3d
       -0.24017933 -0.13570413 0.0048612785 0.03513337
000110 a2 98 02 be 55 84 11 3d 6d 82 c5 3d 77 06 25 bd
       -0.12753537 0.035526592 0.09644017 -0.04028937
000120 97 b0 62 3c 8b 86 b7 bd fb 29 3c bd e4 56 02 be
       0.013836048 -0.08961209 -0.045938473 -0.12728459
000130 ca f8 06 be 1a 75 bd 3c 7d b8 e2 bc 67 07 57 3d
       -0.13180843 0.023127127 -0.027675861 0.052497294
000140 7f d7 fa 3c 59 10 df bd 00 29 9e bd d2 ac 51 be
       0.030620335 -0.1089179 -0.07722664 -0.20476082
000150 63 a3 12 bd 77 79 14 bd 63 34 11 be 38 35 7c bc
       -0.03580035 -0.03624865 -0.1418014 -0.015393548
000160 1b 18 c7 3d 3d bc 2f bd 06 13 6a 3e b6 5a b0 3d
       0.09721395 -0.042904127 0.2285882 0.08611052
000170 64 a0 e8 3d 20 5e 42 be a0 36 1e be 56 79 21 be
       0.11358717 -0.18981218 -0.15450525 -0.15768942
000180 17 69 ac bd 65 ab cd bc 9d 7c 12 bd 1f ce 13 bd
       -0.08418482 -0.025106141 -0.03576337 -0.036085244
000190 c1 01 63 be 05 4a de 3d 75 af 9e bd d3 49 31 3d
       -0.22168638 0.10853962 -0.077483095 0.043283295
0001a0 0c 29 b0 3c 21 81 3c be 88 d8 d1 be fc f7 72 bd
       0.021503948 -0.18408634 -0.40985513 -0.059318528
0001b0 77 e2 86 bb b6 2c 7b 3e 12 26 d1 bd 69 6b 66 bd
       -0.004116352 0.24528775 -0.102123395 -0.056254778
0001c0 41 cd 3a bd a8 d0 d9 bc c0 dd af bd a8 71 a9 bc
       -0.0456059 -0.026588753 -0.08587217 -0.020684078
0001d0 b6 27 fe 3d cf df c5 3d 55 24 0b bd 79 e6 bd bd
       0.12409918 0.09661829 -0.033970196 -0.09272475
0001e0 35 e1 8d bc c7 b4 8a bd 1c 49 2e bd ff 2e 05 3e
       -0.017319301 -0.06772762 -0.04255019 0.13006209
0001f0 fa 49 a7 3d c4 da 44 bd 8f 1e dd bd 28 1d de bc
       0.08168407 -0.048060194 -0.10796844 -0.027113512
000200 bb 72 0e bd ac b4 10 bd 74 e6 59 bd b9 4a 4a 3d
       -0.034777384 -0.035328552 -0.053198293 0.049387667
000210 1a a8 90 3b 57 0b 35 be a2 40 e6 bc 72 9b a1 3d
       0.0044145705 -0.17680107 -0.028106991 0.07890977
000220 94 8f ae bd 01 27 04 be 3d 92 38 bd b5 3a 0e bd
       -0.08523479 -0.12905504 -0.04506134 -0.034723956
000230 fe 23 27 bd fa dd 12 be 9f 64 e0 3d a8 c2 c8 bc
       -0.04080581 -0.1434249 0.10956692 -0.024506882
000240 21 e6 9e 3c 15 2b 69 bd 52 e2 0b 3e 7b 41 00 3e
       0.019396843 -0.05692585 0.13660553 0.12524979
000250 47 98 38 be 02 17 ba bd b3 85 ec bd 24 1f 4e 3a
       -0.18026839 -0.0908642 -0.115489386 0.00078629167
000260 d4 91 94 3d c5 43 19 3c be 16 26 3c 32 39 45 3d
       0.07254377 0.009354536 0.010137258 0.04815025
000270 3a b9 92 bc 14 c8 29 bd 5e fd bc bd 83 d5 3b bd
       -0.017910589 -0.041450575 -0.092280135 -0.045857918
000280 d6 eb 90 3d ce de bc bc 2e 5a 29 bd 3d 69 90 bc
       0.07076232 -0.02305546 -0.041345768 -0.017628307
000290 80 16 00 be 35 c1 1a be 8f 60 aa 3c df 89 cc bd
       -0.12508583 -0.15112765 0.020797996 -0.09987234
0002a0 01 4c d5 bd 19 21 fd bd 1f de 78 bc ba 4d 9f 3d
       -0.10414887 -0.123598285 -0.015189677 0.07778497
0002b0 ed ca 8b bd 21 26 9d bd 70 89 64 3d 67 5f 55 be
       -0.068258144 -0.07673288 0.055795133 -0.20837174
0002c0 cd a5 bd 3d 4e b6 e2 bd 63 54 e4 bc f3 2a f4 3d
       0.092601396 -0.11069928 -0.02787227 0.119222544
0002d0 90 a0 0f 3d 74 14 85 3d 53 e5 83 3d e9 db 7f bc
       0.035065234 0.06498042 0.064402245 -0.0156163955
0002e0 cc de 4c bd 98 fe 8f bd 44 18 24 3e 69 ae 40 bd
       -0.050017163 -0.07030982 0.16024882 -0.04704133
0002f0 fa b1 f8 bb f1 ec fa 3d 21 17 62 be d7 f0 f6 3b
       -0.007589576 0.12252224 -0.22079135 0.0075360346
000300 56 a6 64 bd cb ca 8f 3d 8b 5a a2 bd 5f 69 73 be
       -0.055822693 0.070211016 -0.07927426 -0.23770665
000310 be 04 75 bd 98 7c 7e 3d e3 86 80 bd 32 a2 e1 3b
       -0.059818976 0.06213054 -0.062757276 0.0068857903
000320 1a 0e d1 3d 3e 85 c6 3d 18 04 ae 3d 7f e7 75 be
       0.10207768 0.09693383 0.084968746 -0.2401409
000330 0b 2e a8 bd 6e 22 dd bd 60 69 90 3c 88 66 5d be
       -0.08211907 -0.107975826 0.017628372 -0.21621144
000340 f2 cd 0a be 78 e3 1e be 62 d3 16 3a 76 a3 d5 3d
       -0.13555124 -0.1551646 0.00057535444 0.10431568
000350 3d 6f 07 be c2 bd 32 3d b3 97 3f 3d 38 b4 04 bc
       -0.13226028 0.043638 0.04677553 -0.008099608
000360 07 a1 6b be e2 ec b5 bd 93 0b 9e bd d1 fc 98 bc
       -0.23010646 -0.088830724 -0.07717051 -0.01867524
000370 52 ec 6f 3e ab 47 8c 3d 66 9b c2 3d 79 37 ee bd
       0.23429993 0.06849607 0.09502296 -0.11631674
000380 e8 5a ca 3d 89 17 f2 bd 13 87 b6 3c a1 f8 d4 bd
       0.0988062 -0.11820895 0.022281205 -0.10398985
000390 be 27 00 3e 06 4b 61 3d 90 a3 2f bd b2 ad be 3d
       0.1251516 0.05500319 -0.042880595 0.093104735
0003a0 bf 21 90 bd 10 cf 43 3c ff 0c 48 3e b0 02 b6 bd
       -0.070376866 0.011951223 0.19536208 -0.08887231
0003b0 13 14 5b be 54 cf ce 3c 26 ca 5c bc 44 df f9 3d
       -0.21394376 0.025245346 -0.01347593 0.12200788
0003c0 d6 ac 80 bd 30 c5 2a bd b0 7d 91 bb a3 b3 2f 3d
       -0.06282966 -0.04169196 -0.004440032 0.042895924
0003d0 b6 7d 12 be 31 71 9d bc ae cb b0 3c 1a a7 9f bd
       -0.14305767 -0.019219013 0.021581497 -0.07795544
0003e0 0e 0b 52 bd a7 2d d0 bc 7e ec e2 bd 25 23 91 bb
       -0.051280074 -0.025412394 -0.110802636 -0.0044292384
0003f0 11 5e 9a bd c9 a1 17 3e 6e 88 91 bd 98 b5 e9 bb
       -0.07537473 0.1480781 -0.071061 -0.0071322434

network_body._body_endoder.seq_layers.2.bias f4 [256]
000000 f6 31 4d 3c 77 2d 25 3b 2d 58 e5 3c 04 c8 ba 3c
       0.012524119 0.00252041 0.027996147 0.022800453
000010 a5 2c bb bb 7d 91 ba 3d cf 33 ac 3a f9 e3 14 3d
       -0.005712109 0.09109781 0.0013137999 0.036350224
000020 f8 0c d0 3b 92 e7 7f b9 02 47 1e 3c 49 ef e9 3c
       0.0063492022 -0.00024404962 0.009660484 0.028556483
000030 ff 91 34 3c 3e f9 7e bc dc d2 06 3d 92 76 fb bc
       0.011021136 -0.015562354 0.032915935 -0.030696187
000040 7b df 8a 3c 98 3b 09 3d 2a 49 03 3d bf 51 08 3d
       0.016952267 0.0335041 0.032052197 0.033281084
000050 5d e8 2d bd bf 9b 51 bc 6d 40 23 3d 8e b8 4c 3d
       -0.042457927 -0.01279348 0.039856363 0.049980693
000060 96 e2 d1 bc f2 76 ab 3c 9a e0 54 bb 58 d9 b7 3c
       -0.02562074 0.020930741 -0.0032482506 0.022442505
000070 3e b1 24 3d 48 86 78 3c 98 cf 09 3d 88 aa d8 3c
       0.040208094 0.015168734 0.033645242 0.026448503
000080 e3 09 25 3d ea e5 68 3c 50 a9 38 3c 72 45 f5 bc
       0.04029263 0.014214972 0.011270836 -0.02994034
000090 6c a0 46 3d 71 c3 c0 bc f0 4c 05 39 07 82 66 3d
       0.048492834 -0.023530694 0.0001271253 0.056276347
0000a0 e5 32 48 bb 7e fe 6f 3d e6 32 20 3c 3d 6e ab bd
       -0.0030547914 0.058592312 0.00977776 -0.08370636
0000b0 f2 06 75 3d bc 27 2a 3b 6f 25 4e bc 28 26 1c bd
       0.059821077 0.0025963625 -0.012582167 -0.038122326
0000c0 46 9a fd 3c de 7e 1a 3b 12 d5 c9 3b 8b b8 b1 bd
       0.030957352 0.0023574154 0.006159433 -0.08677777
0000d0 f6 b9 6c 3b aa d7 8f 3c e2 41 2b 3d 55 5b 17 3d
       0.0036121584 0.017558891 0.041810878 0.036952335
0000e0 8e 82 26 bd 2a 2e cb 3d 1f e2 d8 bb 8a 3b 06 bd
       -0.04065185 0.099209145 -0.0066187526 -0.032771625
0000f0 80 2e 86 bd de 09 ad 3c 3e 03 33 3d c6 7b 8f bc
       -0.06551838 0.02112287 0.043704264 -0.017515074
000100 51 bc c3 3c 11 a1 43 bd 70 56 d3 bd 54 6c 11 bd
       0.023893507 -0.047761027 -0.10319221 -0.0355037
000110 fa 4a 9d bd 3e 78 9c bc 0b 8b da 3c f6 75 68 bd
       -0.07680316 -0.019100305 0.026677629 -0.05675312
000120 2b 49 e7 3c 10 e7 91 3c e1 01 09 bc f5 53 71 3d
       0.028233131 0.017810374 -0.008362264 0.05891796
000130 c6 d2 af 3c b5 7e 87 bc d0 f1 5d bc 37 a9 21 3c
       0.02146281 -0.01653991 -0.013546422 0.009867004
000140 bb c7 76 3c 8b 4f 31 bd dd 06 7c bc 02 6f 42 bd
       0.015062268 -0.04328875 -0.015382496 -0.047469147
000150 44 59 d7 bb 53 cb 02 bd 05 6b b6 3b 94 f2 5a 3d
       -0.0065719206 -0.031932186 0.005566957 0.053453997
000160 aa 27 80 bd c0 91 ab 3c 83 8c 7a 3b 22 e0 eb 3c
       -0.06257565 0.020943522 0.0038230724 0.028793398
000170 1c 07 ab bc d2 19 51 3c 6e 36 a1 bd 42 68 e9 bc
       -0.020877413 0.012762504 -0.0787171 -0.028492097
000180 ca a1 42 3c 4a a3 25 bc 22 a1 be bc f7 e8 41 3d
       0.011879394 -0.010109732 -0.023270193 0.047341313
000190 04 bd ad bc a7 7f 6c 3c 74 f0 86 3d 0d f7 26 3d
       -0.021208294 0.014434732 0.065888315 0.04076295
0001a0 ca c1 5d 3c 82 95 cc bc 0b be cc 3c 08 e0 24 bd
       0.013534972 -0.024973635 0.024992963 -0.040252715
0001b0 58 75 a5 3c ae 84 d4 bc d7 ef 04 3c 36 15 e9 bc
       0.020197555 -0.025942173 0.008113823 -0.028452497
0001c0 d9 05 85 bc 06 77 aa bd 56 ac 1c 3d 5e f4 2e 3d
       -0.01623814 -0.08323483 0.03825029 0.042713515
0001d0 48 25 69 bb fa af 48 3c 19 5d 04 3d c2 3b 09 3d
       -0.00355752 0.012248987 0.032315347 0.033504255
0001e0 26 c6 b3 bc 8b f0 3c 3d 95 63 47 bd 8a af d3 3b
       -0.02194507 0.046127837 -0.048678953 0.006460135
0001f0 d5 94 3f bd e8 a1 e8 3c 14 2d 63 3c 74 48 27 3d
       -0.046772797 0.028397515 0.013865728 0.04084058
000200 ed 49 c4 bc 6d b0 0e 3d cb fd 3e bd c1 41 90 3d
       -0.023961032 0.03483622 -0.046628755 0.070437916
000210 50 5f 7a 3b eb 14 52 bb 54 db d1 bd 55 69 ff bc
       0.0038203783 -0.0032055925 -0.10246912 -0.031178156
000220 f3 59 89 bd cb b1 0d 3d b9 04 54 3d 85 b4 5e bb
       -0.067066096 0.034593385 0.051762316 -0.003398211
000230 69 c5 33 bd be 71 41 bd 7e 55 02 bd 71 c9 58 3d
       -0.043889437 -0.047227614 -0.031819813 0.052926484
000240 e2 5c 53 bb 48 c8 4b 3d b3 53 c8 bb b5 55 8d 3a
       -0.0032251407 0.04975155 -0.0061134933 0.0010782989
000250 42 b3 b0 bc 61 38 3b 3b ba 4a d4 3c 5b c8 65 bd
       -0.021569852 0.002856754 0.025914539 -0.056099277
000260 20 82 88 bb b8 c6 cb bb 41 94 06 3d 16 85 12 bc
       -0.0041659027 -0.0062187575 0.03285623 -0.008942863
000270 cc 8e c1 bd fe 9c 07 3d 1c 21 4e bd 3d 48 24 bc
       -0.094510645 0.033108704 -0.050324544 -0.010026989
000280 c4 a6 d2 bc 29 aa 8b bd be 6b 76 bd 21 5a 1c bb
       -0.025714286 -0.06819565 -0.060161345 -0.0023857432
000290 41 ec 9a 3a 6c 0c 14 bd 9a d4 b9 bc b5 23 b6 3c
       0.0011819677 -0.03614466 -0.022684384 0.022233823
0002a0 d0 a4 2f bc ef e6 3c 3c ff e9 49 3c 62 d9 7b 3c
       -0.010720447 0.011529668 0.012323855 0.015371652
0002b0 cf 03 3f 3b b1 c5 46 3c 2d 3d e9 3b f9 8c 86 3c
       0.0029146557 0.012132094 0.0071178884 0.016424643
0002c0 e0 2e 5b 3c 27 63 96 bc ae f2 c5 ba b2 ab 93 3d
       0.013377875 -0.018357826 -0.0015102231 0.07210483
0002d0 54 2b b0 3c 88 00 23 b8 5c 25 a6 bc d3 58 cf 3a
       0.021505035 -3.8862723e-05 -0.020281486 0.0015819318
0002e0 c8 54 c7 3c 1a 87 af bb 86 11 d0 3c 3f eb ea 3c
       0.024332419 -0.0053566815 0.02539898 0.028676627
0002f0 8d 3b 0c 3c 96 14 f5 3c 3c 20 f3 3b db 0b 6d 3c
       0.00855912 0.029917043 0.007419614 0.014468159
000300 34 64 92 3c f9 da ab 3c 67 2b c5 b9 11 07 ee bc
       0.017870046 0.020978438 -0.00037607105 -0.029056104
000310 54 ce d2 39 be a9 74 3c 0e c9 ff bc ac 42 8a 3d
       0.00040208048 0.014933048 -0.0312238 0.06750998
000320 e4 45 3c bb 93 86 61 3d 81 ac 2b bd c9 d6 51 bc
       -0.0028728181 0.05505998 -0.04191256 -0.012807556
000330 cd 3a 66 3c ea 30 90 3c 6a cd e6 3c 34 ae a3 bc
       0.014052105 0.017601449 0.028174121 -0.019980527
000340 6f 35 ed 3c ae 8b b8 3b d3 3c 49 3d 40 b7 7d 3d
       0.028956143 0.0056318855 0.049130272 0.06194234
000350 33 dd 87 bc 17 83 53 bc 04 e2 7d 3d f3 c2 3b bb
       -0.016584968 -0.012909672 0.061983123 -0.0028650134
000360 4d 58 7f bc d0 fe 7e 3c 5e 0a 64 bd 1f 5f f2 3c
       -0.015585017 0.015563682 -0.05567395 0.029586373
000370 df 9c 3d 3d 56 16 a8 bc d2 c3 42 3d 37 87 31 3a
       0.046292182 -0.020518463 0.04755003 0.0006772163
000380 50 48 3a 3d f0 d6 46 3d f9 17 7b bd 82 b3 65 3c
       0.04547912 0.048544824 -0.06130216 0.014019849
000390 4c ff 1a bd af de 75 bc 20 57 0b 3c 42 30 39 bd
       -0.037841126 -0.015006705 0.008504659 -0.045212038
0003a0 68 78 57 3c 84 f5 0e bd 53 b0 ff 3c 22 0b 49 3d
       0.013151266 -0.03490211 0.031212008 0.049082883
0003b0 1a 70 15 bb 94 34 a5 3c 0f 11 16 bd 2b ed 5b bc
       -0.0022802413 0.020166673 -0.036637362 -0.0134232445
0003c0 10 54 0f ba ea 2f da 3c f3 3c c9 3c b8 38 da 3c
       -0.00054675434 0.026634175 0.024565196 0.026638374
0003d0 c0 c5 11 3c eb 64 4a ba 37 ed 85 bc fb a8 0e 3d
       0.008897245 -0.00077207264 -0.016348464 0.03482912
0003e0 65 55 e0 3c ba 8d d6 3a ee fd bb bc 5b bc 75 3c
       0.02738447 0.0016369142 -0.022948232 0.014998521
0003f0 7b 99 13 3d 8f 04 d5 3c ea 08 db 3c 9b 68 94 3d
       0.036035042 0.02600315 0.026737649 0.072465144

action_model._discrete_distribution.branches.0.weight f4 [3, 256]
000000 e1 e0 15 bc 92 93 16 bc 77 1f 00 b9 4f 65 51 3e
       -0.009147854 -0.009190457 -0.00012218753 0.20448802
000010 1f 84 cd 3c 0c 3d ec bc c3 3a 26 3c b1 0b 09 3c
       0.025087414 -0.028837703 0.010145846 0.008364604
000020 18 2c 35 bd ec 96 9f 3c fa 23 9e 3c 8b f5 a8 3c
       -0.044231504 0.019481145 0.019304264 0.020624897
000030 a3 c7 7e 3d 95 a5 aa 3b 4e a1 6a 3d 73 9a cf bc
       0.062202107 0.005207727 0.05728274 -0.025342202
000040 ad 45 3f 3e 4a f3 aa be c4 50 0f 3d 0e 7b 82 3e
       0.18678923 -0.3338874 0.034989133 0.25484508
000050 27 af 5b 3d 50 db 2b bc ea f1 26 3d ab ce 29 3c
       0.053633835 -0.0104893 0.04075805 0.010364215
000060 86 a9 23 bd da c3 f0 3c 13 4a de 3d a6 40 62 3d
       -0.039956592 0.029390264 0.10853972 0.055237435
000070 69 49 80 3d fa 64 fd 3b b0 98 54 bd 2b 7e a0 3c
       0.06264002 0.0077329846 -0.051903427 0.019591412
000080 1d 40 f9 3c 5c 34 6b bd a4 33 8f 3b a2 56 d8 3a
       0.03042608 -0.05742298 0.0043701697 0.0016505311
000090 b2 89 b6 3d 10 6b f7 3d a9 e2 24 3e 48 98 a7 3d
       0.08912982 0.120809674 0.16102089 0.08183342
0000a0 aa fa 3f 3b b5 77 08 bf d2 64 f1 3d ae df 87 3d
       0.0029293695 -0.5330766 0.11786808 0.066344604
0000b0 e8 dc 0d bd 9b 4b e1 3b 27 87 b3 bc 5b a4 bc bd
       -0.0346345 0.006875468 -0.021915032 -0.09211036
0000c0 10 e2 3b 3c 20 05 18 3c b6 ec 41 bc 7d 7b 71 3e
       0.011467472 0.009278566 -0.011836221 0.23582263
0000d0 c6 44 d0 3c f5 9e 42 3d d7 26 47 be 79 86 38 bc
       0.025423419 0.047514874 -0.1944841 -0.0112625295
0000e0 6f 21 b9 3d 69 c1 3f 3d aa ec 6c 3c 75 55 94 3e
       0.0903958 0.04681531 0.014460722 0.2897145
0000f0 32 70 2b 3e bb e9 92 3c ed 48 e7 3d 42 49 48 3d
       0.16742018 0.017933717 0.11293206 0.04889799
000100 91 2b 90 3c 7e 24 df 3d fc 6f b0 3c c1 79 e5 3d
       0.0175989 0.10895632 0.021537773 0.11204863
000110 65 2c 5f be 97 4a 6a 3e 49 58 43 3c a3 1f ec bd
       -0.21794279 0.22880016 0.011922904 -0.11529472
000120 25 7c 2e 3e 20 79 f7 3c f2 2e 1d 3e 1f f7 2b bd
       0.17039545 0.030209124 0.1534994 -0.04198372
000130 0e e0 a8 3c ab 4e 6a be dc 76 c1 bd fa 79 2f 3e
       0.02061465 -0.22881572 -0.09446499 0.17136374
000140 4e e1 15 bd 87 56 a3 3c 48 7b 52 3c 62 f3 0d 3d
       -0.03659182 0.01993872 0.012846775 0.034655936
000150 12 40 87 bc 8f fb f5 3d 81 84 3e bc 3a 1b c6 3c
       -0.016510043 0.120108716 -0.011628271 0.024182905
000160 60 2d 64 3e 94 7a 71 bd 26 ef 2f bc ed bd f6 bc
       0.22282934 -0.05895479 -0.01073817 -0.03011986
000170 f7 6d e3 bd 36 10 cc bd 3d da 75 3e f4 8f b4 be
       -0.111049585 -0.099640295 0.24009033 -0.35266078
000180 33 8a 19 bd 27 51 14 bd 3d e1 ee ba 86 b7 cd 3c
       -0.037485313 -0.036210205 -0.0018225085 0.025111925
000190 aa b8 9e 3e 12 46 50 3e 3c 58 34 3d ce 2c 0c 3d
       0.31000262 0.2033923 0.04402946 0.034222417
0001a0 6a 16 1c 3d 45 97 68 bd 7e 2f 65 3d fa b0 43 3e
       0.038107313 -0.056784887 0.055953495 0.1911048
0001b0 6f 14 b0 ba 93 48 5c 3e 2a 66 59 3c 81 b5 81 3c
       -0.0013433824 0.2151206 0.013268987 0.015833618
0001c0 27 64 a0 3d cf eb 77 3e 57 3d 64 be 7f 72 26 bd
       0.078316025 0.24211048 -0.22289024 -0.040636536
0001d0 97 9e 20 be 02 6b df bc f2 14 75 be 93 a3 aa 3c
       -0.15685497 -0.027272705 -0.23933771 0.020829951
0001e0 b7 62 b7 3c 67 4a 56 3d 60 0b de bc a8 bf 7b 3d
       0.022385938 0.05231705 -0.027105033 0.061462075
0001f0 85 23 89 bb e5 b9 8a bb 7d 22 e9 bb 07 79 ea 3d
       -0.0041851425 -0.004233586 -0.007114707 0.114488654
000200 03 fb 2f 3d d0 5f c3 bc 38 90 2d 3e 17 f9 0b 3d
       0.042963993 -0.023849398 0.16949546 0.034173097
000210 d7 52 b2 3d 03 0f fa bc c6 76 43 3e dc a2 92 bd
       0.08707207 -0.030524736 0.19088277 -0.07159969
000220 bb a0 62 3e 22 26 e3 3c 9b d9 94 3e df 83 50 bd
       0.22131626 0.027728144 0.2907227 -0.050907012
000230 28 f4 7a 3e 78 3c 90 3e 4a 05 a4 3d 6f 39 b6 bd
       0.245072 0.28171134 0.08008821 -0.08897673
000240 94 8e 1d bd 1b ad 12 bc 13 46 c1 3c fc 74 37 3c
       -0.03846605 -0.008952404 0.023592984 0.011197325
000250 7d 10 e3 3c 5c ac 2d bd c4 09 5d 3c 35 1e 17 3d
       0.027717823 -0.042400703 0.013491098 0.036894042
000260 5c 84 9f 3c df 70 2f 3e f9 79 26 bd 15 3a cd 3c
       0.019472294 0.171329 -0.040643666 0.02505211
000270 9d 99 14 3e 2e 36 55 bc e3 98 bd bc ce 5f d5 3d
       0.14511724 -0.013013406 -0.023144191 0.10418664
000280 7e 60 de 3d 55 2c 20 3d 3b 87 93 3e 33 cc 09 bc
       0.10858248 0.03910478 0.2881411 -0.008410501
000290 1f ac 99 3b 3e 8b b3 bd cd 8a c7 3d 39 a1 54 3c
       0.004689708 -0.08766793 0.09743271 0.012977892
0002a0 21 b1 4b 3d ca 8e c0 3c 44 0c 35 bd e5 6b a9 bc
       0.04972947 0.023505587 -0.04420115 -0.020681331
0002b0 d9 cb 22 3e 0a 7d 0a bd b8 e7 9e 3c bc 13 24 3d
       0.15898074 -0.033810653 0.019397601 0.040057883
0002c0 0d 21 dd 3d e5 59 da be 49 b0 75 3a 06 b3 98 bb
       0.107973196 -0.4264671 0.0009372277 -0.004660013
0002d0 b5 73 b5 bb 9f 12 c8 3d 71 4d 74 bd eb 06 8f bd
       -0.005537475 0.09769177 -0.059644166 -0.069837414
0002e0 70 68 3c bd cb ef 5a 3e d0 26 95 bd 87 9b d0 3b
       -0.045998037 0.21380536 -0.072827935 0.0063661966
0002f0 8a a7 5e bc cd ee 21 3c 51 ac 0a bd 2e 92 bc 3c
       -0.013589749 0.009883595 -0.03385574 0.023018923
000300 3a bc 27 3e 6a 08 95 bd 1c 2b 4c be ac 31 d5 3e
       0.16380396 -0.072769955 -0.1993832 0.4163946
000310 fd 99 11 ba 4c 55 9b 3d d9 21 93 be 9f 8f 05 bd
       -0.0005554257 0.075846285 -0.2873676 -0.03260767
000320 8d 9f 9b 3b 7d 5c bf be fd 7d ac 3d a6 ea 97 3c
       0.0047492445 -0.3737525 0.08422468 0.018544506
000330 7c a4 92 3d 73 b3 46 be 00 b6 cb 3c 06 9f 02 3d
       0.07160279 -0.19404392 0.024867058 0.031889938
000340 3f e9 ea 3c 08 51 c2 3c 29 a1 ae bc 98 78 f9 be
       0.028675674 0.02372028 -0.021317082 -0.48724818
000350 07 06 86 bd 7a d6 d9 bc 7d 19 51 bd d4 44 36 3c
       -0.065441184 -0.026591528 -0.0510497 0.011124808
000360 8d cc d4 3d 15 c6 c1 39 e1 54 58 3e b0 a1 14 3d
       0.103905775 0.0003695941 0.21126129 0.03628701
000370 93 9b 14 bd 71 33 05 3e 64 7d 85 bd 66 10 ea bb
       -0.03628118 0.13007905 -0.06518057 -0.007143068
000380 44 fa 2a 3d 90 23 c4 3c 1f d1 1d be ee 87 13 3e
       0.04174258 0.023942739 -0.15411805 0.14407322
000390 3a 2a eb bc e9 f0 a6 bc a2 16 52 3d 9e ed 4d 3d
       -0.028706659 -0.020378547 0.051291116 0.050275438
0003a0 22 38 ac 3c 92 ed c0 3d 01 0b 9d 3b 61 c8 8d 3d
       0.02102286 0.09420313 0.0047925715 0.06922985
0003b0 9f a9 58 3d 38 8c bc 3c 2c d0 d3 3d 0e b9 9e 39
       0.05289614 0.02301608 0.1034244 0.00030273985
0003c0 d0 31 d6 3d b5 fd fd 3b 38 7b 86 3c ff eb bc 3d
       0.1045872 0.0077511915 0.016416177 0.092247
0003d0 ca 39 3f 3b 71 a2 c5 3c f1 10 93 bd 7a 3e 7d 3c
       0.0029178732 0.02412531 -0.07180966 0.01545679
0003e0 2b 72 51 be 99 a3 10 3e e2 cc 21 be 15 f5 4f 3d
       -0.20453708 0.14124908 -0.15800813 0.050770838
0003f0 d4 c6 49 bb 7c 02 21 be 07 b6 4b 3d 08 6a 04 3d
       -0.0030788677 -0.15723604 0.04973414 0.03232768

action_model._discrete_distribution.branches.0.bias f4 [3]
000000 79 c2 85 bb ed a5 c2 3c 73 88 18 bd
       -0.004082021 0.02376076 -0.037239503

action_model._discrete_distribution.branches.1.weight f4 [3, 256]
000000 76 90 24 be 53 4b 06 3b 42 20 9a 3a e6 ae a9 3d
       -0.16070732 0.0020491674 0.0011758881 0.08285312
000010 82 5c b6 3d 22 de ae 3d fc b6 87 bc 3f 18 a6 bc
       0.08904363 0.08538462 -0.016566746 -0.020275233
000020 1e 1f cc 3d fc 5e 0b be 47 77 14 bc 3a 2e 2d 3d
       0.09966873 -0.13610452 -0.009061641 0.042280413
000030 06 b7 bb bc 7e 84 9f bb 21 3a 1f 3e 10 a4 42 3c
       -0.02291442 -0.004868089 0.15549518 0.011879936
000040 5d 50 8b bd b5 d4 2c be 09 31 54 3c ff 08 04 be
       -0.068024375 -0.16878016 0.012951144 -0.12894057
000050 f3 86 20 b9 3a ae 2a be 3c 1d e9 3c 08 f4 d3 3c
       -0.00015309062 -0.16668025 0.028456323 0.0258732
000060 14 02 18 be db 7d 2f 3d ad c4 5c 3d 6c 21 c2 bc
       -0.14844543 0.042844635 0.053898502 -0.023697577
000070 42 60 45 3c e4 1d 26 3d 98 d5 8a 3c 95 aa c1 3c
       0.012046875 0.04055585 0.016947553 0.02364091
000080 b1 44 9c 3b f0 1a 8a 3c a7 82 2c 3c 36 fe 09 be
       0.004768931 0.016858548 0.010529197 -0.1347588
000090 dd 75 cf bc 03 86 61 3c c3 be 8e 39 e3 b8 d1 3d
       -0.025324756 0.013764861 0.0002722648 0.102403425
0000a0 96 05 e1 bd 1b 56 c8 bd d6 fb d3 3d 6d 51 46 be
       -0.109873936 -0.09782048 0.10350768 -0.19366999
0000b0 db 68 b8 bc 2b 63 8a 3c 37 dd 1a 3e 37 0e d9 3a
       -0.022510936 0.01689299 0.1512345 0.0016560022
0000c0 aa 00 e9 3c 55 62 06 3c 27 e6 a2 3d de 2c 66 be
       0.0284427 0.008202155 0.07954054 -0.22478053
0000d0 7f 02 86 3c 55 88 ed 3c e7 e8 11 bd a9 9c 00 3d
       0.016358612 0.028995672 -0.035622504 0.031399403
0000e0 13 99 e2 bd 44 1a e0 3c 92 43 90 3c d7 62 d1 3d
       -0.11064353 0.027356274 0.017610345 0.1022393
0000f0 7f 80 22 bd 75 21 cb 3c ca 3b 70 3c 07 00 3d 3d
       -0.039673325 0.024796227 0.014662692 0.046142604
000100 bf af dd 3c f1 91 36 3c b8 75 81 bd 89 93 78 bd
       0.027061341 0.011143194 -0.06321281 -0.060687575
000110 d8 22 a2 be 25 69 31 be fa 36 a0 3c 90 7b 03 3d
       -0.3166721 -0.17325266 0.019557465 0.03210026
000120 9b 5b e7 3d 28 fe ad 3c 7b 43 2f bc 85 a4 d1 3d
       0.11296769 0.021239355 -0.010697241 0.10236458
000130 2e 17 6e 3c b8 70 c7 bd c3 df 04 3d 9f 5e 89 3c
       0.014531894 -0.09738296 0.03243996 0.016768752
000140 9a 64 39 3d 89 e3 04 be a7 90 d1 bb eb 7f c9 3d
       0.045261957 -0.12977423 -0.0063954177 0.098388515
000150 65 da db bb c2 00 25 be 57 4f 01 3d 85 6a 46 3d
       -0.0067093843 -0.1611357 0.031569805 0.04844143
000160 7c 4b fc bd a8 81 4f 3d f4 7e ef 3c 05 10 4c 3c
       -0.12319085 0.05066076 0.02923534 0.012454991
000170 da 6f 2b be d2 29 8a be 20 69 03 be 9f d7 4f bd
       -0.16741887 -0.2698503 -0.12833071 -0.05074274
000180 fe b4 ad bb df e7 03 be ad 1b b4 ba 5e 7c 12 bb
       -0.005301117 -0.1288142 -0.0013741158 -0.002235196
000190 b6 83 30 be a6 71 41 be 45 f2 61 3c f5 41 92 3d
       -0.17237744 -0.1889101 0.013790672 0.071414866
0001a0 61 d4 e2 3b 73 6d a9 be 67 d9 aa 3c f3 d4 93 bd
       0.00692229 -0.33091316 0.020855619 -0.07218351
0001b0 9f 75 a2 3c fe af b4 bd f5 d6 25 be 61 fe 33 3a
       0.019831477 -0.0882263 -0.16195281 0.00068662135
0001c0 fa 36 10 bd de f3 88 be 49 1f 95 be a9 59 02 3d
       -0.03520868 -0.26748556 -0.2912543 0.031823788
0001d0 de 75 14 be d6 e5 2d 3c 36 e3 f5 3d 55 76 ed 3b
       -0.14498088 0.010613879 0.12006228 0.0072467723
0001e0 ef ad c6 bd ba 6d 8a 3c 35 08 27 be 35 8d af bc
       -0.09701144 0.016898025 -0.16311724 -0.021429637
0001f0 8c b9 5e bc ba ef 53 3b 44 90 4e 3d 4b 4c 00 3d
       -0.0135940425 0.0032338933 0.05043055 0.03132276
000200 d3 f1 27 bc 0b 81 26 3b 9d 2a 05 bd c8 f6 20 3d
       -0.0102505265 0.0025406505 -0.032511342 0.03929785
000210 0a ea 73 bd c2 b6 33 3d 85 b9 0a be 9d 11 09 3d
       -0.05954937 0.043875463 -0.13547333 0.033464063
000220 8b 41 0a be 5e 25 21 3d f5 5e a2 bd 4e 47 2f 3c
       -0.13501565 0.039342277 -0.07928268 0.010698153
000230 63 9d eb bd 87 38 d3 bd af c2 e7 bd 7f 58 91 3c
       -0.115046285 -0.10313516 -0.1131643 0.017742394
000240 15 42 1f 3d fb ce 36 3d d9 4c ae 3c 88 ae a0 3b
       0.03888138 0.044630986 0.021276878 0.0049036182
000250 07 50 80 bd b3 2a e7 3c 7e 50 49 3d d2 b8 e6 bc
       -0.06265264 0.028218603 0.04914903 -0.028164301
000260 88 6f dc bb f6 9f 91 bc 31 a1 10 3d 73 84 04 ba
       -0.0067271627 -0.01777647 0.035309974 -0.0005055137
000270 fd 6b 0a be bd 3e 36 3d 10 03 be 3d 48 a9 e8 3d
       -0.13517757 0.044493426 0.09277928 0.11360413
000280 5d 4e 51 be 9b a7 57 3d 72 d8 a3 bd ef c9 23 3d
       -0.2044005 0.052650075 -0.08000268 0.0399875
000290 99 8c a8 3c 7e 12 a2 bb 01 ad b2 bc d6 ae 8e 3b
       0.020574855 -0.004946052 -0.02181101 0.004354338
0002a0 01 47 d9 3c 6f 03 31 3d d7 ef d7 bd 32 2f 10 3d
       0.026523115 0.043216165 -0.10543793 0.03520126
0002b0 f1 f0 06 be 6b d2 15 bd 8d 46 1f 3c e1 cc 63 3c
       -0.1317785 -0.036577623 0.00972141 0.013903827
0002c0 e1 51 3b bc c4 8e 00 39 a7 1d 36 3c 3d e9 8a 3d
       -0.011433096 0.00012260216 0.011115468 0.06782768
0002d0 0a 5b b9 3c ff e4 bd 3d 08 51 34 3c c2 e9 d6 3b
       0.022626419 0.09272193 0.0110056475 0.006558628
0002e0 0a b3 56 bc 0f 3f 92 3b cc 68 e7 bc 77 52 0d 3d
       -0.01310421 0.0044630836 -0.028248213 0.034502473
0002f0 aa 4e 81 3c ee 7a a2 3c 0f 5d ac bd 83 b4 98 3b
       0.01578458 0.019834008 -0.08416187 0.0046601905
000300 d3 ae e5 bd 8f f7 93 bc e3 60 83 bd a2 bc b1 3c
       -0.11214986 -0.018062381 -0.06414964 0.021696392
000310 77 de 53 bc 39 56 c2 bd aa f8 d0 bc a5 2b 38 3d
       -0.012931458 -0.09489102 -0.025509197 0.044963498
000320 eb 71 ef 3c eb 79 1d be 57 b7 40 bc 3c 45 b5 3c
       0.029229125 -0.1537854 -0.011762462 0.02212774
000330 8a a1 29 3d 9d 22 87 3a 7d ad b6 3c 2f 41 7e 3d
       0.04141382 0.0010309998 0.022299523 0.062073883
000340 18 c2 81 bc 4e da 4b 3d fb e4 90 3c f7 2f 36 be
       -0.015839621 0.04976874 0.017687311 -0.17791735
000350 b0 3f c6 bb 2c af 19 3d b7 5f c1 3d 62 21 1d 3d
       -0.0060500726 0.037520573 0.09442084 0.038361914
000360 b4 f5 b1 3b 3e eb bb 3c d3 46 a3 bd d8 0c 83 3c
       0.0054309014 0.02293932 -0.07972493 0.015997335
000370 e8 f0 db 3c f6 ce ba bd 6e 90 77 be 21 9d eb 3c
       0.026848271 -0.09121506 -0.2417619 0.028761448
000380 87 2d 00 3d 20 dc bb 3c c7 27 af 3d 1d 7c 81 be
       0.03129342 0.022932112 0.08552509 -0.25290003
000390 82 9c a9 ba b6 6b b8 3d 13 9d 14 3b 9e 35 ae bd
       -0.001294032 0.09004919 0.0022676631 -0.085063204
0003a0 d5 56 e0 3a 28 e2 dc bc d3 a3 18 3b ca 12 10 3d
       0.0017115722 -0.026963308 0.0023291006 0.03517417
0003b0 87 88 b3 bc e1 9b 07 bc a6 82 10 3d b5 0a 5b 3c
       -0.021915687 -0.0082769105 0.035280846 0.013369252
0003c0 84 80 94 3c 0f 4a c9 ba 68 a5 44 3c 54 59 da ba
       0.018127687 -0.0015357154 0.012002327 -0.0016658702
0003d0 65 29 3a 3b 58 88 14 be ed 33 e0 3c 17 7f 0b 3d
       0.002840602 -0.14505136 0.02736851 0.03405675
0003e0 66 67 2f bc 3d 18 e5 bd f7 76 3d be 70 26 d2 3c
       -0.010705804 -0.11186264 -0.18502413 0.025653094
0003f0 c4 39 47 3d aa f4 7c bc b8 c6 64 3c 8b af 8a 3d
       0.048639074 -0.015439192 0.013963394 0.067717634

action_model._discrete_distribution.branches.1.bias f4 [3]
000000 b6 51 3d 3d 60 d3 2f bd 3c e1 6e bd
       0.046220504 -0.042926192 -0.05832027

onnx::Div_78 f4 [28]
000000 9c 50 9f 3e 8f 96 9f 3e 25 e2 a8 3c 6c 24 32 3e
       0.31116188 0.31169555 0.020615647 0.17396706
000010 5e 39 ad 3e f8 73 ad 3e 54 4b a6 3c 68 e6 32 3e
       0.3383283 0.3387754 0.020299591 0.17470706
000020 06 d6 b4 3e b3 0f b5 3e 36 cb ab 3c db c9 47 3e
       0.35319537 0.3536354 0.020970922 0.19510596
000030 9a 3c f7 3e fd 4b f7 3e cd 6e ab 3c f9 ed 27 3e
       0.48288423 0.48300162 0.020926857 0.16399373
000040 f0 51 fd 3e 15 5a fd 3e 25 e2 a8 3c 54 be 48 3e
       0.49476576 0.4948279 0.020615647 0.19603854
000050 7d fb f3 3e 10 ce f3 3e eb 32 07 3d 67 0e 1d 3e
       0.47652808 0.4761815 0.033007544 0.15337525
000060 67 f0 e3 3e 50 d4 e3 3e 5b c7 a7 3c cf 0a 36 3e
       0.4451935 0.4449792 0.020480802 0.1777756
