results/Racing_Imitation/Driver/Driver-48640.pt (torch, 603118 bytes, 48 tensors)

discrete_act_size_vector f4 [1, 2]
0	0x40400000	3.0
1	0x40400000	3.0

network_body._body_endoder.seq_layers.0.weight f4 [128, 29]
0	0x3d8e854b	0.06959017
1	0x3df0b2b4	0.11752835
2	0xbe166402	-0.14686587
3	0x3e773b3e	0.24143693
4	0xbd8428bb	-0.06453081
5	0xbd18b44b	-0.037281316
6	0x3de77ad4	0.113027245
7	0x3e5d4ef9	0.21612157
8	0x3f154d22	0.5832082
9	0xbeac291f	-0.33625123
10	0x3c8f5337	0.017495735
11	0x3eba8902	0.36432654
12	0x3e913d36	0.28367013
13	0xbc073277	-0.008251778
14	0xbc5bbe27	-0.013412035
15	0xbcc9eeb6	-0.024649959
16	0x3e081a3e	0.1329126
17	0xbe29b58f	-0.16573165
18	0x3e53d1c5	0.2068549
19	0x3e7f2472	0.24916247
20	0x3d4712e1	0.04860199
21	0x3d284eaf	0.041090664
22	0x3f1d9dfd	0.61569196
23	0x3e39f778	0.18160808
24	0xbc3fc210	-0.011703983
25	0x3e7fbd36	0.24974522
26	0xbc931af4	-0.017957188
27	0xbded3ca8	-0.11583835
28	0x3e58306b	0.2111222
29	0xbd0f780a	-0.035026588
30	0x3d0f35bc	0.034963354
31	0xbdb8c8a0	-0.09022641
32	0x3e9b664f	0.30351493
33	0xbd234753	-0.039862942
34	0x3e66c8bf	0.22537516
35	0x3e46fadd	0.19431634
36	0x3cb10df9	0.021613108
37	0xbd6df1e5	-0.058092017
38	0x3e2eb3c5	0.17060764
39	0xbea3f354	-0.32021582
40	0x3e3bad94	0.18327934
41	0xbe5f3c23	-0.21800284
42	0x3de2dad1	0.11076892
43	0xbe81d659	-0.25358847
44	0xbe005aff	-0.12534712
45	0xbd7a9a6b	-0.06118242
46	0x3cf35cd4	0.02970735
47	0xbe22e94d	-0.1590931
48	0x3e976742	0.29570967
49	0x3ba2e95f	0.0049716677
50	0x3e8e8ab8	0.2784021
51	0x3de2b469	0.11069567
52	0xbe4a60b4	-0.19763452
53	0xbced6c92	-0.028982434
54	0x3ecf0081	0.40430072
55	0xbedf2983	-0.43586358
56	0xbddbc293	-0.107304715
57	0x3f07d3e1	0.53057677
58	0xbe749aec	-0.23887223
59	0xbdd559b5	-0.10417501
60	0x3c64d019	0.01396563
61	0x3dee8ac7	0.116475634
62	0xbd05a13d	-0.032624472
63	0xbdd30478	-0.10303587
64	0xbe375945	-0.17905147
65	0x3db5db01	0.08879662
66	0x3dbba32a	0.091619805
67	0x3e5afdc3	0.21385865
68	0x3cd42ff0	0.025901765
69	0x3e4ebd87	0.20189486
70	0x3ec28a60	0.37996197
71	0x3d8950a4	0.06704834
72	0x3e456003	0.19274907
73	0xbdf7964f	-0.12089216
74	0xbebb8ea8	-0.36632276
75	0x3e03e837	0.12881552
76	0xb9ba1a43	-0.0003549625
77	0xbdab7945	-0.0837274
78	0x3e66c6c6	0.22536764
79	0xbe8ad585	-0.27116027
80	0x3da3ea7b	0.08003708
81	0xbeb748c8	-0.35797715
82	0x3dcb0f01	0.09914971
83	0xbd01062e	-0.031500034
84	0xbea1ad1a	-0.3157738
85	0x3eb3bd23	0.35105237
86	0xbd7ae02c	-0.061248943
87	0xbe19dd8a	-0.15025917
88	0xbe7367bc	-0.2377004
89	0xbd21028b	-0.039309066
90	0x3d28eda6	0.041242264
91	0xbe4d958c	-0.20076579
92	0x3ec6ec29	0.3885205
93	0xbeef332d	-0.46718732
94	0xbe5ede70	-0.2176454
95	0x3d62f7c0	0.055412054
96	0x3e28cdb8	0.16484725
97	0xbe0a5971	-0.13510682
98	0x3e6afcd1	0.22948004
99	0xbe17bc2b	-0.14817874
100	0xbde1faff	-0.11034202
101	0xbe565adc	-0.20933098
102	0xbd9a8b3c	-0.07546088
103	0x3d757cee	0.059933595
104	0x3ecc3dd6	0.39890927
105	0x3e9e67dd	0.30938616
106	0x3c07b55e	0.008282987
107	0xbeabf05c	-0.33581817
108	0x3ce7ffdb	0.028320244
109	0x3e927378	0.2860372
110	0xbdf8f6b8	-0.12156433
111	0x3d36e2d1	0.044649903
112	0x3ec9b936	0.39399117
113	0xbd4ebe92	-0.05047471
114	0x3ee1154a	0.43961555
115	0xbf149741	-0.58043295
116	0xbe4441a7	-0.1916567
117	0xbd58c3a4	-0.052920952
118	0xbef7f2e7	-0.48427507
119	0x3f1ad0c7	0.6047482
120	0xbdaf25a5	-0.08552102
121	0x3eff8eee	0.49913734
122	0xbd99cac0	-0.075093746
123	0xbd2d9254	-0.042375877
124	0xbe3fe9be	-0.1874151
125	0xbeb15b18	-0.34639812
126	0x3d0d6f7b	0.034530144
127	0xbe5c8c47	-0.21537887
128	0x3e0471a1	0.12933971
129	0x3d853d9b	0.06505891
130	0xbe461d96	-0.19347224
131	0x3ded274a	0.115797594
132	0x3eb54b45	0.3540899
133	0xbe99ac0a	-0.30014068
134	0x3e9f03ac	0.3105749
135	0xbe4f4ebd	-0.2024488
136	0x3de4de38	0.11175197
137	0x3d944770	0.07240188
138	0x3e37772a	0.17916551
139	0xbcd434c6	-0.02590407
140	0x3e744498	0.23854291
141	0xbc8f7f0e	-0.01751664
142	0x3dc4ac51	0.09603179
143	0xbce58500	-0.02801752
144	0xbefaa6c8	-0.4895537
145	0xbd24291e	-0.040078275
146	0xbe4d7da4	-0.2006746
147	0xbc8895e1	-0.01667303
148	0x3daa1093	0.083039425
149	0x3e7d435f	0.24732731
150	0xbdccfd28	-0.10009223
151	0xbe6d1583	-0.23152737
152	0x3ecf0c29	0.40438965
153	0xbc1b5810	-0.009481445
154	0x3e3fa768	0.18716204
155	0x3e27cafc	0.16386026
156	0xbeb6f728	-0.3573544
157	0x3d9b6768	0.075880826
158	0x3d8b87be	0.06813
159	0x3ecd4e67	0.4009888
160	0xbea4d240	-0.32191658
161	0xbda979e7	-0.08275204
162	0xbd7563f6	-0.059909783
163	0xbe539448	-0.20662034
164	0xbd2b324c	-0.041796014
165	0x3e6453c0	0.22297573
166	0xbe5a371f	-0.2131009
167	0x3e6f0bcb	0.23344342
168	0xbcae4e15	-0.021277467
169	0x3ea78be0	0.32723904
170	0xbca31cd7	-0.019911213
171	0x3e880dbc	0.26572978
172	0x3e25881a	0.161652
173	0xbe2056e2	-0.15658143
174	0xbdd7d61f	-0.10538887
175	0xbea396b8	-0.31950927
176	0x3eba2b3e	0.36361116
177	0xbe761a5a	-0.2403349
178	0xbdc6fafe	-0.09715842
179	0xbe545a18	-0.20737493
180	0xbe8623f8	-0.26199317
181	0x3ec5f77c	0.38665378
182	0x3e27eacc	0.16398162
183	0x3c57c4b2	0.013169454
184	0x3d5d51a3	0.054032933
185	0x3ee5ab72	0.44857365
186	0x3e7ae1f3	0.24500255
187	0x3d01c0df	0.031678077
188	0x3d9148bd	0.07093952
189	0x3ea4d0d7	0.32190582
190	0xbe2f90b9	-0.17145051
191	0x3dbd0220	0.09228921
192	0xbdf37608	-0.11887747
193	0x3df305df	0.11866354
194	0xbc5d6846	-0.01351363
195	0x3e00bfa2	0.12573102
196	0xbe97979d	-0.2960786
197	0x3ecd2221	0.400651
198	0xbdb5e891	-0.08882249
199	0x3e366563	0.17812113
200	0x3eef8d06	0.4678728
201	0x3e8a8245	0.27052513
202	0x3e9c6a36	0.30549783
203	0x3e9186a4	0.28423035
204	0x3e293244	0.16523081
205	0xbe9d4dad	-0.30723324
206	0x3e05d4e3	0.13069491
207	0x3d969317	0.07352274
208	0xbc81e241	-0.015854957
209	0xbd7fa5b0	-0.06241387
210	0xbd87b6a1	-0.066266306
211	0xbd1ba2ce	-0.03799706
212	0xbd3d0981	-0.04615164
213	0x3b3aee05	0.0028523218
214	0x3e68bb8b	0.22727792
215	0x3d9c6b2b	0.07637628
216	0xbe3784c7	-0.17921744
217	0xbc986a4b	-0.018605372
218	0x3f05021e	0.51956356
219	0x3db23183	0.0870085
220	0x3e12c2bf	0.14332102
221	0x3dcaee6e	0.09908758
222	0x3e0e90b0	0.13922381
223	0x3d132837	0.035927024
224	0x3e799f6e	0.24377224
225	0x3ec74ac3	0.38924226
226	0x3e86de02	0.26341254
227	0xbea9e28e	-0.3318066
228	0x3e3098c4	0.17245775
229	0xb9b06e83	-0.00033651674
230	0x3e631b8e	0.2217848
231	0x3e06127c	0.13092989
232	0xbe8ca9e8	-0.27473378
233	0xbe2fc249	-0.17163958
234	0xbdbc7f13	-0.09203925
235	0x3ec78809	0.38970974
236	0xbe3f8c90	-0.18705964
237	0x3e822fb7	0.2542703
238	0x3d893b47	0.067007594
239	0xbe233179	-0.15936841
240	0xbcfa5f5c	-0.030563049
241	0x3df43db0	0.119258285
242	0x3c512a2f	0.012766405
243	0xbbabe604	-0.005245926
244	0xbd1c2e07	-0.038129833
245	0x3e660b31	0.22465207
246	0x3e79c8da	0.24393025
247	0xbdacd03d	-0.08438156
248	0x3e121ebb	0.14269535
249	0x3cc61cbd	0.024183625
250	0x3e8f5431	0.2799392
251	0xbd539107	-0.05165198
252	0x3e59cf88	0.21270573
253	0x3e5b69c3	0.21427064
254	0x3e9de904	0.3084184
255	0x3e212f5b	0.15740721

network_body._body_endoder.seq_layers.0.bias f4 [128]
0	0x3cca7b56	0.024717014
1	0x3cffbe0c	0.031218551
2	0x3da03c92	0.07824053
3	0x3d36cc06	0.044628166
4	0x3d8a5a56	0.067555115
5	0x3d6ccfbc	0.0578153
6	0x3d96acf6	0.073572084
7	0x3d26ab8a	0.040690936
8	0x3cecdb1c	0.028913073
9	0x3d4032a3	0.04692329
10	0xbbfcf7f2	-0.007719987
11	0xbc92a2ff	-0.017899988
12	0x3d187034	0.03721638
13	0xba677d30	-0.0008830605
14	0x3d9d933a	0.07694097
15	0x3d3d3186	0.046189807
16	0x3d29d62b	0.041464012
17	0x3d09a1e2	0.03360165
18	0x3d275745	0.04085471
19	0xbd082499	-0.033238027
20	0x3c975295	0.018471995
21	0x3d0afb39	0.03393099
22	0x3d2f0d7a	0.04273746
23	0x3d010536	0.03149911
24	0x3db6c1fb	0.089237176
25	0x3d20cee2	0.0392598
26	0x3d5a84d1	0.05334932
27	0x3d80d876	0.06291287
28	0x3d8f1bc6	0.06987719
29	0x3c1cce72	0.009570705
30	0x3d54ba93	0.051935744
31	0x3d23bd8f	0.0399757
32	0x3cd71473	0.026254868
33	0xbb2903c6	-0.0025789603
34	0x3d564b04	0.052317634
35	0x3d768646	0.060186647
36	0x3cc99e2b	0.024611553
37	0x3d17dbbf	0.0370748
38	0xbb1f18cc	-0.0024276255
39	0x3d205e8b	0.039152663
40	0x3ccb626c	0.024827205
41	0x3d3d50a8	0.046219498
42	0x3d4553bd	0.048175562
43	0x3d8d64d2	0.069039956
44	0x3d05769d	0.03258382
45	0x3d91091d	0.07081816
46	0x3d6a4c11	0.05720145
47	0x3cf49e1f	0.029860554
48	0x3cf2636d	0.029588426
49	0x3d663fdb	0.05621324
50	0xbd043f1b	-0.032286745
51	0x3cd3c6da	0.025851656
52	0x3c43401e	0.011917142
53	0x3d1ce765	0.038306613
54	0x3d0eb547	0.03484085
55	0x3d14e51f	0.03635132
56	0x3d216657	0.03940424
57	0x3d0bcf96	0.034133516
58	0x3d0f1025	0.034927506
59	0x3d36d055	0.044632275
60	0x3d115e4c	0.03549032
61	0x3d94b317	0.07260721
62	0x3ca12976	0.01967309
63	0xbc84b3dd	-0.016199047
64	0x3daf0cd3	0.08547368
65	0x3ca00033	0.019531345
66	0x3d18701f	0.037216302
67	0x3d2d02b8	0.04223892
68	0x3cf8d3d5	0.030374447
69	0x3d451355	0.04811414
70	0x3d8a127d	0.067418076
71	0x3dbfece7	0.093713574
72	0x3d945962	0.07243611
73	0x3d509910	0.05092722
74	0x3cdc0c03	0.026861196
75	0xbd01f8e2	-0.031731494
76	0x3d1ca7f6	0.038246118
77	0x3c61cfa9	0.01378242
78	0xba35fbc9	-0.0006942121
79	0xbca2d8e7	-0.019878818
80	0x3cbdf649	0.023188727
81	0xbb2f80d3	-0.0026779666
82	0x3d89b241	0.06723452
83	0x3c86f591	0.016474517
84	0x3d05c4c4	0.032658353
85	0x3d4bcd35	0.049756248
86	0x3d70bbe4	0.058772936
87	0x3d0a14b7	0.03371116
88	0x3d039212	0.032121725
89	0x3c011ff7	0.007881156
90	0x37a433b9	1.9574409e-05
91	0x3d9cf8ab	0.07664617
92	0x3ce89b55	0.02839438
93	0x3d635dd8	0.05550942
94	0x3d4c0b33	0.049815368
95	0x3d33f180	0.043931484
96	0x3d056441	0.032566313
97	0x3c78207b	0.015144463
98	0x3cbbf4d8	0.022943899
99	0x3d8b3a0e	0.067981824
100	0x3c0339f4	0.008009423
101	0x3d384e29	0.044996414
102	0x3d9f5dcb	0.077815615
103	0x3c0192b5	0.007908513
104	0xbc43ccae	-0.011950655
105	0x3d3d066b	0.0461487
106	0x3d53bd66	0.051694296
107	0x3ccc553e	0.02494299
108	0x3ca57855	0.02019898
109	0x3d58111f	0.052750703
110	0x3d19bbcb	0.03753261
111	0x3c106890	0.008813992
112	0x3d115d66	0.035489462
113	0x3d2411fa	0.040056206
114	0x3d3d4ca9	0.046215687
115	0x3c810016	0.015747111
116	0x3d430fd7	0.047622528
117	0x3d27507f	0.04084825
118	0xb940912f	-0.00018364632
119	0x3d66b2ab	0.056322735
120	0x3d81d655	0.06339709
121	0x3df39576	0.11893742
122	0x3b48100c	0.0030527143
123	0x3d07cf1f	0.03315651
124	0x3d9776cc	0.073957056
125	0x3cbb8d73	0.022894597
126	0x3ce4e151	0.02793947
127	0x3c74b08e	0.014934672

network_body._body_endoder.seq_layers.2.weight f4 [128, 128]
0	0x3ce29662	0.027659599
1	0xbd741f86	-0.059600376
2	0x3e16d137	0.14728247
3	0x3d9053de	0.070472464
4	0xbc0add20	-0.008475572
5	0x3e16fe45	0.14745434
6	0xbd81ee71	-0.06344307
7	0xbdc48211	-0.09595121
8	0xbd1cf44c	-0.038318917
9	0x3e21ba10	0.15793633
10	0xbde8b51c	-0.11362669
11	0x3dee1e9b	0.11626931
12	0xbc194432	-0.009354638
13	0xbdf38142	-0.11889888
14	0x3ae2838d	0.0017281637
15	0x3c832a39	0.016011344
16	0x3e0b40a0	0.13598871
17	0xbe4a1f73	-0.1973856
18	0xbe36d462	-0.17854455
19	0xbdbfa8b1	-0.09358347
20	0x3e014506	0.12623987
21	0xbdd08ddd	-0.10183308
22	0x3da5a1fe	0.08087538
23	0xbd94bac9	-0.07262189
24	0x3d8ae585	0.067820586
25	0xbd6ec585	-0.058293838
26	0x3de415fd	0.111370064
27	0x3de80d8c	0.11330709
28	0x3e1a9528	0.15095961
29	0x3d5ece98	0.054396242
30	0x3df52cc1	0.11971427
31	0x3d8a812d	0.067629196
32	0xbe43449d	-0.19069143
33	0xbd271f97	-0.04080161
34	0x3e663905	0.22482689
35	0x3d5c0a32	0.05372066
36	0xbd688999	-0.05677185
37	0xbd45e7c5	-0.048316736
38	0xbe8006a6	-0.25005072
39	0x3e10a46f	0.14125226
40	0xbded1e59	-0.11578054
41	0x3cdbf988	0.026852384
42	0x3bf384b9	0.0074315933
43	0xbe079d49	-0.13243593
44	0xbd85a7d2	-0.0652615
45	0x3dcb3442	0.09922077
46	0x3c1648c4	0.009172622
47	0xbd71c714	-0.059027746
48	0x3d7ec994	0.06220396
49	0xbcdb8e3f	-0.026801227
50	0xbe26e40f	-0.16297935
51	0xbe4f6226	-0.20252284
52	0x3d809b6c	0.06279644
53	0x3d8eedbe	0.069789395
54	0x3dcf7750	0.10130179
55	0x3b719302	0.0036861305
56	0xbd94d739	-0.07267613
57	0xbdf04141	-0.11731196
58	0x3b912bd9	0.004430276
59	0x3dd3ecf9	0.10347933
60	0x3dbeb14d	0.09311161
61	0x3e321d8b	0.17394082
62	0xbd131e0b	-0.035917323
63	0xbd9fa6eb	-0.07795509
64	0x3e22b855	0.1589063
65	0xbca44d81	-0.020056488
66	0xbd45a08c	-0.048248813
67	0x3e205e41	0.15660955
68	0xbc8c043f	-0.017091868
69	0xbe0d7991	-0.13815905
70	0x3cd33d29	0.025786
71	0x3df70a28	0.12062484
72	0xbe1a9f3c	-0.15099806
73	0x3e0e1fad	0.13879271
74	0xbe23fc21	-0.16014148
75	0x3ddd6646	0.10810523
76	0xbe5bd583	-0.21468167
77	0xbd1f3adc	-0.038874492
78	0xbe0f5c1b	-0.13999979
79	0xbcd76273	-0.026292061
80	0xbdcd15d6	-0.100139305
81	0xbe0936e6	-0.13399848
82	0xbdc08d80	-0.09401989
83	0xbda1b440	-0.07895708
84	0x3d0a0bc1	0.033702616
85	0x3e14beee	0.14525959
86	0x3e42f68d	0.19039364
87	0x3d5c51a2	0.05378879
88	0x3dcd2876	0.10017483
89	0xbd1ffa65	-0.039057154
90	0xbd2c8bc8	-0.042125493
91	0xbdb95def	-0.090511195
92	0xbcd1bed1	-0.025603684
93	0xbd23f698	-0.040030092
94	0xbe149e41	-0.14513494
95	0x3e13013c	0.1435594
96	0xbe0f0326	-0.13966045
97	0xbca03b3b	-0.019559493
98	0x3e7993d6	0.24372801
99	0xbd6f53a0	-0.05842936
100	0x3c88a37a	0.016679514
101	0x3bcd2c45	0.006261381
102	0x3e08c1ff	0.13355254
103	0xbe14a098	-0.14514387
104	0xbe615d32	-0.22008207
105	0x3dcd760a	0.1003228
106	0x3e05610c	0.13025302
107	0xbd4fe7de	-0.050758235
108	0x3e15bd69	0.14623035
109	0x3d1cac75	0.038250405
110	0xbdb7cc7f	-0.089745514
111	0x3c59f254	0.013302404
112	0xbe03be8e	-0.1286566
113	0x3db7312c	0.08944926
114	0xbded3574	-0.11582461
115	0xbddfd4a9	-0.109292336
116	0xbe0b2bd5	-0.1359094
117	0xbd6e52ba	-0.058184363
118	0x3dc1ec4c	0.09468898
119	0x3da05ce4	0.078302175
120	0xbe48d098	-0.19610822
121	0xbd18d9b9	-0.03731701
122	0xbe056235	-0.13025744
123	0x3ceebeb3	0.029143667
124	0x3e342bc5	0.17594822
125	0xbe27c2a0	-0.16382837
126	0x3d818c85	0.0632563
127	0xbe10590a	-0.14096466
128	0x3cf146ba	0.02945267
129	0xbd773a40	-0.060358286
130	0xbc1dea22	-0.009638341
131	0x3e0505c0	0.12990475
132	0x3e049ca6	0.12950382
133	0x3dcaac62	0.09896161
134	0xbd596110	-0.05307108
135	0x3cd3e6cf	0.025866894
136	0x3d91e77a	0.07124229
137	0x3e1017c5	0.14071567
138	0x3e363ab6	0.17795834
139	0xbddb49fd	-0.107074715
140	0xbd98c117	-0.07458704
141	0xbc9ee56a	-0.019396503
142	0xbe24ca1e	-0.16092727
143	0x3c9417c5	0.01807774
144	0xbc81fdd7	-0.01586811
145	0xbd36dacb	-0.04464225
146	0xbe181288	-0.14850819
147	0xbd25fb83	-0.040523063
148	0x3cb753db	0.022378853
149	0xbca9ed1a	-0.020742942
150	0x3db86d3b	0.09005209
151	0x3d058091	0.032593314
152	0xbe4646f5	-0.19363005
153	0x3dec6297	0.11542242
154	0xbd695ebb	-0.056975108
155	0x3e6e2fc9	0.23260416
156	0xbd97c8e6	-0.07411365
157	0xbbc268e9	-0.0059329164
158	0x3e14f1c4	0.14545351
159	0x3b94cd1b	0.004541052
160	0x3e0703aa	0.13184991
161	0xbd450db6	-0.04810878
162	0x3e8afa26	0.27143973
163	0x3e455eed	0.19274493
164	0xbd145fca	-0.036224164
165	0xbd3c0659	-0.04590449
166	0xbd9af0ab	-0.07565435
167	0x3e03c8f9	0.12869634
168	0x3e50ffe9	0.20410122
169	0x3c597cf7	0.013274423
170	0x3d74473e	0.059638254
171	0xbd908bbe	-0.07057904
172	0xbca6b159	-0.020348238
173	0x3da93749	0.08262498
174	0x3e0f19ae	0.1397464
175	0x3ba17b0f	0.004928
176	0x3d24cc5f	0.040233966
177	0x3de12b62	0.10994603
178	0x3d8857b9	0.06657357
179	0xbdee4c82	-0.116356865
180	0x3e7b0706	0.24514398
181	0x3d8c6fb7	0.068572454
182	0x3d070ca4	0.03297104
183	0xbd74fc35	-0.059810836
184	0xbe2634ee	-0.16231129
185	0x3d44a62b	0.048010033
186	0xbd658b6b	-0.056041162
187	0x3e1fec70	0.15617537
188	0xbe14257e	-0.14467427
189	0x3dc56f71	0.096403964
190	0x3c70ae0c	0.0146899335
191	0xbd80844b	-0.06275233
192	0xbc93491c	-0.017979197
193	0xbc0a8f59	-0.008457028
194	0x3e3e6d74	0.1859644
195	0xbdd81261	-0.105503805
196	0x3d891d25	0.06695012
197	0xbe0d9652	-0.13826874
198	0x3d6f91df	0.058488723
199	0x3bec2e3d	0.0072076605
200	0xbc9aa95d	-0.018879587
201	0x3e6bce1f	0.23027848
202	0x3d9c2e74	0.07626048
203	0xbc05adea	-0.00815914
204	0xbe3730da	-0.17889729
205	0xbcb8b793	-0.022548473
206	0xbdd08352	-0.10181297
207	0xbd1be10a	-0.03805641
208	0xbc07c86e	-0.008287532
209	0x3e592e52	0.21209076
210	0x3d2898e9	0.04116145
211	0xbd278f47	-0.040908124
212	0x3d0b13d8	0.03395447
213	0xbdf0855f	-0.117441885
214	0x3dad97a7	0.08476191
215	0x3c820241	0.015870215
216	0x3d3d5dde	0.046232097
217	0x3ce64393	0.028108394
218	0xbd80102c	-0.062530845
219	0x3ddf2e1a	0.10897465
220	0x3ddff34e	0.109350786
221	0xbddb1f61	-0.106993444
222	0xbc9d4dee	-0.019202199
223	0x3cfb046f	0.030641763
224	0xbe38313f	-0.17987536
225	0xbe0e8963	-0.13919596
226	0x3dea41ad	0.11438308
227	0x3e0a3d07	0.13499843
228	0x3daba707	0.08381467
229	0xbd7d2d71	-0.061810914
230	0x3db68626	0.089123055
231	0xbc9e7565	-0.019343087
232	0xbe3fdf17	-0.18737446
233	0xbc860493	-0.016359603
234	0xbd3eb623	-0.046560418
235	0x3d361727	0.044455674
236	0x3e3eb51d	0.18623777
237	0x3df78990	0.12086785
238	0x3dbba678	0.09162611
239	0xbe4b236a	-0.19837728
240	0xbdf3577d	-0.118819214
241	0x3d5a961c	0.05336581
242	0x3dd61876	0.10453884
243	0x3da282f1	0.07935131
244	0xbe195562	-0.14973977
245	0xbda8aa6e	-0.08235632
246	0xbc94856d	-0.018130029
247	0xbbd459d2	-0.006480434
248	0xbdaf1d7c	-0.085505456
249	0x3d1c6ba4	0.03818859
250	0xbd8865fb	-0.06660076
251	0xbd8f338b	-0.06992253
252	0x3c4e4caa	0.01259152
253	0xbe7b10c1	-0.2451811
254	0xbe215bd4	-0.15757686
255	0xbdeb8c29	-0.11501343

network_body._body_endoder.seq_layers.2.bias f4 [128]
0	0x3d4c3ebf	0.049864527
1	0x3d027c79	0.031856988
2	0x3ccb7506	0.024836075
3	0x3d0a6c09	0.033794437
4	0x3cb03a65	0.02151222
5	0x3ce9ba0d	0.028531099
6	0x3b317d29	0.0027082658
7	0x3c2531ee	0.010082705
8	0xbcb2a2f4	-0.021806218
9	0x3d010195	0.03149565
10	0xbcac9504	-0.02106715
11	0x3d526980	0.051370144
12	0x3ce55117	0.027992768
13	0x3cc2ee69	0.023795323
14	0x3c223562	0.009900423
15	0x3d89d8c3	0.06730797
16	0x3d247903	0.04015447
17	0x3ce13057	0.02748887
18	0x3cbdbf43	0.02316249
19	0x3ce57421	0.028009476
20	0x3d2688e0	0.040657878
21	0x3bb44ad2	0.0055020833
22	0x3ce73b97	0.028226657
23	0xbb29de72	-0.0025919941
24	0x3c6c6a40	0.014429629
25	0x3d0cf343	0.03441168
26	0x3d0ec6d9	0.034857605
27	0x3c8c06e5	0.017093131
28	0xbca402d7	-0.020020885
29	0x3c8bdcae	0.017073002
30	0x3ceb53a0	0.028726399
31	0x3d23b02d	0.039962936
32	0x3d056c28	0.03257385
33	0x3c928aaf	0.017888395
34	0x3d00693d	0.031350363
35	0x3d1ef0b8	0.038803786
36	0xbc2c011e	-0.010498313
37	0x3ce74618	0.028231665
38	0x3cf177af	0.029476015
39	0xbc960ae6	-0.018315744
40	0x3c1063a8	0.008812822
41	0x3cd9196b	0.026501378
42	0x3d21583f	0.0393908
43	0x3cd15ec8	0.02555789
44	0x3cf92e4f	0.03041759
45	0x3cf464cc	0.02983322
46	0x3cddb602	0.027064327
47	0x3b9fa849	0.004872356
48	0x3d03f488	0.032215625
49	0x3969984a	0.00022277344
50	0x3bbaa5cb	0.0056960336
51	0x3cab0661	0.020877065
52	0xb9c9ae5f	-0.00038467624
53	0x3d2f9619	0.042867754
54	0x3b834781	0.0040063267
55	0x3b9ea928	0.0048419423
56	0x3c9b21f9	0.018937098
57	0x3c32f774	0.010923255
58	0x3c0e7cee	0.008696778
59	0x3c85994b	0.016308447
60	0x3ce74120	0.028229296
61	0x3d06fbff	0.032955166
62	0x3c71bcf0	0.014754519
63	0x3c933a4f	0.01797214
64	0xbbbadcc6	-0.005702588
65	0x3cc9ad2a	0.024618704
66	0x3d146517	0.03622922
67	0x3ca3c842	0.019992951
68	0x3ccf6b62	0.025319759
69	0x3ce8a1fc	0.028397553
70	0x3ce0adb5	0.02742658
71	0x3ca5f3a7	0.020257784
72	0x3cb9f7aa	0.022701103
73	0xbcd988f2	-0.026554558
74	0x3ce5ffcf	0.02807608
75	0x3d0539e9	0.03252593
76	0xbc587fbc	-0.013214048
77	0x3d27c557	0.040959682
78	0x3d26a455	0.040684063
79	0x3bae9026	0.0053272424
80	0xbb209bc2	-0.0024506901
81	0x3c844ce0	0.016149938
82	0x3c2d58c0	0.010580242
83	0x3cbfeeac	0.023429237
84	0x3ce82a4e	0.028340485
85	0x3d0302b8	0.031985015
86	0x3d072246	0.03299167
87	0x3d244911	0.040108744
88	0x3d0e9e43	0.0348189
89	0x3d036087	0.032074478
90	0x3caa6e00	0.020804405
91	0x3c422489	0.011849531
92	0x3c5aeb4e	0.013361765
93	0x3cdabd87	0.026701702
94	0x3cd702ad	0.026246393
95	0xbbc900ea	-0.006134142
96	0x3bb4ab65	0.005513596
97	0x3d29e37a	0.041476704
98	0x3d12318b	0.03569178
99	0x3c774f72	0.015094625
100	0x3c3f8cdb	0.011691297
101	0x3c8c492f	0.01712474
102	0x3cfb385f	0.030666528
103	0x3bfa70f3	0.007642859
104	0x3b998c68	0.004685927
105	0x3c852543	0.01625312
106	0x3b35b426	0.0027725785
107	0x3d308bed	0.043102194
108	0x3ced4f5c	0.028968506
109	0x3d05cbc0	0.032665014
110	0x3c3a42de	0.011368481
111	0x3cd6de62	0.026229087
112	0x3d1d4633	0.038397025
113	0x3d617014	0.055038527
114	0x3d19b39c	0.037524804
115	0x3cb01600	0.021494865
116	0x3ce8aea5	0.02840359
117	0x3a3c43c6	0.000718173
118	0x3d9f4063	0.07775953
119	0x3d08a168	0.033357054
120	0x3d11b8c8	0.03557661
121	0x3bbb1b99	0.005710077
122	0x3d5cd20d	0.053911258
123	0x3d020ff4	0.031753495
124	0x3b68e164	0.0035534734
125	0x3ca746a1	0.02041942
126	0x3be3390c	0.0069342908
127	0x3d191604	0.03737451

action_model._discrete_distribution.branches.0.weight f4 [3, 128]
0	0x3bd4e726	0.0064972816
1	0xbcd96b71	-0.02654049
2	0xbcd06927	-0.025440766
3	0xbb8df9da	-0.004332763
4	0x3be0fe5f	0.006866261
5	0xbcfba982	-0.030720476
6	0x3d9e56d5	0.07731406
7	0xbd8e1301	-0.069372185
8	0xbcca0e7d	-0.024665112
9	0x3d0f5279	0.03499076
10	0xbdad9af9	-0.08476824
11	0x3ae11d7c	0.0017174925
12	0xbc0df62e	-0.008664651
13	0xbcfe594b	-0.031048438
14	0xbc6b2690	-0.014352456
15	0x3d3f4e8b	0.046705764
16	0xbd7d3029	-0.061813507
17	0x3d2c7f1d	0.042113412
18	0x3cab2329	0.02089079
19	0x3e2191b5	0.15778239
20	0xbbb2ff6f	-0.005462579
21	0xbd92c20c	-0.07165918
22	0x3c27d257	0.01024302
23	0x3b9702ec	0.0046085026
24	0x3bd92e65	0.006627845
25	0x3c206f57	0.0097921705
26	0xbce178d7	-0.027523441
27	0x3c066381	0.0082024345
28	0x3d924ed1	0.07143939
29	0x3d079b98	0.03310737
30	0x3d5ed74c	0.05440454
31	0x3d488527	0.04895511
32	0xbd2f2c0d	-0.04276662
33	0xbab000d6	-0.0013427984
34	0xbd356a0e	-0.044290595
35	0x3c9c6f1d	0.019095952
36	0x3d938deb	0.07204803
37	0xbd9136a4	-0.070905
38	0x3ce1de8c	0.027571939
39	0xbe0d192e	-0.13779137
40	0x3dc60a91	0.09669984
41	0x3b60afba	0.0034284429
42	0xbc8b19a4	-0.01698
43	0xbe0572db	-0.13032095
44	0xbbbd2943	-0.005772741
45	0xbcd99973	-0.026562428
46	0xbda6665e	-0.08124994
47	0x3dd93bcf	0.10607111
48	0xbceb8f5f	-0.028754888
49	0x3e119b57	0.14219414
50	0x3c8d7c00	0.017271042
51	0x3dbf5482	0.093422905
52	0xbc889ff6	-0.016677838
53	0xbdedb95f	-0.11607622
54	0xbcc5c696	-0.024142545
55	0xbe026517	-0.12733875
56	0xbc865b81	-0.016401054
57	0x3c4ec847	0.012620992
58	0x3d93604a	0.071961
59	0xbc9e7027	-0.019340588
60	0xbe091458	-0.13386667
61	0xbd8694b7	-0.06571334
62	0x3b6fcb94	0.0036589848
63	0x3ca8847d	0.020570988
64	0x3ddff7fa	0.1093597
65	0xbd397f65	-0.04528751
66	0x3c9e2fa3	0.019309824
67	0xbbdfa14c	-0.006824648
68	0xb9fd1bef	-0.00048276733
69	0x3c13cab2	0.009020494
70	0xbc954dc9	-0.018225567
71	0x3cc9a81f	0.0246163
72	0x3b2e774a	0.0026621395
73	0x3dfca910	0.123369336
74	0x3ca8728b	0.02056243
75	0xbd805e51	-0.062679894
76	0x3cc7d429	0.024393158
77	0xbc0c3a37	-0.008558801
78	0x3dbbffc9	0.091796465
79	0x3d1f7935	0.03893395
80	0xbc9e64d5	-0.01933519
81	0xbc8786f4	-0.016543843
82	0xbc5cbed0	-0.013473228
83	0xbbd43a2d	-0.0064766617
84	0x3bdce62e	0.0067413067
85	0xbdbc1601	-0.091838844
86	0xbd445ad2	-0.047938175
87	0xbdc1d721	-0.09464861
88	0x3d83b36a	0.06430705
89	0xbcfcc14c	-0.03085389
90	0xbd867ab6	-0.06566374
91	0x3db51388	0.08841616
92	0xbc4b1f30	-0.012397572
93	0x3d30ad0a	0.043133773
94	0xbc5d5cd0	-0.013510898
95	0xbc7bd764	-0.015371177
96	0x3d54d77b	0.05196331
97	0xbd7cb779	-0.06169841
98	0xba4b25b7	-0.00077494554
99	0xbdb9fb75	-0.09081165
100	0xbdbe0ca8	-0.09279758
101	0xbd2907a5	-0.041267056
102	0xbd0a03c4	-0.033694997
103	0xbdb4e688	-0.08833033
104	0xbc4ea24d	-0.012611938
105	0x3d4c221b	0.049837213
106	0x3cbe1040	0.023201108
107	0x3d0c0e3e	0.03419327
108	0xbc87b8d7	-0.01656763
109	0x3d2f5fd5	0.042816002
110	0x3c8e9fff	0.017410276
111	0x3d0168a4	0.031593934
112	0x3d038e82	0.032118328
113	0x3dac431b	0.08411237
114	0xbd1f124b	-0.038835805
115	0x3bd7c07d	0.0065842257
116	0x3b6cf258	0.003615519
117	0xbd1d07a6	-0.038337372
118	0x3c649ab6	0.013952902
119	0x3da8233e	0.08209847
120	0x3d15c0f2	0.03656096
121	0xbddf82a3	-0.10913589
122	0x3dab628f	0.08368408
123	0x3d0bbc4f	0.034115132
124	0x3c589437	0.013218931
125	0xbdb55962	-0.08854939
126	0xbdb49d8d	-0.08819113
127	0xbd81b167	-0.06332665
128	0x3d4c1707	0.049826648
129	0x3d04dd73	0.032437753
130	0x3d2c9968	0.042138487
131	0x3d096703	0.033545505
132	0x3cdefada	0.027219225
133	0x3d9497a7	0.07255488
134	0xbe10ce4b	-0.14141195
135	0xbd81ca2a	-0.06337388
136	0x3ddb3537	0.10703509
137	0x3ca303f6	0.01989935
138	0xbd123d91	-0.035703246
139	0x3c77ea85	0.015131597
140	0x3d548a61	0.05188978
141	0x3d314211	0.043275896
142	0xbce92743	-0.028461104
143	0xbdba4826	-0.090957925
144	0x3db9f5bd	0.09080074
145	0xbda2e3d2	-0.079536095
146	0x3d16b4c7	0.036793496
147	0xbd9d45e6	-0.07679348
148	0x3d94008d	0.072266676
149	0xbc92cac0	-0.017918944
150	0x3d6b6c4b	0.057476323
151	0xbcb96bad	-0.022634352
152	0x3c847fea	0.016174275
153	0x3d285db7	0.041105
154	0x3d9851dc	0.074374884
155	0x3c39a147	0.011329955
156	0xbdbacb4f	-0.09120809
157	0x3b95b062	0.0045681456
158	0xbde5e2e7	-0.11224919
159	0x3d25b7fb	0.04045866
160	0x3d47291c	0.04862319
161	0x3ce825af	0.028338281
162	0x3d62fa84	0.05541469
163	0x3d854f8b	0.06509312
164	0xbcc25695	-0.023722926
165	0x3d634cb4	0.05549307
166	0x3cd00315	0.025392095
167	0xbd3e82ae	-0.046511345
168	0xbe534ede	-0.20635554
169	0x3d0d3242	0.034471758
170	0x3d21cf04	0.039504066
171	0x3ccb808f	0.024841575
172	0x3d718fce	0.058975033
173	0x3d2aac1f	0.041668054
174	0xbccce4b4	-0.025011398
175	0xbe5850ec	-0.21124619
176	0xbdadaa15	-0.08479706
177	0xbe64a921	-0.22330143
178	0xbe012d71	-0.12614991
179	0xbda9dbf0	-0.08293903
180	0xbdb637ef	-0.08897387
181	0x3d5e2f98	0.054244608
182	0xbd996d49	-0.074915476
183	0x3db46dc3	0.08809998
184	0x3d7f639d	0.062350858
185	0xbdab01cb	-0.08349951
186	0xbd834fc2	-0.06411697
187	0xbdd779ef	-0.10521304
188	0x3c7eec8a	0.015559325
189	0xbd2efa06	-0.04271891
190	0x3d3810b4	0.044937804
191	0xbc2f3115	-0.010692854
192	0xbdaccff7	-0.08438104
193	0x3d805ed2	0.062680855
194	0x3d7b9ea8	0.061430603
195	0x3d078d22	0.03309358
196	0x3d35a01c	0.044342145
197	0x3d1937a6	0.037406586
198	0x3d4a247a	0.049351193
199	0x3cb8a266	0.022538375
200	0xbe0de160	-0.13855505
201	0xbe4a246b	-0.19740455
202	0x3d0f09aa	0.034921326
203	0x3dae557e	0.085124
204	0x3c2a1049	0.010379859
205	0x3d5da943	0.0541165
206	0xbc766538	-0.015038781
207	0xbdb27d38	-0.0871529
208	0xbcffd9cf	-0.031231789
209	0x3d312592	0.04324872
210	0xbdc540b8	-0.09631485
211	0x3bc30cb1	0.0059524407
212	0x3c7e68c3	0.015527907
213	0x3de966ed	0.11396585
214	0x3dc64484	0.09681037
215	0xbc91c52d	-0.017794216
216	0x3c6bdbb7	0.014395646
217	0x3d8e3600	0.069438934
218	0x3db9fa92	0.090809956
219	0xbe1552aa	-0.14582315
220	0x3cd564eb	0.026049098
221	0xbaa70888	-0.0012743631
222	0x3cec7f48	0.028869286
223	0x3cf1b7db	0.029506614
224	0xbdc64567	-0.09681206
225	0xbc22111e	-0.009891776
226	0x3d74dc50	0.05978042
227	0x3dc29a2b	0.095020615
228	0x3d62fde9	0.05541793
229	0xbd51c471	-0.05121273
230	0x3d64c68d	0.055853415
231	0x3c83d21d	0.0160914
232	0x3d8c2795	0.06843487
233	0x3cc24925	0.023716519
234	0xbd842300	-0.06451988
235	0x3b4aa9b9	0.0030923916
236	0x3d844181	0.064578064
237	0x3ccf979c	0.025340848
238	0xbbdb5af1	-0.0066941907
239	0x3d167927	0.036736634
240	0x3d85486a	0.065079525
241	0xbd318801	-0.043342594
242	0xbda50821	-0.08058191
243	0x3d6c3dfb	0.057676297
244	0x3d6caed0	0.0577839
245	0xbcc02010	-0.023452789
246	0x3d773857	0.060356464
247	0xbcc84d35	-0.024450878
248	0x3d0e343e	0.03471779
249	0x3da67bad	0.08129058
250	0xbdc11d5d	-0.09429429
251	0x3d169672	0.03676457
252	0x3cac1cd3	0.021009838
253	0xbd5e93a2	-0.054340012
254	0x3d122b74	0.03568597
255	0x3d6c6d77	0.05772158

action_model._discrete_distribution.branches.0.bias f4 [3]
0	0x3b3a3587	0.0028413252
1	0x3c7a71af	0.015285893
2	0xbc80ea56	-0.01573674

action_model._discrete_distribution.branches.1.weight f4 [3, 128]
0	0x3d9ac20a	0.07556541
1	0x3d9b8b57	0.07594936
2	0x3ce6f6a6	0.028193783
3	0x3cc37b0b	0.023862382
4	0x3c30657c	0.010766383
5	0x3cfefd96	0.031126779
6	0x3d294049	0.041321073
7	0xbd3d888d	-0.046272803
8	0xbe26ce19	-0.16289558
9	0x3d052b68	0.0325121
10	0xbc3e5f5d	-0.011619416
11	0x3d84583d	0.064621426
12	0x3ce18605	0.027529726
13	0x3d579584	0.052632824
14	0xbd315f8e	-0.04330402
15	0xbcd52225	-0.026017258
16	0x3d45ec98	0.048321337
17	0xbd569504	-0.052388206
18	0x3d2e054b	0.042485517
19	0x3d3610e6	0.04444971
20	0xbcd7d0ba	-0.026344646
21	0xbd4770bf	-0.048691507
22	0xbc9dcf1f	-0.019263802
23	0xbdd31575	-0.10306827
24	0x3d1a6566	0.037694357
25	0x3d97cd05	0.07412151
26	0x3d76bc07	0.06023791
27	0x3ce5457f	0.02798724
28	0xbd237b30	-0.039912403
29	0x3c12aca9	0.008952298
30	0x3c3997ad	0.011327666
31	0x3d6a39e7	0.057184126
32	0x3d8f26ea	0.06989844
33	0x3cd25d99	0.025679396
34	0x3d16c73b	0.036811095
35	0x3d5c99bc	0.05385755
36	0xbd9f71af	-0.07785355
37	0x3d2f424f	0.042787846
38	0x3d6c18cd	0.05764084
39	0x3d6b9682	0.057516582
40	0x3d8b2ac2	0.06795265
41	0x3d2d2e06	0.04228022
42	0x3d9dedda	0.07711382
43	0xbd8bd8e4	-0.06828478
44	0x3d25f7ec	0.04051964
45	0x3d25e955	0.040505726
46	0xbc44462c	-0.011979621
47	0xbbf74dfa	-0.0075471373
48	0xbaf728d2	-0.001885677
49	0x3d9552a0	0.0729115
50	0x3c243b27	0.010023869
51	0xbd457f32	-0.048217006
52	0xbd23e77b	-0.04001568
53	0xbd3e3035	-0.046432693
54	0xbcd6200a	-0.026138324
55	0xbd61a8f9	-0.055092786
56	0x3d1d291a	0.038369276
57	0xbd554a38	-0.052072734
58	0x3daf55d3	0.085612915
59	0xbd1c0ae0	-0.03809631
60	0x3b308ee8	0.0026940648
61	0xbd19cb36	-0.037547313
62	0x39e1e25c	0.00043083995
63	0xbda645a9	-0.08118755
64	0xbdac9145	-0.084261455
65	0x3d0e28b7	0.034706797
66	0x3d846b72	0.06465806
67	0x3c6c86ea	0.014436463
68	0x3d82fbea	0.06395705
69	0x3c3a2fcc	0.011363935
70	0x3d0dcd5c	0.034619674
71	0x3ce0e208	0.02745153
72	0xbc0a36d6	-0.0084359255
73	0x3b9d1e8a	0.0047949003
74	0x3cc0313d	0.023460979
75	0x3d14e587	0.036351707
76	0xbd416914	-0.04721935
77	0x3d9d800d	0.076904394
78	0x3d7edee8	0.0622243
79	0xbc7be4cb	-0.015374373
80	0xbc851e51	-0.016249808
81	0x3c4e82b6	0.012604406
82	0xbc86763f	-0.016413806
83	0x3d34b71c	0.04411994
84	0x3cd1b9f7	0.02560137
85	0xbbbee5b7	-0.005825724
86	0x3cf4e737	0.029895408
87	0xbd0431c2	-0.032274015
88	0x3d0a4283	0.033754837
89	0x3c35c862	0.011095138
90	0xbc0e914a	-0.008701632
91	0x3ce55e0f	0.027998952
92	0x3c4f9984	0.012670878
93	0x3d38a816	0.045082174
94	0x3d4a5247	0.049394872
95	0xbdab604d	-0.08367977
96	0xbd8a3f76	-0.067503855
97	0xbd75dc4c	-0.060024545
98	0x3d52b37a	0.051440693
99	0xbdbeed67	-0.09322625
100	0xbda7688c	-0.081742376
101	0xbd078c1e	-0.03309261
102	0x3cef6ba6	0.029226135
103	0xbdb90c30	-0.09035528
104	0xbd1f9d48	-0.038968354
105	0x3cd9ceaa	0.026587803
106	0xbd5e889e	-0.054329507
107	0x3d976fdd	0.07394383
108	0x3d440ec2	0.047865637
109	0x3ccce928	0.025013521
110	0x3cb96198	0.022629544
111	0x3ce913a9	0.028451758
112	0x3d0e2846	0.034706376
113	0x3c071d15	0.00824668
114	0x3c22d0af	0.009937449
115	0x3d1fbd39	0.038998816
116	0x3d0a35b5	0.033742625
117	0xbcf9f6a0	-0.030513108
118	0xbe0902c3	-0.1337996
119	0x3d25637e	0.040378086
120	0x3d28ef0a	0.04124359
121	0xbdd95142	-0.10611202
122	0x3e099358	0.13435113
123	0xbcbad44b	-0.022806307
124	0xbdaab72d	-0.08335719
125	0xbd0c7936	-0.034295283
126	0xbd0c37d4	-0.03423293
127	0x3cf06a70	0.029347628
128	0xbd4963a8	-0.049167305
129	0xbbd2f43d	-0.006437807
130	0xbc28ac28	-0.0102949515
131	0xbd856441	-0.065132625
132	0x3c2eed62	0.010676714
133	0x3c87f095	0.01659421
134	0x3d6d8d11	0.05799586
135	0x3cecc044	0.028900273
136	0x3d852f54	0.06503168
137	0xbce48750	-0.027896553
138	0x3dff65ae	0.12470566
139	0xbd8e7e75	-0.069577135
140	0x3d2dfdf3	0.042478513
141	0xbcce2666	-0.025164794
142	0x3d21e022	0.03952039
143	0xbe196239	-0.14978875
144	0xbcb071fb	-0.021538725
145	0x3ded5e5d	0.11590264
146	0xbce81196	-0.028328698
147	0x3d9d9f8b	0.07696446
148	0xbd1c153a	-0.03810618
149	0x3d2710c1	0.040787462
150	0xbd4f51a9	-0.050614987
151	0x3dbe058a	0.092784
152	0x3bda6543	0.0066649034
153	0xba7f271e	-0.0009733307
154	0x3be58cb6	0.0070052994
155	0x3b6e1022	0.0036325534
156	0x3dd64a17	0.1046335
157	0x3d1043a5	0.03522076
158	0xbdd82c92	-0.10555376
159	0xbd3676da	-0.04454694
160	0xbd8d2a90	-0.06892884
161	0x3bc91894	0.006136963
162	0xbd26be3c	-0.040708765
163	0xbca8739c	-0.02056294
164	0x3d98596e	0.07438932
165	0xbd15b64c	-0.036550805
166	0xbd743c1d	-0.05962764
167	0x3d91cd52	0.0711924
168	0x3cc1ea5a	0.023671318
169	0xbb25a0db	-0.002527288
170	0x3b58bb90	0.003307078
171	0x3bfdb722	0.0077427784
172	0xbcdefd9a	-0.027220536
173	0x3cda8f25	0.026679585
174	0xbdc038c8	-0.0938583
175	0xbc5f6e7b	-0.01363718
176	0xbd156c1b	-0.03648005
177	0xbd9dfab7	-0.07713836
178	0xbd411be3	-0.047145735
179	0xbe275f53	-0.16344957
180	0x3d3628da	0.044472553
181	0xbdca8a15	-0.09889618
182	0x3e275e57	0.16344582
183	0x3da5c2fb	0.0809383
184	0x3d5841a0	0.05279696
185	0x3c50b29d	0.012737897
186	0xbe88d628	-0.26725888
187	0x3e033074	0.12811452
188	0xbca41fd9	-0.020034717
189	0xbd6337cf	-0.055473145
190	0xbc07cfa9	-0.008289256
191	0xbdd90be1	-0.10597969
192	0x3e24869d	0.16066976
193	0xbc9e90f7	-0.019356234
194	0xbd166453	-0.03671677
195	0x3c1f69f1	0.009729848
196	0xbd38feec	-0.045164987
197	0xbc75a87a	-0.014993781
198	0x3d54ced7	0.05195507
199	0x3c08a82d	0.0083408775
200	0x3cd4b791	0.025966438
201	0xbc88d904	-0.016705044
202	0x3bb776f6	0.005598898
203	0xbd8016a6	-0.0625432
204	0xbd128794	-0.03577383
205	0xbd26732d	-0.040637184
206	0xbd29c297	-0.04144534
207	0x3db8d826	0.09025602
208	0x3d7c06f2	0.06153006
209	0x3c3a8430	0.011384055
210	0x3d517031	0.051132385
211	0xbc680420	-0.01416114
212	0x3d05ec0a	0.032695808
213	0x3d6d910f	0.057999667
214	0x3c616805	0.01375771
215	0xbd2a5e78	-0.041594
216	0x3d3042db	0.04303251
217	0xbccc1b8b	-0.024915477
218	0x3c10bc15	0.008833905
219	0xbddc38aa	-0.10752995
220	0x3cba94bb	0.022775998
221	0x3c94ce56	0.018164795
222	0xbd320903	-0.043465625
223	0xbb176bcf	-0.002310503
224	0x3dbaf29f	0.091283076
225	0xbd0b9d34	-0.034085467
226	0xbd6c2686	-0.057653926
227	0x3ddc016a	0.10742457
228	0x3c958cdd	0.018255645
229	0xbc62130f	-0.013798489
230	0xbd418d8b	-0.047254127
231	0x3d13dd48	0.036099702
232	0x3c70aa09	0.014688977
233	0xbc57e5df	-0.013177364
234	0x3d98ea4c	0.074665636
235	0x3d6f76cf	0.058462914
236	0x3bc3acd6	0.0059715314
237	0x3cb70ff5	0.022346476
238	0x3d6350d4	0.055497006
239	0xbbbeab6e	-0.005818776
240	0xbda12729	-0.07868797
241	0xbdb5d9fc	-0.08879468
242	0xbdc31364	-0.09525183
243	0xbe181368	-0.14851153
244	0xbcd41e94	-0.025893487
245	0x3d6ade5e	0.057340972
246	0xbe5a4a8a	-0.21317497
247	0xbbac099d	-0.0052501694
248	0xbd8511c1	-0.06497527
249	0x3dafb105	0.08578686
250	0xbe31758f	-0.17330001
251	0x3d93f8dc	0.072252005
252	0xbd8133ed	-0.06308732
253	0x3d36406a	0.044495024
254	0x3dc15670	0.09440315
255	0xbd2f97f9	-0.04286954

action_model._discrete_distribution.branches.1.bias f4 [3]
0	0x3c86439b	0.016389659
1	0xbcf809a8	-0.030278042
2	0xbb6ca490	-0.003610883

exp_avg f4 [128, 29]
0	0xb892537e	-6.977374e-05
1	0xb9edbbbe	-0.0004534404
2	0x29c9493c	8.938897e-14
3	0xb75ec6d0	-1.3278521e-05
4	0x39883f70	0.00025987206
5	0xba4d4805	-0.0007830861
6	0x96a21c81	-2.61905e-25
7	0xb7004c20	-7.647119e-06
8	0xb917ce21	-0.00014477271
9	0xb9c6698b	-0.0003784414
10	0x9281d1ae	-8.192735e-28
11	0xb704c6d8	-7.91411e-06
12	0xb7c2d3b0	-2.3225177e-05
13	0xba0311b0	-0.0004999889
14	0x00000000	0.0
15	0xb7b8d680	-2.2034394e-05
16	0xb9ac4540	-0.00032857992
17	0xb94c16b0	-0.00019463408
18	0x2d567ee9	1.2192671e-11
19	0xb82c5ad8	-4.10926e-05
20	0xb94212a7	-0.0001850823
21	0xb9b14743	-0.00033813165
22	0x1a494258	4.1619418e-23
23	0xb8e3d407	-0.00010863697
24	0xb7ad2e90	-2.064489e-05
25	0xba03bed9	-0.0005025692
26	0x00000000	0.0
27	0xb76cbef0	-1.4111152e-05
28	0xb8d984b5	-0.00010372085
29	0x38886fc6	6.505805e-05
30	0x3988741e	0.00026026455
31	0x2a63418c	2.0184391e-13
32	0xb90bdc9e	-0.0001333826
33	0x3897deb3	7.241722e-05
34	0x39849868	0.00025290553
35	0x960203c3	-1.0502503e-25
36	0xb8f046e7	-0.000114572984
37	0xb933925a	-0.0001712529
38	0x3a022ca2	0.0004965757
39	0x1334342f	2.2744923e-27
40	0xb8cc9a9a	-9.756275e-05
41	0xb910b469	-0.00013800118
42	0x39f2ea49	0.00046332393
43	0x00000000	0.0
44	0xb90941c6	-0.0001308984
45	0xb9551e7d	-0.0002032462
46	0x3a0a8fab	0.00052856904
47	0x2cfa057f	7.1060375e-12
48	0xb8a0841c	-7.654002e-05
49	0xb9e1a062	-0.0004303484
50	0x3a461842	0.0007556715
51	0x19d64d37	2.2158268e-23
52	0xb92c8356	-0.00016452125
53	0xb99c5656	-0.00029818964
54	0x3a237337	0.0006235125
55	0x00000000	0.0
56	0x385dda2c	5.2893694e-05
57	0x39347d08	0.00017212715
58	0x387b3272	5.9890044e-05
59	0xb990ea6b	-0.00027640475
60	0x2b94c4ab	1.0570619e-12
61	0xb888cac2	-6.522752e-05
62	0x39b83467	0.00035134258
63	0xba14dc4d	-0.00056785793
64	0x1715330c	4.8208927e-25
65	0x383c72cc	4.4929606e-05
66	0xb9891c49	-0.0002615175
67	0x383cc110	4.5002496e-05
68	0x13868b7b	3.3963894e-27
69	0x36dc8218	6.571656e-06
70	0x3a257372	0.0006311453
71	0xba5e358b	-0.00084766065
72	0x00000000	0.0
73	0xb7d92570	-2.5885849e-05
74	0xb7ea3d76	-2.7923594e-05
75	0xb945c0ac	-0.0001885916
76	0x2da65509	1.8909778e-11
77	0x38979426	7.227836e-05
78	0x39f7e9a1	0.00047285578
79	0xba34b6e1	-0.0006893706
80	0x9954e35b	-1.1006057e-23
81	0xb9476632	-0.0001901619
82	0xb93919c4	-0.00017652573
83	0xb827ba14	-3.99892e-05
84	0x00000000	0.0
85	0x3891a1d4	6.9442816e-05
86	0x38181290	3.625691e-05
87	0x3919b385	0.00014658093
88	0xbb171040	-0.0023050457
89	0x29c8f0ea	8.923576e-14
90	0xb8d33945	-0.00010071931
91	0x3a5e77e0	0.00084864907
92	0xbb451300	-0.003007114
93	0x15b402a1	7.270557e-26
94	0xb84c666e	-4.8732785e-05
95	0xb99298c3	-0.00027961106
96	0xbaf643dd	-0.0018788535
97	0x13bd7f26	4.7835686e-27
98	0xb7dab3ac	-2.6071291e-05
99	0x3a2659ef	0.00063457986
100	0xbb370b83	-0.0027930446
101	0x00000000	0.0
102	0xb9266bce	-0.00015871154
103	0xb99b8d19	-0.0002966903
104	0xbaf406c8	-0.0018617744
105	0x2dedcd8f	2.7035067e-11
106	0x3731a546	1.0588503e-05
107	0x395141ec	0.00019956351
108	0xbb1a8926	-0.0023580282
109	0x99113158	-7.506289e-24
110	0xb9ca5ddf	-0.00038598382
111	0xb95cfc81	-0.000210749
112	0xbaff4a7c	-0.0019477154
113	0x00000000	0.0
114	0xb99fd827	-0.0003048789
115	0xb9f484e2	-0.00046638312
116	0xb90e697f	-0.00013581476
117	0xb9d24554	-0.00040105975
118	0x29562261	4.7547364e-14
119	0x392bb63e	0.00016375721
120	0x392d9201	0.00016552956
121	0xba382188	-0.00070240395
122	0x15587e85	4.372066e-26
123	0x39304e23	0.00016813776
124	0x38b89281	8.801092e-05
125	0xba23cf59	-0.0006248854
126	0x111daf88	1.2439206e-28
127	0x39090bbd	0.00013069711
128	0x38758b03	5.8542017e-05
129	0xba1c15b5	-0.00059541623
130	0x00000000	0.0
131	0x3920f016	0.00015348228
132	0x38604b40	5.3475844e-05
133	0xba1ac1bd	-0.0005903503
134	0x2ccd1571	5.828831e-12
135	0x38a31d42	7.7778954e-05
136	0x39848fbc	0.00025284092
137	0xba4f04e5	-0.00078971527
138	0x9a30b03e	-3.6538314e-23
139	0x38b7e9e7	8.769688e-05
140	0x39aeacc1	0.00033316578
141	0xba641368	-0.00087004015
142	0x00000000	0.0
143	0xb8851034	-6.344952e-05
144	0xb9913802	-0.00027698284
145	0x37f18541	2.879149e-05
146	0xb90f4176	-0.00013661929
147	0x2b8ec8fc	1.0145491e-12
148	0xb87f7a37	-6.091056e-05
149	0x39e0803c	0.0004282015
150	0xba0c844e	-0.0005360291
151	0x1725eb95	5.361172e-25
152	0x3851b5ed	4.9998915e-05
153	0xb9cc9f5f	-0.00039028653
154	0x39941700	0.00028245896
155	0x1333f2c5	2.271267e-27
156	0x3806d058	3.2142125e-05
157	0x3a30e085	0.0006747323
158	0xba4d24b8	-0.0007825601
159	0x00000000	0.0
160	0xb82a9b6a	-4.06759e-05
161	0xb9233c22	-0.00015567293
162	0x3848ad88	4.784533e-05
163	0x2da19f23	1.8374252e-11
164	0x38f1253d	0.00011498712
165	0x39f85d8e	0.0004737195
166	0xba1872fa	-0.00058154727
167	0x9a1be33d	-3.223681e-23
168	0xb98461be	-0.00025249826
169	0xb8e4969e	-0.00010899942
170	0x359d3780	1.1713564e-06
171	0x00000000	0.0
172	0x392e5e95	0.00016629168
173	0x38fe2698	0.000121188525
174	0x38238b86	3.899217e-05
175	0x39f552da	0.0004679177
176	0xab8d65f8	-1.0046955e-12
177	0xb8005d0d	-3.060424e-05
178	0xba1d3261	-0.0005996582
179	0x3a910a46	0.0011065684
180	0x97184707	-4.92035e-25
181	0xb90a4b44	-0.00013188744
182	0x39ab336e	0.0003265398
183	0x393d21aa	0.00018036985
184	0x93af191a	-4.4200963e-27
185	0xb8d2fc46	-0.0001006057
186	0xba433d24	-0.00074477703
187	0x3aa40fa4	0.0012516868
188	0x00000000	0.0
189	0xb74936ad	-1.1993264e-05
190	0x3913583d	0.00014051884
191	0x39c0182f	0.00036639112
192	0xadb508e5	-2.0581268e-11
193	0xb93035bb	-0.00016804684
194	0xba1b7476	-0.0005930135
195	0x3a902b4e	0.0010999234
196	0x1a52e56c	4.3612308e-23
197	0x3949b515	0.00019236312
198	0xb91908c4	-0.00014594482
199	0x3a2b2453	0.0006528545
200	0x00000000	0.0
201	0xb8bfff1e	-9.155109e-05
202	0x37fe29a8	3.0298557e-05
203	0x39260bae	0.00015835345
204	0xb8feef7c	-0.00012156271
205	0xab851d71	-9.45839e-13
206	0x38e02efb	0.00010689903
207	0x39740acc	0.00023273675
208	0xb94d76d0	-0.00019594585
209	0x9699f78d	-2.487471e-25
210	0x37cf1e28	2.4690366e-05
211	0x39d546f0	0.00040679378
212	0xb9c1fcf1	-0.00037000285
213	0x10853d1a	5.255339e-29
214	0x38778e08	5.9021666e-05
215	0x38c557f0	9.410072e-05
216	0xb8705fc8	-5.7309662e-05
217	0x00000000	0.0
218	0x38818e71	6.177731e-05
219	0x3934a021	0.0001722579
220	0xb90e0c1f	-0.00013546691
221	0xac7568b6	-3.487472e-12
222	0x3847341a	4.749382e-05
223	0x398141b0	0.00024653738
224	0xb95bef60	-0.00020974642
225	0x1a8febd5	5.952442e-23
226	0x395bed53	0.00020973878
227	0x39b8d287	0.0003525207
228	0xb9a5887f	-0.0003157295
229	0x00000000	0.0
230	0x38a87da8	8.0342696e-05
231	0xb9914618	-0.0002770878
232	0x3855fbee	5.1017785e-05
233	0xba425a96	-0.0007414011
234	0xaa807f6a	-2.282578e-13
235	0x370d523e	8.423403e-06
236	0x39bdafa7	0.0003617976
237	0xba89e958	-0.0010521812
238	0x959b6094	-6.2756375e-26
239	0x375d7854	1.3200643e-05
240	0x37b16992	2.1149204e-05
241	0xba3a8627	-0.0007115327
242	0x12bc5bf6	1.1887138e-27
243	0x3756984a	1.27908515e-05
244	0x392db9c2	0.00016567766
245	0xba60694c	-0.00085606123
246	0x00000000	0.0
247	0xb8073a4b	-3.2240798e-05
248	0xb808f51a	-3.2653195e-05
249	0xba2c6b8b	-0.00065773044
250	0x2cb63920	5.1790933e-12
251	0x37929508	1.7473954e-05
252	0x384cf430	4.8864807e-05
253	0xba41ca18	-0.000739248
254	0x198c665a	1.4517e-23
255	0xb83fd26e	-4.5733927e-05

exp_avg_sq f4 [128, 29]
0	0x35e0f883	1.6761627e-06
1	0x35bba6c1	1.3981117e-06
2	0x336d60c5	5.5268874e-08
3	0x3502389d	4.8511157e-07
4	0x36051427	1.9830275e-06
5	0x35a6bd0d	1.2422985e-06
6	0x308e7230	1.0364314e-09
7	0x34843817	2.4627727e-07
8	0x35fa301f	1.8640457e-06
9	0x35b487c7	1.3450561e-06
10	0x316d7f5f	3.4560441e-09
11	0x350b2fce	5.18511e-07
12	0x360f0795	2.1313074e-06
13	0x3594b59f	1.1079718e-06
14	0x00000000	0.0
15	0x348cb637	2.620961e-07
16	0x35c47aad	1.4638841e-06
17	0x35d014a1	1.5503211e-06
18	0x3462ed49	2.1134214e-07
19	0x35898c5e	1.0248148e-06
20	0x362631b2	2.4764854e-06
21	0x35549e4b	7.92065e-07
22	0x2f3441b6	1.639425e-10
23	0x34cce99d	3.8167937e-07
24	0x360818eb	2.0280083e-06
25	0x35b5e1d6	1.3551278e-06
26	0x00000000	0.0
27	0x3508fee9	5.103489e-07
28	0x35422028	7.2317425e-07
29	0x355a8d9b	8.141739e-07
30	0x35a66d01	1.2399688e-06
31	0x32a210d6	1.8866938e-08
32	0x3499a041	2.861507e-07
33	0x358fba33	1.0708521e-06
34	0x3587b8ac	1.011203e-06
35	0x2f539b07	1.9245415e-10
36	0x33eefde2	1.112892e-07
37	0x35607dd4	8.3629607e-07
38	0x3598e4f5	1.1391518e-06
39	0x311c676b	2.2759774e-09
40	0x34d16dbc	3.9009126e-07
41	0x35a0059d	1.1922563e-06
42	0x357638a2	9.1724553e-07
43	0x00000000	0.0
44	0x3409327b	1.2777484e-07
45	0x3581c192	9.667585e-07
46	0x35848929	9.874685e-07
47	0x3371b5cd	5.6277532e-08
48	0x3527068f	6.222189e-07
49	0x35bc0e32	1.4011223e-06
50	0x35387e76	6.8729366e-07
51	0x2e49c73c	4.5879064e-11
52	0x346384a2	2.1189274e-07
53	0x35b3b96c	1.3390504e-06
54	0x354ed9f7	7.705816e-07
55	0x00000000	0.0
56	0x34b62580	3.3927427e-07
57	0x34de11e4	4.136374e-07
58	0x3688b677	4.0743575e-06
59	0x3660a569	3.3474882e-06
60	0x34cccf26	3.814868e-07
61	0x35dc6103	1.6419511e-06
62	0x36cf8970	6.1850806e-06
63	0x35dddaaf	1.6529428e-06
64	0x317aea12	3.6512842e-09
65	0x34c5bb86	3.683055e-07
66	0x361f10ab	2.3702548e-06
67	0x36b5cc9f	5.4180414e-06
68	0x32190865	8.907681e-09
69	0x3609e841	2.054978e-06
70	0x36dbe171	6.5529534e-06
71	0x359f835b	1.1884653e-06
72	0x00000000	0.0
73	0x34c06bb2	3.5841146e-07
74	0x360b17a9	2.0726386e-06
75	0x3698c728	4.553138e-06
76	0x34c454a3	3.6569426e-07
77	0x366c2a20	3.519126e-06
78	0x36f418f8	7.2746734e-06
79	0x34f57e79	4.5726827e-07
80	0x2c4b0c74	2.8854948e-12
81	0x34e3ca05	4.2429033e-07
82	0x36a34c59	4.8666666e-06
83	0x3641257f	2.8781067e-06
84	0x00000000	0.0
85	0x360b5cb4	2.0766574e-06
86	0x359036e8	1.0744816e-06
87	0x368a699e	4.125016e-06
88	0x36e6f384	6.882883e-06
89	0x34868162	2.5053583e-07
90	0x35c9874b	1.5015042e-06
91	0x36a30888	4.8587717e-06
92	0x36dcd56a	6.5813556e-06
93	0x2f27f967	1.5277167e-10
94	0x353ef1cf	7.1132393e-07
95	0x36b68e14	5.4405627e-06
96	0x36bdf1ed	5.660803e-06
97	0x326109f1	1.3098984e-08
98	0x35cb41b7	1.5143804e-06
99	0x36c2b34a	5.8025225e-06
100	0x36b33d39	5.341743e-06
101	0x00000000	0.0
102	0x356d36eb	8.8369296e-07
103	0x369812e4	4.532152e-06
104	0x36c0afb5	5.742501e-06
105	0x35037085	4.896504e-07
106	0x362f27a3	2.6100104e-06
107	0x36f91f72	7.424439e-06
108	0x3685687a	3.9758716e-06
109	0x2e8c42d5	6.378335e-11
110	0x35b4cafb	1.347012e-06
111	0x36eb0aa1	7.004783e-06
112	0x369c1f38	4.6527966e-06
113	0x00000000	0.0
114	0x35d18cee	1.5612729e-06
115	0x36366cc3	2.718342e-06
116	0x354cc40f	7.6281225e-07
117	0x35af6696	1.3068372e-06
118	0x32cec06c	2.406906e-08
119	0x34991b41	2.85183e-07
120	0x35283764	6.266548e-07
121	0x35ce0fde	1.5352814e-06
122	0x2e9e771f	7.206168e-11
123	0x346fb58e	2.2324659e-07
124	0x35cbdf2a	1.5189628e-06
125	0x353e1aba	7.081941e-07
126	0x30351b72	6.588642e-10
127	0x347b5cb6	2.3409925e-07
128	0x3553f02c	7.895312e-07
129	0x35b8cda1	1.3768914e-06
130	0x00000000	0.0
131	0x3493548b	2.7442397e-07
132	0x35c696d2	1.4796044e-06
133	0x35276cc2	6.237061e-07
134	0x33b05bd4	8.212342e-08
135	0x34cbe61a	3.7979117e-07
136	0x359dd922	1.1760606e-06
137	0x3588525e	1.0156762e-06
138	0x2e615e89	5.124304e-11
139	0x34ea5db2	4.365407e-07
140	0x35d781e4	1.6056551e-06
141	0x351b52f5	5.786272e-07
142	0x00000000	0.0
143	0x34793d6e	2.321228e-07
144	0x353fde66	7.1476677e-07
145	0x36a94fe4	5.045893e-06
146	0x367c8dde	3.7633504e-06
147	0x34e0692c	4.1799774e-07
148	0x3603a1c1	1.9614674e-06
149	0x36dfc71e	6.669098e-06
150	0x362c3382	2.5659979e-06
151	0x3198b047	4.4438226e-09
152	0x3518eff3	5.6973585e-07
153	0x3672468f	3.610188e-06
154	0x36bbb0d6	5.5936207e-06
155	0x319c34c3	4.546196e-09
156	0x3619ad47	2.2899637e-06
157	0x36e9b649	6.965162e-06
158	0x36130709	2.1908802e-06
159	0x00000000	0.0
160	0x35285d54	6.272069e-07
161	0x366a7d43	3.494163e-06
162	0x3696cd09	4.4942176e-06
163	0x34c23ff5	3.618185e-07
164	0x3682bc28	3.896206e-06
165	0x3708549f	8.125934e-06
166	0x3586e104	1.0049266e-06
167	0x2dad5bfe	1.9708676e-11
168	0x3568589b	8.6555673e-07
169	0x36d330e6	6.2939826e-06
170	0x364543b0	2.9394687e-06
171	0x00000000	0.0
172	0x3616380d	2.2384368e-06
173	0x35d964c5	1.6197088e-06
174	0x36e296f0	6.7528963e-06
175	0x3645ba4d	2.946373e-06
176	0x3519b864	5.7265265e-07
177	0x360d4d9f	2.1055819e-06
178	0x3706341c	7.999155e-06
179	0x362cdbe6	2.5757995e-06
180	0x31874484	3.9368064e-09
181	0x351007dc	5.365562e-07
182	0x369ceccc	4.676729e-06
183	0x36c21959	5.7846014e-06
184	0x3235be3d	1.0578842e-08
185	0x36295711	2.5233642e-06
186	0x370d0403	8.405189e-06
187	0x360da3e2	2.110603e-06
188	0x00000000	0.0
189	0x35190f6e	5.7019395e-07
190	0x366437fb	3.4007232e-06
191	0x36ba4ede	5.5524133e-06
192	0x353a7176	6.9455507e-07
193	0x369c4063	4.656658e-06
194	0x3717ca2f	9.047376e-06
195	0x35cfe4ad	1.5489255e-06
196	0x2e67e09b	5.272281e-11
197	0x3550ee33	7.7832664e-07
198	0x36cdd8e8	6.1347273e-06
199	0x3690c79e	4.314773e-06
200	0x00000000	0.0
201	0x361d94b9	2.348139e-06
202	0x35e2d2e3	1.6899688e-06
203	0x3684cb35	3.957563e-06
204	0x36417939	2.8829802e-06
205	0x340fa399	1.337743e-07
206	0x3594c9df	1.1085612e-06
207	0x36a4193e	4.8905194e-06
208	0x3605f838	1.9963027e-06
209	0x307be453	9.1637736e-10
210	0x34c77965	3.7154965e-07
211	0x3644e344	2.9338562e-06
212	0x368a2aa3	4.117684e-06
213	0x30ab2101	1.2451268e-09
214	0x35be7635	1.4190506e-06
215	0x36afd3f1	5.2400796e-06
216	0x35f1ea1e	1.8024036e-06
217	0x00000000	0.0
218	0x34d25cf4	3.918318e-07
219	0x362aee0a	2.547053e-06
220	0x3673b20c	3.6313459e-06
221	0x34c10a28	3.595644e-07
222	0x36383472	2.7448664e-06
223	0x36bc660a	5.6147155e-06
224	0x35ae0a28	1.2966966e-06
225	0x2f542ad7	1.9296507e-10
226	0x3519534c	5.7118154e-07
227	0x3686ace2	4.0136374e-06
228	0x363c146e	2.8026075e-06
229	0x00000000	0.0
230	0x35cd54f9	1.529842e-06
231	0x35a52b05	1.2305978e-06
232	0x34164a69	1.3996909e-07
233	0x358c3da0	1.0448748e-06
234	0x32a344d3	1.9006995e-08
235	0x34149f06	1.3841426e-07
236	0x34dd320b	4.120087e-07
237	0x3553aa36	7.8851315e-07
238	0x2f288d42	1.5329696e-10
239	0x3397aed7	7.0632886e-08
240	0x34c3be0a	3.6459852e-07
241	0x3568a196	8.6661873e-07
242	0x311789fb	2.2051825e-09
243	0x3409f2cd	1.284745e-07
244	0x3512b376	5.465039e-07
245	0x3533fe3d	6.705266e-07
246	0x00000000	0.0
247	0x33b43fd2	8.393512e-08
248	0x34f10220	4.4891294e-07
249	0x35528e5d	7.843826e-07
250	0x323021db	1.0252246e-08
251	0x3439948b	1.7283507e-07
252	0x35471e63	7.4177495e-07
253	0x34f88834	4.62927e-07
254	0x2e043e46	3.0068635e-11
255	0x3407e31b	1.2655475e-07
