results/Racing_Imitation/Driver/Driver-44800.pt (torch, 603118 bytes, 48 tensors)

discrete_act_size_vector f4 [1, 2]
000000 00 00 40 40 00 00 40 40
       3.0 3.0

network_body._body_endoder.seq_layers.0.weight f4 [128, 29]
000000 9e f7 de 3e 39 ec fb bc 45 b3 1e 3e 30 e1 21 be
       0.43548292 -0.030752288 0.15498073 -0.15808558
000010 42 03 c4 bd 41 4f c4 3d be 4a f5 3d 16 d6 44 be
       -0.09570934 0.09585429 0.119771466 -0.19222292
000020 bb 51 f5 bc 8b 7e 2f be f3 72 80 3e 1b 17 b6 be
       -0.029946199 -0.17138116 0.250877 -0.35564503
000030 03 b4 8d 3a 1d 07 1d be a0 db 38 be 18 69 d7 3e
       0.0010811094 -0.15334745 -0.1805253 0.42072368
000040 66 33 a5 3e 3f 73 ca bd f2 08 07 be 09 a8 32 3e
       0.32265776 -0.09885263 -0.13187006 0.17446913
000050 d5 c9 f3 bc c4 dc 9a 3e 3f 45 13 3e 11 b0 c9 3e
       -0.029759327 0.30246556 0.14381884 0.3939214
000060 99 46 d7 3d f9 99 8d bd f2 e0 5c 3e b5 c0 50 3f
       0.10511512 -0.069141336 0.21570185 0.8154405
000070 9a 08 d8 3e 94 5f 7c 3e 32 4d f1 3e 3b aa 3d 3d
       0.42194062 0.24645835 0.47129208 0.046304923
000080 d4 84 ba be a1 51 9e bd 13 56 78 3e ac 98 26 be
       -0.36429465 -0.07730413 0.24251585 -0.16269177
000090 13 40 2b be 19 58 64 be 16 b8 08 3e 73 4e 82 bd
       -0.16723661 -0.22299232 0.13351473 -0.06362619
0000a0 8a 68 29 3d 59 5a 8c 3d 8c 73 ed 3d 03 67 39 3e
       0.04135946 0.0685317 0.115943044 0.18105702
0000b0 ca e1 4f 3e 47 58 03 3e 8a 3f 7a 3e cb 37 e2 3e
       0.20300975 0.12826644 0.244383 0.44183192
0000c0 ae a5 d7 be b1 7b 94 bd 26 81 94 3c 8e d1 3e be
       -0.4211859 -0.07250155 0.018127989 -0.18634626
0000d0 6e 19 b5 3e 14 7f 80 bc b9 79 b4 3e d5 10 98 3e
       0.35370964 -0.015685596 0.35249117 0.29700342
0000e0 75 44 ff 3c 86 b5 d6 be bb af e9 bd c2 de bc 3e
       0.031160573 -0.41935366 -0.11410471 0.368887
0000f0 65 d6 84 3d 20 4e fa be ac a3 19 bf 27 3f 82 3e
       0.06486205 -0.4888773 -0.6001537 0.25438806
000100 ec 7a e0 3c a3 32 fc bd c6 c9 12 be 56 9a 97 3d
       0.027402364 -0.12314346 -0.14334783 0.07402484
000110 59 27 12 3f f6 2a cd be 63 85 82 bd d9 40 3b 3e
       0.5709129 -0.4007184 -0.06373098 0.18286456
000120 67 47 52 3e ca 3f 7b be 15 f5 36 bf 4d eb f6 bc
       0.2053505 -0.24536052 -0.71467716 -0.030141497
000130 de b9 bf be 9d 4d ce bd 13 6b 18 be 0e c4 d7 bd
       -0.37446493 -0.10073397 -0.14884596 -0.10535441
000140 e0 bb f6 be be d0 a4 3e bd 1b 15 3a 51 09 c1 be
       -0.48190212 0.32190508 0.0005688032 -0.3770242
000150 d8 a1 2a 3e 92 06 fe bd 71 17 be 3c 56 b9 ca 3d
       0.16663301 -0.12403597 0.023204537 0.09898631
000160 61 3a b5 bc 48 c4 e9 3e f8 0f 8f 3e 65 5d 8b bd
       -0.022122564 0.45657563 0.2794187 -0.06804923
000170 6a ca 45 be cf b7 98 be f1 9f ac 3d 2c 85 80 3d
       -0.19315496 -0.29827735 0.08428944 0.062754005
000180 1a ba 62 be a7 d0 9d bc 85 06 11 3e 87 00 6a 3e
       -0.22141305 -0.019264532 0.14162643 0.22851764
000190 40 0c 9c 3c de 58 2e bd 17 af 1e 3f 4e 94 85 3c
       0.01904881 -0.04256522 0.61985916 0.016306069
0001a0 e9 68 ae 3d 70 a0 ba 3e cf f1 fa 3d 1f a9 9f 3e
       0.08516104 0.3645053 0.122531526 0.31183717
0001b0 d0 3d c4 3d dc 30 4d 3e e9 c5 2b 3e 6e ba 52 3d
       0.09582102 0.2003817 0.16774715 0.051447324
0001c0 58 91 af be 07 52 b2 bd aa 28 50 be 1d 41 1a bd
       -0.34290576 -0.08707052 -0.20328012 -0.037659753
0001d0 93 d2 ee 3e 51 cf 66 3d 59 24 96 be c9 e3 c1 be
       0.4664503 0.056350056 -0.29324606 -0.378691
0001e0 70 bd 07 3e e7 c0 08 bd d5 5e 27 be 1b 0d f4 3d
       0.13255858 -0.03338709 -0.1634477 0.11916562
0001f0 03 e5 5e 3d 5a fa 06 3e ef 0b ab 3e 63 81 48 3c
       0.05441762 0.13181439 0.33407542 0.012237879
000200 37 14 ed 3e af d2 b5 3e 3b 3d 27 3e f9 e9 5e be
       0.46304485 0.355123 0.16331951 -0.21768941
000210 b4 2d 06 3e b6 a1 2c be 84 d9 43 3d 5b b7 24 be
       0.13103372 -0.16858563 0.04781486 -0.1608557
000220 02 64 05 be 32 9b c4 3d 2b c3 5d 3e 38 9c 9a be
       -0.13026431 0.09599914 0.21656482 -0.3019731
000230 aa fa c2 3d cd fc d0 3e 74 29 c4 be a7 f4 35 bd
       0.095204666 0.40817872 -0.38312876 -0.04442277
000240 06 d3 26 bf 7a 75 5d 3e 68 d9 57 3c d2 95 02 3e
       -0.65165746 0.21626845 0.013174392 0.12752464
000250 9f 4a ad be 89 dc 34 3e 9f c6 15 be 1a 05 a5 be
       -0.33845994 0.17662252 -0.14626549 -0.32230455
000260 ac a0 b8 3d 45 f6 68 3e f9 74 17 3e 5a 94 88 3e
       0.09015021 0.22750194 0.14790715 0.26675683
000270 ac c3 71 3c b8 d0 d3 3e c6 53 8b 3e 00 b3 2c be
       0.0147561245 0.41370177 0.27212352 -0.16865158
000280 f4 68 5d 3e 9e a7 34 3e 78 dd a5 be 33 93 9b 38
       0.21622068 0.17642066 -0.3239553 7.418394e-05
000290 88 6c 5b 3e 82 0d 27 be 87 8c b7 3d 47 f6 85 bd
       0.2142812 -0.16313747 0.0896235 -0.06541114
0002a0 a3 56 c9 3d 02 ec 67 bc 7e d6 c8 be d1 d1 1b 3f
       0.09830978 -0.01415539 -0.39226145 0.6086703
0002b0 c8 6a 09 be 2d f2 4f be e2 ef 8b 3e 1f e6 39 3c
       -0.1341964 -0.20307226 0.27331454 0.011346369
0002c0 ec a4 16 bf 59 24 a2 bd c3 52 14 bd 0a dc 71 3e
       -0.588454 -0.07917089 -0.03621174 0.23619094
0002d0 ac 85 d1 bd 9d 8b 21 be 36 92 93 be 9e 31 48 be
       -0.10230574 -0.15775914 -0.28822488 -0.19550177
0002e0 0a 04 ba 3e 00 3e 0d bc e8 42 32 be 54 f0 37 3e
       0.36331207 -0.008620739 -0.17408335 0.17962772
0002f0 db 61 9b 3d 2b 51 15 3f ae 7f 19 3e 0c 4f a0 be
       0.07587024 0.5832698 0.14990112 -0.31310308
000300 aa 81 a0 3d b8 e7 04 3f b6 0e 49 3e db fd 0d 3e
       0.078372315 0.51916075 0.19634518 0.1386637
000310 5d f1 db be 37 c0 4e 3e bd 2c 1a bd 89 9b 81 3d
       -0.42957583 0.20190512 -0.037640322 0.06328494
000320 fe 3d 86 3e d3 af 48 3d 89 31 52 3e 53 fe 21 be
       0.2621917 0.048995804 0.20526709 -0.15819673
000330 34 88 01 bd 61 f4 06 bf 48 59 87 be 7c 19 48 be
       -0.031624034 -0.5271664 -0.26435304 -0.19540972
000340 47 e5 26 3e dc 65 70 be 3b 34 7a 3e 3e 58 a0 3d
       0.162984 -0.23476356 0.24433987 0.07829331
000350 72 97 17 bf c6 e3 8c 3e 47 cf af bd a3 7e 7a 3d
       -0.5921546 0.27517527 -0.08584457 0.061155926
000360 41 12 88 3d e2 7d 31 bd 9a a5 de 3d c1 03 24 3e
       0.06644107 -0.04333294 0.1087143 0.16017057
000370 5b e2 69 bd ba cb 63 3d e7 7d 65 3e e4 66 13 3e
       -0.057100635 0.05561421 0.22411309 0.14394718
000380 a0 a8 c5 bd 05 8d 82 be ca 23 aa 3e f5 66 30 be
       -0.09651303 -0.25498214 0.3323043 -0.17226775
000390 01 48 98 3d ca a1 d8 3e 9f 16 bd 3d b2 44 b7 be
       0.07435609 0.42310935 0.0923283 -0.35794598
0003a0 22 c8 c2 3e ce 13 df bc 0d 9a f3 bd 4e 93 6c 3e
       0.38043314 -0.027231123 -0.11894617 0.23103067
0003b0 32 d5 c6 bd b3 cd 61 be ee 55 cc bd 8a 64 47 3e
       -0.097086325 -0.22051124 -0.09977327 0.19471946
0003c0 92 8e 7d be 7b cf 77 bd 7d 20 1a 3e 38 47 80 3c
       -0.24761418 -0.060500603 0.15051456 0.01565896
0003d0 b0 f5 ec bd 3e 62 62 be da 6d fc 3d ff 67 39 3e
       -0.11570299 -0.22107789 0.1232564 0.18106078
0003e0 56 17 47 be 8b b7 3e 3e b3 56 41 be 79 f8 c0 3e
       -0.19442496 0.18624704 -0.1888073 0.3768957
0003f0 5a a7 12 bc 36 25 1f bd 98 9a 4f 3d cb f6 b4 3e
       -0.0089510325 -0.038853846 0.05068454 0.35344538

network_body._body_endoder.seq_layers.0.bias f4 [128]
000000 dc 77 a6 3d 3f 72 ff 3c 07 c2 c3 3c b1 97 89 3d
       0.0812833 0.031182406 0.02389623 0.06718386
000010 6c 95 6d 3d 0e ec 59 3d 84 f2 73 3d 57 4a ce 3c
       0.058003828 0.053203635 0.059557453 0.025181932
000020 f8 5f e4 3c da cc bd 3c 7e 8e 0f 3d 30 a7 d8 3c
       0.027877793 0.02316897 0.035048 0.026446909
000030 23 31 0b 3d c1 22 88 3c dd 04 4d bc 9d 8d ad 3c
       0.033982407 0.016618134 -0.0125133665 0.02118569
000040 de fb 31 3c b6 1a d2 3c 4a b6 84 3c 7a 59 02 3d
       0.0108632725 0.025647502 0.016200203 0.031823613
000050 7c 98 0f 3d 67 fd c7 3c 77 78 9d 3c 0d 08 ee 3c
       0.03505753 0.024412824 0.019222481 0.029056573
000060 47 12 19 3d 4d e6 5c 3d d3 0b 83 3d 26 7d 82 3a
       0.037370946 0.05393057 0.0639874 0.000995551
000070 71 14 03 3d 34 e7 0d 3d 59 c3 28 3d c8 8c fc 3c
       0.032001916 0.03464432 0.041201923 0.030828848
000080 28 2e 62 3c d9 2d 65 3d 0f 31 9e 3b dd 68 68 3d
       0.01380495 0.055951927 0.0048276256 0.05674063
000090 51 b5 e6 3c 30 e7 38 3d 9a ad be 3c d5 3a 84 3d
       0.02816263 0.045142353 0.023276139 0.06456534
0000a0 e7 4c 2a 3d 98 9c 3f 3d 79 3a 78 3d 86 ae 56 3d
       0.041577246 0.0467802 0.06060264 0.052412532
0000b0 b1 b4 17 3c f2 1e fd 3c b7 61 fb 3c 06 38 5f 3d
       0.009259389 0.030898545 0.030686243 0.054496787
0000c0 99 53 c5 3c 40 b3 12 3c 11 f9 70 3d 17 f0 8b 3d
       0.024087714 0.008953869 0.05883128 0.06832903
0000d0 74 65 02 bd 19 64 ce 3c e6 ae a9 3b 91 11 31 3d
       -0.031835034 0.025194215 0.00517832 0.043229643
0000e0 fc 51 c4 3c 2b f6 3f 3d 03 ae f9 3b 6d 89 90 3d
       0.023964874 0.046865623 0.0076196208 0.07057462
0000f0 cf 22 2f 3d 4f e1 0b 3d 1c c1 2e 3d f0 07 91 3c
       0.042757805 0.034150418 0.042664632 0.01770398
000100 9a 42 86 3d 5b 66 8f 3c 99 d0 9c bd aa 3e 8e 3d
       0.06555672 0.017504862 -0.07656974 0.06945546
000110 1a 53 d8 3c fb 6a 78 3d c1 eb 22 3c 3b 32 8d 3c
       0.026406813 0.0606489 0.009943903 0.017235866
000120 c3 f3 48 3d 4f b0 e6 3c 05 ee 62 3d 51 f2 69 3d
       0.049060594 0.028160242 0.055402774 0.057115857
000130 67 8f a4 3d bd 8d a5 3c 59 55 04 3d 62 a0 29 3d
       0.08035164 0.020209188 0.032307956 0.04141272
000140 02 d9 a0 3d 01 f2 db 3c 6a b8 16 3d 81 60 94 3b
       0.07853891 0.026848795 0.036796965 0.0045281057
000150 7e 03 bc 3d f3 56 2c 3c d6 e6 1c 3d a2 a4 f2 3b
       0.091803536 0.010518777 0.03830608 0.0074048797
000160 ff 8b 3d 3d 32 05 9e 3c a9 f7 91 3c 77 80 b0 3d
       0.04627609 0.019289587 0.017818289 0.08618253
000170 43 20 07 bc 0f 15 00 3d 1c fb de 3c f9 a0 7a 3c
       -0.008247438 0.031270083 0.027219348 0.015297168
000180 09 2b 0f 3d 05 f0 09 bc c0 03 60 3d c8 6e ac 3c
       0.03495315 -0.0084190415 0.054691076 0.021048918
000190 cf a2 fd 3c a8 2a ae 3c c2 4c 1d 3d d0 17 58 3d
       0.030961422 0.021260574 0.03840328 0.052757084
0001a0 84 5e 12 3d f7 bc 60 3d f3 4b 17 3d 41 7e 73 3d
       0.03573467 0.05486771 0.036937665 0.059446577
0001b0 ce aa c4 3c 02 27 10 3d 18 a7 8a 3c d6 74 d3 bc
       0.024007227 0.03519345 0.01692538 -0.025812548
0001c0 8f 73 f7 3c 5b 88 31 3d 5e 70 d0 3c de 33 a5 3c
       0.03020647 0.04334293 0.025444206 0.020166334
0001d0 f7 dd 81 3d 45 f7 89 bd a6 ed 45 bc 12 fe 18 3e
       0.063411646 -0.06736616 -0.012080586 0.1494067
0001e0 3c 00 3b 3d 87 3f 33 3d ef bd 54 3d 36 87 11 3d
       0.04565452 0.043761756 0.051938947 0.035529338
0001f0 fb 44 7a 3d 61 45 0c 3d df 08 b3 bb 63 e0 ff 3b
       0.06110094 0.034245852 -0.005463704 0.0078087314

network_body._body_endoder.seq_layers.2.weight f4 [128, 128]
000000 4a 7a 32 bd 4c a6 06 3d 87 47 c9 bd ba e1 62 3e
       -0.043573655 0.032873437 -0.09828096 0.2215642
000010 b6 ce 8e bc 9f 3b 8c 3d bf 17 90 be a8 4b 4c bd
       -0.017432552 0.06847309 -0.28143117 -0.04987684
000020 7e dd 93 bd 22 60 4f 3d 33 32 48 3d 20 da f1 bc
       -0.07219981 0.05062879 0.048876 -0.029522955
000030 b6 e7 2b 3c f9 8d 1f 3d 1a 65 31 be 88 33 2f 3c
       0.010492256 0.038953755 -0.17323723 0.010693438
000040 2c 16 b4 3d 9c 84 0e 3d 73 e1 9c bd fd c7 76 be
       0.087932914 0.034794435 -0.076601885 -0.24099727
000050 86 c6 4f 3d b9 23 0a 3e 0d a6 c9 bd 57 dc 67 bd
       0.050726436 0.1349019 -0.09846125 -0.056606617
000060 75 dc 91 bc 1d f3 1e 3d d7 9f b2 bc 92 cc f2 bc
       -0.017805317 0.03880607 -0.021804733 -0.029638562
000070 2f d8 80 3d 08 a1 72 3d a6 4e 81 3d 46 c4 70 3e
       0.06291234 0.059235603 0.06313829 0.23512372
000080 01 9a 6a 3d 8b c1 c9 bb 90 a1 ae bd c1 9f 8c 3d
       0.057275776 -0.0061571053 -0.08526909 0.06866408
000090 b0 5d 09 3e 12 4b b2 3b 13 28 bc 3d f4 f6 20 be
       0.13414645 0.005441078 0.09187331 -0.15719205
0000a0 da 00 51 be dc a7 19 3d 7d 38 13 bd 9c f3 7f bd
       -0.20410481 0.0375136 -0.035942543 -0.062488183
0000b0 e3 08 95 bc e4 78 d8 3d 63 54 de bd 3a 1f 48 3d
       -0.018192714 0.10569933 -0.10855939 0.048857905
0000c0 e0 b9 28 bd 8f 52 ac 3c bc 94 ba b9 c7 f0 c5 3c
       -0.04119289 0.02103546 -0.000355875 0.024162663
0000d0 d5 14 51 3d 3e 54 7e 3e 97 7c fe bd e5 8d a4 3c
       0.051045258 0.24836823 -0.124261074 0.020087192
0000e0 c5 80 a3 3d 1b d5 b8 3d 10 50 27 3d e6 b5 3e 3d
       0.07983545 0.09025022 0.040847838 0.04656019
0000f0 1a 1b cd bd c4 da 48 3e 09 81 f6 3d b3 d6 d5 3d
       -0.10014935 0.19614702 0.1203633 0.10441341
000100 3c 98 9b bd b0 bd 93 bd 46 fe 6e 3d 95 87 c7 bd
       -0.07597396 -0.072139144 0.058347963 -0.09742657
000110 85 94 15 be 1c 0c b5 3c 18 17 b8 bd c5 17 9e bc
       -0.14607437 0.0221005 -0.0898878 -0.019298444
000120 9e c6 f4 bb d7 0c 4c 3c 17 b2 68 3c 0e 2b a0 3d
       -0.007469966 0.012454233 0.014202616 0.07820712
000130 3e 54 ed 3d 3a fd b0 bd cc f4 09 3d 57 32 e6 3d
       0.115883335 -0.08642049 0.033680722 0.1124007
000140 8b 6f cc bd 0d e3 89 bd e6 1b 01 bb ad 3d f7 3d
       -0.09982213 -0.067327596 -0.0019700467 0.120723106
000150 c3 2a 61 3e 89 66 49 3c 29 f9 96 3d f0 82 fb bd
       0.21988969 0.012292513 0.07371742 -0.12280834
000160 e3 8c 5a be 4e b3 64 3c a8 ab db bd 46 26 59 be
       -0.21342807 0.013958765 -0.107261 -0.21206006
000170 8b 8c 8d 3b 9a 8a 9a 3d 19 31 08 be 88 d8 ce bd
       0.0043197325 0.075459674 -0.1329998 -0.10099894
000180 41 7d 8b 3d 3b 1c 94 3c ea fa b7 3c 50 f1 b9 3d
       0.06811 0.018079868 0.022458512 0.0907923
000190 b8 88 1e 3e a3 03 a7 bc 81 da b5 3c 7a 45 65 3d
       0.15481842 -0.020387476 0.022198917 0.05597446
0001a0 43 ef d8 3c 6a d8 59 3d fb c8 2a bd e2 f7 22 3a
       0.026481276 0.053184904 -0.041695576 0.0006216747
0001b0 cf 86 5f be 37 f0 9f 3c f8 06 68 bd d5 cb 57 be
       -0.21828769 0.019523723 -0.05664727 -0.2107385
0001c0 27 d8 1e 3c 9d bc 48 3e b7 dc 9e bd ba 3f 3c bd
       0.009695089 0.196032 -0.07756942 -0.045959212
0001d0 af d1 82 3e d9 cb 10 3d 3f 56 f5 bd 77 73 cf bd
       0.255506 0.035350654 -0.11979341 -0.10129445
0001e0 95 03 b9 3d 6d b0 70 bd ee 4b 10 3d 04 c2 5a 3d
       0.09033886 -0.058762003 0.035228662 0.053407684
0001f0 02 05 bb 3d e4 df 1a be 32 3a 4a bc 61 dc 3f 3b
       0.091318145 -0.1512447 -0.012342976 0.0029275643
000200 68 95 a3 3d e5 74 43 3e e9 2c b2 bc 75 58 7b 3d
       0.07987481 0.1908756 -0.02174993 0.061363656
000210 89 4f 36 3e 72 a1 dc bd 8f 30 66 be 6b ee 4b 3d
       0.17803778 -0.10772981 -0.22479461 0.04978792
000220 11 01 8a 3d 3e b5 aa be 7f e6 f2 bc c7 a3 04 3e
       0.06738485 -0.33341402 -0.029650925 0.12953101
000230 6c bc e3 3d 18 89 b7 3d e2 2b ec bd 9e 25 96 bd
       0.11119923 0.089616954 -0.115318075 -0.07331394
000240 b3 fd 92 3b b7 25 85 3d 9a 0d 1c 3e 66 6c e7 3c
       0.0044858097 0.06501334 0.15239564 0.02824993
000250 ec 82 2d 3a 84 d7 ba 3d 3e 23 54 be 71 38 e0 bc
       0.0006618935 0.091231376 -0.20716569 -0.027370663
000260 13 d4 39 3e 8a 8a 92 3d 8f 32 39 3e 8a 0f 02 be
       0.18147306 0.071553305 0.18085693 -0.1270124
000270 1a c7 75 bd 7b b0 b0 3c dd 61 cc 3d 07 20 01 3e
       -0.06000433 0.021568527 0.099796034 0.12609874
000280 4b 11 21 3d c8 9a 2d 3e 35 df f4 3d 1d 75 14 3e
       0.039323132 0.16953576 0.11956636 0.144978
000290 6a 81 99 3d 22 06 0c 3e 1f 61 2d 3d 30 83 f1 bc
       0.07495387 0.13674214 0.04232895 -0.0294815
0002a0 36 ba 07 be 83 1b a9 3d 4a 36 87 bd 3d b2 f8 3d
       -0.13254628 0.082572006 -0.06602152 0.12143371
0002b0 2e 8f 66 bd 45 7e 03 be a7 42 11 be 27 46 57 3d
       -0.05628889 -0.12841137 -0.14185582 0.052557137
0002c0 da f5 b1 3d 16 cb 34 be fc e0 e9 3d 69 b9 1a 3e
       0.086894706 -0.17655596 0.114198655 0.15109791
0002d0 5d 0d db bc 94 3f 6a 3e ca 11 b2 3d 18 55 f4 bd
       -0.02673977 0.22875816 0.08694799 -0.11930293
0002e0 78 01 81 bd 66 97 a0 bd 9f 2a 3b be c6 3e b7 3c
       -0.06299108 -0.07841377 -0.18277977 0.0223688
0002f0 5c e6 66 3d bb 87 99 bd f1 a3 01 be d8 a8 7e 3d
       0.05637203 -0.07496592 -0.12660195 0.06217274
000300 3b 4d 0f be b7 36 d3 bd bf 7c be 3d 43 09 2b bd
       -0.13994305 -0.103131704 0.09301137 -0.04175688
000310 d8 f2 88 3d 7c de bf bd 33 52 12 be 21 ed ff 3d
       0.06686944 -0.093686074 -0.14289169 0.124964006
000320 f6 e4 93 bb 73 dd 0f 3e 2d e6 05 3e 0c 5b e1 bd
       -0.0045133783 0.1404932 0.13076086 -0.11003694
000330 5e 66 02 bd db 10 ee 3d 75 fa e4 3d 6b f6 0b 3e
       -0.031835906 0.11624309 0.111805834 0.1366822
000340 e6 55 2b 3e 7c e5 ef 3d 8f d0 87 3e e7 a8 a1 3c
       0.16731986 0.117136925 0.26526305 0.01973386
000350 28 d1 23 3e c1 bc 95 bd 16 31 5e bd 88 5b 5b bc
       0.15997756 -0.073113926 -0.05424603 -0.013388522
000360 7d e8 a0 bb fe 77 08 bc dd 56 65 be 59 69 99 bc
       -0.0049105273 -0.00832939 -0.22396417 -0.018726991
000370 34 94 5f bd e0 73 8f bc 88 9c a3 3c 5a 27 9b bb
       -0.054584697 -0.017511308 0.0199721 -0.0047349157
000380 27 70 3e 3b 57 df ec bb 1c ee 01 bd 86 ae 47 3d
       0.0029058547 -0.0072287726 -0.03172122 0.048750423
000390 43 ea ec 3d 32 10 00 3c b9 3a 51 bd bf f2 55 bd
       0.115681194 0.007816361 -0.051081393 -0.052233454
0003a0 5c c5 a4 3c bc 5c 39 bc 95 8a cc 3d 7f 06 d8 3d
       0.02011364 -0.0113136135 0.0998737 0.10548114
0003b0 f8 f0 cd bb d3 93 4d be 92 d8 95 bd 8e 56 27 be
       -0.006284829 -0.20075922 -0.07316698 -0.16341612
0003c0 88 69 60 be b1 b4 26 bd 1a f9 68 3d 1a 5c 5a bd
       -0.21915257 -0.040699665 0.056878187 -0.05331049
0003d0 82 cd bb 3d c6 58 00 3e b0 79 6f bc 17 4a 2a 3c
       0.09170057 0.12533864 -0.014616415 0.010393641
0003e0 56 c9 e1 bd 75 05 40 3e ce f4 05 be 66 03 cf bc
       -0.1102473 0.18752082 -0.13081667 -0.025270175
0003f0 9a d3 10 be b6 25 07 bc 23 80 ce bd 79 0d cb 3b
       -0.1414322 -0.008248737 -0.10083034 0.0061966744

network_body._body_endoder.seq_layers.2.bias f4 [128]
000000 75 c0 c5 3c 63 c9 6d 3c 9a 77 a1 3b 71 84 0a 3c
       0.024139622 0.014513346 0.0049275877 0.008454428
000010 3b 35 1f 3d ba a8 c0 3b db bb df 3c 2e 83 68 3c
       0.038869124 0.005879489 0.027311256 0.014191432
000020 a7 95 b7 3c 96 d3 b9 3c 57 3b 14 3d ca 69 72 3c
       0.022410227 0.0226839 0.036189403 0.01479573
000030 a4 fa d1 3c cc 13 14 bd 91 7f b6 3c ce 59 36 3d
       0.02563221 -0.036151692 0.022277625 0.04451924
000040 3b 14 32 3d b9 e8 fe 3c 63 76 64 3c 36 3f 94 3c
       0.043476325 0.03111683 0.013944241 0.018096548
000050 da 58 ff 3c c6 a6 8a ba 8f f1 05 3d 1a d8 c8 3c
       0.031170297 -0.0010578267 0.03270107 0.024517108
000060 ea 83 04 3d 2f fb e3 3c 7b fa 08 3d ff 26 13 3c
       0.032352366 0.027829735 0.033442 0.008981465
000070 63 74 20 3d 04 5d 13 3d b4 d1 d1 3b 50 2a 54 3c
       0.039173495 0.03597738 0.0064031724 0.012949541
000080 65 bf 9d 3c d0 6c 8b 3c f2 d4 ab 3c 77 d8 86 3c
       0.019256303 0.01701966 0.020975564 0.01646064
000090 46 4d e8 3c b8 47 57 3d 85 92 1a 3d bf 48 f1 3c
       0.02835716 0.05255863 0.03773739 0.029453633
0000a0 aa fc f1 3c 0e ae e3 3c bd 2b 1f 3d 79 bc b6 3c
       0.029539425 0.027792957 0.03886007 0.022306668
0000b0 87 d0 cb 3c 9e 63 62 bb 4a ec cb 3c 37 ee 75 3c
       0.024879707 -0.003454424 0.024892945 0.015010408
0000c0 39 af c9 3c 67 79 b9 3c 59 ef 19 3b fd c1 c6 3c
       0.024619685 0.022640897 0.002348861 0.024262423
0000d0 c8 84 f3 3c 41 c2 0e 3d 33 71 99 3c 86 34 ff 3c
       0.029726401 0.034853224 0.018730735 0.031152975
0000e0 ad 39 5b 3c df f1 16 bc 1b 10 fe 3c 4e 91 24 3d
       0.01338045 -0.00921294 0.031013539 0.040177636
0000f0 64 09 8b 3d 52 65 f2 3c f7 c8 ad 3c a6 50 63 3d
       0.067889005 0.029589329 0.021213992 0.055496834
000100 18 e4 1c 3d 89 30 c8 3c c6 ef cd 38 e0 94 7d 3d
       0.038303465 0.024437206 9.819823e-05 0.061909556
000110 1a 6c b6 3c 8e c3 7b bc 80 03 1a 3d ff 19 0a 3d
       0.022268344 -0.015366448 0.037600994 0.033716198
000120 3d 43 4d 3c 5c f6 cc 3c 3a bc 64 3d a3 f6 f6 3b
       0.012528238 0.025019817 0.05584357 0.0075367256
000130 20 11 5e bb d7 d5 8b 3c 70 fa e5 3b 0b 0d 07 3b
       -0.003388472 0.01706974 0.00701838 0.002060714
000140 dd 9f 0e 3d a1 56 d9 bc 5a 8a 0b 3d 8d 6c 94 3a
       0.034820426 -0.026530566 0.03406749 0.0011323855
000150 fe 42 c2 3c 8a be 34 bc 79 eb 09 3c d1 33 f9 3c
       0.023713585 -0.011031756 0.008417957 0.030420216
000160 48 98 03 3d b9 28 ed 3b 7a 2f 77 3b 49 3a 1b bc
       0.03212765 0.0072375205 0.0037717507 -0.0094743455
000170 db 71 35 3d dc 0a c4 3c 22 82 23 3d b9 ab 48 3c
       0.044298034 0.02393096 0.039919026 0.012247973
000180 a7 79 ce 3c d5 52 02 3d 27 c8 04 3d 2a 1b df 3b
       0.025204493 0.031817276 0.032417443 0.006808658
000190 6c 17 c8 3c 6c 27 c8 3c c7 94 2b 3d b9 4d 0e 3d
       0.02442523 0.02443286 0.041889932 0.03474209
0001a0 c1 56 86 3c 1a 43 d0 3c ff 16 99 3a 96 cf d9 3c
       0.01639879 0.025422622 0.0011679827 0.026588243
0001b0 85 66 a4 3c 36 ab a5 3c 15 84 c5 ba f7 e4 14 3c
       0.020068416 0.020223241 -0.0015069271 0.009087793
0001c0 65 59 08 3d be 9e de 3c 59 11 ab 3c b6 1f 2b ba
       0.03328838 0.027175304 0.020882295 -0.00065278576
0001d0 31 99 d0 3c 41 8a ba 3c 87 26 5c bc 78 a6 25 3d
       0.025463672 0.022771003 -0.01343692 0.04044196
0001e0 a9 24 39 bb 0f ea 93 3c b7 48 ec 3c 4b 30 1a 3d
       -0.002825061 0.018055944 0.028843267 0.037643712
0001f0 61 7d 0c bc 76 4a 2e 3c 33 81 b7 3c 06 58 be 3c
       -0.008574815 0.01063787 0.022400474 0.023235332

action_model._discrete_distribution.branches.0.weight f4 [3, 128]
000000 d2 9d 44 bb 2a 44 70 bc fb 91 68 bc 4a a8 2a bd
       -0.0030001295 -0.014664689 -0.014194961 -0.0416644
000010 77 85 61 bd 10 e4 94 bd 84 bd a9 bc f7 b7 94 bd
       -0.055058923 -0.07270062 -0.02072025 -0.07261651
000020 73 6b 98 3d 75 a5 05 3c 8a f0 e1 bb c1 7e 09 be
       0.07442369 0.008157124 -0.0068951296 -0.13427259
000030 71 15 92 bc 1c e3 86 bd bc 6f da 3c 6c 98 4a 3b
       -0.01783249 -0.065862864 0.026664607 0.0030913604
000040 8f 8e bf ba a3 a8 ea 3d c9 41 66 3b 22 20 8d bd
       -0.0014614629 0.11457946 0.0035134426 -0.068908945
000050 2d 77 66 3d fb fa 01 3d 12 a4 93 bb 74 31 8b bd
       0.056266 0.031733494 -0.0045056427 -0.06796542
000060 fe 09 68 bc 87 07 fa bb 35 35 e5 3c 81 b1 53 bc
       -0.014162539 -0.007630292 0.027979473 -0.012920738
000070 e2 95 85 3d 00 56 08 3c 7c 6c 07 bd 1b dc bf bb
       0.065227285 0.008321285 -0.033062443 -0.005855096
000080 62 74 60 3c ee 24 bf 3d b0 64 f1 3d 90 7b 2b 3d
       0.013699623 0.09333216 0.11786783 0.041865885
000090 48 6f 09 bb 3a bc dc 3c 7d e0 64 3c 21 c8 19 3c
       -0.002097087 0.026945222 0.013969538 0.009386093
0000a0 c0 69 9d ba d0 79 dc 3c 30 a8 89 bc c6 fe 4f bc
       -0.0012009665 0.026913553 -0.01680383 -0.01269502
0000b0 8b fa 2e bd ca 22 a3 3c 22 c8 e3 3c ed 99 94 3d
       -0.042719405 0.01991405 0.027805392 0.072559215
0000c0 72 90 80 3b 1b aa fe bd 78 38 5a 3d 90 f2 ee bd
       0.003923469 -0.12434789 0.05327651 -0.11667359
0000d0 22 d7 73 bd 6d c2 2e 3c ff fd 25 3d a3 a5 30 bd
       -0.05953134 0.010666472 0.040525433 -0.043126713
0000e0 fb f2 18 bd a7 d2 08 be b7 fd a7 bc 96 f4 11 3c
       -0.0373411 -0.13361607 -0.020506723 0.0089084115
0000f0 d5 af b4 3d 96 47 32 bb 04 b8 93 bc 57 01 66 3d
       0.088226 -0.0027203313 -0.018032081 0.05615362
000100 76 c3 1f 3c fc 0b ac bc d8 80 21 3c aa c0 89 3d
       0.009751191 -0.021001808 0.009857379 0.06726201
000110 37 56 29 3b 0d e7 81 3d 79 30 03 bc 18 1f 11 bd
       0.0025838742 0.063428976 -0.008007162 -0.035430044
000120 3b ee 32 3d 50 43 61 3c 31 d3 59 3d 28 56 df 3c
       0.043684226 0.013748959 0.053179923 0.027262762
000130 7e 05 f6 bb c3 c3 94 bc 17 48 7b 3d 8d de 51 bc
       -0.007507979 -0.018159753 0.061348047 -0.012809408
000140 59 6a e9 bc 84 5f f7 bd a4 fc 5e bc f5 8b bd bd
       -0.028493093 -0.12078765 -0.013610039 -0.0925521
000150 45 48 b4 3c 74 73 f9 3d f4 8c dc bc 2a 55 3f 3d
       0.022007117 0.12180224 -0.02692268 0.04671208
000160 5b a4 84 3c f4 1a a6 bd e7 db a2 bc a4 8f 80 3d
       0.016191652 -0.0811061 -0.019880248 0.06277397
000170 fa 19 b4 3d e6 39 ce 3c 93 87 80 bd 2b fc 8c 3c
       0.08794017 0.025174093 -0.06275859 0.017210087
000180 6c 25 45 3c 0d 2f eb 3d fa 57 37 bd 44 d5 cd bc
       0.012032848 0.114835836 -0.044761635 -0.025126107
000190 3f 45 d5 3c 50 0f 7e bd 2e d9 1e bd d6 10 ea 3c
       0.026033996 -0.062026322 -0.038781337 0.028572481
0001a0 7e f8 3e bc 71 09 ba 3d fd a7 24 bc a2 62 1b 3d
       -0.011655925 0.09083832 -0.010049817 0.03793586
0001b0 1c e3 1d bc 1d e0 c1 3c 62 fd 85 3b 2f be 01 3e
       -0.009636667 0.023666436 0.0040890435 0.12670206
0001c0 14 11 80 3d bd 00 9a 3a 58 16 03 3e 02 0a 8b bd
       0.062532574 0.0011749488 0.12801492 -0.06789018
0001d0 33 40 13 bd 90 9a e3 3b 57 33 56 bd d6 8b 2f bc
       -0.035949897 0.0069459155 -0.052295055 -0.010714492
0001e0 28 47 12 bd aa 9b 11 3c fd dc 9a 3c 52 b9 21 3d
       -0.03571239 0.008887211 0.018904204 0.039483376
0001f0 1e 3f c8 3b 73 9b 2b 3d 9d 43 35 be 84 c0 da bc
       0.00611104 0.041896295 -0.17701574 -0.026703127
000200 53 6a 4f 3d cf 22 46 3d d5 06 a1 bd b7 92 5f bd
       0.050638508 0.04837304 -0.07862631 -0.054583278
000210 78 46 13 3d 14 9f dd 3d ff f3 89 3d 76 df 86 bc
       0.035955876 0.10821357 0.06735992 -0.016463976
000220 93 95 a6 bd 66 ae 37 3d b1 c0 b4 3d c4 3c d2 3d
       -0.08133998 0.044844054 0.088258155 0.102654964
000230 e2 68 94 bd bc 61 50 bd d7 c0 f0 3c e1 8b 9c 3d
       -0.07246567 -0.050874457 0.029388828 0.07643867
000240 9d c2 58 bd 6d 9d be bc d4 25 10 3d ee fc 99 3d
       -0.052919973 -0.023268426 0.035192326 0.07518946
000250 ef e6 d5 3a 61 04 ca bd 35 75 2c 3d 74 26 f6 3c
       0.0016319434 -0.098641165 0.042103965 0.030047633
000260 28 bf 22 3d fb 98 18 3d 11 dd 83 3d 17 08 14 bc
       0.039733082 0.03725527 0.064386494 -0.009035132
000270 70 73 7b 3b 20 7a 86 3d 53 38 93 3d 19 5b 1d 3d
       0.0038368367 0.06566262 0.07188477 0.038416956
000280 bb 78 dc bd 4d c8 04 be fd 1e b1 bd af 19 0b be
       -0.10765215 -0.12967034 -0.08648489 -0.13584016
000290 04 12 da 3c 2f bd 8b bd db e3 f4 3b 20 4a 67 3d
       0.026619919 -0.06823193 0.0074734516 0.056467175
0002a0 33 56 bc 3c ed 9b 28 3c 0d f4 83 3d 0d d1 07 3d
       0.022990322 0.010291082 0.06443033 0.03315835
0002b0 23 bd 8c 3d 8c cf ae bc 4f fc b7 bc 09 2d c0 bc
       0.068720125 -0.0213392 -0.022459177 -0.023458974
0002c0 34 ea fb 3c b8 44 89 3d 46 39 be bd cf 81 73 3d
       0.030751325 0.0670256 -0.09288268 0.059449967
0002d0 b3 e3 c1 3d 43 72 94 bd c1 44 bc bd 93 7e 8c 3d
       0.09467258 -0.07248356 -0.09192801 0.068600796
0002e0 15 70 61 3d 57 5e 03 3a c0 16 e2 bc 0b 79 8c 3d
       0.05503853 0.0005011311 -0.027598739 0.068590246
0002f0 81 2d a4 bc bb cc 86 3d 9d c3 64 3d 70 5f 6f 3c
       -0.02004123 0.06582018 0.055850614 0.014610156
000300 18 d5 4a 3d 1c df 1f 3d b3 6e 32 bd 80 09 3b 3c
       0.04951963 0.039031133 -0.043562602 0.011415839
000310 3b bd 11 3d bc 38 ed bd 0e cb 13 3d b1 aa 8f 3d
       0.035580855 -0.11583087 0.03608232 0.07014979
000320 84 3e 0d be 34 c1 33 3d 63 fb bd 3b 24 2c 25 be
       -0.13793379 0.043885425 0.00579779 -0.1613012
000330 53 10 1a be 8e 48 1e 3d c7 cc f7 bd 7b 00 37 3c
       -0.1504529 0.038643412 -0.12099605 0.011169548
000340 31 31 66 3d 74 40 da bd 1b 24 bb 3d 01 c8 f3 bb
       0.056199256 -0.10656825 0.09137746 -0.007439614
000350 65 9c 2b 3d b2 f1 4b be a1 74 15 bd c2 ad 7c 3c
       0.041897196 -0.19916418 -0.03648818 0.0154222865
000360 fc 67 bb 3c 91 5c c7 3c 0f 12 4d bd d9 bc 53 be
       0.022876732 0.024336131 -0.05006605 -0.20677508
000370 09 ea 04 be d5 13 c4 3c 44 c3 d5 3d 03 af 3f 3c
       -0.12979902 0.023935238 0.104376346 0.011699441
000380 46 f4 38 3d 9e 9c c6 bd a1 a8 06 bd b8 2a ac bd
       0.045154832 -0.09697841 -0.03287566 -0.084065855
000390 4d 4e 11 3d 46 e4 9f 3d 13 77 1b bd 30 bc 31 3d
       0.035475064 0.078072116 -0.037955355 0.04339236
0003a0 0a 2c bd 3d ae 8c ef bd be 96 53 bd 23 2d bd 3c
       0.092369154 -0.116967544 -0.05165743 0.023092812
0003b0 fc 33 10 3d 1b 0c 11 3d a9 d9 b5 bb 68 51 28 be
       0.035205826 0.035411935 -0.0055496288 -0.16437304
0003c0 a5 f0 f1 bc 80 02 98 3d 78 7c 15 be cb ff ec 3c
       -0.029533694 0.07422352 -0.14598262 0.028930565
0003d0 42 02 61 3d f8 c9 bb 3c 94 86 d8 3b c3 3d fa bc
       0.054933794 0.022923455 0.00660784 -0.030547028
0003e0 98 ff 3a bc 8b 84 3c 3d a7 8d 48 3d f6 98 cb 3c
       -0.011413477 0.04602484 0.048963215 0.02485321
0003f0 16 d5 02 be 7b 08 2f 3d 12 1e 81 3d 14 e2 55 3d
       -0.12776598 0.042732697 0.063045636 0.052217558

action_model._discrete_distribution.branches.0.bias f4 [3]
000000 1a a5 31 3c fa c0 54 3c e9 c5 9c bc
       0.010842586 0.012985462 -0.01913734

action_model._discrete_distribution.branches.1.weight f4 [3, 128]
000000 e2 76 29 3d b0 f5 a1 3c 80 e9 1e bd 11 79 d6 ba
       0.04137314 0.019770473 -0.0387969 -0.0016362985
000010 52 03 4e bd 2c 69 0d be c0 5e 3f 3c bf 26 3b bd
       -0.050296135 -0.13809651 0.011680305 -0.045691248
000020 45 11 c1 bc b8 6b d7 3c 42 9c 87 3c 28 3c 5a bd
       -0.023567805 0.026296481 0.016554002 -0.053280026
000030 37 8a d2 bc 1b c5 ad 3c 64 8d a3 3c 2f 30 89 bb
       -0.025700672 0.021212151 0.019964881 -0.004186652
000040 47 66 cd bc 83 7a 0f 3d 6a e5 91 bb ef a6 0a bc
       -0.025073184 0.035028946 -0.004452397 -0.008462652
000050 fc 7e 33 3d 9d 36 6a bc f5 a5 46 3d b4 d8 5e bd
       0.043822274 -0.014295247 0.048498113 -0.054405883
000060 3f 20 7b 3d df 05 07 3d 79 14 30 3c c8 e4 82 bd
       0.06131005 0.032964583 0.010747069 -0.06391293
000070 58 af 3f 3d 17 56 04 3d d1 8a 15 be 6a 09 d6 3b
       0.04679808 0.032308664 -0.14603736 0.006531884
000080 47 24 cf bc dc ca 16 bd 3a 89 c2 bd 7c 72 24 3d
       -0.025285853 -0.036814556 -0.0949883 0.040148243
000090 50 4a 0e 3d ab c4 86 bc 1f 88 99 3d 60 bd 31 3d
       0.03473884 -0.0164512 0.07496666 0.043393493
0000a0 25 b9 44 3d aa b9 50 3d 4d f4 c8 3c fd a5 e0 3c
       0.04802813 0.050958313 0.024530554 0.0274229
0000b0 12 18 1b 3c e6 48 cd bc 85 0d 67 3d 44 02 08 3d
       0.009466188 -0.025059175 0.056409378 0.033205286
0000c0 74 3b 10 3d 36 ec 26 bd 76 18 0a bd 97 85 31 bd
       0.03521295 -0.040752612 -0.033714734 -0.04334029
0000d0 f6 03 05 3d c7 c3 86 bd 7c 09 e0 bb ba a3 49 3d
       0.03247448 -0.0658031 -0.006837068 0.049228407
0000e0 26 56 99 3c 76 7a 0b bd f4 5c 95 bc c6 f4 69 3c
       0.018717837 -0.034052335 -0.0182328 0.01427955
0000f0 a2 7d fb 3d 0e 7d 1b 3d ee 62 f8 3b 0e 0b 9c 3d
       0.12279822 0.03796106 0.0075801527 0.07619296
000100 0a 2d 5f 3c 11 74 1c 3d 57 be 8d bd 30 23 9a 3d
       0.013621578 0.038196627 -0.0692107 0.07526243
000110 d5 d5 02 3d 26 17 1b bc 88 72 34 3d 7d 89 31 3d
       0.031942207 -0.009465968 0.044054538 0.04334401
000120 c5 c4 13 3d 5c 14 22 3d 2b 4a a5 3d f1 83 f4 3b
       0.036076326 0.039570197 0.08070787 0.0074620177
000130 c6 cc 9e 3c f4 d2 bd 3c 6f c4 26 3d 94 7b 99 bd
       0.019384753 0.02317188 0.040714677 -0.07494274
000140 1e 3d 53 3d ab 88 9e 3c f1 01 0a 3d ed 77 07 bd
       0.051571958 0.019352278 0.033693258 -0.033073355
000150 22 5d b0 3c 0e 82 8e 3c 0d 9b ae bc 50 54 20 3d
       0.021528784 0.017396 -0.021314168 0.039142907
000160 e6 ff 4a 3d f2 12 f6 bd da af 3f bd 91 f3 26 3d
       0.04956045 -0.12015332 -0.046798564 0.040759627
000170 cb d5 53 bd 72 b2 47 3d b4 da a6 3c 31 ed 0b 3c
       -0.05171756 0.048754163 0.020367958 0.008540438
000180 2f 63 9b 3c e4 7d c3 3d 6e b5 99 bd 18 3d 47 bc
       0.018968193 0.09545496 -0.07505308 -0.012160562
000190 0c 07 e8 3b 78 3c 22 3d 4d 8b 6e bc ce ce cf 3c
       0.007080918 0.03960845 -0.014559579 0.025367167
0001a0 62 70 d3 ba f7 9f dc 3b 24 d7 9b bc 05 f3 ff 3c
       -0.0016131515 0.0067329365 -0.019023485 0.03124381
0001b0 8e 2c 97 3c 3d 12 0b 3d dc 12 7f bd e6 67 ff 3c
       0.018453863 0.03395294 -0.062273845 0.031177472
0001c0 e8 b3 3a 3d 32 72 ac 3c b2 63 b3 bb db 0c 19 bd
       0.04558173 0.021050546 -0.005474531 -0.037365776
0001d0 9f a2 1e 3d e3 89 f0 3c c0 5e 5f bd ac f9 08 bd
       0.038729306 0.029362625 -0.05453372 -0.03344123
0001e0 e4 9a 51 bd a7 93 e7 3c 20 71 40 ba 82 5d 48 3d
       -0.051173106 0.028268648 -0.00073410757 0.0489173
0001f0 82 64 d4 bb ff fd 00 be 21 67 89 3c 8c e6 f7 3c
       -0.006481708 -0.12596892 0.016772809 0.0302613
000200 0f c2 50 bc f5 58 73 bd 4d 99 a9 3d 85 02 c4 3c
       -0.01274158 -0.059411008 0.08281193 0.023926983
000210 4a 5c ab bd 1a 15 93 3d b8 58 30 bc 5f 6d 5f 3c
       -0.08367212 0.07181759 -0.01076334 0.013636916
000220 80 d9 b4 bd fa 3a 4c ba fe 51 d1 bc a2 e9 15 3e
       -0.08830547 -0.00077907706 -0.025551792 0.14639905
000230 05 5d 76 3d 5c 50 df 3d 56 6f c5 3c 27 91 52 39
       0.060147304 0.10903999 0.02410094 0.00020081234
000240 70 ca 04 be d5 83 ba 3b ea d7 62 3c 4f 36 5b 3d
       -0.12967849 0.005691985 0.013845423 0.05351859
000250 af ed bf bd df 5f 10 bd 1a ff 5c bd 69 7d a8 3d
       -0.093715064 -0.03524768 -0.05395422 0.08227045
000260 81 25 08 bd 6c 64 06 bd b6 a4 6b bd d8 5f be 3c
       -0.03323889 -0.032810614 -0.057530127 0.023239061
000270 33 e5 94 3c 20 ab 03 bd 0b 3d 6d 3d 5e c6 f3 3c
       0.018175697 -0.03214562 0.057919543 0.029757675
000280 b0 5f 24 3d cc a8 b9 ba 57 f7 80 3d 5a c0 d1 3b
       0.040130317 -0.0014164685 0.06297176 0.006401104
000290 63 46 50 bd c6 11 8f 3d d0 cd 9a 3d ab 4d 33 bd
       -0.050848376 0.06985812 0.07558787 -0.04377524
0002a0 c3 9b c0 bc c1 b2 12 3c f3 81 b2 3b 63 85 c3 bc
       -0.023511773 0.008953751 0.00544762 -0.023867315
0002b0 e8 e7 9c 3c 7e 49 49 bd 57 47 d4 bc e0 02 03 bc
       0.01915355 -0.049142353 -0.025912924 -0.007996291
0002c0 6e a4 68 bd 7b 26 7a 3d 34 2c d7 3d 4b 73 c0 3b
       -0.056797437 0.061071854 0.10506478 0.005873119
0002d0 e4 5d 81 bd 88 2d 28 bd b4 0e aa bb 1a 8f 68 b9
       -0.06316736 -0.041059047 -0.005189741 -0.00022178554
0002e0 98 71 02 bb 8f 90 73 3d de 8c 9c 3d 6e 9a 77 bd
       -0.0019904133 0.059464034 0.07644056 -0.06045001
0002f0 e0 dd 80 bd 73 de 7c 3b 81 c3 09 3c 09 c6 31 3d
       -0.06292319 0.0038584739 0.008408428 0.04340175
000300 04 94 95 bd c4 1a 3c bd 21 52 b5 3c de f7 36 bd
       -0.07303622 -0.045923963 0.022133889 -0.04466998
000310 f1 16 54 3b af 10 38 3d 5a ca d7 3d 39 47 76 3c
       0.0032362307 0.044937786 0.105366424 0.015031629
000320 62 d0 ca 3b f6 82 15 3b c4 8e 1e be 3b 28 f3 3c
       0.006189392 0.0022813655 -0.15484148 0.02968227
000330 60 b4 1f bc b9 fa 79 bc 5b ad 94 bd f7 b4 6b 3a
       -0.009747595 -0.015257531 -0.072596274 0.00089915044
000340 07 7a c7 bc b4 1e 0e bb fe 6b a8 bc 97 0f 82 3d
       -0.02435018 -0.002168578 -0.020559307 0.0635063
000350 f6 03 ce 3c ee 68 90 3b ce 5e 5a 3c 2e 31 0b bd
       0.025148373 0.00440704 0.013328267 -0.03398245
000360 7b 17 22 bd 3a 63 a9 3d bb 84 d4 3c 94 cf 69 bd
       -0.039573174 0.08270879 0.025942197 -0.057082728
000370 dd 74 b7 3d 24 1a 0a bd 95 78 49 bd b7 cb ae 3c
       0.08957837 -0.033716336 -0.04918726 0.021337373
000380 35 c3 9c bd e3 22 40 be bc cc ef bd 13 3e b5 3d
       -0.0765442 -0.18763308 -0.11708972 0.0884973
000390 66 da e2 3b 47 2c a9 ba 47 d9 3e be ce b3 34 bd
       0.006923008 -0.0012906872 -0.18637572 -0.044116788
0003a0 1b f4 eb bc c9 1d a5 3d ad b3 ef 3c 1c 7b 49 bd
       -0.028802922 0.08062322 0.02926048 -0.049189672
0003b0 e4 dc 0d 3d 8b 81 5e 3d 8c 44 5b 3d 36 cb ce bc
       0.034634486 0.05432276 0.05353217 -0.025243383
0003c0 e0 8b 8e 3d 04 6b 1a bc 8c 5f c2 bd 6b f9 86 3d
       0.06960273 -0.009424929 -0.0949088 0.065905415
0003d0 05 06 af bc 46 6b 05 bc 0b 69 95 3d 13 c4 e7 bd
       -0.021365175 -0.008143252 0.07295426 -0.11316695
0003e0 83 27 db 3d c6 7d ce bd c2 90 22 3d 21 0e dc 3c
       0.10700896 -0.10082583 0.039688833 0.026862206
0003f0 e1 c1 42 bd 59 0a 07 3c 15 91 ae bd 7a 16 6c 3d
       -0.04754818 0.008242213 -0.08523766 0.057638623

action_model._discrete_distribution.branches.1.bias f4 [3]
000000 8c a4 97 3c e1 22 9c bc 39 7c 60 bc
       0.01851108 -0.0190596 -0.013701492

exp_avg f4 [128, 29]
000000 35 c9 08 bb 8a c7 43 33 e7 15 8c ac c6 df e9 b9
       -0.0020871882 4.5583455e-08 -3.981471e-12 -0.00044607947
000010 52 3f 9c ba 26 a3 6a ba c3 60 a7 27 24 44 e1 b9
       -0.0011920726 -0.00089507026 4.645672e-15 -0.00042966113
000020 ac 53 97 ba 6a 7a 74 ba 3e 9b 0e 20 4c 37 ac b9
       -0.0011545322 -0.00093261024 1.2079233e-19 -0.00032847596
000030 a4 38 9c ba 96 b0 6a ba 19 88 ae 30 16 38 d9 b9
       -0.0011918736 -0.0008952705 1.2698848e-09 -0.00041431253
000040 91 53 97 ba 9f 7a 74 ba 8b 56 9d a1 1e 6c b2 b9
       -0.001154529 -0.00093261333 -1.0661642e-18 -0.0003403136
000050 98 3e 9c ba d2 a4 6a ba f0 5a 5b 31 60 78 16 ba
       -0.001192051 -0.0008950952 3.1920386e-09 -0.0005739983
000060 08 c9 83 ba dc c7 8d ba 0b f4 d0 a6 76 a9 e1 b9
       -0.0010054419 -0.0010817009 -1.4499047e-15 -0.00043041602
000070 0c a3 f2 3a 64 08 c3 38 7c 7c 36 b2 fa 01 9b ab
       0.0018511727 9.2998875e-05 -1.0622099e-08 -1.1013961e-12
000080 62 c0 76 b8 44 4d 64 39 f5 cb 02 b9 51 e8 91 a5
       -5.883014e-05 0.00021772558 -0.00012473746 -2.5310914e-16
000090 d8 ff 6e b8 2b 3c 3f b9 bb 5e 90 39 6f 2c 1a 9f
       -5.6981895e-05 -0.00018237594 0.000275364 -3.2647523e-20
0000a0 9a f0 6d b8 9d 47 64 39 47 c6 02 b9 35 2a 92 ae
       -5.672928e-05 0.00021770452 -0.0001247163 -6.646809e-11
0000b0 82 b6 3b b8 68 38 3f b9 dc 5c 90 39 26 2e 0d 20
       -4.4754248e-05 -0.00018236192 0.00027535006 1.1958434e-19
0000c0 a7 5e 63 b8 1b 47 64 39 bb c5 02 b9 4d ec 98 af
       -5.420917e-05 0.00021770263 -0.00012471426 -2.781654e-10
0000d0 8c ac b9 b7 07 ce 80 36 cc f5 ba 38 dc ab f0 a5
       -2.2134067e-05 3.838682e-06 8.9149544e-05 -4.174982e-16
0000e0 15 6e 1b b8 ca c4 ec b8 10 55 52 b6 b9 09 0d 32
       -3.70574e-05 -0.00011290012 -3.1341951e-06 8.209491e-09
0000f0 e0 7a f1 a9 9b af 75 36 99 51 87 36 9c 35 f0 b6
       -1.07238654e-13 3.661006e-06 4.0328127e-06 -7.1587983e-06
000100 9d 6e 3f 23 08 d9 a2 36 47 b2 18 36 2f 3d b5 b6
       1.0377554e-17 4.853242e-06 2.2753536e-06 -5.401343e-06
000110 d2 b6 49 1d cc 0a ff 35 3a 5c 87 36 65 40 f0 b6
       2.6696644e-21 1.9002123e-06 4.03405e-06 -7.160054e-06
000120 cf 04 9c 2d c4 be b9 36 4d a2 18 36 30 35 b5 b6
       1.7737282e-11 5.5356377e-06 2.2744237e-06 -5.400412e-06
000130 38 bb e8 9c 0f ac 91 34 48 73 87 36 26 58 f0 b6
       -1.5400867e-21 2.7133544e-07 4.036734e-06 -7.162819e-06
000140 cc fb d6 2e 40 63 e3 36 6d 62 3a b7 74 f0 05 37
       9.7763214e-11 6.7766814e-06 -1.11093805e-05 7.983403e-06
000150 7b 7a a8 22 1c bf fb b6 b4 87 d0 36 dc 3a 1e b7
       4.5666172e-18 -7.502631e-06 6.214681e-06 -9.431238e-06
000160 74 b1 08 b1 84 fb b9 ab 68 7a 27 37 58 75 73 b7
       -1.9891475e-09 -1.321485e-12 9.982476e-06 -1.451125e-05
000170 d4 63 aa 36 e1 3d c4 25 a4 21 35 37 fe a2 06 b8
       5.0780163e-06 3.404251e-16 1.0796273e-05 -3.2099888e-05
000180 50 24 be 37 39 26 dd 1f 0f 41 95 36 b8 11 73 b7
       2.2666674e-05 9.3660375e-20 4.44812e-06 -1.4488054e-05
000190 cc 9b a9 36 a4 38 a1 2e 71 7a 30 37 23 9a 06 b8
       5.0547296e-06 7.331494e-11 1.0518926e-05 -3.209164e-05
0001a0 a4 12 be 37 e0 fe ce a0 a8 41 8f 35 48 80 73 b7
       2.2658445e-05 -3.506642e-19 1.0673439e-06 -1.45137965e-05
0001b0 ac 79 aa 36 7f f8 fd ad c9 3f 34 37 d4 23 a2 b8
       5.0805593e-06 -2.8873124e-11 1.0743687e-05 -7.7314355e-05
0001c0 6f 5b 8e 38 2a 87 1b a6 d0 ef 6f b7 c0 f0 96 37
       6.7881185e-05 -5.395961e-16 -1.4301346e-05 1.7993501e-05
0001d0 b5 95 5f 3b e4 bb 41 b3 3e 14 89 2b 0d 33 08 3a
       0.0034116332 -4.51072e-08 9.740054e-13 0.00051955954
0001e0 e1 b2 24 3b 58 88 6b 3a 12 6b 51 a7 7b 53 05 3a
       0.0025131034 0.00089848554 -2.906262e-15 0.0005085987
0001f0 58 e2 8b 3a c8 a3 19 3b 1f fb 3d 9f 37 4c ab 39
       0.0010672314 0.0023443568 -4.023003e-20 0.00032672446
000200 09 b0 24 3b b9 93 6b 3a 20 6c 9b af 94 db 0a 3a
       0.002512934 0.0008986551 -2.8271163e-10 0.0005297002
000210 4b e2 8b 3a d0 a3 19 3b ea 37 79 20 8e 71 b0 39
       0.0010672299 0.0023443587 2.1109621e-19 0.0003365394
000220 2d b2 24 3b 2b 8b 6b 3a a3 08 22 b0 2e ea 5f 3a
       0.0025130615 0.0008985276 -5.894753e-10 0.00085416704
000230 ce 76 66 3a 43 f7 25 3b 01 56 e0 24 24 18 e5 39
       0.0008791507 0.0025324381 9.729021e-17 0.0004369627
000240 12 49 4a bb 50 21 ec ba 10 fd 45 32 08 83 41 ac
       -0.0030866307 -0.0018015299 1.1524449e-08 -2.7499687e-12
000250 55 f3 8c b9 ac 5d af ba 04 0d f3 b9 50 78 22 27
       -0.00026884177 -0.0013379357 -0.0004635827 2.2547238e-15
000260 0a 8c 8a b9 48 c0 44 ba c8 c0 89 ba cb eb 25 20
       -0.00026425748 -0.0007505459 -0.0010509724 1.4054061e-19
000270 f7 35 3d b9 96 59 af ba 72 1d f3 b9 57 17 24 30
       -0.00018044548 -0.0013378139 -0.0004637051 5.969602e-10
000280 ff 84 90 b9 28 c0 44 ba d7 c0 89 ba 71 74 69 a1
       -0.0002756491 -0.000750544 -0.0010509741 -7.909758e-19
000290 8c 9d 48 b9 c2 5d af ba f8 0c f3 b9 eb 1a 05 31
       -0.00019132177 -0.0013379382 -0.00046358234 1.9369348e-09
0002a0 db 35 e9 b9 2f 48 3b ba d2 7c 8e ba 36 57 e1 a6
       -0.0004448135 -0.000714424 -0.001087094 -1.563615e-15
0002b0 f0 b7 8b b9 b2 7c d7 3a a8 8b 14 bb 03 aa 0b 33
       -0.0002664919 0.001644036 -0.002266625 3.2518084e-08
0002c0 97 4d 2a ac 95 e9 f5 b9 33 98 bc ba 07 fc 58 ba
       -2.4201524e-12 -0.00046904074 -0.0014388621 -0.0008277301
0002d0 c6 44 3f 27 07 47 f2 b9 be 13 8b ba 77 02 9e ba
       2.6543857e-15 -0.00046210756 -0.0010610742 -0.0012055178
0002e0 77 9a 9a 20 ed fa aa b9 36 93 bc ba 13 06 59 ba
       2.619083e-19 -0.0003261188 -0.0014387134 -0.0008278798
0002f0 5e 35 a6 30 08 5a f0 b9 e4 13 8b ba 50 02 9e ba
       1.2093258e-09 -0.00045843446 -0.0010610786 -0.0012055133
000300 8c 23 94 a1 4d dd aa b9 e9 96 bc ba d7 fe 58 ba
       -1.0038279e-18 -0.0003258981 -0.0014388236 -0.000827772
000310 c8 37 6e 31 7b 78 2b ba e4 bc 5e ba ca b7 b9 ba
       3.4665266e-09 -0.00065410853 -0.0008496775 -0.0014169153
000320 33 13 97 a6 c6 e3 be b9 be f3 02 3b 01 46 60 ba
       -1.0482934e-15 -0.00036409328 0.0019981707 -0.0008555353
000330 2c ee c2 31 21 ae aa ab ff 7d 27 b9 ad d6 1f ba
       5.67322e-09 -1.2127557e-12 -0.00015973298 -0.0006097358
000340 e2 dd 80 b9 20 da 89 26 2b 7c 29 b9 c2 1a dd b9
       -0.00024579378 9.565408e-16 -0.00016163352 -0.0004217234
000350 79 70 e3 b9 b3 c3 04 1f 4c 2f e6 b8 bb d2 1f ba
       -0.00043380613 2.8113966e-20 -0.000109760644 -0.000609677
000360 e0 e5 80 b9 37 65 49 30 49 a0 2d b9 a6 1a dd b9
       -0.00024585333 7.326721e-10 -0.00016558277 -0.0004217226
000370 94 70 e3 b9 c9 c9 bb a0 4a 06 e5 b8 81 d6 1f ba
       -0.0004338069 -3.1812562e-19 -0.00010920742 -0.0006097332
000380 6c de 80 b9 fa f4 cb 30 ff 24 81 b9 e2 d5 f1 b9
       -0.0002457978 1.483982e-09 -0.00024632362 -0.00046126457
000390 62 b5 ce b9 b6 1b 12 a6 c9 cf 00 b9 9c cb 47 3a
       -0.00039426523 -5.069148e-16 -0.00012284437 0.0007621588
0003a0 dd 2c 9b b9 ff c2 c3 31 9e d6 8a ab 32 52 b4 b8
       -0.0002959733 5.6974154e-09 -9.865058e-13 -8.598379e-05
0003b0 e6 ff 11 b9 49 58 24 b9 78 af 09 26 b5 e8 af b8
       -0.00013923607 -0.00015673148 4.776923e-16 -8.387995e-05
0003c0 0a e8 2e b9 28 70 07 b9 b7 21 10 a0 ff 13 82 b8
       -0.00016680374 -0.00012916385 -1.220843e-19 -6.2026076e-05
0003d0 e6 fb 11 b9 46 5c 24 b9 c4 5a af ad c3 54 a7 b8
       -0.00013922117 -0.00015674633 -1.9935505e-11 -7.978969e-05
0003e0 ea e4 2e b9 47 73 07 b9 9f d8 ca 1e 7c b9 7b b8
       -0.0001667921 -0.00012917547 2.1477174e-20 -6.001581e-05
0003f0 cc ff 11 b9 51 58 24 b9 b0 28 90 af 82 22 d5 b8
       -0.0001392357 -0.00015673159 -2.6222358e-10 -0.00010163059
