results/Racing_Imitation1/Driver/Driver-100992.onnx (onnx, 88644 bytes, 9 tensors)

discrete_act_size_vector f4 [1, 2]
3.0 3.0
00000000: 0000 4040 0000 4040

network_body._body_endoder.seq_layers.0.weight f4 [128, 29]
-0.025138563 0.04306065 -0.06596112 0.097486265 0.28139693 0.2361261 -0.22312231 -0.27152723
0.08576942 0.018436195 -0.048523918 -0.15806504 -0.115356654 -0.09754645 0.15333883 -0.1902148
0.20080668 -0.047236443 0.03481527 0.33993357 0.2189986 0.1354969 0.04129052 -0.26636642
-0.117588736 0.14122236 -0.0744251 -0.28298363 -0.643976 -0.22970337 0.20983483 -0.25328153
0.1554061 -0.23767847 -0.055098027 -0.35381183 0.17310308 -0.2669459 -0.09512338 -0.5890158
0.49795946 -0.13633661 -0.09986053 0.16553338 0.263557 -0.029648399 -0.1930063 0.16548236
-0.060018487 0.01961021 0.11338626 -0.3627111 0.28354764 -0.0534764 -0.17810842 0.14098285
0.029828958 -0.31422636 -0.80833125 -0.13692941 0.056215264 0.2893471 -0.8835741 0.10531038
-0.4272653 0.31324205 -0.3154035 0.43096703 -0.1319013 0.26085213 -0.016542193 -0.33404252
0.036921896 0.20486124 0.002634189 -0.2557853 -0.1726639 -0.035324045 0.07424195 0.0840842
0.07556638 0.17580737 0.19699802 -0.17401537 0.18363719 -0.5187566 -0.58756274 0.30749366
-0.05007752 0.24381201 0.034137476 -0.47592667 0.13445698 -0.36416495 0.10491506 -0.011103578
-0.14839451 -0.031673763 0.44592452 -0.3286768 0.092500694 -0.2692894 -0.20268792 -0.2624357
-0.017428642 -0.0144483065 -0.0171312 -0.1602433 0.19017477 -0.5763217 0.11866588 0.13330065
0.06425599 0.004783503 -0.31813452 0.34941408 -0.224609 0.26339194 -0.23488306 -0.038775545
-0.1001701 -0.030285148 0.2388913 0.120587654 0.062005084 0.27171507 0.14964746 0.12610699
0.4002779 0.09176742 -0.26704085 0.29388824 0.22521313 -0.2789347 -0.07465864 0.09555462
-0.020413077 0.32288176 0.12308324 0.039526112 0.12103289 -0.09943874 -0.2590617 0.100063115
0.042574655 0.16813499 0.22574122 -0.027979935 -0.062181763 -0.14495425 -0.046931423 0.19843504
0.1577038 -0.12837096 0.20488955 -0.022781547 0.053586267 0.1262928 0.34720653 0.06935984
-0.18659262 -0.18411566 -0.33031818 -0.094501406 0.15044452 0.35130545 0.42610136 -0.20778517
-0.09500276 -0.05434473 -0.16347283 0.032741573 0.5092691 0.709216 -0.24247251 -0.031233478
-0.19107382 0.006433555 0.14390466 -0.10116109 0.40745643 0.13406016 -0.05751312 0.20469034
0.22023897 0.10148466 -0.13462578 -0.18384595 0.06756985 -0.082451604 -0.026311483 0.24707265
0.42301032 0.26319715 0.044341456 -0.00057981873 0.21263511 -0.18415372 0.11409741 -0.08623476
-0.04147292 0.5530861 -0.10551114 0.29188576 -0.11115228 0.14915536 0.18626505 0.46712506
-0.020937385 -0.47294155 -0.19318956 0.36174074 -0.21688336 -0.060929753 -0.2453287 0.050016835
-0.25663322 0.4362891 -0.33630165 0.056680486 0.336374 -0.09934939 0.08508323 0.11785976
-0.029563507 0.2536896 0.18028882 -0.4297445 0.25726148 -0.28781414 0.08245369 -0.1190108
0.33886516 -0.38691238 0.063599356 0.109819755 0.6275375 -0.017287714 -0.29991692 -0.1809736
0.3299354 0.029253194 0.063799456 -0.24323045 0.17649908 0.001953786 0.15488665 0.2273839
-0.1065409 0.18630697 -0.36882213 -0.057092745 -0.39183125 -0.04289451 0.19511904 0.27902558
00000000: 63ef cdbc 5d60 303d a016 87bd e1a6 c73d
00000010: 4213 903e 0acb 713e 2d7a 64be 9e05 8bbe
00000020: e1a7 af3d 8107 973c 04c1 46bd cddb 21be
00000030: 1c40 ecbd 6fc6 c7bd db04 1d3e abc7 42be
00000040: 44a0 4d3e 007b 41bd 759a 0e3d c60b ae3e
00000050: 2b41 603e b3bf 0a3e 4020 293d 2e61 88be
00000060: 5dd2 f0bd 989c 103e 306c 98bd 3be3 90be
00000070: 9cdb 24bf 5c37 6bbe f1de 563e 1eae 81be
00000080: c722 1f3e fc61 73be 78ae 61bd d326 b5be
00000090: ef41 313e 22ad 88be 0cd0 c2bd bdc9 16bf
000000a0: 8bf4 fe3e d39b 0bbe ad83 ccbd 9581 293e
000000b0: f1f0 863e 33e1 f2bc 72a3 45be 3574 293e
000000c0: f2d5 75bd 97a5 a03c 0e37 e83d 45b5 b9be
000000d0: 282d 913e 120a 5bbd 0e62 36be cf5d 103e
000000e0: dc5b f43c 47e2 a0be ccee 4ebf 3937 0cbe
000000f0: fa41 663d 4e25 943e ea31 62bf f8ac d73d
00000100: 84c2 dabe 4361 a03e 917c a1be b6a7 dc3e
00000110: 2211 07be 698e 853e 7e83 87bc 9f07 abbe
00000120: 6a3b 173d 25c7 513e 5ca2 2c3b 4af6 82be
00000130: cece 30be f2af 10bd 2a0c 983d 5634 ac3d
00000140: 8cc2 9a3d d906 343e d9b9 493e 1631 32be
00000150: 630b 3c3e 3ccd 04bf 836a 16bf cf6f 9d3e
00000160: 161e 4dbd dba9 793e bdd3 0b3d a9ac f3be
00000170: 17af 093e d473 babe b5dd d63d c8eb 35bc
00000180: bbf4 17be 59bc 01bd 3850 e43e 5348 a8be
00000190: 0171 bd3d 4de0 89be 6c8d 4fbe f95d 86be
000001a0: 83c6 8ebc 97b8 6cbc bb56 8cbc d216 24be
000001b0: 2dbd 423e d289 13bf 1907 f33d f77f 083e
000001c0: a598 833d eebe 9c3b 87e2 a2be 67e6 b23e
000001d0: e7ff 65be 4fdb 863e 2f85 70be 1bd3 1ebd
000001e0: fb25 cdbd 8f18 f8bc ec9f 743e a9f6 f63d
000001f0: 0bf9 7d3d 3d1e 8b3e 2f3d 193e 3122 013e
00000200: 3af1 cc3e 8ff0 bb3d 94b9 88be 8578 963e
00000210: 459e 663e 87d0 8ebe a1e6 98bd 24b2 c33d
00000220: 5339 a7bc c250 a53e 1113 fc3d 22e6 213d
00000230: 18e0 f73d 8aa6 cbbd bca3 84be e4ed cc3d
00000240: c362 2e3d 942b 2c3e b528 673e 2d36 e5bc
00000250: 4eb2 7ebd e36e 14be 2a3b 40bd 8e32 4b3e
00000260: 1b7d 213e ad73 03be 91ce 513e 5ea0 babc
00000270: 467d 5b3d e652 013e 0ec5 b13e 880c 8e3d
00000280: 2312 3fbe d188 3cbe 771f a9be f489 c1bd
00000290: 210e 1a3e 4fde b33e f529 da3e a3c5 54be
000002a0: cf90 c2bd 9498 5ebd 6c65 27be 071c 063d
000002b0: 765f 023f 2e8f 353f b74a 78be 5add ffbc
000002c0: dba8 43be 92d0 d23b be5b 133e 8c2d cfbd
000002d0: 219e d03e 1147 093e e192 6bbd 589a 513e
000002e0: 5386 613e 30d7 cf3d 57db 09be 1d42 3cbe
000002f0: 1062 8a3d 63dc a8bd 2e8b d7bc 9d00 7d3e
00000300: cf94 d83e c7c1 863e 639f 353d fafe 17ba
00000310: 05bd 593e cb92 3cbe e7ab e93d da9b b0bd
00000320: 82df 29bd 0d97 0d3f 3916 d8bd 0d72 953e
00000330: cea3 e3bd 2fbc 183e 44bc 3e3e 042b ef3e
00000340: e184 abbc 6525 f2be 7cd3 45be 1536 b93e
00000350: ac16 5ebe 7a91 79bd 7237 7bbe 74de 4c3d
00000360: 6e65 83be 4961 df3e bb2f acbe cc29 683d
00000370: 3739 ac3e b177 cbbd 1e40 ae3d 7560 f13d
00000380: 2b2f f2bc 9ae3 813e a29d 383e 7907 dcbe
00000390: c7b7 833e 605c 93be 7bdd a83d efbb f3bd
000003a0: bc7f ad3e 6119 c6be 6140 823d 2ee9 e03d
000003b0: 4ca6 203f f79e 8dbc b68e 99be 2551 39be
000003c0: 4bed a83e 65a4 ef3c 4aa9 823d 6711 79be
000003d0: 2dbc 343e 170b 003b 9b9a 1e3e 53d7 683e
000003e0: 1e32 dabd 41c7 3e3e 41d6 bcbe 15da 69bd
000003f0: 1b9e c8be 27b2 2fbd 49cd 473e 71dc 8e3e

network_body._body_endoder.seq_layers.0.bias f4 [128]
0.122251935 0.0031500247 0.11137695 -0.002595474 0.006361064 0.057819456 0.04445702 0.14277144
0.0686445 0.025621299 0.06257739 0.054004036 0.059490282 0.0372444 0.11108948 0.06857
-0.033020537 0.10042311 0.041739907 0.05205275 0.09747743 0.05348755 0.036810774 0.035442736
-0.002382707 0.08433278 -0.024166599 0.1282047 0.046062928 0.02768854 0.038802717 0.019280532
0.032284606 0.096779406 0.0070729917 0.035900757 0.1271208 0.053005777 0.06423964 0.011927614
0.053165596 0.023376027 0.051078156 0.032754797 0.027848061 0.04182094 0.025681445 0.027212316
0.054956228 0.070185825 0.025000717 0.11976811 0.04914515 0.0401686 0.034619592 0.021914138
0.067798235 0.029623533 0.03223957 0.04515749 0.1090013 0.077834964 0.007478386 -0.004991486
0.045848683 0.031153508 0.048607588 0.06465492 0.010132663 0.078704186 0.09663983 0.033109
0.029309442 0.13182314 0.044828642 0.05994769 0.03562783 0.0439672 -0.019219996 0.049074184
0.07257887 -0.013972763 0.072867826 0.1408121 0.056329694 0.0546382 0.04037354 0.11546806
0.04678039 0.058790844 0.04027762 0.005016202 0.053171255 0.06057093 0.019475143 -0.0073488797
0.058118593 0.017605145 0.040170554 0.047457602 0.07999063 0.05103344 0.043870077 0.041217245
0.0944883 0.046461917 0.020326389 0.11599232 0.021751292 0.038765684 0.05727261 0.04243986
0.04175467 0.0133243995 0.03605033 0.048284296 0.024421548 0.018836478 0.13317093 0.03700367
0.058249407 0.10593124 0.051760253 0.08220614 0.08201469 0.0090449415 0.040905237 0.044085868
00000000: 395f fa3d a570 4e3b 9919 e43d d418 2abb
00000010: 7970 d03b 18d4 6c3d 9018 363d ad32 123e
00000020: 7d95 8c3d c2e3 d13c 9328 803d 5633 5d3d
00000030: 15ac 733d 958d 183d e282 e33d 6e6e 8c3d
00000040: 8b40 07bd a2aa cd3d 77f7 2a3d 4435 553d
00000050: 3fa2 c73d c315 5b3d e5c6 163d 672c 113d
00000060: 3127 1cbb aab6 ac3d 08f9 c5bc 1848 033e
00000070: 7bac 3c3d 14d3 e23c 99ef 1e3d 35f2 9d3c
00000080: dd3c 043d 4834 c63d 8ec4 e73b ac0c 133d
00000090: f42b 023e 961c 593d 1390 833d 0a6c 433c
000000a0: 2bc4 593d 157f bf3c 5437 513d e529 063d
000000b0: 9e21 e43c 6f4c 2b3d e561 d23c 5dec de3c
000000c0: c819 613d 96bd 8f3d 4ece cc3c fc48 f53d
000000d0: 6d4c 493d d487 243d 46cd 0d3d 4785 b33c
000000e0: cdd9 8a3d 0dad f23c a40d 043d 0ff7 383d
000000f0: 133c df3d f067 9f3d 400d f53b 9f8f a3bb
00000100: d4cb 3b3d a435 ff3c c018 473d cc69 843d
00000110: 7803 263c a92f a13d 1aeb c53d 4e9d 073d
00000120: 5b1a f03c a5fc 063e 3d9e 373d b68b 753d
00000130: 7dee 113d f316 343d 4173 9dbc 0302 493d
00000140: 3ba4 943d 04ee 64bc ba3b 953d 0c31 103e
00000150: f7b9 663d 4ecc 5f3d ba5e 253d 857a ec3d
00000160: cb9c 3f3d abce 703d 25fa 243d f45e a43b
00000170: 1aca 593d 3919 783d 568a 9f3c dfce f0bb
00000180: c30d 6e3d aa38 903c e189 243d e762 423d
00000190: 21d2 a33d 7108 513d 1cb1 333d 6ad3 283d
000001a0: 1583 c13d da4e 3e3d 8783 a63c 628d ed3d
000001b0: c42f b23c c4c8 1e3d af96 6a3d 6bd5 2d3d
000001c0: f206 2b3d 954e 5a3c 83a9 133d c1c5 453d
000001d0: b30f c83c f54e 9a3c f65d 083e 2991 173d
000001e0: ee96 6e3d 7af2 d83d 8f02 543d b15b a83d
000001f0: 51f7 a73d 3c31 143c 408c 273d 6293 343d

network_body._body_endoder.seq_layers.2.weight f4 [128, 128]
0.11955277 0.0044802935 -0.06447449 -0.07789942 -0.10096892 -0.16417038 0.10887831 0.19416894
0.22441648 0.08370852 0.20133464 0.02725547 0.107637 0.007393101 -0.002494194 -0.04039684
0.00651998 -0.13560061 -0.062252983 0.12741475 0.059238084 -0.05266047 0.11510661 -0.11999659
0.04840059 0.016434098 -0.08664488 0.17238803 -0.026338305 0.025755879 -0.03959762 0.12275947
0.0704067 -0.12592648 0.06545961 -0.12031265 -0.253897 0.013848584 -0.047115058 -0.050915297
-0.140262 0.20560746 -0.054295503 0.23272893 -0.087319314 -0.02776317 0.120635316 -0.09185165
-0.022697525 0.010598049 -0.14497505 -0.11538712 -0.03320727 0.20034096 0.0179124 -0.1698173
0.22940296 0.1685454 0.0022014827 0.0552831 0.17244801 -0.18841308 0.09049452 0.10421915
0.087621085 0.11574217 -0.16369805 -0.21424963 -0.25296265 0.061668515 -0.038546786 -0.023710588
-0.00044622453 0.12493276 0.060112543 0.091461 0.0358608 -0.055275373 0.08306224 0.023488965
0.008972197 -0.096546605 -0.08356624 0.24206918 0.0035361347 0.047981396 -0.09021534 0.14655615
-0.08434667 -0.056192406 -0.06848645 -0.051347487 -0.027019009 -0.1353662 -0.04423851 -0.06700826
0.2300839 0.054017793 -0.021695761 -0.050777234 0.13330255 -0.05258894 0.09213434 -0.057847146
-0.07555049 -0.095750935 -0.008696612 -0.09951409 -0.0417311 -0.11540231 0.010313335 -0.13726008
0.10830514 0.11037016 -0.058846574 0.021705123 -0.020303724 -0.06808359 0.1778089 0.26017243
-0.07751902 0.08970061 -0.15639047 -0.042516015 -0.068891905 -0.010452608 0.018925296 -0.3241271
-0.21879667 -0.08479074 -0.22193855 0.025674872 0.13446127 0.35093057 0.044757564 -0.19123442
-0.042744845 0.08531353 -0.36925638 -0.12696654 -0.009675746 -0.14362839 -0.17780137 0.17476298
0.040285673 0.052806694 0.093390755 0.08081414 -0.35511804 0.24000928 0.09992581 0.21703048
-0.031527553 -0.03673044 -0.09030371 -0.0765947 0.1260656 0.0053375955 -0.008682405 0.034452263
0.016923947 0.022152124 -0.00929929 0.07614871 -0.23326668 0.049690146 0.16707334 0.10983537
0.22131029 -0.021868031 -0.15178183 0.03605847 -0.110356115 0.06999587 -0.05412574 0.11008788
0.07664392 0.22587161 0.20982875 -0.033386156 0.23952138 0.14547922 -0.06358958 -0.08523606
-0.41997555 0.10362818 0.13681448 0.08786278 -0.33786488 0.068084076 0.047811553 -0.009916017
-0.07732481 -0.036498625 0.3865821 0.09263304 -0.43253574 -0.08364602 0.037248887 0.0377369
-0.004995407 -0.06350511 0.24489775 -0.18016046 0.07686316 -0.07699999 0.07854157 -0.019112086
0.102927 -0.09386275 0.38642147 -0.29273698 0.21096048 -0.106081165 0.075866 -0.22215419
0.27859902 -0.24622698 0.14089201 0.00812964 -0.15822203 -0.0247597 0.006949197 0.03610614
0.13262749 0.10809961 -0.26912665 -0.081697986 0.23125784 0.13146074 0.061577424 -0.058923487
-0.027438784 -0.082824826 0.14172451 -0.10221922 0.019826297 -0.006485561 -0.041556228 0.11801778
-0.4784186 0.011789531 0.35029578 0.036305618 0.0063365246 0.04343101 -0.18666787 -0.1504189
0.08595779 -0.13164873 -0.0030722935 -0.14209981 0.094947524 0.19137034 0.12581931 0.17724888
00000000: 15d8 f43d 6dcf 923b 340b 84bd bb89 9fbd
00000010: cbc8 cebd 481c 28be 97fb de3d 39d4 463e
00000020: 6fcd 653e 5f6f ab3d ab2a 4e3e dd46 df3c
00000030: ca70 dc3d d441 f23b a275 23bb 2877 25bd
00000040: 8ea5 d53b e3da 0abe fcfc 7ebd 0379 023e
00000050: a2a3 723d 81b2 57bd 04bd eb3d c6c0 f5bd
00000060: b23f 463d cda0 863c df72 b1bd 7d86 303e
00000070: 6ec3 d7bc fefd d23c 1d31 22bd 5169 fb3d
00000080: 6331 903d dff2 00be b00f 863d 7b66 f6bd
00000090: cafe 81be 2ce5 623c b8fb 40bd 8f8c 50bd
000000a0: d7a0 0fbe c38a 523e f664 5ebd 7e50 6e3e
000000b0: 78d4 b2bd 966f e3bc a60f f73d b81c bcbd
000000c0: 29f0 b9bc 70a3 2d3c 5774 14be 1550 ecbd
000000d0: 5904 08bd 2e26 4d3e 07bd 923c 96e4 2dbe
000000e0: 9ce8 6a3e 2a97 2c3e c046 103b 8870 623d
000000f0: 3696 303e 5cef 40be 3155 b93d da70 d53d
00000100: af72 b33d 3b0a ed3d 76a0 27be 4164 5bbe
00000110: 5284 81be 2098 7c3d 3ce3 1dbd b53c c2bc
00000120: 3ef3 e9b9 bfdc ff3d 9238 763d e84f bb3d
00000130: c6e2 123d 6e68 62bd 891c aa3d ee6b c03c
00000140: 1f00 133c 3aba c5bd c724 abbd fce0 773e
00000150: 7fbe 673b 2488 443d d2c2 b8bd d112 163e
00000160: f2bd acbd 022a 66bd a042 8cbd be51 52bd
00000170: f856 ddbc 709d 0abe 7133 35bd a03b 89bd
00000180: 1d9b 6b3e c341 5d3d 4fbb b1bc cafb 4fbd
00000190: 7780 083e 8067 57bd eeb0 bc3d 21f1 6cbd
000001a0: 37ba 9abd 1119 c4bd 3c7c 0ebc 0bce cbbd
000001b0: 3bee 2abd 0c58 ecbd 43f9 283c e88d 0cbe
000001c0: 16cf dd3d c009 e23d 1b09 71bd f1ce b13c
000001d0: ff53 a6bc 696f 8bbd 8913 363e 5235 853e
000001e0: 4bc2 9ebd f4b4 b73d d324 20be 4625 2ebd
000001f0: 3317 8dbd 6a41 2bbc 3909 9b3c fdf3 a5be
00000200: 3c0c 60be c4a6 adbd dc43 63be 1c54 d23c
00000210: 37b0 093e 2cad b33e b553 373d f5d2 43be
00000220: 3815 2fbd dcb8 ae3d 2c0f bdbe 8403 02be
00000230: 0587 1ebc 5213 13be 9011 36be 11f5 323e
00000240: 9702 253d d54b 583d a743 bf3d e281 a53d
00000250: 08d2 b5be fec4 753e e7a5 cc3d 3d3d 5e3e
00000260: 0923 01bd a872 16bd 27f1 b8bd afdd 9cbd
00000270: 5717 013e ffe6 ae3b a540 0ebc d11d 0d3d
00000280: 17a4 8a3c 5f78 b53c 0d5c 18bc dbf3 9b3d
00000290: 76dd 6ebe e587 4b3d 4615 2b3e 5ef1 e03d
000002a0: 2a9f 623e 9624 b3bc b26c 1bbe 0cb2 133d
000002b0: 6302 e2bd ff59 8f3d f4b2 5dbd c175 e13d
000002c0: 7df7 9c3d e34a 673e 59dd 563e ecbf 08bd
000002d0: 1845 753e 81f8 143e 413b 82bd 3e90 aebd
000002e0: 0907 d7be 033b d43d 1819 0c3e 67f1 b33d
000002f0: a0fc acbe aa6f 8b3d 0cd6 433d ca76 22bc
00000300: 785c 9ebd 957f 15bd 17ee c53e 64b6 bd3d
00000310: 5375 ddbe 9b4e abbd 4a92 183d 0292 1a3d
00000320: 83b0 a3bb f80e 82bd 7ac6 7a3e fc7b 38be
00000330: 6f6a 9d3d 2cb2 9dbd 67da a03d f390 9cbc
00000340: 64cb d23d 1d3b c0bd 09d9 c53e 9fe1 95be
00000350: 0606 583e 1541 d9bd a25f 9b3d 637c 63be
00000360: 88a4 8e3e ed22 7cbe ff45 103e 2e32 053c
00000370: f504 22be dbd4 cabc 17b6 e33b 08e4 133d
00000380: 80cf 073e 5463 dd3d f8ca 89be 4651 a7bd
00000390: dbce 6c3e a59d 063e 9c38 7c3d c159 71bd
000003a0: 4dc7 e0bc 10a0 a9bd 3b20 113e 4f58 d1bd
000003b0: c26a a23c d484 d4bb dd36 2abd 4eb3 f13d
000003c0: 48f3 f4be e128 413c f859 b33e 33b5 143d
000003d0: 9fa2 cf3b b7e4 313d dd25 3fbe 6a07 1abe
000003e0: a30a b03d edce 06be 8858 49bb 9d82 11be
000003f0: d973 c23d 96f6 433e c7d6 003e bb80 353e

network_body._body_endoder.seq_layers.2.bias f4 [128]
0.030124318 0.019817386 -0.010199283 0.042696133 -0.0013415552 0.027971799 0.041343547 0.02061184
0.015480559 -0.0072279037 0.0065975 0.01832496 0.019416956 0.033296376 0.024917003 0.009274037
0.013902987 0.013648691 -0.03533841 -0.00400357 0.034372758 -0.013777049 -0.013290401 0.012174371
0.0131251905 0.03476927 -0.029977964 0.026617942 0.012567229 0.005905555 0.020925488 0.028616099
0.028681133 0.039614134 -0.013498354 0.013271139 0.01353752 0.024514135 0.0040033762 0.042991463
0.013816353 0.030209703 0.028352868 0.016450366 -0.033863828 -0.016022393 0.007392056 0.01825925
0.023905331 0.018160691 0.015813397 -0.026436487 0.03808264 0.026474306 0.034053147 -0.023729702
0.025086997 0.021592677 -0.034215476 0.008669724 0.03374499 -0.039018724 -0.03887336 -0.019381383
0.029422602 0.037962187 0.023056824 0.035643075 0.024642268 0.017863814 0.0163772 0.016262244
0.017451802 0.0030715463 0.05980234 0.010746526 0.02850865 -0.023900751 0.00521247 0.0057063354
0.042785298 -0.027244583 0.0692773 -0.064208314 -0.0010830837 0.035291597 0.019745305 0.013998653
-0.0009668741 0.020434922 0.015379746 -0.041576944 0.018350728 0.052501526 0.037621237 0.00094344217
-0.035590883 0.0070794676 -0.056331336 0.005323148 0.030414827 0.037190456 0.01837268 -0.02743394
-0.014815667 0.008512245 0.024627594 0.025432428 0.0157163 0.009334166 0.066847734 0.030413503
0.0007810165 -0.027186587 0.030222414 0.016954605 0.024525082 0.022434957 -0.050336678 0.007107968
0.018009938 0.019853339 -0.016163686 0.02074194 0.014025851 0.025591834 0.004143527 -0.013468556
00000000: 46c7 f63c 1258 a23c e51a 27bc 24e2 2e3d
00000010: 1fd7 afba 1d25 e53c da57 293d 29da a83c
00000020: 2ca2 7d3c 0dd8 ecbb d72f d83b 3a1e 963c
00000030: 4f10 9f3c c861 083d be1e cc3c 21f2 173c
00000040: 5bc9 633c c29e 5f3c 02bf 10bd 6130 83bb
00000050: 73ca 0c3d 22b9 61bc fbbf 59bc 0377 473c
00000060: 0a0b 573c 396a 0e3d 5994 f5bc df0d da3c
00000070: c7e6 4d3c 6383 c13b ee6b ab3c 4f6c ea3c
00000080: b2f4 ea3c 6e42 223d 3328 5dbc 316f 593c
00000090: 79cc 5d3c ded1 c83c c12e 833b d117 303d
000000a0: fc5d 623c 577a f73c 4644 e83c ebc2 863c
000000b0: ccb4 0abd 6541 83bc 0f39 f23b 6c94 953c
000000c0: 1dd5 c33c bbc5 943c 198b 813c 5591 d8bc
000000d0: 8bfc 1b3d a5e0 d83c 507b 0b3d cb64 c2bc
000000e0: 3f83 cd3c 20e3 b03c 8725 0cbd 750b 0e3c
000000f0: 3038 0a3d 19d2 1fbd ac39 1fbd b5c5 9ebc
00000100: ab07 f13c 3d7e 1b3d aae1 bc3c 79fe 113d
00000110: 95de c93c 2257 923c 7a29 863c 6638 853c
00000120: 15f7 8e3c ff4b 493b 4cf3 743d 3212 303c
00000130: f98a e93c 82cb c3bc 5ecd aa3b 36fc ba3b
00000140: a33f 2f3d 0830 dfbc 42e1 8d3d a67f 83bd
00000150: 42f6 8dba ec8d 103d e8c0 a13c 9b5a 653c
00000160: d375 7dba 2367 a73c 55fb 7b3c 964c 2abd
00000170: 4454 963c d70b 573d ba18 1a3d 5551 773a
00000180: bfc7 11bd e1fa e73b b0bb 66bd cd6d ae3b
00000190: 8428 f93c 0555 183d 4d82 963c 24bd e0bc
000001a0: 69bd 72bc f176 0b3c cfbf c93c ab57 d03c
000001b0: 78bf 803c 54ee 183c 77e7 883d bd25 f93c
000001c0: 21bd 4c3a 68b6 debc ff94 f73c 62e4 8a3c
000001d0: d3e8 c83c 84c9 b73c d52d 4ebd f5e9 e83b
000001e0: 9489 933c 78a3 a23c b569 84bc 00eb a93c
000001f0: afcc 653c f7a5 d13c 6cc6 873b 38ab 5cbc

action_model._discrete_distribution.branches.0.weight f4 [3, 128]
0.0009011277 0.035935882 -0.07567686 0.00041967683 0.06555824 -0.0042565786 0.082273565 -0.0145042585
0.015578989 -0.1470439 -0.1558848 -0.054389887 -0.0142048905 -0.046932045 -0.0071554324 0.06343356
-0.04608243 0.07924841 -0.08690169 0.060346097 0.05048329 -0.17295289 -0.11645564 -0.09704267
0.25203234 0.0041309353 -0.07842508 -0.06038523 0.20308964 0.12471752 0.09344214 -0.057281785
-0.0013364579 -0.01510721 0.09405348 -0.044196207 -0.02759922 -0.080788374 0.11668922 0.09843253
0.20403299 -0.105640486 -0.014131705 -0.11190361 -0.09341582 -0.03766928 0.036015894 -0.07548533
-0.008964732 0.01992506 0.037062578 0.24154924 -0.018620733 -0.0044764145 -0.025332497 0.044723492
-0.030471602 -0.0040416974 -0.12538075 0.047087718 0.03503598 -0.017351469 -0.036453642 -0.059082493
-0.015363287 0.017165408 -0.052951496 0.044998158 -0.010806279 -0.073525436 0.17930537 0.042838555
0.032321483 0.07075896 0.09805944 0.037157543 -0.026762776 0.008403375 0.21220566 0.12097609
0.34347668 -0.084430546 -0.008154106 -0.14167282 0.095395215 0.33408883 0.0107389605 -0.013908213
0.030853849 0.06318152 0.006668673 -0.1262285 0.0029795265 -0.026028045 -0.061296396 0.17446966
-0.12348641 -0.02234377 -0.004713631 0.030832686 -0.059486765 0.3331397 -0.04820835 0.024986664
0.10416923 -0.019250631 0.004171219 0.041400436 -0.041180447 0.09863582 0.04303026 0.030157525
0.012807724 -0.0072026774 -0.016655026 -0.02951964 0.0010302179 0.01829564 -0.061399046 0.0053541837
0.008995993 -0.023041304 -0.11027503 0.021815477 -0.011316985 -0.061935868 0.00015122553 0.0056083295
0.04183703 0.013355323 0.040957306 0.039143737 -0.061368152 0.04434343 -0.045796063 0.031993575
0.021074884 0.083802 0.042653404 0.049844604 0.02911873 0.067621484 0.014071474 0.021882687
0.032979127 -0.17265248 -0.01402135 -0.011100349 -0.0030641148 0.055203535 0.023422299 0.05995708
-0.27794987 0.024624048 0.0714241 0.09075499 -0.113645904 -0.08302969 -0.009669956 0.06697599
0.023457278 0.06389179 -0.09357129 -0.014614839 0.03523965 0.066836216 -0.08080041 -0.0051010344
-0.11362947 0.094288126 0.08070046 0.04451671 -0.0823016 -0.023937358 -0.004028753 -0.046811175
0.04034341 0.015424756 -0.1411477 -0.15553147 0.06852742 0.040534306 0.03568881 -0.10977203
0.043535493 0.06198923 0.078156844 -0.0020858652 0.020348862 -0.08400921 0.01395322 -0.028755482
0.057261728 -0.09518145 0.039973587 0.051544767 0.029249921 -0.019701758 -0.11117648 0.006906305
-0.12024161 -0.13823405 -0.036550105 -0.016195033 0.058908414 -0.06499242 -0.090168744 -0.12520865
-0.27295154 -0.0528398 0.046548955 0.008627412 -0.055757735 -0.307335 0.05629921 0.034622595
-0.009717943 0.032737587 0.015481322 -0.07839993 0.01902895 0.018904649 0.0869984 -0.21260266
-0.077893615 0.05252386 -0.05692297 0.041864794 0.06551173 -0.33727732 0.033311106 -0.08888921
-0.07321214 0.053152 0.016269412 0.02111116 0.063202575 -0.0803435 0.017551396 0.039617643
0.043428108 0.006330415 0.029835751 0.038689997 0.04047107 0.027493624 -0.09909564 -0.114184074
0.016685935 0.032921378 0.050914586 0.018970026 0.040980488 0.06252104 0.0606472 -0.0486623
00000000: a839 6c3a 8131 133d 78fc 9abd 1208 dc39
00000010: 6643 863d c57a 8bbb 0b7f a83d 45a3 6dbc
00000020: 043f 7f3c ad92 16be 44a0 1fbe eec7 5ebd
00000030: a1bb 68bc d13b 40bd 1e78 eabb 74e9 813d
00000040: eec0 3cbd fe4c a23d 83f9 b1bd 782d 773d
00000050: 91c7 4e3d 901a 31be 4b80 eebd 4fbe c6bd
00000060: 620a 813e cc5c 873b 549d a0bd 8156 77bd
00000070: bbf6 4f3e e66b ff3d 985e bf3d 4ea0 6abd
00000080: 162c afba 3b84 77bc 1c9f c03d 1507 35bd
00000090: c217 e2bc 6074 a5bd c2fa ee3d ff96 c93d
000000a0: 06ee 503e 0a5a d8bd ab88 67bc b82d e5bd
000000b0: cb50 bfbd 1a4b 1abd 6785 133d 0d98 9abd
000000c0: d0e0 12bc e139 a33c eece 173d af58 773e
000000d0: 828a 98bc e3ae 92bb 1986 cfbc fb2f 373d
000000e0: 959f f9bc 3770 84bb d063 00be 0ddf 403d
000000f0: e381 0f3d ab24 8ebc 6a50 15bd 7c00 72bd
00000100: 4cb6 7bbc 789e 8c3c abe3 58bd fd4f 383d
00000110: d20c 31bc 8194 96bd d49b 373e 7b77 2f3d
00000120: 8863 043d 13ea 903d 63d3 c83d 8232 183d
00000130: 9c3d dbbc 4fae 093c 714c 593e 50c2 f73d
00000140: 2ddc af3e ece9 acbd cd98 05bc ae12 11be
00000150: 915e c33d b10d ab3e 77f2 2f3c 46df 63bc
00000160: 36c1 fc3c 5065 813d e284 da3b 0b42 01be
00000170: 2944 433b c438 d5bc ee11 7bbd 2da8 323e
00000180: 71e6 fcbd 480a b7bc cd74 9abb d494 fc3c
00000190: 65a8 73bd 4991 aa3e 1e76 45bd d5b0 cc3c
000001a0: ad56 d53d 80b3 9dbc b9ae 883b 8193 293d
000001b0: d4ac 28bd 9401 ca3d 7f40 303d ea0c f73c
000001c0: 7dd7 513c 7004 ecbb 1f70 88bc 2cd3 f1bc
000001d0: 6008 873a bde0 953c 917d 7bbd 2672 af3b
000001e0: ee63 133c 1ec1 bcbc e0d7 e1bd 5fb6 b23c
000001f0: e06a 39bc 77b0 7dbd 4b92 1e39 14c6 b73b
00000200: 4e5d 2b3d 49d0 5a3c d9c2 273d 2f55 203d
00000210: 2c5d 7bbd 75a1 353d a794 3bbd b20b 033d
00000220: 3ca5 ac3c 62a0 ab3d 56b5 2e3d db29 4c3d
00000230: 678a ee3c 227d 8a3d 0a8c 663c 5243 b33c
00000240: 1f15 073d d0cb 30be ceb9 65bc 3dde 35bc
00000250: 51cf 48bb 1a1d 623d 1fe0 bf3c 8e95 753d
00000260: 724f 8ebe 5fb8 c93c cc46 923d c1dd b93d
00000270: 2fbf e8bd 780b aabd bc6e 1ebc b52a 893d
00000280: 7a29 c03c b3d9 823d 4ea2 bfbd 1473 6fbc
00000290: 7457 103d 6de1 883d af7a a5bd 9426 a7bb
000002a0: 91b6 e8bd 221a c13d 4846 a53d 2757 363d
000002b0: be8d a8bd 4718 c4bc a103 84bb 13bd 3fbd
000002c0: 223f 253d 1eb8 7c3c 0689 10be a443 1fbe
000002d0: 1b58 8c3d 4d07 263d 6e2e 123d 28d0 e0bd
000002e0: 4652 323d 6be8 7d3d b210 a03d 03b3 08bb
000002f0: a8b2 a63c 050d acbd 0c9c 643c 9e90 ebbc
00000300: 468b 6a3d 7eee c2bd 58bb 233d 9b20 533d
00000310: 889d ef3c 9565 a1bc 7fb0 e3bd 494e e23b
00000320: 3c41 f6bd 3a8d 0dbe 90b5 15bd 72ab 84bc
00000330: f349 713d bf1a 85bd 64aa b8bd b236 00be
00000340: 4ec0 8bbe 8c6e 58bd 1eaa 3e3d fd59 0d3c
00000350: 3962 64bd 035b 9dbe 009a 663d 6cd0 0d3d
00000360: 0238 1fbc d917 063d 5fa5 7d3c 2490 a0bd
00000370: 9ae2 9b3c ecdd 9a3c 382c b23d 83b4 59be
00000380: b086 9fbd 4223 573d 0f28 69bd 6b7a 2b3d
00000390: 042b 863d 9daf acbe 3a71 083d 8c0b b6bd
000003a0: 3ff0 95bd e9b5 593d 6e47 853c 50f1 ac3c
000003b0: 5a70 813d 228b a4bd f2c7 8f3c 1c46 223d
000003c0: ace1 313d 5f6f cf3b 1b6a f43c 6779 1e3d
000003d0: fec4 253d 4f3a e13c a8f2 cabd 57d9 e9bd
000003e0: f1b0 883c 91d8 063d d08b 503d 0767 9b3c
000003f0: 28db 273d 080b 803d 3369 783d 1f52 47bd

action_model._discrete_distribution.branches.0.bias f4 [3]
0.004651547 0.01819927 -0.058893453
00000000: 016c 983b a316 953c 433a 71bd

action_model._discrete_distribution.branches.1.weight f4 [3, 128]
0.0488966 0.038727578 -0.10091773 0.10552562 -0.12881145 0.03384613 0.016358824 0.019316304
0.07663266 -0.08186583 -0.111864105 0.02947417 0.055153284 0.06772786 0.05824098 -0.004562867
0.035262436 0.05796714 -0.092681535 -0.051789008 0.042974558 -0.14577608 -0.1278685 0.026311012
0.017396588 0.03559518 -0.08172573 0.017768059 -0.049062036 -0.028752321 0.03496374 -0.0076637175
0.041794807 0.059074644 -0.16669708 -0.06370684 0.034423802 0.028302778 -0.0068633333 -0.034610562
-0.06028869 -0.06578884 -0.053785298 -0.06440671 -0.007374564 -0.09599121 0.052738365 0.043804854
0.05147954 0.009199776 -0.06027198 -0.03602393 0.09494103 0.03353493 0.050147034 0.019809136
0.033078127 0.034887172 -0.1356569 0.04201791 0.053918373 -0.019644335 -0.1151285 -0.049914084
0.053681813 -0.02800392 0.036984995 0.017607749 0.04002598 -0.03455935 0.0028064835 0.030888185
0.091370516 -0.00010158179 0.06951121 -0.059747096 0.024388585 -0.063991345 0.036694337 -0.071221225
-0.02293436 -0.0622316 -0.043227047 -0.049204316 -0.05012522 0.02044239 0.040289108 0.041509885
-0.06805857 0.015741803 0.03479398 -0.02621949 0.042644028 -0.024012813 0.019536262 0.05826915
-0.015815794 0.007004469 -0.028692175 0.03766415 0.013403285 0.07030259 0.07282801 -0.03051148
-0.027141474 0.019513464 0.050584085 0.01380634 0.0137730995 -0.076078825 -0.0019350749 0.03317538
0.02333872 -0.16544755 0.03192882 0.0067287995 0.032799453 0.049040336 0.010189529 0.076703854
0.055155214 0.035375964 -0.05316642 0.03484089 0.0011701762 0.023157319 0.0352754 -0.002861643
-0.048562594 0.06386844 0.04547972 -0.15118013 0.07980083 -0.01775282 0.005795846 0.0060714865
-0.021674206 -0.024626452 0.02253948 -0.025034565 -0.01875444 -0.097995855 -0.03877711 0.09339003
-0.048358954 -0.10682568 0.006356438 0.12779802 -0.00057227374 0.11368485 0.105846584 -0.11178218
-0.09397759 -0.04056591 -0.044950344 -0.0012610145 0.05838473 0.031718392 0.03491592 0.024677802
-0.09779933 -0.04807579 0.11063612 0.08517467 -0.016021647 0.001992851 -0.072361715 0.11748646
0.016252637 0.0046774964 0.15862466 0.11607303 -0.081083626 0.031477574 0.009363901 -0.10920473
-0.03786104 -0.059001442 0.04609853 -0.06938445 -0.10263458 -0.010716664 -0.123438045 -0.03715777
-0.0092904195 0.0068722274 0.042381607 0.0119375335 -0.07308465 -0.07549534 0.106620185 0.014814396
-0.02475718 0.05615416 -0.03888984 0.03567411 -0.022496272 -0.040525388 -0.09460143 0.0061451336
-0.16455016 -0.0657382 -0.18995282 0.07488327 -0.03599455 0.04656414 -0.05133612 0.05055356
0.053179648 -0.032961186 -0.08837766 -0.03833703 0.017141026 -0.05704957 0.0077614575 0.036857355
0.13613705 0.12974747 -0.021996573 -0.08353475 -0.003866614 -0.13268153 -0.017668733 -0.08824286
-0.029069552 0.069221176 -0.028754253 0.020434154 -0.004720513 -0.11674921 -0.06347103 -0.05724347
0.044585973 0.039924826 -0.025654562 0.028629314 0.041230492 0.06371536 -0.1414186 0.007468611
0.024389869 0.12174498 -0.055553164 -0.0013077942 0.020372026 -0.021708652 -0.042887565 -0.10064438
-0.038736623 -0.039599407 0.0021809102 -0.03891158 0.008268653 -0.034736767 0.03193294 -0.09115165
00000000: cd47 483d cfa0 1e3d f4ad cebd d11d d83d
00000010: 26e7 03be 3da2 0a3d f102 863c 3a3d 9e3c
00000020: 96f1 9c3d 46a9 a7bd 0219 e5bd d173 f13c
00000030: 69e8 613d e7b4 8a3d 188e 6e3d 1a84 95bb
00000040: 586f 103d f46e 6d3d d1cf bdbd b620 54bd
00000050: 1706 303d 5346 15be f6ef 02be 318a d73c
00000060: 4a83 8e3c 40cc 113d d25f a7bd 528e 913c
00000070: 46f5 48bd fd89 ebbc 2336 0f3d ec1f fbbb
00000080: 0831 2b3d 41f8 713d a4b2 2abe bb78 82bd
00000090: f9ff 0c3d 3adb e73c d0e5 e0bb cec3 0dbd
000000a0: 46f1 76bd 4dbc 86bd f94d 5cbd aae7 83bd
000000b0: 54a6 f1bb 0a97 c4bd 2f04 583d b86c 333d
000000c0: 36dc 523d a8ba 163c c0df 76bd d48d 13bd
000000d0: 7170 c23d ec5b 093d fa66 4d3d c546 a23c
000000e0: ee7c 073d dae5 0e3d a4e9 0abe f91a 2c3d
000000f0: 83d9 5c3d 28ed a0bc 7ec8 ebbd b672 4cbd
00000100: 76e1 5b3d 7a68 e5bc 947d 173d 203e 903c
00000110: 48f2 233d 1b8e 0dbd fbec 373b 3809 fd3c
00000120: 7720 bb3d 4f08 d5b8 e55b 8e3d 5fb9 74bd
00000130: 92ca c73c e50d 83bd cd4c 163d 6fdc 91bd
00000140: d7e0 bbbc 90e6 7ebd d80e 31bd 778a 49bd
00000150: 1a50 4dbd cd76 a73c 3106 253d 4506 2a3d
00000160: 4b62 8bbd f4f4 803c 2284 0e3d 42ca d6bc
00000170: 81ab 2e3d 85b6 c4bc 830a a03c a2ab 6e3d
00000180: 2090 81bc bf85 e53b da0b ebbc b945 1a3d
00000190: 7499 5b3c cefa 8f3d da26 953d 36f3 f9bc
000001a0: cc57 debc b3da 9f3c 4231 4f3d fd33 623c
000001b0: 91a8 613c 37cf 9bbd 57a2 fdba e8e2 073d
000001c0: d830 bf3c 156b 29be cbc7 023d 437d dc3b
000001d0: b858 063d 85de 483d fbf1 263c e916 9d3d
000001e0: 6fea 613d 63e6 103d 08c5 59bd 52b5 0e3d
000001f0: 9960 993a 6bb4 bd3c f07c 103d 678a 3bbb
00000200: 92e9 46bd 75cd 823d f148 3a3d f7ce 1abe
00000210: 9e6e a33d 5d6e 91bc 15eb bd3b 52f3 c63b
00000220: 1b8e b1bc 6abd c9bc b7a4 b83c 4a15 cdbc
00000230: e9a2 99bc 0db2 c8bd bfd4 1ebd 4643 bf3d
00000240: 0a14 46bd 6cc7 dabd ab49 d03b 7cdd 023e
00000250: a404 16ba 9ad3 e83d 18c6 d83d 0eee e4bd
00000260: 5377 c0bd 7128 26bd da1d 38bd a048 a5ba
00000270: d424 6f3d 25eb 013d ff03 0f3d 1a29 ca3c
00000280: 044b c8bd 1feb 44bd 3195 e23d 0f70 ae3d
00000290: d43f 83bc 7e9a 023b 6132 94bd be9c f03d
000002a0: 4024 853c af45 993b 816e 223e b2b7 ed3d
000002b0: 2c0f a6bd a1ee 003d 0c6b 193c bba6 dfbd
000002c0: 2e14 1bbd 7fab 71bd d0d1 3c3d 6f19 8ebd
000002d0: 1432 d2bd f294 2fbc 16cd fcbd bf32 18bd
000002e0: d836 18bc 6c30 e13b 5698 2d3d a595 433c
000002f0: 68ad 95bd 4d9d 9abd af5b da3d 15b8 723c
00000300: 92cf cabc e801 663d f44a 1fbd 041f 123d
00000310: 1a4a b8bc f3fd 25bd 65be c1bd 1e5d c93b
00000320: d67f 28be c0a1 86bd fe82 42be 665c 993d
00000330: 056f 13bd 0aba 3e3d d345 52bd 4011 4f3d
00000340: e7d2 593d 4f02 07bd 59ff b4bd 4a07 1dbd
00000350: 566b 8c3c cfac 69bd d353 fe3b bdf7 163d
00000360: 8367 0b3e 85dc 043e 2832 b4bc 4414 abbd
00000370: 0567 7dbb abdd 07be 05be 90bc acb8 b4bd
00000380: 4523 eebc d5c3 8d3d 0a8e ebbc 8765 a73c
00000390: 88ae 9abb 361a efbd 19fd 81bd 2178 6abd
000003a0: c89f 363d 3788 233d 8429 d2bc 0688 ea3c
000003b0: 4ee1 283d 337d 823d 0ad0 10be 40bb f43b
000003c0: 43cd c73c 6f55 f93d b78b 63bd 4b6a abba
000003d0: 3ce3 a63c 58d6 b1bc dfaa 2fbd a41e cebd
000003e0: 4baa 1ebd fd32 22bd 9aed 0e3b c061 1fbd
000003f0: 3f79 073c 2448 0ebd 1dcc 023d b7ad babd

action_model._discrete_distribution.branches.1.bias f4 [3]
0.021882096 -0.022157071 -0.010361217
00000000: 1542 b33c bf82 b5bc 18c2 29bc
